models/embeding_models/embeding_v4_32_dim.pt (torch, 355536 bytes, 6 tensors)

weight f4 [256, 47]
00000000: 0d81 023e df22 c03d 1092 0abe 47bc acbd
00000010: 65f2 d5bd 4cb7 8cbc b5ad 733d 67c8 e8bd
00000020: 4a45 4e3d 3d81 c03c 5725 183d f539 e53b
00000030: aa84 88bd ee15 a53d 0c25 aebc bf8a 0b3d
00000040: b823 af3d 5354 403c 65f0 183e 1d8e 6fbd
00000050: 3dd3 51be 8224 d23d 4dfa cf3c e888 ad3d
00000060: 1471 c3bd 5321 cb3d 16fa ce3d 9494 153e
00000070: 968d d6bc 65e5 f83d c545 d43d 1c76 43be
00000080: c9d1 0ebd 1e06 073e 145d d73d 9c57 ce3c
00000090: c6e7 09bc 6eac 8f3d ffb8 cebd 305f ce3c
000000a0: 0d52 20be 230f a93d f89c 0abd 89fd 543b
000000b0: 813e 9d3c 601e ef3d cb72 0d3e 783e b0bd
000000c0: fd6c f53b 932d 08bd 4252 aa3c b0a9 93bd
000000d0: ff55 bd3d d9ed 0bbe 93cb 1cbd e476 26be
000000e0: c81b 083d 0d58 2bbe 26ba 053d 0120 babd
000000f0: 04da 21be 15a5 f4bd d952 4ab9 6c49 71bc
00000100: ea76 b7bd 1a6e 9cbc f93c 233d 0e15 9cbc
00000110: 1296 5e3d 9cdf f7bd 3f0a 27be 94f2 fcbd
00000120: 4f61 a2bd 3812 b0bc c0c0 f5bd 082f 5a3c
00000130: 959c 7a3d cef9 12bc 8cd1 a03d 2eb1 b03d
00000140: ed1c bc3d dc3d 593c c208 26be 7dbf a9bc
00000150: b1cc 9e3d fb8f 43be 88d9 7e3d 2529 fbbb
00000160: 104c 563d 3fd1 e2bd 5d0f 0abe 87bb c6bd
00000170: b6a8 c33d 9a8d 523d a54e 823d 0a23 b6bd
00000180: a419 32bc 5e4d 5fbe 5aca 813c 6f98 c9bd
00000190: ab97 033d 483a 243d 29a6 54be a2aa 2ebe
000001a0: 9b73 14be 51c5 13be 850d 0cbe 1798 4fbd
000001b0: fe9e 833d d8a1 e9bb c4d5 45bc a128 d8bd
000001c0: d6a8 d2bc f62f 5abc 688d d33c fc08 2ebd
000001d0: c73d bc3c c5a1 35be fbcf cdbd 1125 c8bd
000001e0: 5395 35be 02cf 27bc 98f7 e1bd 5cc8 babd
000001f0: 1df4 93bd 04e0 efbd 284e 103d 0eed 06bd
00000200: 8d1e 97bd 57a0 cdbd 6b4f 16be 4ce4 4dbc
00000210: 8247 24be b602 ad3d e28c 523d dae0 563c
00000220: 7385 6a3d 77d5 8b3c 23de 5abd 3ff1 75bd
00000230: 2154 37be 5b96 33be e456 b3bd da71 1dbe
00000240: 63ef 833d 92e4 fa3d 7d74 15be 4b32 92bd
00000250: 3d34 ae3d 619f c3bd a45e 993c d20b 0ebd
00000260: 5dd0 893d 0537 1dbd 1bff 563d 4560 00be
00000270: 75b2 3cbd b908 a2bd eb9a e7bd 360f 1c3e
00000280: be32 b6bd 7141 cabd 2113 cdbd 1efc 783d
00000290: 488b 033c 9d3b 85bd ca1b 52be 4098 743c
000002a0: efc4 283d 63b4 6c3d 6498 17be 6fe6 a33e
000002b0: cc6a fb3d 9604 0e3e ce39 c0bd 67a0 00bb
000002c0: e6c7 4bbe 1b6f 80be 85cc f73d 1e08 d9bc
000002d0: 0ce7 ce3c c4ed fb3d 538a 2bbc 6920 88be
000002e0: 3306 28bd 441c ca3b 23ba a2bd 7fa1 27bd
000002f0: 436f ed3d c816 fc3c 0d78 833d beb9 893d
00000300: 0914 aa3d 4d9b 20bd 8507 16be 754f 913d
00000310: 5c46 4f3b 79d2 7d3d 24f6 59bd ed58 1abd
00000320: f1f2 d03d f80d 0d3e dd08 433d 9aa5 383e
00000330: 9df4 69bd f596 57bd e561 3cbe 949e 3d3d
00000340: b699 c53b 8142 f5bc dc9e 1abd dfaf 98bc
00000350: e720 073e dc79 f03b cc1f 8cbc 33a8 d8bd
00000360: d7ec 6d3d f032 95bc cdc6 4a3d d078 43bc
00000370: a2ac ab3d 5633 e8bc 3be0 973d cf07 e0ba
00000380: 9943 a3bd 3cc2 7bbc c669 593c cc6a 9b3a
00000390: ab30 a63c 6aee b6bd 6015 9ebd c195 8e3d
000003a0: 47cd 07bd 7413 9c3d a956 a9bd 1637 eb3d
000003b0: b436 81bc 3e19 b5bd 8471 7c3d 8783 a33c
000003c0: 4cfb d73c f141 1e3d 8b75 b63d 67cc 3d3d
000003d0: ab27 b83d 43ff 083d b8c0 773d c969 ca3d
000003e0: 0343 22bd a8c6 073d 829c 23be e5c1 00be
000003f0: e8bf c73c a1d8 b4bd b7e8 38bd d58c 5abc
0.12744541 0.09381651 -0.13532281 -0.084343486 -0.10446624 -0.017177247 0.05949183 -0.11366349
0.050359048 0.023499126 0.037144985 0.0069954344 -0.06665929 0.080608234 -0.0212579 0.034067865
0.08551735 0.011738854 0.14935453 -0.05848514 -0.20490737 0.102608696 0.025387907 0.084733784
-0.09543052 0.099184655 0.10106294 0.1460746 -0.02619056 0.121531285 0.1036487 -0.19088024
-0.034868035 0.13185927 0.105158 0.02518826 -0.0084170755 0.0701531 -0.10093879 0.025191873
-0.156563 0.0825484 -0.033841103 0.0032499752 0.019194843 0.116757154 0.13813321 -0.08605665
0.007489799 -0.033246588 0.020791177 -0.072101 0.09244918 -0.1366495 -0.03828008 -0.1625629
0.03322962 -0.16732807 0.032648228 -0.090881355 -0.15805823 -0.119455494 -0.00019295084 -0.014726978
-0.08958228 -0.01909547 0.03985307 -0.019053008 0.054342337 -0.12103197 -0.16312502 -0.123509556
-0.079287164 -0.021493062 -0.11999655 0.013316877 0.061184485 -0.008970691 0.07852468 0.08627544
0.09185205 0.013259377 -0.16214278 -0.020721192 0.077538855 -0.19097893 0.062219173 -0.007664817
0.052318633 -0.11075067 -0.13482423 -0.09703737 0.095536634 0.051404573 0.063626565 -0.08893402
-0.010870371 -0.21806857 0.015843559 -0.098435275 0.032127064 0.040094644 -0.2076651 -0.17057279
-0.14497225 -0.14430739 -0.13677032 -0.050682154 0.0642681 -0.007129889 -0.0120748915 -0.10554624
-0.025715273 -0.013317099 0.025824264 -0.042489037 0.022978676 -0.17737491 -0.10049435 -0.09772695
-0.17732744 -0.010242226 -0.11033553 -0.09120247 -0.07224295 -0.117126495 0.035230786 -0.032940917
-0.07378874 -0.10040348 -0.14678733 -0.012566637 -0.16042903 0.08447783 0.051403888 0.013115132
0.057256173 0.017069561 -0.053434502 -0.060044523 -0.17903186 -0.17537825 -0.087568074 -0.15375462
0.06442144 0.122506276 -0.14595218 -0.07138499 0.085060574 -0.095518835 0.018721886 -0.03467924
0.06729195 -0.03838255 0.05248938 -0.12536724 -0.046068627 -0.0791182 -0.11308845 0.15240178
-0.08896397 -0.09875763 -0.10013414 0.060787313 0.008028813 -0.06505511 -0.20518413 0.014928877
0.041203436 0.057789218 -0.14804226 0.32011744 0.12276229 0.13868937 -0.09386025 -0.0019626857
-0.19900474 -0.25084767 0.12099556 -0.026493128 0.025256656 0.123012096 -0.010469991 -0.26587227
-0.041021537 0.0061679203 -0.07945659 -0.0409255 0.11593487 0.030772582 0.06419382 0.06724881
0.08304603 -0.039210606 -0.14651306 0.07095233 0.003162763 0.0619683 -0.053213254 -0.037682462
0.102025874 0.1377486 0.047615875 0.18031922 -0.057118047 -0.0526342 -0.18396719 0.04629381
0.0060302867 -0.029938938 -0.037749156 -0.01863855 0.13196145 0.0073387455 -0.017105006 -0.105789565
0.058087196 -0.018212765 0.049505997 -0.011930659 0.083825365 -0.028344791 0.074158154 -0.0017092171
-0.079718776 -0.015366133 0.013269847 0.001185739 0.020286879 -0.089321926 -0.07718921 0.06962157
-0.033154752 0.07620898 -0.08268482 0.11485116 -0.015773155 -0.08842705 0.061631694 0.019960178
0.026364945 0.038637105 0.08909138 0.04633751 0.08991941 0.03344656 0.060486525 0.09883458
-0.03961469 0.033148438 -0.15977672 -0.12573965 0.0243835 -0.08830381 -0.04514381 -0.013339241

bias f4 [256]
00000000: 10eb 93bd f231 58bd 1afa 413c 41e7 20be
00000010: a163 9d3d 2919 bdbd 2041 d9bd 3f8b ac3d
00000020: f287 533d d75a febd 1d86 a63d d650 ac3d
00000030: f901 2abe 90d8 2c3d 263a 473d 4a86 a73c
00000040: 038a ba3d ee83 a7bd be9b 90bd 52fc 0f3e
00000050: 9b6f 48be 8e44 973c 4647 693d c389 883d
00000060: fe23 c9bd 1ae2 46be fe68 1dbe 6704 1cbe
00000070: 24e7 133d 0ce8 21be f44c e9bd 7770 c1bc
00000080: a180 47be ce3f 88bd d579 45be 5473 823c
00000090: bcdc fcbd 89c6 cdbd 62c5 ffbd 6482 abbc
000000a0: 47eb c7ba d1fa 933d 516f a13d d52c 20be
000000b0: 96d1 2fbe f8d3 163d f001 09be abe6 723c
000000c0: 9573 e83c 344c 143d f94d 503d 3904 e43d
000000d0: 95ae fabc e293 f93c 214b 0cbe 91d6 cfbd
000000e0: 7f6e 633b 8395 733d f904 3b3c ff46 46bd
000000f0: f914 a4bc e815 48be 1b08 0bbe 2495 5c3d
00000100: 5722 24be 5dda 70bd 42d0 cebd 2353 b73c
00000110: c02f 53be dfc6 8cbd 7aee 67bd 8f1c 973b
00000120: 08af 8bbd 71b9 77bd b7da deba 864c 34bd
00000130: 7ed1 73bd 2237 853d e625 2ebd fe6e 8ebd
00000140: d620 d6bd 8687 3cbe 1efc 943c 1bdb a53d
00000150: fe4a 9f3d 6137 843d eebf b9bd abb5 89bd
00000160: 06bd 35be 8b7c 83bd 1815 9e3d eba7 813d
00000170: 294e 2e3d 934e 4cbd a55f e63c d751 1dbd
00000180: 008c e0bd 598a 40bd 858e 12bd 68ea b2bd
00000190: e224 a73d 9142 1c3d b509 11be 727e e33c
000001a0: 2b33 07be a309 2ebd eebb fdbc cd03 433d
000001b0: 500e a8bd 73af 323d 2232 3dbe 8600 c5bc
000001c0: 84ef ee3d c775 f6bd 253e 473d b81c d23d
000001d0: 6155 02be ed50 b9bc 857a 273d a58a 923d
000001e0: cc38 1fbe cfca 233d 89e1 c4bc 4d4e dabd
000001f0: 443a 0dbe 7523 c43d ea4d 9c3d 2407 1fbe
00000200: 5d1c 6fbd 3aba 1fbe 11fa 1dbd 1efa 0cbe
00000210: e20c 3dbe cfee ebbc effe c0bd 5132 c6bd
00000220: 5f31 5f3d c44c 3e3d 1c94 5c3c f67b d2bd
00000230: 1567 e8bc 77f5 fbbc 51e0 713d 755a bbbd
00000240: 4289 6d3d fb36 08be 86e3 f6bd 3cb7 20bd
00000250: bf3a 173d 3981 473d 792f 1cbe 6761 c3bd
00000260: b6d1 11be 7a78 9abc 584d 353e e48e cb3d
00000270: 77d3 953d d55b febd b4b5 a1bd 6762 053e
00000280: 96d5 76bd 5afe af3d 83c7 dc3c 2995 81bc
00000290: 0853 c5bd ca50 ce3d 58a0 ddbd 1a4c 323d
000002a0: 425f 76bd 8533 13be 8741 b73c ef3a 2dbe
000002b0: c4df 81bd c658 7d3d 29dc a73c f321 0bbe
000002c0: 4313 3c3d 101d eb3d 00ea e5bd bd2d 96bd
000002d0: 839b 9bbd b604 953d b573 b73d ce57 9c3d
000002e0: 81ed c13d 5454 b03c a955 bb3d 3d63 a53d
000002f0: 1365 44bd 4de9 9cbd 3605 323d f926 ce3d
00000300: 0943 063e 4c66 67bd 52eb 96bc aff6 c03d
00000310: 8672 a1ba 227f aa3d 1845 d4bd 2963 553d
00000320: bdcd bbbd ec8a 28be b78c b9bd b8cf f6bd
00000330: e008 0fbe a035 3b3d f40a 3ebd 0543 b43d
00000340: 5866 b8bc f705 f93d 4b02 ccbd 7500 50bc
00000350: a4f0 13be 043f 16bd e4f8 d3bc 2f2b b93d
00000360: 6832 603d 830c fbbd 7fa9 47bc 57e2 8fbd
00000370: b8ed e0bd 1f85 95bc aa67 3fbd b038 42be
00000380: b783 a9bd ea8b b8bd 323a 1f3c 3ce5 e0bd
00000390: 5cec 103d cb71 babc ed76 f2bd e8e3 a13c
000003a0: 6917 15bd 148b d43d 5aa3 17be 17c3 67bd
000003b0: 9a2f a2bd 004b 9b3b 9e62 2bbe 4111 7cbd
000003c0: e312 cb3d 7395 01be 4b19 ac3d 02f3 243c
000003d0: cf39 20be b9d4 09be dba0 22bd a4cd f53d
000003e0: 082e 963c 9c0b eabc f171 31bd d807 69bd
000003f0: a7d6 c3bd fad7 0d3d 4677 3a3d e60d e23c
-0.07222569 -0.052782007 0.011839414 -0.15713216 0.07685018 -0.092333145 -0.10608125 0.084249966
0.05164332 -0.1241967 0.08131049 0.08413856 -0.16602315 0.042198718 0.04863944 0.020449776
0.09108355 -0.081794605 -0.070609555 0.14061096 -0.19573824 0.018465307 0.056952737 0.06666901
-0.09821318 -0.19422188 -0.15372083 -0.15236054 0.036109105 -0.15811175 -0.11391631 -0.023613198
-0.19482662 -0.06652795 -0.19284756 0.015924133 -0.12346789 -0.10047633 -0.1248882 -0.020936199
-0.0015252613 0.07225574 0.0788256 -0.15642102 -0.17169794 0.036823243 -0.13379645 0.014825503
0.028375426 0.036205485 0.05085561 0.11133618 -0.030600825 0.030466024 -0.13700534 -0.10148347
0.0034703312 0.059468757 0.01141476 -0.04840755 -0.020029532 -0.19539607 -0.1357731 0.05385317
-0.16028725 -0.058801997 -0.10098316 0.02237851 -0.20623684 -0.06873869 -0.056623913 0.0046115587
-0.06820494 -0.060479585 -0.0017002438 -0.04401829 -0.05952596 0.065046564 -0.04251661 -0.06954764
-0.10455482 -0.18411073 0.018186625 0.08098432 0.077779755 0.06455875 -0.09069811 -0.067241035
-0.17747888 -0.06420239 0.07718867 0.06330856 0.042555008 -0.04987962 0.028121779 -0.038408127
-0.10964203 -0.04700694 -0.03578045 -0.08736116 0.08161332 0.03814942 -0.14163859 0.027770255
-0.13203113 -0.04248966 -0.0309734 0.047611047 -0.08205855 0.043624353 -0.18476155 -0.024048101
0.11666778 -0.12034183 0.04864325 0.10259384 -0.12727882 -0.022621596 0.040888328 0.071553506
-0.1554901 0.039988335 -0.024033325 -0.10659466 -0.13791758 0.095770754 0.076320484 -0.15530068
-0.05837666 -0.15598384 -0.03856856 -0.13767287 -0.18461946 -0.028800396 -0.09423625 -0.09677566
0.054490443 0.04645993 0.013463046 -0.1027755 -0.028369466 -0.030756695 0.059051815 -0.09148113
0.057992227 -0.13302223 -0.120551154 -0.039237246 0.03692126 0.04870722 -0.15252484 -0.095400624
-0.14240155 -0.018856276 0.17705286 0.099393636 0.07315724 -0.12419859 -0.07895985 0.13025819
-0.060262285 0.085934356 0.026950603 -0.015818195 -0.096349776 0.10074003 -0.10821599 0.043529607
-0.06014944 -0.14375122 0.022370113 -0.16917013 -0.06341508 0.06185224 0.020490723 -0.1358717
0.045916807 0.114801526 -0.112262726 -0.07332943 -0.07598021 0.07276289 0.08957616 0.07633935
0.094691284 0.021524586 0.09147198 0.08075569 -0.047947954 -0.07661686 0.043462 0.10066027
0.1311151 -0.056494042 -0.018422756 0.09422051 -0.0012317456 0.0832503 -0.10364741 0.05209652
-0.09170101 -0.16459244 -0.09060042 -0.12051338 -0.1396823 0.045705438 -0.046397164 0.088018455
-0.022509739 0.12159341 -0.09961375 -0.012695421 -0.14447266 -0.03668119 -0.025875516 0.0904144
0.05473557 -0.12258246 -0.012186407 -0.07025593 -0.10982841 -0.018251954 -0.04672972 -0.18966937
-0.08277076 -0.090110615 0.009718465 -0.10981223 0.03538166 -0.022759339 -0.118390895 0.019761994
-0.03639928 0.103780895 -0.14808407 -0.056582537 -0.079192355 0.0047391653 -0.16736838 -0.061539892
0.09915712 -0.12654667 0.08403262 0.010067703 -0.15647052 -0.13460054 -0.039704185 0.120021135
0.018332496 -0.028569989 -0.043321554 -0.056892246 -0.09562426 0.0346298 0.045523904 0.027594518

weight f4 [256, 256]
00000000: 7d65 aebc 5b15 5fbd 4be1 653c 0850 50bc
00000010: 52ba 74bd b0b9 77bd ce58 b93c 46ba f1bc
00000020: f8df 403c cfea 08bd 7aeb b2ba 73a9 983c
00000030: f548 84bd 7e70 0cbc ef16 c7bc f0b0 bfbd
00000040: 368f 713c 346a 16bc c20b 29bd 53ff cabd
00000050: e282 06bd 9463 4bbb 115d babc d115 d0bd
00000060: c783 113c 409e febc 6954 cbbc e208 f7bc
00000070: 73eb 86bb 80b4 e4bc 6a3f 94bd 7e9d 903b
00000080: 2982 02bd b889 07bd d9b6 6d3c 7017 b23c
00000090: 5fb6 1b3b 7314 a63a 9807 18bc 4eba 89bd
000000a0: 2350 aa3c a452 37bd b208 97b9 022d 9cbd
000000b0: 1eac 97bd ea21 e2bc 79b8 b9bd 02b9 68bd
000000c0: 06e7 b3bd dd11 28bd d945 a0bd 2423 a4bc
000000d0: ccce d5bc f8cf 923b 707b a3bd cf30 f8ba
000000e0: cc4a 313c 5713 11bd e28c b0bd f260 81bd
000000f0: 1716 66bc eb68 0fbd a83c 9ebd 4951 53bd
00000100: aede b1bd 405e 32bd 57a2 7abd 4aca e7bb
00000110: 3240 61bd 51fb 5fbd 8574 90bd 27cf 673c
00000120: 5b41 93bc ff84 903c a429 cebc d153 d3bc
00000130: 8a37 c2bd e884 cabd d227 bcbc 9113 3cbd
00000140: 46dc a6bd 66c7 7337 a067 16bd b7a2 aebd
00000150: 1597 b53b 9051 a8bd 0e13 bbbd 44f0 343c
00000160: 3e29 a5bc 30a1 8a3c 2a1b 9cbd 1d09 85bd
00000170: f19c 8ebd 6d87 b6bd 9818 1dbd aec9 d0bc
00000180: 44fc a2bd 89a8 c0bd 57b6 37bd 6a2e 21bb
00000190: f79a 95ba 730f e7bc 36d6 0a3a b1f6 83bd
000001a0: 35ac 42bc cce7 01bd 9838 09bd a064 9d3c
000001b0: ddb7 baba 096a 93bd 061d 16bc 5fb5 ebbc
000001c0: ad78 a8bd 652f a7bd 5043 92bb 2a62 b4bd
000001d0: d3d7 9fbc 7c03 76ba 98a1 adbd c7ea a23c
000001e0: 03a2 21bc e61c 14bd 1ab6 b4bd e618 96bd
000001f0: 97d8 2cbd f8e2 7e3b 31f8 3bbd 44be 95bc
00000200: d3ed cdbd 87ca 24bd d471 3ebd d2e8 82bd
00000210: b5c3 99bd 5bf4 67bd e239 653a 2f5f 1dbd
00000220: c169 0b3c 42e2 ddbc 4602 b9bd 7605 cbbd
00000230: 31b3 17bd 2bb0 20bd dbf9 a7bd a485 afbd
00000240: 48de 28bd fee6 c6bd c66a 603c d9a4 70bd
00000250: 58e7 6f3a 3f3d 2ebc 1307 8dba ac73 7fbc
00000260: 0877 37bd da39 44bd 58dd 313d a25f dcbc
00000270: ac8c b7bc e3c8 19bd bf19 0bbd 5692 193c
00000280: 4be4 46bc 79a6 bdbd 57a1 633c 7740 7fbd
00000290: 44dd 50ba 2a5a 1dbd 4396 23bd ef4f cebd
000002a0: d795 96bd 56d8 ad3c b8bb c2bc c6fd ccbd
000002b0: 1684 59bd a0fc 87bb 948d c33b 454d 8fbd
000002c0: a597 4dbc 4572 b0bd 38e5 2bbd edfa e03b
000002d0: 9ab6 203c 254f 6cbd 8aa5 81bd 8d0b c4bd
000002e0: 05fb 0dbd 7cf5 ffbc fdae 013c 6cdc d4bc
000002f0: d780 2fbd 0388 a2bd cdc2 9fbd cc6a cdbd
00000300: 7869 7abc cde5 b5bc 84f2 a9bd 99af 60bd
00000310: 7991 afbc b079 52bc b4c3 84bd 4770 e0bc
00000320: 111b 4ebd 7a41 9f3c 0856 7f3c 1029 8fbd
00000330: 2591 82bd 2149 c6bd 3d17 dfbc d261 b4bc
00000340: 0771 e2b8 2fa8 abbc e6c1 b6bd 4b23 acbd
00000350: 5e24 0b3c bb3c 71bd 53e6 5b3b cf41 b9bc
00000360: fa8c 66bd 5517 bdbd 3902 36bd 291d 3fbc
00000370: e667 e6ba d480 79bd 8e5d a73c c8fb d63a
00000380: 7d26 63bd 0535 1dbd 67a4 fabb 44e4 b6bc
00000390: 3681 b0bd 801b b63c 7a51 90bc 6e63 f5bc
000003a0: 84a2 1abd 6401 a0bd d6f2 bfbd 1aba 83bd
000003b0: 73a5 75bd 3f6f 6abc b228 0ebc 42c9 58bd
000003c0: 375b c0bd 8e8b 543c 32f5 e5bc 1e78 9ebc
000003d0: e198 d83b 11b6 95bd b5bd acbc 0a8f a8bd
000003e0: be00 35bc 199d bcbd 7e4f 6e3d d2d1 b4bb
000003f0: 2973 9c3b ac4c bbbd 22bc febb fdf7 63bd
-0.021288628 -0.054463726 0.014030765 -0.012714393 -0.059748 -0.06047982 0.022625353 -0.029507767
0.011772148 -0.033427056 -0.00136505 0.018635487 -0.06459228 -0.008571742 -0.024302928 -0.0935992
0.014743617 -0.009180594 -0.04127098 -0.099119805 -0.032839663 -0.0031034695 -0.022749456 -0.10160411
0.008881516 -0.031081319 -0.024820523 -0.030155603 -0.004117423 -0.0279181 -0.07238658 0.004413306
-0.03186241 -0.033090323 0.014508926 0.021739691 0.0023759825 0.0012670889 -0.009279154 -0.06724988
0.020790165 -0.044756547 -0.00028807443 -0.07625772 -0.074058756 -0.027604062 -0.090683885 -0.056817062
-0.087842986 -0.04103266 -0.078258224 -0.020036288 -0.026099585 0.004480358 -0.07982528 -0.0018935445
0.010821056 -0.035418835 -0.08620621 -0.06317319 -0.014043353 -0.035012167 -0.07726413 -0.05159119
-0.08685051 -0.043546915 -0.061189976 -0.0070736753 -0.054992862 -0.054683033 -0.07053474 0.01414851
-0.0179755 0.017641542 -0.02516634 -0.025796803 -0.094832495 -0.09888631 -0.022968207 -0.045917097
-0.081474826 1.4530355e-05 -0.03671992 -0.08527129 0.005541692 -0.08218682 -0.09134494 0.011043612
-0.020161267 0.016922563 -0.07622369 -0.06495879 -0.06963528 -0.08912549 -0.038353533 -0.025486793
-0.07958272 -0.094071455 -0.044851627 -0.0024594315 -0.0011413981 -0.028205609 0.0005296202 -0.06443537
-0.011881878 -0.0317152 -0.033501238 0.01921302 -0.0014245469 -0.07197959 -0.009162193 -0.028773008
-0.08226142 -0.08163337 -0.0044635907 -0.08807786 -0.019512093 -0.00093846745 -0.08478087 0.019887341
-0.009865287 -0.036160372 -0.088237956 -0.07328968 -0.042198744 0.0038892608 -0.04589099 -0.018279202
-0.10055127 -0.040232208 -0.046495274 -0.06392063 -0.07508031 -0.05662952 0.0008744282 -0.038420852
0.0085091 -0.027085427 -0.09033637 -0.09913151 -0.037036125 -0.039230507 -0.08201953 -0.08570412
-0.04122761 -0.09712027 0.013697332 -0.05875096 0.00091515994 -0.010634719 -0.0010759555 -0.015591543
-0.04479125 -0.047906734 0.04342398 -0.02690107 -0.022405945 -0.037545096 -0.0339601 0.009373268
-0.01213939 -0.09260268 0.013893447 -0.062317338 -0.00079675415 -0.038416065 -0.039938223 -0.1007384
-0.073527984 0.021221321 -0.023771152 -0.10009341 -0.053104483 -0.0041499883 0.005967805 -0.0699716
-0.012548362 -0.08615545 -0.041966647 0.00686585 0.009809161 -0.057692666 -0.06330402 -0.09572516
-0.03466322 -0.031244986 0.007915256 -0.025984012 -0.04284748 -0.079360984 -0.07800827 -0.100301355
-0.015283935 -0.022204304 -0.08298209 -0.054854963 -0.021431671 -0.012846395 -0.0648264 -0.027397288
-0.05031878 0.019440401 0.015584476 -0.06990254 -0.0637534 -0.09681917 -0.02723276 -0.0220193
-0.00010797573 -0.02095422 -0.08923702 -0.08405169 0.008492557 -0.058895808 0.0033554032 -0.022614388
-0.05628679 -0.09232966 -0.044435713 -0.011664667 -0.0017578572 -0.060913876 0.020430353 0.0016401941
-0.055456627 -0.03838064 -0.007648993 -0.022325642 -0.08618395 0.02222991 -0.017616976 -0.029954638
-0.037752643 -0.07812765 -0.09372489 -0.064319804 -0.059972238 -0.01430875 -0.008676695 -0.05292631
-0.09392398 0.012972726 -0.02807102 -0.019344386 0.0066100215 -0.07310117 -0.021086553 -0.082304075
-0.01104754 -0.092096515 0.05818128 -0.0055181766 0.0047744703 -0.091454834 -0.007773892 -0.055656422

bias f4 [256]
00000000: 2381 30bd a76c c6bd aa37 bdbd e29e 09bd
00000010: 3791 81bd 22c2 b9bc 04c8 0bbd a9bb 92bc
00000020: 945b 95bd 9359 61bd f460 94bd 14c3 1abd
00000030: be12 5abc 51df 7b3c 7c18 93bd f5bc 07bd
00000040: 0a2d 3abc c4b9 85bd 4c65 c7bc 0103 b0bd
00000050: a691 05bd c34f 60bc 457a 42bc ab06 2c3c
00000060: 8445 43bd 4c8e 683b 28b2 eebc 257e e3bc
00000070: 007f 1bbc eb93 40bd 7e3d aabd c5b6 c83b
00000080: 2d36 a3bd ea0b ba3c 1764 193d 60c4 85bc
00000090: d45b c63b 6289 2bbd 90dc c73a 8ada a1bc
000000a0: 4d68 57bd 6f2e 9fbd 0155 b93d 318c cebd
000000b0: 0606 90bc 43e2 90bc 3e90 af3b 4865 97bd
000000c0: f710 bcbc a8ea 103c f45a 86bd 3e99 6cbc
000000d0: 55fa 4bbd b6e9 243d 081a c03c 86cd 01bc
000000e0: 9541 963c 9276 82bd ec5f cabc 56d4 9bbc
000000f0: 561c 9cbd a669 86bd f641 c5bd 6576 41bd
00000100: f8ce 803c e993 95bd 76da 06bc 57b2 82bc
00000110: ba51 85bd 5f4d 88bd 83f5 00bd 5047 c1bc
00000120: 61d6 303c 01da adbd 71e0 36bb a5f4 61bd
00000130: 012f 31bd 8f32 5ebd 93a9 bbbd 95e6 17bd
00000140: 27a6 a6bd 1876 9fbd 0e75 ddbc 177d 72bd
00000150: 6a7d c6bd 51bd a7bc 2b36 35bd be8e 84bd
00000160: 1f80 85bd 686e da3c 24e1 493d 6cc9 163d
00000170: 65e5 22bd 8777 383c 6133 4fbc 847d 993c
00000180: aa25 8f3b 994b 53bd 893a 0dbb 012c 28bd
00000190: b379 88bd c044 123c 1b9a b0bc 657c 5bbc
000001a0: 4a06 a9bc 3870 9abd daba 71bd 57c0 a03a
000001b0: b526 5d3c b274 39bd f16d 8d3c 2226 9dbd
000001c0: 279e 40bc ef17 71bd fa23 a1ba 864f 7a3b
000001d0: 81fa 2abc 6578 57bd 1edc 30bd af2a 013c
000001e0: a169 19bc a6b9 1fbd 2607 a8bc 90fc a93c
000001f0: fe54 913c 40f3 46bd c2e2 0bbd a19b 94bd
00000200: 3406 c9bc 9c0e 3abd 6996 423c 7303 5b3d
00000210: 9d3a 1fbd de36 7b3c b822 d63b a36f 273c
00000220: eaba 47bc 4ae2 6bbd cda9 3dbd 2d21 a7bd
00000230: 3e87 04bd 593d c0bd 1a34 19bd 9d1c a3bd
00000240: 7069 42bc 2064 bbbc f9e7 33bb 0f9b d0bd
00000250: 4e21 20bd 1a0c d83c 8d8f 54bd 1583 53bd
00000260: 08a5 a2ba 0d4f 5abd 03a0 b63c 281f b6bd
00000270: 677e 38bc 8dc6 99bc f8b0 c3bc 38f5 0fbb
00000280: 4922 e43c 54b8 d13b 6c4f 4ebd 67bd d8bc
00000290: 3390 45bb 4fa4 babd cc10 a4bd 118d 8f3b
000002a0: 7cf8 a9bd f2ba cdbc 3df4 3fbd d891 b2bd
000002b0: b3fc 66bd 3a82 3ebd 53c3 55bd 364a 4fbd
000002c0: 5731 c5bd 8284 fcbb 5abe 43bd 0668 4fbd
000002d0: 0279 a1bd b7ab 88bd 887e c23c 6f1b aebd
000002e0: a1f7 25bc 9cd1 893c 54ab 93bd 130a acbd
000002f0: 37ff ea3c 24ad 1e3d 850b b53c 9d83 abbd
00000300: 25cf 70bd 47a2 a3bd 715e 72bd 53db bbbc
00000310: 3f39 19bd 4f28 43bd 8670 803c 45bd a5bd
00000320: 79e3 8dbd 154c aabd 6b91 82bd 4670 64bd
00000330: 7149 babc 5956 72bd ba31 a6bd daa0 a3bd
00000340: c5b3 44bd c4ab a2bb e3a3 80bd 75a4 7abc
00000350: b12a 48bd bee8 22bd 5d03 bcbd 95b2 65bb
00000360: e428 58bc 37b5 1ebd a193 d1bc fa9a 8e3c
00000370: 906f b7bd d7ec 8dbd 26a6 a8bd 66c3 51bd
00000380: 0d31 693d b598 6bbd ad88 cdbd 96f7 26bb
00000390: 286f bc3c 26e7 4dbd efcf a5bd 8727 4e3c
000003a0: 843a edbc a0ce b7bc 9160 98bd bb14 07bd
000003b0: 9e94 d83b 87f3 06bc 80ce ca3c df8c bdbd
000003c0: 050d b8bd 2b63 5ebd 4f79 523c c1f8 db3a
000003d0: 5838 2d3d a1f0 66bd 6399 b0bd de03 053c
000003e0: 425a 2c3c 249c 23bd 96cf 77bd 47c1 bdbc
000003f0: c6a3 4abd f99f 97bc 8681 2abd 5e6f b53c
-0.043091904 -0.096886925 -0.09239133 -0.033598788 -0.06326526 -0.022675578 -0.034126297 -0.017911749
-0.07292858 -0.055017065 -0.07245055 -0.037783697 -0.013310133 0.015373067 -0.071824044 -0.033139188
-0.011363277 -0.065295726 -0.024340294 -0.08594323 -0.032609604 -0.013690892 -0.011869972 0.010499637
-0.047673717 0.0035485206 -0.029137686 -0.027770111 -0.009490728 -0.047016066 -0.0831251 0.0061253035
-0.079693176 0.02271076 0.03744897 -0.01632899 0.0060534272 -0.041879065 0.0015248228 -0.019757528
-0.052589703 -0.077725284 0.09049416 -0.10085333 -0.017580997 -0.017686015 0.005357771 -0.07392365
-0.022957308 0.008845009 -0.06560317 -0.014440833 -0.049799282 0.040261947 0.023449913 -0.007922536
0.018341819 -0.06370272 -0.024703942 -0.019022148 -0.07622592 -0.065631196 -0.09631722 -0.04723205
0.01572369 -0.07303602 -0.008230796 -0.01595418 -0.06509729 -0.06655382 -0.03148414 -0.023593575
0.010793299 -0.084888466 -0.0027904774 -0.05516495 -0.043257717 -0.054247435 -0.09163203 -0.037085135
-0.0813716 -0.077861965 -0.027033355 -0.059201326 -0.096918896 -0.020476015 -0.04424111 -0.064725384
-0.06518578 0.026663974 0.049286976 0.036813185 -0.03976955 0.011258966 -0.012646527 0.018736608
0.0043685036 -0.051585767 -0.0021549782 -0.04105759 -0.06663837 0.008927524 -0.021557858 -0.013396357
-0.020632882 -0.07540935 -0.059016086 0.0012264353 0.013497998 -0.045277305 0.017264338 -0.07673289
-0.011756456 -0.058860715 -0.0012294047 0.0038194372 -0.010435701 -0.05260505 -0.04317867 0.007883712
-0.009363563 -0.038995408 -0.020511221 0.020750314 0.017740723 -0.048571825 -0.0341518 -0.07256246
-0.02453909 -0.04542409 0.011876681 0.053470086 -0.038874257 0.015332906 0.0065349005 0.010219487
-0.01219056 -0.057588853 -0.046304513 -0.08160625 -0.03235554 -0.09386701 -0.037403204 -0.07964442
-0.011865959 -0.022874892 -0.00274515 -0.10185825 -0.03909426 0.026372958 -0.051894713 -0.05163868
-0.0012408802 -0.053298045 0.022293096 -0.08892661 -0.011260605 -0.018771434 -0.023888096 -0.002196623
0.02784838 0.0064001475 -0.05036871 -0.026457502 -0.0030145764 -0.091133706 -0.08011016 0.00438083
-0.08299348 -0.025113557 -0.046863783 -0.08719224 -0.056393337 -0.046510912 -0.05218823 -0.050607882
-0.096285515 -0.007706226 -0.047788955 -0.050636314 -0.078844085 -0.06673377 0.023741975 -0.08501326
-0.01012984 0.016823582 -0.072104126 -0.08400359 0.028686149 0.03873934 0.02210022 -0.083747126
-0.0587913 -0.07989936 -0.059172098 -0.02293173 -0.03740811 -0.047645863 0.015678655 -0.08092741
-0.069281526 -0.08315293 -0.063753925 -0.055771135 -0.022740098 -0.05916438 -0.08114953 -0.079896644
-0.048023004 -0.0049643237 -0.06281259 -0.015297999 -0.04886884 -0.03977274 -0.09180329 -0.003504907
-0.013193343 -0.03874704 -0.02558309 0.017407883 -0.08956826 -0.06929939 -0.08234815 -0.051211737
0.056931544 -0.05751868 -0.100358345 -0.0025477163 0.023002222 -0.05026927 -0.08096301 0.012582666
-0.028958566 -0.022437394 -0.074402936 -0.032978754 0.0066095134 -0.008236772 0.02475667 -0.09255385
-0.08986858 -0.054293793 0.012846305 0.0016782508 0.04229006 -0.056381825 -0.08623006 0.008118598
0.010519566 -0.03994383 -0.060500704 -0.02316345 -0.049472593 -0.018508898 -0.04162743 0.02214783

weight f4 [32, 256]
00000000: 5d62 983d fd75 7dbd 6aa9 a93d 2233 46bc
00000010: 042e aabc edad 60bc ca54 8bbc 1e97 90bc
00000020: 8ef6 0db9 61c6 213c 0028 893d 757f 6abc
00000030: 2486 103d 1005 0f3d 3dfb b0bd 05cc cb3d
00000040: e08b 6abd 5651 883b 9074 16bd 29de fa3c
00000050: 9d4b 953a a18c 013d 98bb 55bd f222 a53d
00000060: 8d50 843c 21c0 f23c 7d97 383d 27fc d83c
00000070: 8f7e 10bc d64d 9ebd 38c6 763d b7a5 163d
00000080: 9c22 943c 2758 34bc bed7 7c3c 9e5d c53a
00000090: c3a5 6b3c dd37 1bbd ead6 b33c 5665 fc3c
000000a0: 3815 98bd 1ccd 033d 5822 83bb 38f0 543d
000000b0: bb02 913d c769 73bd fdad 5d3d 7172 123c
000000c0: e526 5bbc 527e 98bc 53de 3a3d 786d 513d
000000d0: b40d 933b be69 093d d444 dab9 8adb bd3d
000000e0: d64a b03d 3f93 d3bc edfb 623c 5351 70bc
000000f0: c753 a13d ca86 6b3a 5d92 b1bc 351b a03d
00000100: d798 c83d 3053 e3bb 623c 74bd b7a1 0bbc
00000110: f744 d93d 2d62 e93c f25b 8c3d 8b3b 693d
00000120: be6c 8f3d f8a2 283d 215e 6fbc 44a4 9cbc
00000130: 2fa3 fc3c 5237 c23c 6292 76bd 9e84 333c
00000140: e716 9cbc c7ce 1e3d 9cfd b03d a432 8c39
00000150: 8665 8ebc c63f b33d f81e 28bc 51bc 983d
00000160: 5760 203c 31bc 963c 1662 743c 4b94 973c
00000170: 94bc 83bd 5933 29bc 0774 9dbd c00d 89ba
00000180: 12e2 8e3d db13 17bc 946b 7c3d cdc2 163d
00000190: 0225 fbbc 2dc3 d13c 772d 573c 3d99 1b3d
000001a0: 07c4 ac3a 96e8 97ba a5a6 843d f658 79bc
000001b0: ce8c 9cbd cc91 b23c 7a6e e33c d220 aabc
000001c0: 9b7d 65bd bd62 c13c 5a40 9b3c 8ac8 cabb
000001d0: 816e bbbc 19f3 c63c 8944 cc3b 5f11 a0bd
000001e0: 58c3 043d 4d79 20bc c323 cdbb 519e 19bc
000001f0: b58d 5a3c ef77 40bc 18e3 a9bc 5320 d03d
00000200: 5931 ce3b e216 57bd 2087 b33c a753 463d
00000210: 2f0f b83d 30ae d03c 01a2 f3bb b917 573d
00000220: d600 dabc 9888 46bd e47b 6a3d 9887 44bb
00000230: 5090 6e3c 5f63 2d3c 0291 053d 3ea5 c03d
00000240: 52de abbc 8ec7 86bd 1b67 c73c dc4a 843b
00000250: ece8 2d3a 5bae 283d 7bb7 bd3d dfcd 0a3d
00000260: 1838 09bd e169 59bb ba73 52bd 8c72 193d
00000270: 3c6e 013a 5b96 5f3c 5361 f6bb fc8a a03d
00000280: 06be 0cbd 515a a5bb 2194 c03b 0b81 61bb
00000290: 86c7 783c d4c0 343d ee48 52bc 0657 abbb
000002a0: c8ae 863d 2544 ac3c 0efb 523d 24c5 5dbd
000002b0: 8484 d53b 27b4 ca3d e40a c63d d0f6 4dbb
000002c0: 1941 a53d d91c 303d dae3 a53d e0d2 8c3c
000002d0: 5cef 873c 268d 60bd 8d23 e1bc f53a d43c
000002e0: 1a44 f03c f5d6 0b3d 0b58 7ebb 911c e9ba
000002f0: 0823 93bd 768c b63d beb9 bd3d 14f3 3e3d
00000300: d8af b23d cd5b edb9 57b2 db3c 373a 363c
00000310: b025 e83a 7311 b43c 9f0c 773c f546 0ebc
00000320: a687 bd3d 3078 42bc c670 b5bc 0188 6e3d
00000330: 76b8 113c cbe2 99bc 0929 ef3c 798b 8b3d
00000340: de39 843d 08fa 993c d9ac 733d 1497 bebc
00000350: 2bb1 813c fd86 4b3c 9a87 083c a592 cdbc
00000360: 9014 93bc 2082 87bc e87a 8fbd cd7b b5bc
00000370: b2d9 a7bd d63e f8bc b3f0 8bbb da9e 363c
00000380: 3255 583d 19ef 363d 1b6b f43c 5a9d 04bd
00000390: 53be 9d3d 10f2 12bd 839e 4a3c 8ee8 24bb
000003a0: 0970 bc3d 33e4 de3b 4211 2a3d b4bb 3a3c
000003b0: 7227 833d 38d7 f93c 278a 123d 7465 6f3d
000003c0: 6445 85bc 3188 33bc e1fd 85bd 579e 593d
000003d0: 3b35 033d f4d0 d339 58af 513d 1e79 50bd
000003e0: 59fc bebb 5015 0d3d 49bd 313d b605 2d3d
000003f0: e13d 98bb 628c f1bb 700a 5d3c 801e 03bc
0.07440636 -0.0618801 0.08284266 -0.012097152 -0.020773895 -0.013713342 -0.017008204 -0.017650183
-0.00013538657 0.009873957 0.066970825 -0.014312615 0.035284176 0.034916937 -0.0864167 0.09951023
-0.0572623 0.0041600866 -0.036732256 0.030623512 0.0011390332 0.031628255 -0.052180856 0.08063306
0.01615169 0.02963263 0.045066345 0.026487423 -0.008819236 -0.0772969 0.06024763 0.03677913
0.01808291 -0.011007345 0.015432296 0.0015057807 0.014382782 -0.037895072 0.021953065 0.03081004
-0.07425922 0.03217803 -0.004001897 0.051986903 0.07080599 -0.05942705 0.054121006 0.008938418
-0.013375972 -0.018614922 0.04562218 0.05112979 0.0044877175 0.03354811 -0.0004163148 0.092703894
0.08608024 -0.025827048 0.013854009 -0.014667827 0.078773074 0.0008984624 -0.021676237 0.07817689
0.09794777 -0.006937407 -0.059627898 -0.008522443 0.10608857 0.028489197 0.06853475 0.05694155
0.07003163 0.041171044 -0.014609844 -0.019121297 0.03083953 0.02370802 -0.060198195 0.010956911
-0.01905389 0.038771417 0.08642122 0.0002674061 -0.017382395 0.08752398 -0.01026129 0.074577935
0.009788594 0.018400284 0.014915964 0.018503329 -0.06432453 -0.010327184 -0.07688146 -0.0010456368
0.06976713 -0.0092210425 0.061626032 0.03680687 -0.030657295 0.025605762 0.013133398 0.037987936
0.0013180979 -0.0011589702 0.064770974 -0.015218964 -0.07644044 0.021798037 0.02776264 -0.020767603
-0.05602799 0.023606652 0.018951584 -0.006188457 -0.02287984 0.02428584 0.006233756 -0.07815813
0.032412857 -0.009794545 -0.0062603666 -0.0093761245 0.01333945 -0.011747344 -0.02073817 0.10162415
0.006292504 -0.052512057 0.021915019 0.04841962 0.08987271 0.025473684 -0.007435084 0.052512858
-0.026611727 -0.04847011 0.057247058 -0.0029988047 0.014560774 0.010582774 0.032608993 0.094065174
-0.020980034 -0.06581031 0.024341157 0.0040372442 0.00066341343 0.041181903 0.09263512 0.03388774
-0.03350076 -0.003317468 -0.051379897 0.037462756 0.00049373857 0.013646687 -0.007518926 0.07839009
-0.034360908 -0.005046167 0.0058770333 -0.003440919 0.015184289 0.044129208 -0.012834771 -0.00522888
0.06576306 0.021028588 0.051508956 -0.054143086 0.0065160412 0.098976426 0.09670046 -0.003142763
0.08069057 0.04299626 0.081001 0.017190397 0.016593628 -0.05482211 -0.027482772 0.02590702
0.029329348 0.034140546 -0.0038809802 -0.0017785003 -0.07184416 0.089135095 0.09263943 0.046618536
0.08724946 -0.0004527256 0.026818438 0.011122278 0.0017711427 0.021980977 0.015078693 -0.00868391
0.092543885 -0.011869475 -0.022148501 0.058235172 0.008894077 -0.018784901 0.029194372 0.06813712
0.0645635 0.018795982 0.059491012 -0.023265399 0.01583155 0.01242232 0.008333111 -0.02509434
-0.01795414 -0.01654154 -0.070058644 -0.02215376 -0.08195819 -0.0303034 -0.004270637 0.011146272
0.052815624 0.044661615 0.029836228 -0.032376625 0.07702317 -0.03587538 0.012366894 -0.0025163027
0.092010565 0.006802106 0.041520365 0.011397291 0.06404008 0.030498132 0.035776284 0.058446363
-0.01626844 -0.0109577635 -0.06542564 0.05312952 0.032033186 0.00040400738 0.05119261 -0.050896756
-0.005828422 0.034444153 0.043393407 0.042241774 -0.0046460484 -0.0073714713 0.013491258 -0.008002877

bias f4 [32]
00000000: 9c32 97bd 4d2a 053d d971 e33c 26fa bdbc
00000010: d6e8 2bbc ae6e 8b3d 6b34 b23c b115 17bd
00000020: 1cce 5d3d 9384 263d 1515 983c f6d9 d63c
00000030: 2294 993b 9013 17bc 4055 67ba 2723 94bc
00000040: 6a85 083d 4909 9c3d 2e97 36bd b848 bc3b
00000050: e690 da3b b52c 013c 1762 8c3c c25e 06bc
00000060: 6100 93bd b82f b03b c3bd 3eba 9bc1 3e3d
00000070: 0f46 a43d 1077 413c cce4 f03b 13a7 5ebc
-0.073827 0.032511044 0.027764248 -0.02319057 -0.010492524 0.0680822 0.02175351 -0.03688592
0.05415164 0.040653776 0.01856474 0.026226979 0.0046868483 -0.009220973 -0.0008824654 -0.018083168
0.03333036 0.076189585 -0.04457777 0.0057459734 0.0066701053 0.007884194 0.017136617 -0.008201303
-0.07177807 0.0053767823 -0.00072762015 0.046571355 0.08021175 0.011808172 0.0073514935 -0.013589638
