models/embeding_models/embeding_v8_8_dim.pt (torch, 657957 bytes, 12 tensors)

weight f4 [256, 47]
00000000: 2fc5 15be 113d 953d 647f 0ebd 3b86 01bc
00000010: 6324 ccbd 54e7 ecbd 7525 5c3b baf0 583d
00000020: 17ab d0bd 868d d13a 9409 08be 0971 0bbd
00000030: 97f5 c0bc 363a af3d 575c 8e3d c658 1b3c
00000040: c469 17be bd6e 10be 13c4 04be 22b5 44bd
00000050: 5ea4 e6bb 4098 acbc c429 d93c 044f 773d
00000060: a4c9 1b3e dd85 84bd cdfe 32bd e7c2 1fbc
00000070: d23b debd 0687 e43d d85b 70bd 1cb6 b13d
00000080: 0841 4bbd 5e09 5d3e 52f9 1b3e 24af 023d
00000090: 4ae3 4c3a 90e6 913d a405 94bd e823 dd3d
000000a0: 1e26 f33d 1540 06bd 86ac 653a 2583 2d3e
000000b0: ed67 1ebd 0c26 cd3c 7071 aa3d 4e19 efbd
000000c0: 2c53 15be 520a 73bd 08ab 42be a670 f83d
000000d0: e51a cbbc 8cb6 61bd dd4b 0b3e d2e0 0bbd
000000e0: 2fb9 a6bc 192c ea3d 055c 8bbc dab8 cbbd
000000f0: 5880 f5bc f5b8 b43d 0398 e33d 92e8 9b3d
00000100: 6fe8 16bd 9122 e5bd e63d c13d cbd3 8dbd
00000110: d927 5bbc 3d7f c1bd 682e 9b3d 7412 3c3d
00000120: 9c83 213d 68d2 373c 6fc2 063d 7dfd 183d
00000130: 7e99 3a3d 1fc1 d53d 9d4f a83d d6df aebd
00000140: 0b54 fa3d a6e8 223d d9c5 fd3d 02d6 1b3e
00000150: e477 6f3e be12 01be a648 7fbd 98b7 74bd
00000160: 16ac 6dbc dae1 003d 4eb7 513e 53a3 e53d
00000170: 3e36 8a3d 452f f83d e6bb f6bd ce78 c1bc
00000180: 2316 60bd a777 91bd 1ad5 0f3d d24c b7bd
00000190: d5cb 1e3e 8a75 5abd da42 2dbe 9505 04bd
000001a0: 20a1 26bc 0ecc 12be e3a5 ffbd f0b9 1a3c
000001b0: 8847 a7bd a397 9abd 7151 1fbe 0f64 3fbd
000001c0: c43b dcbd 881c 19be 0a4d 883e 85ff b83d
000001d0: 6fbe 14be 1d91 083e bd90 6cbc 1f3b e4bd
000001e0: 070a f2bd a9e0 e43d d613 f13b d3b6 f7bd
000001f0: 0328 9f3e 0d5e 5abe ff89 773e acb7 52bd
00000200: eaaf 933d dcfe 3a3e 5ac7 a33e 7cdf 253c
00000210: a674 8bbe 51b0 d7bd c872 8b3e b131 cd3d
00000220: c69c 053d d22b a2be 16f7 b7bc 96c3 54bd
00000230: 4ea9 01be 46ac d23d 0675 d9bd 1d48 c3bb
00000240: 6b2e af3c 645e 1f3d f5ad 1dbc 4135 e2bd
00000250: 77c1 bbbd bb0d eabd c8a5 a83d e8ef 0d3e
00000260: 877d 70bd 3a3f bcbd edc1 52bd 5a71 dbbd
00000270: 570c a53b a2f7 3abd 894d e6bd 6fcc 5cbd
00000280: 79a1 4e3e 91e9 b83d 79e9 9abd f3e1 7ebd
00000290: 77f7 d93c 23c9 543d 2bd7 18bd a6f4 17be
000002a0: 60da 653c 635e 09be 250b acbd 5d05 1ebd
000002b0: f51d d0bc 025d bb3d 3872 c33d eb53 24be
000002c0: 534a f5bd bc96 28bc 3480 503e dc53 bc3d
000002d0: 72a9 24bc b1ad fd3c 8a9a 193d 9800 16be
000002e0: 4a3b 15be d779 163e 1dc4 243d e0ab 01be
000002f0: 3098 a5bb 7285 20bd 0283 8c3d 79f9 003e
00000300: 8adb a93d b9ec 153d c128 84bd e707 a93d
00000310: c7d8 8d3c 51d6 99bd 9829 9fbc c2cf 56be
00000320: 18c4 17bd 2ac6 c7bd 98a4 27bd 6424 e63c
00000330: 8d97 1c3e 8302 8a3e 754a 7a3d b485 923d
00000340: 8b1e 84bd 5a5b 7cbd a920 e0bd de02 1ebd
00000350: e96d 04be ed7c cbbd 306d d0bd ad9d 16be
00000360: a231 d93d 0e8d 05be 875c 403d 9ece 78be
00000370: b55b 34be b2b3 953d 2580 c23d 4fe8 0fbe
00000380: 7f2b 8b3e f3a0 63bc 9ef6 98bd 020b 9fbe
00000390: 4677 573e 48a0 89bd 5ff0 92bc a088 0cbd
000003a0: 0822 15be 1d23 b5bd 194c 50be c475 c03c
000003b0: 93aa 02be dd9c a93d 2e64 e0bd c11f d13c
000003c0: aa0e 2bbe 9319 0bbe e912 e23c e0bb 82bc
000003d0: 402d c03d 923c cdbd ee8b 0c3d e422 0ebe
000003e0: 3117 b33d 8f14 0dbe b615 8abe 5f89 2e3e
000003f0: 5142 9f3c 4874 7bbd c3a8 30bc 570f 41be
-0.14626001 0.07287038 -0.034789458 -0.007905538 -0.09967878 -0.1156756 0.0033591662 0.05296395
-0.10188883 0.0015987612 -0.13284904 -0.034043346 -0.023554606 0.08556025 0.06951206 0.009481614
-0.1478644 -0.14104743 -0.12965421 -0.048024304 -0.007038637 -0.021068692 0.026509173 0.06037809
0.15213639 -0.06470845 -0.04370003 -0.009751058 -0.108512536 0.11158566 -0.05868134 0.08677313
-0.049622566 0.21585605 0.15231827 0.03190531 0.0007815851 0.071240544 -0.07227638 0.10797864
0.11872505 -0.032775957 0.0008761365 0.16944559 -0.03867333 0.025042556 0.08322418 -0.11674748
-0.14582509 -0.059336014 -0.19010556 0.12130861 -0.024793098 -0.05510573 0.13603158 -0.034149952
-0.020351974 0.11434192 -0.017011652 -0.09947367 -0.029968426 0.0882434 0.11112978 0.07612719
-0.03684276 -0.11188234 0.09435634 -0.06925162 -0.0133762 -0.09448097 0.07577211 0.045916036
0.039432153 0.011219598 0.03290027 0.03735112 0.045556538 0.104372256 0.0821831 -0.08538787
0.12223061 0.039772652 0.12391252 0.15218356 0.23385578 -0.12604806 -0.062325142 -0.0597454
-0.0145063605 0.03146539 0.20480081 0.11212792 0.06748627 0.12118391 -0.120475575 -0.023617174
-0.05470861 -0.071029 0.03511534 -0.08950199 0.15507443 -0.05333475 -0.16920033 -0.032231886
-0.010170251 -0.14335653 -0.12482812 0.009443745 -0.081679404 -0.07548454 -0.15558411 -0.046726283
-0.10753587 -0.1495229 0.26621276 0.090331115 -0.1452577 0.13336606 -0.014438805 -0.11144089
-0.11818319 0.11175663 0.007357101 -0.12095418 0.31085214 -0.2132494 0.24173735 -0.051444694
0.07211287 0.18261284 0.3198803 0.010124084 -0.27237433 -0.105316766 0.2723601 0.100192435
0.032620214 -0.31674057 -0.022456687 -0.051944338 -0.12662241 0.10286765 -0.106180236 -0.0059595243
0.021384438 0.038908377 -0.009623994 -0.110453136 -0.0916776 -0.114284 0.08234745 0.13861048
-0.058713462 -0.09191747 -0.051454473 -0.107149795 0.0050368714 -0.045646317 -0.112452574 -0.0539059
0.20178784 0.09028924 -0.075640626 -0.0622272 0.026607258 0.05194963 -0.037314575 -0.1483942
0.014029115 -0.13414912 -0.08400563 -0.038579334 -0.02540491 0.09148599 0.0954327 -0.16047637
-0.11977067 -0.010289844 0.20361406 0.091956824 -0.010050165 0.030966612 0.037500896 -0.14648664
-0.14573398 0.14694916 0.04022609 -0.12663221 -0.0050535426 -0.039189763 0.06860925 0.12595166
0.08293827 0.03660271 -0.06453086 0.082534604 0.017315282 -0.07511581 -0.019429013 -0.20977691
-0.037052244 -0.09754594 -0.040928453 0.028093524 0.15292187 0.2695504 0.061106164 0.07154408
-0.06451138 -0.061610557 -0.109437294 -0.038576953 -0.12932552 -0.09935937 -0.10177076 -0.14708586
0.1060517 -0.1304209 0.04696324 -0.24297568 -0.17613108 0.07309665 0.09497098 -0.14053462
0.27181622 -0.013893354 -0.074689135 -0.31063086 0.21041593 -0.06720024 -0.017936883 -0.034309983
-0.14563763 -0.08844588 -0.20341529 0.023493655 -0.12760381 0.082818724 -0.10956608 0.025527837
-0.16704813 -0.13583975 0.027596908 -0.015958726 0.09383631 -0.100213185 0.034313135 -0.13880497
0.08744658 -0.13777374 -0.2696969 0.1704459 0.019440802 -0.06139019 -0.010782423 -0.18853508

bias f4 [256]
00000000: e650 ef3d d778 04be 4ac4 623c 0541 2bbc
00000010: d72b ce3d ec8c 823d 075f b83d 8e7e 17be
00000020: 0300 523e 17c9 babd 4ba5 a2bd 590c c7bc
00000030: 982d ffbd 58a1 d3bd bf50 9cbd 678a b63d
00000040: 1452 043c 2ab2 0fbe 9990 0abd a168 02be
00000050: 39b4 00bd 3ad0 13bc 2d24 59bd 91c5 2dbe
00000060: 6135 17be 7005 a33d c345 58ba 4a9d b5bd
00000070: af77 14be 595f 0fbe e74c ab3d 34fb 143e
00000080: c6e1 2bbe bc2d e33c ec15 c63d 51d2 e7bd
00000090: 2846 823c 5a96 05be b9a8 873c 2e83 34be
000000a0: cf0f 12be 1031 83bd 9f9d a8bd 4a25 b9bc
000000b0: 7da2 363d 8b24 b13d e9f7 d73b dff7 75bd
000000c0: 3dad 613d cc1b fb3d 21f7 2cbd f6bf c3bd
000000d0: 066b 08be ae37 10be 18bd 1ebe 65c6 3fbe
000000e0: 96c7 c0bc a6d8 2abe f125 01be 00f5 3a3d
000000f0: 56e0 0fbe 2772 29be 7541 eabd 6b26 563c
00000100: 7f01 8cbd 3ac5 30be d21a d7bd 01d7 96bd
00000110: 31c3 9bbd a9af 04be 520b d63d c5d0 9a3d
00000120: b80c f3bd 0785 66bd f947 89bd 9f73 a43d
00000130: 4e9f 863d 9eaf d53d 546e dfbd c9e5 59bd
00000140: f625 40bd 3223 273d 3420 1bbe 4ee0 15be
00000150: 5a47 09be 6779 dc3c 9bc3 ce3d ab15 093d
00000160: 3811 7c3c dd4d 05be 25a4 24bd e13b 7fbc
00000170: 9688 d53d 7a17 2ebe c4bd c8bd 0804 55bd
00000180: 0f8f c53d 48fd 3e3d a84f c53d 56ef 0e3d
00000190: 86ba ca3c 9d86 2ebd b743 e5bd 69b7 cc3c
000001a0: 1bcc f13d 62a7 9d3d 934d 483d 5abc 22be
000001b0: 251e 0cbe 9a9a 22be 628d 12be 9bf5 a23d
000001c0: 5df8 2abd 7db8 d33b ba51 a73d e861 1bbe
000001d0: b5d2 0dbd 3ba0 c13b 9855 27bd 053e 2cbe
000001e0: 47b2 20be 994a afbd cf2d 2a3e 790d 423d
000001f0: d4ae c43d cb7e 9dbd 976b 05bd b7d9 103d
00000200: d2e6 a53d 5540 66bd 7081 9d3d 7dc6 9abd
00000210: bfb2 35be 1de0 d03d c953 34be 6644 3abe
00000220: bc39 25be a716 793d 7657 ea3d 0caf f6bc
00000230: 2cc7 8e3d 181f e43d e26a b43c 7c47 933b
00000240: 08d4 fcbc fc91 dabd 6e92 38be cc61 ae3d
00000250: 92ff a5bc c825 14be 65af 833d 2962 c0bd
00000260: 2f44 32bd 7fbd 0f3e 8a5d 9d3d c483 c7bd
00000270: d3c0 23bd 69c6 8c3d f178 9e3d b6c6 ccbd
00000280: 9895 afbc 8aed f8bd 34bd c6bb 3be6 f4bd
00000290: 0937 7ebd 4638 9ebb 7ea0 d2ba acc0 c13c
000002a0: 4a5c c0bd 30f8 a93d 6708 80bb 4dec 833c
000002b0: 2bf3 2ebe e923 0fbe beec 0abe 21c1 26bd
000002c0: 3167 ce3d 5f52 e33c ceab e7bc bb17 b0bd
000002d0: 9288 40bc 2ae4 d9bd a433 0fbe 18c9 ed3d
000002e0: 991f 3e3e b53d e6bd 3e6d 063d 1e7b 97bc
000002f0: e756 46be abf4 e4bd 9ec9 033b ee2a 68bd
00000300: 0256 153e 4f05 babc f193 f2bd cbc7 1bbe
00000310: 16f5 04be b92e 193d 369f e33c f8b7 1bbe
00000320: bcaf 1dbd 753b 01bd a6cd d4bd 4376 9dbc
00000330: a383 75bd 20d3 073b 2c83 803d 84f2 3b3d
00000340: 1569 3ebd af21 033e 26a8 28bc 4637 dfbd
00000350: 6570 b93d f25f 1bbe 886f 4fbd fd4b 9cbd
00000360: 4a7b ffbd 306a fbbc c235 3cbd 7f45 45bd
00000370: 4727 19be e9be 0d3c 2a57 84bd 6fa3 c13d
00000380: 492d 1c3e 3dff 00be 60b6 02be 5913 d8bd
00000390: d966 04be ff62 fbbc d194 0e3e 631e 21be
000003a0: 321e 0b3e 1773 dcbd 43a5 98bd 83d6 3dbe
000003b0: 584f 37bd 8318 babb 6ac2 04bc 2683 963d
000003c0: 88f5 e83c 8247 47be 7163 e5bd 22fc 243d
000003d0: fe00 a03d 87d9 503d 5826 b63d 1949 873d
000003e0: 071e 8b3d 9289 3cbe 8a20 943d 8de9 d4bd
000003f0: 4f96 a1bd 2cc4 233c 5030 a5bd 7a5a c5bd
0.11685352 -0.12936722 0.013840744 -0.010452514 0.100669555 0.06374535 0.090025 -0.1479437
0.20507817 -0.09120386 -0.079416834 -0.02429788 -0.12459868 -0.10333508 -0.076325886 0.08913117
0.00807621 -0.14032808 -0.033829305 -0.12735225 -0.031421874 -0.009021813 -0.053013016 -0.16969897
-0.14766456 0.079600215 -0.00082501414 -0.08867891 -0.1449878 -0.14001216 0.08364277 0.14548951
-0.16785344 0.027731769 0.0967215 -0.113194115 0.015902594 -0.13045636 0.016559945 -0.17628166
-0.14263843 -0.06405842 -0.08233189 -0.022600789 0.044588555 0.08649548 0.0065908325 -0.06005084
0.055096854 0.12261161 -0.042227868 -0.09558098 -0.13322076 -0.1408374 -0.15501821 -0.18728025
-0.02353267 -0.16684207 -0.1261213 0.045643806 -0.14050421 -0.16547452 -0.11438266 0.013070683
-0.06836223 -0.17262736 -0.105031624 -0.073652275 -0.07605589 -0.12957634 0.10451378 0.07559351
-0.1186766 -0.05627921 -0.06703181 0.080298655 0.06573354 0.10433887 -0.10909715 -0.053197656
-0.046911202 0.04080505 -0.15149003 -0.14636347 -0.13406125 0.026913358 0.100959025 0.03346793
0.015384965 -0.13017984 -0.040195603 -0.015578241 0.10426442 -0.17001143 -0.0980182 -0.052005798
0.09646427 0.046628267 0.09634334 0.034896217 0.024747144 -0.042608846 -0.11194556 0.0249898
0.11806508 0.07697941 0.048902106 -0.15892163 -0.13683374 -0.15879288 -0.14311746 0.07957002
-0.041740764 0.0064612017 0.08169885 -0.15174067 -0.034624774 0.0059089935 -0.040853113 -0.16820534
-0.15693007 -0.0855915 0.16619037 0.04737613 0.09603658 -0.076901995 -0.03257331 0.03536388
0.08100666 -0.056213696 0.07690704 -0.0755739 -0.17743967 0.10198996 -0.17610087 -0.18190154
-0.16135305 0.06081262 0.11442463 -0.030112766 0.06971583 0.11138743 0.022023622 0.0044946056
-0.030862823 -0.106723756 -0.18024608 0.08514747 -0.020263467 -0.14467537 0.06429938 -0.093937226
-0.043522056 0.14037131 0.07683857 -0.09741929 -0.039978813 0.06873781 0.077379115 -0.099988386
-0.021433637 -0.12154682 -0.0060650352 -0.119579755 -0.062064204 -0.0048284857 -0.0016069559 0.023651443
-0.09392603 0.08299291 -0.0039072516 0.016103888 -0.17084949 -0.13978542 -0.13566872 -0.040711526
0.10078276 0.027749239 -0.028280165 -0.08598276 -0.011751311 -0.10639222 -0.13984543 0.11610621
0.18566741 -0.112422384 0.032819025 -0.018491324 -0.19369088 -0.11179479 0.0020109187 -0.056681566
0.1458359 -0.02270761 -0.11844624 -0.15212934 -0.12984118 0.037398074 0.027785879 -0.15206897
-0.03849767 -0.031550843 -0.10390787 -0.01922143 -0.05993999 0.0020725206 0.06275019 0.045885578
-0.046486933 0.12805818 -0.010293996 -0.108992144 0.09054641 -0.15173319 -0.050643474 -0.07631681
-0.124746874 -0.030690283 -0.045949705 -0.04816198 -0.1495639 0.008651474 -0.06461938 0.094550006
0.1525165 -0.12597366 -0.12764883 -0.10550565 -0.12929858 -0.030686853 0.13923956 -0.15734248
0.13585737 -0.10764139 -0.07453396 -0.18538861 -0.044753402 -0.0056791916 -0.008102993 0.07349233
0.02843739 -0.19460872 -0.112006076 0.040279515 0.07812689 0.0509887 0.08894032 0.06605739
0.06792837 -0.18411854 0.07232769 -0.10396109 -0.07889997 0.0099955015 -0.080658555 -0.09636398

weight f4 [256, 256]
00000000: 44d6 a1bd b3e8 a2bc 8e8c 2ebc 505c b93c
00000010: 4aa9 bdbd a21f ce3b a931 86bd c86f 86b9
00000020: ec29 dcbc fc4a 84bd 043f 3ebd 824c 27bc
00000030: 0266 993c e05a 5cbd 15b2 1a3d 2496 43bd
00000040: e09e 713c b3f4 76bd 59ee 92bd 68af d9bc
00000050: fd55 84bd c091 86bc f585 973c 3d79 a2bd
00000060: 877b 433b a7ab f6b9 1ce5 a1bd 1341 813a
00000070: cf79 aebd cb6a 90bd 605e 1ebb 96d6 363d
00000080: fb00 bcbd e2af b2bd f18d a3bd a0fd 72bd
00000090: f483 a7bd dc37 943c 223e 05bd 33e7 94bd
000000a0: 11a1 9bbd 0c17 e6bb f501 2fbd 13a1 cabd
000000b0: 8a45 29bc dda7 49bd b1f5 1ebc d83e 85bd
000000c0: d5cc cbbd 7d77 c1bd 1090 5f3c 2d86 b4bd
000000d0: 9122 2a3c c7d4 23bd a0aa c13c 2d66 46bd
000000e0: 98b7 1ebb ebcb c5bc 8bcd b0bd 35c5 a0bd
000000f0: 3082 a6bc 3eb6 9d3b fd80 fcbc e664 54bb
00000100: 8f77 1c3c 047b 5a3c eb9f 303c 5c6a 9dbc
00000110: d82a 6c3d a4a5 dcbc e837 e4bc b224 b2bd
00000120: 4a8c 31bb ce93 dc3b 8534 8bbd 94dc 883c
00000130: bb72 8ebd af6c 86bd e264 47bd abd8 013c
00000140: 92f4 003d 6724 5f3c a1fe babd f4a6 2cbd
00000150: a45b 06bd 4710 51bd c939 2b3c 1ced d53b
00000160: 5db1 5abd d660 73bd 281c a23c 6504 913c
00000170: e730 b9bc c858 66bd 0d65 dd3c 2335 743c
00000180: 23c3 b2bd 8cf8 83bc fe3b 7fbd 3432 46bd
00000190: e003 45bd e026 59bd 31c7 3fbd c690 983c
000001a0: 181c 553c 0143 6cbd a871 09bc 8556 40bd
000001b0: 46e7 3fbd 1305 9dbd 7423 1fba c6e3 cfbd
000001c0: 9e1f 65bd 390c 94bd 7804 b3bc b019 0abd
000001d0: e4e4 313d 1ee0 9fbc c780 e5bc 62bc 4e3b
000001e0: 60f3 1e3c a483 98bd 3a13 abbd 46ad 0c3d
000001f0: 74bc eebc e9e1 29bd b273 15bc 3110 74bc
00000200: efd4 86bd 8326 53bd 8ca6 85bc b560 9bbd
00000210: bc75 37bd b0a2 a1bc 78b1 7bbc 8f62 5cbd
00000220: fdfb 293b ea89 b3bd 4ce0 77bb b42b 04ba
00000230: ad56 22bc e777 a93c 7190 74bd 895a 203c
00000240: 000a 1139 46d9 173d 7770 10bd 198e 5abc
00000250: 6c26 5dbc fa24 2bbd 0084 d1bd a2f9 1fbd
00000260: e82e 22bd e0b3 813b daa0 8abd 5fa7 afbc
00000270: 0290 85bd ac5a 933c 47c9 253c 6076 543d
00000280: 5ae8 9bbc 9ab0 96bc 82ee d0bd e1b0 92bd
00000290: de5c 593d cfb8 25bd 03d2 babd de5d 90bc
000002a0: e78b 7f3b bb68 11bd 2573 1d3c 72f8 18bd
000002b0: bcbb b1bd c54c 87bd b635 253c 6889 d1bc
000002c0: 0839 d53b b31c 2ebc fa02 c5bd 14b4 cbbd
000002d0: eae1 4bbd 0046 42bd 62e4 1ebc 96c4 a9bd
000002e0: b092 2abc 7638 033d 500f 4cbc b6ed 5b3d
000002f0: 43c8 bbbd e82e b7bd c6db 93bd 75c2 bbbc
00000300: c7c7 12bd 8352 c6bd e9f2 303c 37f5 b3bd
00000310: 9546 23bd a088 abbd 9aaf 60bd 90b5 bfbd
00000320: ea52 65bb c123 09bd ba0c 15bc 6783 a43c
00000330: e164 8cbd 1ab7 4bbc d038 92bc 0cd2 bbbd
00000340: c422 843b 67e4 1f3c c702 a43c c2a0 6fbd
00000350: 0039 65bb ad68 50bd f093 b3bb 6e69 a33c
00000360: 55eb af3b 35f0 a5bd 0653 bfbd a98d b3bd
00000370: 501f 3c3c d858 e7bc 61cb 3f3b 0ccd 48bc
00000380: 1d1e a6bb 7846 95bd 4d1c 26bd 1947 bbbd
00000390: c029 133d 300b 43bd 667b ccbc 8265 adbc
000003a0: 5cbf c3bc 66b2 57bd fe37 313c 4d16 fdbc
000003b0: d536 1f3c 082a 583b a08f f7bc 1aa7 c1bd
000003c0: 0d58 a4bb 701a 3b3b 3be2 82bd fabd 8dbc
000003d0: 1f76 a3bd 6126 63bc bee2 b2bc c65a a33c
000003e0: caca 82bb 83d4 82bd 274b b33a b958 b8bb
000003f0: 8af3 9c3c c305 bebd e4fc 8dbd 3127 b03c
-0.07902196 -0.01988635 -0.010653628 0.022627026 -0.09260805 0.006290392 -0.06552441 -0.00025641755
-0.026875459 -0.06459615 -0.046446815 -0.010211112 0.018725399 -0.053797603 0.03776749 -0.047750607
0.014747351 -0.060291957 -0.071743675 -0.026572898 -0.064617135 -0.01642692 0.018496493 -0.079332806
0.0029828267 -0.00047048667 -0.07905027 0.0009861313 -0.08519327 -0.07051619 -0.0024165139 0.04463824
-0.091798745 -0.08724953 -0.079860575 -0.059323907 -0.08179465 0.018093042 -0.032529958 -0.0727066
-0.0759908 -0.0070217904 -0.042726476 -0.09894004 -0.010331521 -0.049232353 -0.009702132 -0.06506127
-0.09951178 -0.09446619 0.013645187 -0.088146545 0.010384218 -0.039997842 0.02364093 -0.048437286
-0.0024218317 -0.024145087 -0.08632954 -0.07850114 -0.02032575 0.0048129847 -0.030823225 -0.0032408773
0.009549989 0.013334993 0.010780315 -0.019215755 0.057658046 -0.026934452 -0.02785869 -0.08698405
-0.0027091675 0.006731487 -0.06797127 0.016706742 -0.06955477 -0.065636985 -0.048680194 0.007925193
0.03148324 0.013619519 -0.09130598 -0.042151406 -0.03280224 -0.051040914 0.010450789 0.00652851
-0.053391803 -0.05941852 0.019788817 0.01770229 -0.022606326 -0.056237012 0.027025724 0.014905247
-0.087286256 -0.016109727 -0.062313072 -0.04838772 -0.0480994 -0.05301559 -0.046820823 0.01862372
0.013007186 -0.057681087 -0.008388914 -0.04695751 -0.04685142 -0.076669835 -0.00060706516 -0.10150866
-0.055938356 -0.07228894 -0.021852717 -0.033715904 0.043431178 -0.019516047 -0.028015507 0.003154539
0.00970158 -0.074469835 -0.083532766 0.034344934 -0.029142596 -0.04147521 -0.009121822 -0.014896438
-0.065835826 -0.0515504 -0.016314767 -0.07586805 -0.044790015 -0.019730896 -0.015362136 -0.05380493
0.002593755 -0.087665394 -0.00378229 -0.00050419127 -0.00990836 0.020687057 -0.059708063 0.00978721
0.00013832003 0.037072442 -0.035263505 -0.013339543 -0.01349793 -0.04178331 -0.10230255 -0.039056428
-0.039595515 0.0039582103 -0.06768961 -0.021442113 -0.06521608 0.017987572 0.010118789 0.051870704
-0.019031692 -0.018394757 -0.10201742 -0.07162643 0.05306708 -0.04045945 -0.09122088 -0.017622884
0.00389933 -0.03550027 0.009609972 -0.03734631 -0.086783856 -0.066064395 0.0100836065 -0.025578216
0.006507043 -0.01062696 -0.09619708 -0.099464566 -0.049775995 -0.04743004 -0.009698005 -0.08289449
-0.01041095 0.032036267 -0.012454823 0.053693496 -0.09169056 -0.089444935 -0.07219653 -0.022919873
-0.035835054 -0.096837066 0.010800102 -0.087870054 -0.039862234 -0.083756685 -0.054854967 -0.09360802
-0.0034992048 -0.033481363 -0.0090972725 0.020082189 -0.068551786 -0.0124337915 -0.017849356 -0.09170923
0.0040324647 0.009759045 0.020020856 -0.05850292 -0.0034976602 -0.050881077 -0.005480282 0.019947734
0.00536863 -0.081024565 -0.09342007 -0.08767254 0.011482075 -0.028240606 0.002926551 -0.012255918
-0.0050695078 -0.072888315 -0.040554333 -0.0914442 0.035928488 -0.04761809 -0.024961185 -0.021166567
-0.023894958 -0.05266037 0.010816572 -0.030894423 0.009717663 0.0032984037 -0.030219853 -0.094557
-0.0050153793 0.0028549694 -0.06390806 -0.017302502 -0.07981514 -0.013864131 -0.021836635 0.019940745
-0.0039914595 -0.0638819 0.0013679013 -0.005625811 0.019159097 -0.09278443 -0.06933001 0.021503063

bias f4 [256]
00000000: 70de 90bd 6df7 d53c 5d7a 0e3d 22ca f1bc
00000010: 648d 8ebd 9496 9ebc 71e0 6bbd d914 e0bb
00000020: 8b4d 05bd e61a 08bd 4be8 583c 4acb 69bc
00000030: 7d8f b5bd 5397 67bd 2b46 94bc 943d 91bc
00000040: 9201 743c 35b4 93bd 74ab 9bbd 6cc9 eebc
00000050: d5ca 21bd c3d8 8cbb 067c bebd 7fa3 4cbd
00000060: 133f 873c 19e1 8cbd 8bfc a53c eb71 e03c
00000070: da03 b83e 0068 96bd 2d81 82bc 53df ce3b
00000080: a2ed ccbd 6d0c 18bd 42f7 adbd 39c1 92bd
00000090: 719b 9dbb 3d5f 27bd d639 65bd 4cc1 cfbd
000000a0: f4f4 113d 8c63 873c 38ec b8bd ab9e aebc
000000b0: 51ae 81bd 09e2 c83c 7ce4 553c 9028 20bc
000000c0: 4cd7 1cbd 808a 90bd ae39 e63c 561b 1e3c
000000d0: a30c d73b f719 9ebd 6e09 55bd 4f42 83bc
000000e0: c83f 6cbd b710 a9bd 6cba 9ebd 0ec5 67bd
000000f0: 16b3 b43c 6c93 91bc a645 3ebd 0d7b 81bd
00000100: 0413 61bd adb9 2fbd 8a48 b63a a5da debc
00000110: cc8f 90bd 6fe7 263d 12dc b7bd e357 9fbd
00000120: 0c92 26bd e00c 8fbc 60c1 18bd 8657 b13c
00000130: b485 79bd 94fb aabd 2f5d 793c 1ccf 8dbc
00000140: 979a f4bc 4783 31bd 2c31 b0bc 810b a3bd
00000150: bdbb e9bb daba fbbc f6f9 b5bc 31c0 9bbd
00000160: 048e f33c 7685 853c 31f0 7ebc 1111 9dbd
00000170: e2b4 89bd 1dfc 25bc 3944 6ebd 7dbc 663c
00000180: 333a 4ebd 241c 9cbd 9e1d afbc 5f70 5fbc
00000190: 0eca d6bb 5435 19bd f8c3 2e3c a9c4 9cbc
000001a0: e58f f9bc 298f 923c 9f67 193b a146 f53a
000001b0: 8ab6 6bbd 8e0b bdbd 19c6 4b3c fd36 9fbd
000001c0: cfb7 51bd 39ba a9bd c563 cc3c 324e 93bd
000001d0: eb6f c2bb 3ecd ea3c 0750 64bd 50d4 7a3c
000001e0: adc5 30bc 0b74 d23b ce31 83bc f781 e83c
000001f0: 3538 50bd e42b 6fbc 8751 59bd 19ba 8fbd
00000200: 8519 38bd 13ec e4ba f1ef ba3c 54af b13c
00000210: 0581 c5bc ce37 b9bb 3dd8 85bd 111f 58bd
00000220: 6c49 1cbb db48 943c cc68 f43c 164c 94bd
00000230: 9943 1cbd 3d0a c5bb 2b75 f839 2a3c cfbc
00000240: 92d3 5abd 340e 12bd 9ccf 17bc 9890 6dbd
00000250: eb29 eebc e9b0 3bbd 79ec 33bb b47b 8dbb
00000260: aa41 6dbc 148b f3bc 9e85 1abc eb14 dbbc
00000270: c885 c43b 94a0 88bd 87af 4ebd 35e9 3bbd
00000280: e68b 34bd d570 d43c 5c41 abbc bac2 70bc
00000290: 1621 29bc 9a8d 86bd 977a 1d3c e836 88bd
000002a0: 911e ffbc 92df 0dbc 82fb d6bb 592c e53d
000002b0: fab6 a23d 7c2c debc ed68 a0bc 9cdd a6bb
000002c0: 94a0 d1bc 33ab 923c 0f1a c1bc f2de b1bc
000002d0: 43b0 883c 599b 1bbd dc71 35bd 5153 cabd
000002e0: ebd6 39bc 3e86 073a 76c6 65bc 5154 64bd
000002f0: 008a 013d 759c 67bd da5a 88bd 0391 94bc
00000300: ee0c b7bd b534 f8bc 355a 79bd b1a9 17bd
00000310: 2b14 87bd 7c82 823b 1938 41bc f00a 363c
00000320: 9361 88bd 32fc 27bb 6b4a 81ba 67ed 4a3c
00000330: 80e0 35bd 2fea b9bd 0eba 75bd ff95 92bd
00000340: 5880 30bd f2d5 bd3b 00d7 b7bd 7009 23bd
00000350: 76b6 babd ed57 d1bd 7af2 31bd baaa d0bc
00000360: 2f3b 1ebc 62aa 303b 2115 01bc 841b e8bc
00000370: c2e4 08bd 8802 bcbd 74c2 cabd 3cf0 24bc
00000380: 74db 4a3a 24af 7bbd 3e73 753c c4c0 42bd
00000390: 9035 9dbd 1819 44bd f84d 573c 96c1 5ebd
000003a0: 26ae 34bd da60 88bc e7c8 78bd b677 23bc
000003b0: f84a c7bd 42fe 82bc f33c 52bd 7be6 12bd
000003c0: e377 8abd 94c5 96bd 4c54 65bc b0f6 9ebd
000003d0: 48bb bcbd 47d7 003b 03a0 a23c 2264 66bd
000003e0: 1c16 40bd 2f74 9ebd d750 a5bd 7451 10bd
000003f0: 6e06 14bd 28d3 fc3c 12d1 acbd 5b0a ebbc
-0.070736766 0.026118958 0.034784663 -0.02951533 -0.06960562 -0.01935891 -0.05758709 -0.0068384227
-0.032544654 -0.033228777 0.013238977 -0.014269659 -0.08865259 -0.0565408 -0.018099865 -0.017729558
0.0148929525 -0.07212106 -0.076010615 -0.02914878 -0.039500076 -0.004298301 -0.09300999 -0.04996061
0.016509568 -0.068788715 0.020262023 0.02739807 0.35940439 -0.07344055 -0.015930736 0.0063132434
-0.10006262 -0.037121225 -0.08494426 -0.071657605 -0.00480979 -0.04086231 -0.05596336 -0.1014429
0.035633996 0.01652696 -0.0902943 -0.021315893 -0.06332076 0.024521844 0.013054963 -0.009775296
-0.03829126 -0.07057667 0.028103676 0.009650072 0.0065627857 -0.07719796 -0.052010946 -0.01602283
-0.057678014 -0.08255141 -0.07750401 -0.05658441 0.022058051 -0.017770492 -0.04645314 -0.06322298
-0.054949775 -0.042901684 0.0013907116 -0.027203867 -0.07058677 0.040748056 -0.08977522 -0.07780435
-0.040666625 -0.017462194 -0.03729379 0.02164818 -0.060918525 -0.08348766 0.015219971 -0.017310672
-0.02985887 -0.043338086 -0.021507822 -0.079611786 -0.007132976 -0.030728746 -0.022213917 -0.07605017
0.029730804 0.01629899 -0.015560196 -0.07669271 -0.06723954 -0.010130909 -0.05817053 0.014083025
-0.05034847 -0.07622555 -0.021376427 -0.013637631 -0.0065548485 -0.037404373 0.01066684 -0.019136744
-0.030464122 0.01789053 0.002340771 0.0018713066 -0.05754713 -0.092307195 0.012437367 -0.0777416
-0.051200684 -0.08287472 0.024949918 -0.07192649 -0.005933752 0.02866232 -0.055740383 0.015309408
-0.010789317 0.006422525 -0.01601496 0.028382285 -0.050834853 -0.014597867 -0.053056266 -0.07017917
-0.044946212 -0.0017465375 0.022819491 0.021690048 -0.024109373 -0.0056524044 -0.06535385 -0.052764002
-0.0023847474 0.018101146 0.029835127 -0.07241075 -0.038150404 -0.0060131834 0.00047389543 -0.025297243
-0.053424425 -0.035658076 -0.0092658065 -0.057999223 -0.029072722 -0.04582301 -0.002745418 -0.004317725
-0.014480988 -0.029729404 -0.009431271 -0.026743373 0.0059973933 -0.06671253 -0.050460365 -0.0458767
-0.04407873 0.025932709 -0.02090519 -0.014694864 -0.01032283 -0.06569977 0.009611747 -0.066510975
-0.031142505 -0.00865926 -0.006560744 0.11190099 0.07945056 -0.027120821 -0.019581283 -0.005092336
-0.025589265 0.0179039 -0.023571996 -0.021712754 0.01668561 -0.037989948 -0.044298038 -0.098791726
-0.011342744 0.0005169845 -0.014024368 -0.055744473 0.031625748 -0.056545693 -0.066579536 -0.018135553
-0.08938013 -0.03029857 -0.060877044 -0.037027065 -0.065956436 0.00398284 -0.01179316 0.011111006
-0.06659236 -0.0025632498 -0.0009864097 0.012385703 -0.044403553 -0.0907787 -0.05999189 -0.07157516
-0.04309115 0.0057933265 -0.08976555 -0.039803922 -0.09116833 -0.10221849 -0.043444134 -0.025472034
-0.009657665 0.0026957025 -0.007878573 -0.028333433 -0.033421285 -0.0918017 -0.0990037 -0.010067042
0.00077383895 -0.061446324 0.014981089 -0.047547117 -0.07676232 -0.047875494 0.013141148 -0.054383837
-0.044111393 -0.016647745 -0.06073847 -0.009977272 -0.09731096 -0.01599038 -0.051327657 -0.035864335
-0.06761148 -0.07361904 -0.013997149 -0.07761896 -0.092154086 0.0019659565 0.01985169 -0.056247838
-0.046896085 -0.07737004 -0.080720596 -0.03523393 -0.036138944 0.030862406 -0.084383145 -0.028691461

weight f4 [8, 256]
00000000: 0847 bbbc 853d 97bc 5dc7 823d 393b 3a3d
00000010: a3ad 69bd b068 593d 79ea 2c3d f80c 363d
00000020: 0510 10bd 2b97 c9bb 21b7 6b3c e66b 2e3b
00000030: 4790 84bb 8218 8d3c 614f 33bd 3bbd 02bc
00000040: 91f4 f5bb 9488 dcbc 2876 1b3c c15d 88bc
00000050: a977 cdbb 82a7 123c ff8d 223d 7f7d a83d
00000060: e5fb 58bb 2090 81bc c0fc 9dba fc73 b3bc
00000070: fe8e 56be 0505 5c3d 1953 8cbd 0608 04bd
00000080: 2183 a53b 823b 813c b9fd b23a 4dad bd3d
00000090: 1455 853d 7b8c 0bbd 4b1f fd3c b223 1bbd
000000a0: c599 143e ea74 9d3b 94fa 893a 4a1e c0bc
000000b0: dd0d af3c e763 893c 4abc 2dbc 8895 743c
000000c0: bad3 d8bc a839 85bc 0f13 26bd 122f 0cbc
000000d0: 03e1 bebb ceff 41bc 7f80 77bd 3826 00bb
000000e0: d327 aa3d 4156 353c 1369 9e3d 8d80 eb3d
000000f0: 50f9 1bbc 2741 e9bc ff41 ec3c 6ac2 e1bc
00000100: 4201 82bd 2f53 2abc 779e 713c 6799 063e
00000110: d6f3 563d 269e 093d b502 29bd 1e99 2abc
00000120: a3d5 713d 0a41 01bc b497 7b3d 2ee2 9fbd
00000130: 5903 e0bc d405 273e 1d12 a43d e696 27bc
00000140: 1ea6 0a3d 2b56 cbbd 5e0d 453c f65f 8dbd
00000150: 5833 97bc 79fe 35bc 1321 07bb 1b53 263c
00000160: 8377 5abd dc54 183c 1669 433d 9ab0 eebc
00000170: affc 84bd a773 1ebc 36e7 0e3d 6238 013d
00000180: 0881 7d3d 869a 33bd f300 433c 2d42 0cbd
00000190: 4a27 55bd 06a2 863c 61b6 6c3d fbbb 223d
000001a0: a050 5dbb 6d31 f2bc 8337 34bc 9696 b73d
000001b0: 8b97 7b3d a1ae 173c 18b3 3e3b c8b1 cfbb
000001c0: 16e6 9b3d b549 40bc 1a9f a63d 3086 ecbc
000001d0: 557d a53d 6e47 6a3d 18b9 a9bc a784 53bd
000001e0: 567b 41bd 60df e83a 04f4 14bd d340 793d
000001f0: 577b ecbc 97a1 933a b24b 25bc 7bf4 db3c
00000200: 9af5 08bd c634 e4bc 13fd ac3d bf6b 883b
00000210: f21f 1bbc 7b9a b7ba 7d72 dbbc c08b 153c
00000220: d67a 863d 1e69 8aba f215 443d 1e2b 9ebb
00000230: 8ba1 61bd d964 653d a878 04bd dc4e 863d
00000240: d10a 9bbc 8561 86bb 6ace c1bb 81a6 373d
00000250: e02b fd3d ff24 993d c4ef d43c 2e02 88bd
00000260: 3c8c 373d 0404 e2bc 6278 0d3c ebae 203d
00000270: 5ecf 8abd 5026 4ebc ff24 2239 38ee b63b
00000280: dd7d 8b3c 5f78 f33d 34c4 fa3a 9e29 a0bd
00000290: 6f14 e0bc 495f 94bd 5ab3 31bd f530 0b3c
000002a0: f236 a3bb ab5a a2bd 99c6 82bb f2ce 29be
000002b0: 92ba 8e3c 5455 33bd 4ea6 7e3c d3d3 15bd
000002c0: aa79 9e3b 0e38 55bd 0256 393c ff04 493d
000002d0: 65ba c2bd fb8d 2abd 0316 f5bc 1b55 acbb
000002e0: 2f81 8fbc 294b 9dbd 49ed 7e3c f113 eabc
000002f0: 8636 8cb9 ea1f a23c 2162 ae3d d225 94ba
00000300: 2679 9a3c e2b1 4abd 7e94 5d3c a04f 37ba
00000310: d2ca 703d 424e b7bc 6b95 b5bc 40d3 0fbd
00000320: 1c41 a1bb 334d 21bd 3f0e 813e f96b 4abc
00000330: 2626 bb3c 00d7 c93b 9b54 bcbc 4319 2fbc
00000340: 79b2 acbc b80b 88bd 024c 4fbd c5ed 923c
00000350: a5f2 833d 4930 c33b baf9 c33c 5570 61bd
00000360: 7bfc 0cbd 72fb 99bd 96f3 843d e40c e03c
00000370: 9f87 013e 509d 46bb afb4 883d 5f70 ac3c
00000380: 51e9 8f3d 323e a9bc 357a 813d f523 81bd
00000390: 4897 adbd 142f a1bd 9ee8 d33c b406 32bc
000003a0: 8f9f d1bc 1c34 4bbd 7d36 893c beeb 93bd
000003b0: 023a 72bc 427b 65bd c51c a3bd f55b 81bd
000003c0: 3aa7 60bc 3566 1f3d d54b 243c e003 8c3d
000003d0: f784 d7bb 449b 37bd 3cfd 1abd 5220 6f3c
000003e0: ba2d b1bc e997 803c 61a1 8cbd 6434 3b3b
000003f0: 0ee9 72bd 5a2a f83c 5dc0 f7bb cb3b b83d
-0.022861019 -0.018461952 0.06385682 0.045466635 -0.05705036 0.053078353 0.042215798 0.04444596
-0.035171527 -0.006152054 0.014386923 0.0026614605 -0.0040455195 0.0172236 -0.043776873 -0.007979686
-0.007505961 -0.026920594 0.00948862 -0.016646268 -0.006270368 0.00895107 0.0396862 0.082270615
-0.0033109125 -0.015815794 -0.0012053475 -0.021905892 -0.20952985 0.053715724 -0.06851787 -0.032234214
0.005051032 0.015775446 0.0013655938 0.0926157 0.06510368 -0.03406952 0.03089871 -0.03787584
0.14511783 0.004805197 0.0010526949 -0.023451943 0.021368915 0.01677127 -0.010603974 0.014928229
-0.026468147 -0.016262844 -0.04054552 -0.008556144 -0.0058251633 -0.011840774 -0.060425278 -0.001955403
0.08308377 0.011067928 0.07734885 0.114991285 -0.00951989 -0.02847345 0.028840063 -0.027558524
-0.06347896 -0.010395809 0.014747254 0.13144456 0.052478634 0.033598088 -0.041262347 -0.010412483
0.05904163 -0.007889042 0.061423972 -0.07806812 -0.027345346 0.16310817 0.08011267 -0.010228848
0.033849828 -0.099285446 0.012027113 -0.06903069 -0.0184571 -0.011108034 -0.002061908 0.01015165
-0.05333663 0.009297576 0.04770764 -0.029136945 -0.06493508 -0.009671128 0.03488847 0.03154791
0.061890632 -0.043848537 0.011902082 -0.034242798 -0.052039422 0.01643468 0.057791118 0.039730053
-0.003376998 -0.029564584 -0.010999563 0.08964269 0.06142382 0.009257943 0.0029098447 -0.006338332
0.07612245 -0.011736323 0.08135815 -0.02887258 0.08080546 0.057197027 -0.020718142 -0.05164018
-0.047236763 0.0017766766 -0.036365524 0.060852837 -0.028867407 0.0011263367 -0.010088848 0.026849976
-0.03343735 -0.027857196 0.084467076 0.004163235 -0.009468066 -0.0014007831 -0.02678799 0.009127557
0.06566398 -0.0010559892 0.04787249 -0.0048269173 -0.0550857 0.05600438 -0.03234163 0.0655801
-0.018926056 -0.0041009807 -0.005914499 0.044836525 0.12361884 0.074777596 0.025993235 -0.06641041
0.044811472 -0.027589805 0.0086346585 0.039229315 -0.067778334 -0.012582377 0.00015463306 0.005582597
0.01702779 0.11888193 0.0019131959 -0.07820438 -0.027353493 -0.07244737 -0.043383934 0.008495559
-0.004980915 -0.0792745 -0.00399096 -0.1658285 0.017422948 -0.043782547 0.01554258 -0.036578964
0.004836281 -0.05205541 0.01131201 0.04907703 -0.09508208 -0.04163931 -0.029917723 -0.005259169
-0.017517654 -0.07680351 0.015559503 -0.028573962 -0.00026743504 0.019790608 0.0851481 -0.0011302775
0.018856596 -0.04948605 0.013524173 -0.0006992761 0.058787175 -0.022376183 -0.022165975 -0.035113573
-0.0049210917 -0.039380264 0.2520618 -0.012354844 0.022845339 0.006159663 -0.022989562 -0.010687175
-0.021081196 -0.0664286 -0.050609596 0.017935643 0.06442765 0.005956684 0.02392279 -0.05503877
-0.03442047 -0.075186625 0.06491773 0.027349897 0.12649392 -0.0030306168 0.06675088 0.021049676
0.070269234 -0.02065954 0.06322137 -0.063056864 -0.0847612 -0.078703076 0.025867756 -0.010865856
-0.025588779 -0.049610242 0.016749615 -0.07222699 -0.014784338 -0.05602575 -0.07964472 -0.063163675
-0.013711745 0.03891583 0.010027845 0.068366766 -0.00657713 -0.044825807 -0.03783916 0.014595108
-0.02162825 0.015697436 -0.06866718 0.0028565163 -0.05930429 0.030293632 -0.0075607733 0.089957796

bias f4 [8]
00000000: 6bc2 4cbc 1df4 e2b7 360d 433d b557 3cbd
00000010: d86a af3c 0755 88b8 141c 513d e9ce 053d
-0.012497525 -2.7054974e-05 0.04762002 -0.04598208 0.021413252 -6.500823e-05 0.051052168 0.032668028

weight f4 [256, 8]
00000000: 4eac 2c3e af1f a1be a10b 983e 7363 d9bd
00000010: ba2e 1e3e 651e 54be ef7c 823e 483b 78bc
00000020: d305 a93e c5bc 63be 9b36 ddbb 1543 653d
00000030: 3309 11be 08f3 253e 985b 073c 9b74 a23d
00000040: 36e5 efbe 901a 3ebd f68c 5d3e 3cc6 cebe
00000050: 6331 1a3e 9c80 48be 5b2e 573c efc2 bb3e
00000060: b27f c43c 56e2 bcbd d91b 013e 71cb 41bd
00000070: d8dd 093e da9d 21bd 4e0b ae3e c1fa 6dbe
00000080: 1565 a83d 4a9e bb3d b246 cdbe b3ef 7a3e
00000090: 8be9 9b3e fd4b 823e 49db 263e 2fe1 643e
000000a0: a99f 8abe 0e4d bf3e 9a3f 93bd 8560 433d
000000b0: 425b 8bbd 4cee 9e3e 53af 2b3e 5561 39be
000000c0: 1082 0b3e 7c89 953e 5167 f63d 129f 0e3e
000000d0: 08ee 7c3e 01cc c5be 3fa0 a33e 9ca3 0c3e
000000e0: d5bf 84bd e27c 96be 6689 94be 38fe 45be
000000f0: c644 3abe 5dbf 7cbe b5d1 0bbe 3a23 18be
00000100: f6b4 9c3e a824 e63c 7979 543d 6038 1bbb
00000110: e264 8cbc de27 653c 2720 7c3e 77be 8dbe
00000120: 85f6 043e 5a99 8fbe 4f27 9a3d df6c a6be
00000130: 1882 b73d c84e 41be 2dd5 9fbe 0e6b 9e3e
00000140: 361c 6cbe 9b86 eabd ed31 98bd a1aa f1bd
00000150: 8f3f c6be 6fbc 9fbe b46c 843e f059 053e
00000160: 9935 313e 7406 28be f0c2 c23d 2d84 293e
00000170: de73 573e ef28 a6be 3c88 67be e7f6 7f3e
00000180: e3cb d93d 8c36 8ebd fc0d 01be 4cae b13e
00000190: 6442 063d 52f0 4cbe ccf6 87be 56ba 23be
000001a0: 30b7 c63c 0755 473c 11a5 e4be 9e6d 06be
000001b0: 976e c13d 99a6 243e 968b b73e f5bb 5ebd
000001c0: f5ff c9bd 7602 673e 60a9 5d3e dbd7 a6be
000001d0: fa86 623e 3e9c 34bc 26d4 07be 2bb3 66be
000001e0: 3bf6 94be c306 6c3e 6c5b 223e fb84 7bbe
000001f0: ffb0 00bd ee62 053e 3a1b a6be faf4 663e
00000200: 6950 29bd 2bf9 afbe fde0 17bc bfa1 7f3e
00000210: a680 6f3e ceb4 563e b21a 743d d68e dabd
00000220: 9fca 483e afb7 363e f4d5 6c3e b0f1 413e
00000230: 8620 80bd a49e 22be 7297 df3c f6a9 6fbe
00000240: 7dc1 edbb f7d5 39bd e2d2 5b3e b81f 283e
00000250: 8dbe 62bd 8b7c 99be dd3f aa3e 5d5b 483e
00000260: 7a71 9a3e d16c 05bd 9d15 0cbf 6c06 d1bc
00000270: 1e52 113e e7ab 2d3e 8341 583e 5ece 92be
00000280: 7cab 56be 1d87 f93d 2c94 7f3d c25a 7dbe
00000290: b789 003e 6dc7 763e bf19 5bbd ff3b a2bd
000002a0: 2df7 9c3d e4b0 e43e 99b6 23be 5b27 b7bc
000002b0: cd8b 18be 5fed 28bd 5a63 983e f850 bfbe
000002c0: 59c7 963d 70d6 143e 1a9b 9fbe 03ae 1f3e
000002d0: 1337 c4bd 8353 f1be dfd4 013f b979 50be
000002e0: a65d 663e 9969 83be d992 a03e a21c 5fbe
000002f0: 322a 2c3e b997 ddbe 966d 013e 5f1f 2b3e
00000300: 1be6 65be 9d33 5b3e 4fee 8dbe ce0a 29be
00000310: 4614 9fbd 9406 97be ad85 6d3e bd38 a23e
00000320: 1950 a0bd 6dbb 4a3c 50a3 95be 9a15 a33e
00000330: 55fb 723e bb10 653e 9125 babd 1da1 24bd
00000340: 214a c1be 9ba6 a2be b949 313e 89c8 3a3e
00000350: 6288 66be 018f e1bd 74f1 9c3e 02c9 c3bd
00000360: 1e4f 183e 3e0e 99be bb60 4f3e 0ae7 2abe
00000370: 0ce4 a4be b583 833e 06e4 093e 377f 44be
00000380: 6222 acbe a188 2a3e cbc4 86be 008a 2d3d
00000390: 1520 5f3e bcdb a3be f2bf a1be 6d20 b1bc
000003a0: 4d62 85be 873a 9b3e 58d8 293e c5a3 cbbd
000003b0: af94 763e ae95 3a3e d992 33bd 5535 cd3d
000003c0: 0447 b1bd f525 80be 7c17 623d 03c5 c6be
000003d0: 9743 73be 4395 743a 0f65 85bd 258c 3f3e
000003e0: 4d35 033e d822 62be 9b82 9cbe 5f03 02be
000003f0: ca04 b9bd 5130 2bbd 5b2d 8abe 25fa b73e
0.16862604 -0.31469485 0.29696372 -0.106146716 0.15447512 -0.2071472 0.25485942 -0.0151508525
0.33012256 -0.22239979 -0.0067508942 0.055972178 -0.14163665 0.1620599 0.008261584 0.07932397
-0.46854562 -0.04641205 0.21635804 -0.40385616 0.15057902 -0.1958031 0.013133611 0.3667216
0.023986671 -0.09222858 0.1260828 -0.047313157 0.13463533 -0.03945718 0.33993 -0.23240186
0.08222405 0.091610506 -0.40093 0.245055 0.30451617 0.254486 0.16294588 0.22351526
-0.27074936 0.37363476 -0.071898654 0.04769947 -0.068045154 0.3104118 0.167661 -0.18103535
0.13623834 0.29206455 0.12031425 0.13927868 0.24700177 -0.38632205 0.31958196 0.13734287
-0.064819016 -0.29392153 -0.29011077 -0.19335258 -0.18190297 -0.24682374 -0.13654216 -0.14857188
0.30606812 0.028093651 0.051873658 -0.0023684725 -0.017137948 0.013986556 0.2462164 -0.27684376
0.12984665 -0.28046685 0.07527029 -0.32504937 0.0896036 -0.18877709 -0.31217328 0.3094105
-0.23057637 -0.11451455 -0.074313976 -0.11800123 -0.38720366 -0.3119845 0.25864184 0.1302259
0.17305602 -0.16408712 0.095098376 0.16554327 0.21040294 -0.32453105 -0.22610563 0.2499653
0.106345914 -0.06943998 -0.12602991 0.3470329 0.03277816 -0.2001355 -0.2655548 -0.1598905
0.024257272 0.012166268 -0.44657186 -0.13127753 0.094449215 0.16079177 0.35848683 -0.05437847
-0.09863273 0.22559533 0.21646643 -0.3258656 0.22121802 -0.011023579 -0.13264522 -0.22529285
-0.2909411 0.23049454 0.15855187 -0.24562447 -0.031418797 0.1302602 -0.32442647 0.22554389
-0.04133645 -0.34369788 -0.00926995 0.24964045 0.23388919 0.20967409 0.05959577 -0.10671775
0.19608544 0.17843507 0.23128492 0.18939853 -0.06256203 -0.15880829 0.027293894 -0.23404679
-0.0072557316 -0.04537007 0.21467164 0.1641835 -0.055357505 -0.2997783 0.3325185 0.19566102
0.301647 -0.03257448 -0.5472048 -0.025515758 0.14191481 0.16960107 0.2111874 -0.2867307
-0.20963854 0.12183974 0.062397167 -0.24741653 0.12552534 0.24099512 -0.05349135 -0.079215996
0.076643325 0.44666207 -0.15987624 -0.022357633 -0.1489708 -0.041242 0.297633 -0.37366462
0.07362241 0.14534926 -0.3117302 0.15593724 -0.09580817 -0.47134027 0.5071544 -0.20358934
0.22496662 -0.25666502 0.31362036 -0.21788266 0.16812971 -0.43279818 0.1263946 0.16711186
-0.2245106 0.21406408 -0.27720878 -0.16508028 -0.07767539 -0.29497206 0.23195525 0.31683913
-0.078277774 0.012373787 -0.2922616 0.31852418 0.23728688 0.22369663 -0.090891965 -0.040192712
-0.37751868 -0.31767735 0.17313279 0.1824056 -0.22512963 -0.11013604 0.30652964 -0.095598236
0.14873931 -0.29893678 0.20251743 -0.16689697 -0.32205236 0.25686422 0.1346589 -0.19189154
-0.33619982 0.16653682 -0.26322016 0.042367935 0.21789582 -0.32003582 -0.31591755 -0.021621907
-0.2605156 0.3031809 0.16586435 -0.09943346 0.24080156 0.18221161 -0.043841217 0.10019938
-0.08656123 -0.2502896 0.055198178 -0.38822183 -0.23756252 0.0009330103 -0.06513416 0.18705805
0.12813301 -0.22083604 -0.30568394 -0.12696598 -0.090341166 -0.041794125 -0.26987728 0.35933033

bias f4 [256]
00000000: cd88 b33d 6af9 07be f1e1 0dbe 451e e43d
00000010: 6a46 923e ff1c 41be ecdc 963e 17dd b43d
00000020: b630 893e 2400 3bbe 8684 41be af05 993e
00000030: 776b 6ebe efc9 c1bd 3f15 483e 5ff5 2bbd
00000040: 619e 803b aff1 95bc ac0a 2cbe 239a 25ba
00000050: 2439 163d d3f7 0b3e 3032 063e d93f c8bd
00000060: 8bd3 653e f3e1 4a3e 7909 9ebe 6f8a 25bd
00000070: 8752 a03e fcb0 16be ed0a 71be 772b 4f3c
00000080: 670e 0f3e 7f61 173d 5dad 063e 6c51 d6be
00000090: 950b b4bd dfb9 663d d8f5 a6bd bc8d 33be
000000a0: 040e a43e 188c cdbd 2248 acbc 4965 e93d
000000b0: 885f 72be e958 923e cadb 353e 8f8c 46be
000000c0: 465e 0ebe 707e 083e e991 fdbd 4b94 723d
000000d0: a0ac 73be 1961 f13d fbe1 e4bb c210 8fbe
000000e0: c07b b4be f480 633e 27ab babb 6bd6 dcbd
000000f0: 26c2 da3c f0fb 0abe 68e7 f6bd d0c0 9a3e
00000100: f4d2 8d3e 9a92 7dbd 3a37 8ebe f56d dd3d
00000110: d272 da3d b6ee b4be dc19 713d 8742 a63e
00000120: 5d73 663e cd49 873e dc23 c2bd 5d19 8a3e
00000130: 8753 183e bce2 5a3e 3edd 6ebd 8362 81be
00000140: c02c 913d 958e a2be 718d a33e b4f8 883d
00000150: d142 103e 124c 773d 9d0e 893e f472 c3be
00000160: 109f 6fbd 81a9 5d3d 7dcc 463d 4f17 adbe
00000170: e919 343e 43dc a2be 1100 d8bd 288c e3bd
00000180: 9c2c 11be d4b0 4abe 32dd 013d 967f 58bd
00000190: 2b27 e3bd 6b8c eebc 8575 8c3e 9431 9d3d
000001a0: 0d90 afbe 2639 3bbd 097d 833e 9af7 08be
000001b0: ce5a b5bb 5aab a6bd 4a89 e93d 8694 803e
000001c0: ce01 9bbc 4dd4 fbbd 75f0 08be 1422 443e
000001d0: eb0d 193e 89ab 683e a27b 873e dfea 823c
000001e0: 7656 66be d68e a3be 15ad 91be ef45 9b3e
000001f0: 1c64 8dbe 1ba3 07be cc86 823e 743f 163e
00000200: 5fbf c6bd 103d 6dbe 8d71 1bbd ecb3 cc3d
00000210: 2211 35be 544a 60be 96be 203e aeff 1c3e
00000220: d1f1 a43e c664 413d f515 64be d0cd 563c
00000230: 8d16 f5bd a4f5 5b3d e311 9ebe 8988 53be
00000240: e3ee 42bd 704b 293d 496c 5cbe f9d0 e4bd
00000250: 402d abbe 8489 5bbd be28 08be 8984 6dbe
00000260: f93c 97be 459a dabc cb02 1d3e 7799 363d
00000270: 1ea4 3e3e ae19 343e 2f4f adbd cd93 5fbe
00000280: 6970 5e3e 6cef 6cbe 5aff 8c3e 21d5 353d
00000290: 914f 603e 7f07 133d fc21 ff3c c265 853e
000002a0: f845 a9be 0693 92bd c5b0 cd3d ab01 8d3d
000002b0: aa9e 9b3e 4fac 943e a34e 51be 04c7 a33e
000002c0: ae2a 7a3e fd58 3d3e 9078 97be 0ec7 42be
000002d0: 4bc1 e1bd cd61 7abd 961e 76be a8e9 6e3e
000002e0: a336 2b3e 03a5 74be c6e0 65be dee0 873e
000002f0: 00c4 c33d 6fec 5e3e 1798 09bd 88e5 8d3e
00000300: a143 8f3e 6248 eabd 20d5 4a3e b9d3 9a3e
00000310: fc3f 3c3e dfab a2bd 6c73 6a3d 9a42 943b
00000320: b058 37be 6d94 73be b680 89be 5d1c ad3d
00000330: 93cb aa3e 0467 02be 9438 d33c 2821 3bbe
00000340: 5092 2cbe 360e 4e3e 5dfa 2ebe d6ca 91bd
00000350: 99f2 a23e 3a53 82be c85a 993d 0f3c 3bbe
00000360: 7b6c 1c3d dc8b 9f3e 1040 1b3e 369d 89be
00000370: c2c1 8c3d 4cc0 c7be 8bb8 55be 6983 7b3e
00000380: 473e 2dbe 6f6b 8abe d613 89be da25 993e
00000390: 13db 203e c898 d0bd cda6 9ebe 6e91 783e
000003a0: 01c4 803e f228 583e 7a3b f9bd 4c47 e9bd
000003b0: c79e af3b 5df3 90bc 5761 f8bd 6d26 5a3e
000003c0: 9e32 43be b9f5 a23e bf3e 9d3c 5a39 04be
000003d0: 6c6b eebd 3fd9 853e 9294 6c3d 52ce 68be
000003e0: d320 a3bc 1fb0 9fbe c238 d93c 3005 253d
000003f0: 5391 b8be b69f a3bd c542 7c3e 6fe1 713e
0.08766327 -0.13278738 -0.13855721 0.11138586 0.28569347 -0.18858717 0.29465425 0.08831232
0.26794976 -0.18261772 -0.1889821 0.2988715 -0.23283182 -0.09462344 0.19539355 -0.04198205
0.0039251302 -0.01830372 -0.16800946 -0.00063172186 0.036675587 0.13668756 0.13105083 -0.09777803
0.22443978 0.19812755 -0.30866602 -0.040415224 0.31312963 -0.14715952 -0.23539324 0.01264464
0.13970338 0.036958214 0.1315207 -0.41858995 -0.087912716 0.056329604 -0.0815236 -0.17534536
0.32041943 -0.100364864 -0.02103049 0.11396272 -0.23669255 0.28583458 0.17759624 -0.19389556
-0.1390315 0.13329482 -0.12381346 0.059223454 -0.2379632 0.11786098 -0.006984947 -0.27942473
-0.35250664 0.2221716 -0.0056966725 -0.107830845 0.026703905 -0.13572669 -0.12055856 0.3022523
0.27700007 -0.06190739 -0.2777651 0.10811988 0.106664315 -0.35338372 0.058862552 0.3247263
0.22504945 0.26423493 -0.09479496 0.26972476 0.14875613 0.21375555 -0.05831646 -0.2527047
0.070886135 -0.31749406 0.3194385 0.06688061 0.14087988 0.06037528 0.26768962 -0.3817364
-0.058501303 0.05411673 0.04853486 -0.33806846 0.17588009 -0.3180867 -0.10546888 -0.11110717
-0.14177173 -0.19794017 0.03170509 -0.05285605 -0.11091455 -0.02911969 0.2743341 0.07675472
-0.3428959 -0.045708798 0.25681332 -0.13375703 -0.0055345064 -0.081381515 0.11403139 0.25113314
-0.018921759 -0.122963525 -0.13372977 0.19153625 0.14946716 0.22721685 0.26461512 0.015981136
-0.2249392 -0.31944913 -0.28452364 0.30326793 -0.2761544 -0.13245814 0.25493467 0.14672643
-0.0970447 -0.23167825 -0.037950087 0.09995255 -0.17682317 -0.21903354 0.15697703 0.15331909
0.3221574 0.047215246 -0.22274001 0.013110593 -0.11967192 0.053701058 -0.3087302 -0.20657553
-0.0475911 0.04133171 -0.21525683 -0.11172671 -0.3343296 -0.053597942 -0.13296792 -0.2319509
-0.29538706 -0.02668489 0.15333097 0.04457995 0.18617293 0.17587921 -0.08462369 -0.21833725
0.21722569 -0.23138207 0.27538568 0.04439271 0.21905352 0.03589582 0.031144135 0.26054198
-0.33061194 -0.07156949 0.10043482 0.06885084 0.3039449 0.2903771 -0.20440154 0.31987774
0.24430344 0.18490978 -0.2958417 -0.19021246 -0.11023196 -0.061128426 -0.24035105 0.2333132
0.16720061 -0.23891072 -0.22449026 0.26538748 0.095588684 0.2176988 -0.03359231 0.2771418
0.27981284 -0.11439587 0.19807863 0.30239657 0.18383783 -0.07942938 0.05723898 0.004524541
-0.17904925 -0.23787089 -0.2685601 0.084526755 0.3335844 -0.1273461 0.025783814 -0.18274367
-0.16852689 0.20122609 -0.17087694 -0.07118766 0.31825712 -0.25454122 0.07488018 -0.1828463
0.038189393 0.31161392 0.15161157 -0.26877755 0.06872894 -0.39013898 -0.20871179 0.24561848
-0.16918288 -0.2703509 -0.26772946 0.2991169 0.1570857 -0.10185391 -0.30986634 0.24274227
0.2514954 0.2110937 -0.121695474 -0.11390552 0.005359504 -0.01769417 -0.12127941 0.21303721
-0.19062278 0.31828097 0.019194959 -0.12912503 -0.11641583 0.26142308 0.057758875 -0.22734955
-0.019913113 -0.31189057 0.026516322 0.04028815 -0.36048374 -0.07989447 0.24634846 0.23621152
