models/embeding_models/embeding_v1_16_dim.pt (torch, 394126 bytes, 12 tensors)

weight f4 [256, 47]
00000000: a095 06bc 3122 173d 46b4 d43d c9aa b43d
00000010: 7191 213e f7e9 923d 85cc bbbd d54a 123e
00000020: c185 b93d 371e f53d 0104 86bd d263 99bd
00000030: 367f e33d 53d5 05bd 07a9 373c 7f52 88bd
00000040: 388e 42ba a32a 8e3d 69d6 35bd 1d6f 4ebd
00000050: 234f 833d be71 903d d195 963d 9211 cebc
00000060: 6e9b 91bc c026 833d b941 debd e7f0 113e
00000070: 1880 4b3d 12ce a5bd 28da e93d f76a f1bd
00000080: 635d 4bbd 251b 95bd e89f 273d d644 5a3d
00000090: b6b3 83bd b8a3 dfbd ebe1 3b3d 777d 983c
000000a0: db37 013d 9665 eb3d 761d 14be ea20 dc3d
000000b0: 7f2e be3d e603 8abd aac0 74bd d50a a53d
000000c0: 93de 0bbe f53b 54bd 5a8a dfbd 1fdd 223c
000000d0: d76a ce3c 5ef1 c2bc 4bd6 a6bb 6682 9a3d
000000e0: 89ec b53d 6dac b1bc 9161 473d bd38 ecbd
000000f0: 9159 f03d 3a5c acbd a869 0abe 278b 65bd
00000100: fd4e b83d 5588 87bd a5a5 88bd c018 4b3d
00000110: 36b3 d33d fc07 233e 2b94 b7bd b893 813d
00000120: c465 afbd 5ec4 69bd 435d 1d3e 4f8e fe3d
00000130: 20f3 303e 3a59 1f3e ef17 64bc 382e f23d
00000140: 32ad 903b 09dc 63bc 0101 fc3d da00 5dbd
00000150: ba13 04bd 9f5a 233e 01d2 a2bc e421 19bd
00000160: 168f 213e c9e6 fb3c cce5 053e 17b5 2c3d
00000170: 3ca8 8fbd 8611 6dbd 244e f33d 38d3 853c
00000180: e53c c9bd 1e5c 90bd 236c 803d e131 de3c
00000190: 6c9e fbbd cd42 f03b 1b3a 393c 666d 123e
000001a0: 76c5 973d 960c 653d e4b1 eebd 56b8 6c3d
000001b0: 406d 52bd 1e87 debd 4b07 e43d c5ad de3d
000001c0: ebb6 d93d 156c 1dbd 873f 97bc e24e 063c
000001d0: 0043 8fbc 9cc4 8abb 9989 033e a3ff a23c
000001e0: 87e4 72bd 27f4 92bd 5e07 083e 9b87 053d
000001f0: 4d21 28be c3e7 843d 085a 073e f7e5 9c3b
00000200: b5aa debd 7d56 f33d a886 5d3c d811 e2bd
00000210: 9102 8cbd 5575 0bbe 4253 f63d 307c bebd
00000220: c5e3 72bd b8e6 d9bd bc20 c23d e4a4 1ebb
00000230: 5139 03be 7fe7 53bd 1e1b d9bd 2554 313d
00000240: ca95 d53d ba1d 09be 4d85 0ebe 6382 a1bd
00000250: 0583 b7bd 5e71 11bd 1282 9cbd c665 76bc
00000260: 0d00 f93d 737a 58bd 46c1 543d 7ba9 f4bd
00000270: c485 ce3d 470f 18be 7025 09be 4f00 323d
00000280: 4630 ee3b 10a6 6ebc b400 ecbc ffcc a4bd
00000290: ec42 153e f918 0a3e a353 0f3e fee3 0f3e
000002a0: 8857 183e 1bd6 a3bd 6a39 003e 21a8 9fbd
000002b0: 6a2f 223e a29a f5bb 1206 fabd 7572 6bbd
000002c0: 16c2 333e e577 d9bc 9bb5 ed3d c16b d0bd
000002d0: 6fe3 9ebd af70 f53d 53ca e7bd b8b2 78bb
000002e0: 65e2 15bd 3e1b bbba 113f f93d 67c7 96bd
000002f0: 2c45 063e 6974 923c 4c02 55bd a88d a73c
00000300: d5fa 683d fa1f 88bd c0be 943d 9cb5 b03d
00000310: 34bd 6c38 e1e2 0dbd 3667 f6bd 23d3 c5bd
00000320: 0655 f6bd 77cd f13d bd5c 8d3d b1e2 91bd
00000330: 52d7 c5bd 5a88 8b3d 155e fcbd 73ef bc3c
00000340: e612 923d 8a18 913d 5080 a0bd a987 9e3d
00000350: f3c9 cb3d 742d 9abc 801c 2a3e 4a1e fd3d
00000360: 009a 703d 61d8 8ebd 9de4 6b3d a525 71bd
00000370: 63ce 233d d909 e03d 767e e8bd a7ec ee3d
00000380: 005f ebbd eed8 c5bd 0553 d5bc 5915 173e
00000390: 4575 d23d 3030 7b3c 2147 34bd 8353 3fbd
000003a0: 3a13 a53d 1dbf e4bd fbdb 643d c6b7 c7bd
000003b0: 2318 683d d2f1 6f3d 9fed cfbd 3b70 0ebe
000003c0: 7986 96bd ff25 fd3d a5b6 b13d 778d f03a
000003d0: fd17 d23d 77ab cabc 756c 69bc 66bd ba3c
000003e0: 25ac 883d 3dc4 ef3d d43a 0fbe 7251 9cbc
000003f0: 8d69 ca3d 878c 1dbd 4d14 4b3d a05c 56bc
-0.008214384 0.03689784 0.10385947 0.08821637 0.15778138 0.071735315 -0.091698684 0.14286359
0.09058715 0.11968654 -0.065437324 -0.07489742 0.11108248 -0.032674145 0.011209733 -0.0665636
-0.0007421705 0.06941726 -0.04439393 -0.050398935 0.064115785 0.070529446 0.07352794 -0.025154863
-0.01777431 0.06403875 -0.10852379 0.14252053 0.049682707 -0.080959454 0.11418563 -0.1178798
-0.049649607 -0.07280568 0.040923983 0.053288303 -0.064307615 -0.10919899 0.04586975 0.018614514
0.03154741 0.11493985 -0.14464363 0.10748465 0.09286212 -0.06739025 -0.05975405 0.08058707
-0.13659124 -0.051814992 -0.1091506 0.009940415 0.02519743 -0.023796733 -0.0050914637 0.07544403
0.08883006 -0.021688664 0.04867703 -0.115342595 0.117358334 -0.08416028 -0.13516867 -0.05604091
0.08999441 -0.066178 -0.06672219 0.04958415 0.10336916 0.15921015 -0.08963808 0.06327003
-0.08564332 -0.057072036 0.15367608 0.12429487 0.17280245 0.15561381 -0.013921722 0.11825222
0.0044151777 -0.013907441 0.12304879 -0.05395589 -0.032245375 0.15952538 -0.019875528 -0.037385836
0.15777239 0.030749695 0.13075942 0.04216489 -0.0701451 -0.05787804 0.118801385 0.016336069
-0.09826068 -0.0704882 0.062706254 0.027123393 -0.12286076 0.007332182 0.011305357 0.14299545
0.074107096 0.055920206 -0.11655024 0.057792984 -0.05137372 -0.10865615 0.111342035 0.10872988
0.10630592 -0.038433153 -0.01846291 0.008197518 -0.017488003 -0.0042348634 0.12845458 0.019897288
-0.059299972 -0.071754746 0.1328406 0.032600027 -0.16418953 0.064895175 0.13217938 0.004788156
-0.108724035 0.11881731 0.013520874 -0.1103856 -0.06836427 -0.13618977 0.12027599 -0.09301031
-0.05929925 -0.10639709 0.094789 -0.002420717 -0.12814833 -0.051734444 -0.10600875 0.043293137
0.104289606 -0.13390246 -0.13918038 -0.078861974 -0.08960537 -0.035508506 -0.076419964 -0.015038913
0.12158213 -0.05285115 0.051942132 -0.11946388 0.100841075 -0.14849578 -0.13393188 0.043457326
0.0072689382 -0.01456596 -0.028808929 -0.080469124 0.1457631 0.13486089 0.13996749 0.14051816
0.1487714 -0.07999822 0.12521902 -0.0779574 0.158384 -0.0074952403 -0.12208189 -0.0574822
0.17554507 -0.026546428 0.11606904 -0.101768024 -0.07758223 0.11984383 -0.11317887 -0.0037948322
-0.03659286 -0.0014275087 0.12170232 -0.07362252 0.13112324 0.017877774 -0.052004144 0.02045329
0.056879837 -0.06646724 0.07262945 0.08628389 5.6442994e-05 -0.034640197 -0.12031405 -0.09659412
-0.12027936 0.118067674 0.06902454 -0.07123316 -0.0966021 0.06813116 -0.12322632 0.023063397
0.07132511 0.070847586 -0.07836974 0.07740719 0.09950628 -0.018820502 0.16612434 0.12359293
0.058740616 -0.06974865 0.05759107 -0.05887379 0.039991748 0.10939378 -0.113522455 0.116662316
-0.11492729 -0.09660517 -0.026040563 0.14754237 0.10276274 0.015331313 -0.044013146 -0.046710502
0.08060308 -0.111692645 0.055873852 -0.09751849 0.056663644 0.058580227 -0.101527445 -0.1391
-0.073498674 0.12360763 0.08677415 0.0018352707 0.10258482 -0.024739964 -0.01424705 0.02279539
0.06673459 0.11707351 -0.13987285 -0.019081805 0.098834135 -0.038464095 0.049579907 -0.013083607

bias f4 [256]
00000000: c9db ae3d c84b 06be 1599 df3d 8b56 18bd
00000010: 3f52 5cbd c1a3 c2bc 25d3 183e 1eca bdbd
00000020: 1acd 19be 1ce4 cebd 4cf8 82bd 0851 ed3c
00000030: 7032 093e 1026 f3bd 5958 f3bd 52d1 b63c
00000040: 144d 063d a4c5 043e d166 fbbc 0306 01be
00000050: 383c d4bc 1283 143c bee9 53bd 5805 043e
00000060: 666b 90bb 16d3 d4bd 29b1 ffbd 4320 553d
00000070: 97ef 813c 1cdf 03bb f3a6 a13d ca82 91bd
00000080: ba7a debd b7fa 773d 3172 c03c a806 25bd
00000090: ca35 053e 0fb3 81bd c42c 8fbd 045c 88bd
000000a0: 35db 913d 6658 29bc 99bd 7e3c faa5 2b3e
000000b0: 15dc 0bbb e30e 0b3d b7b3 203d d193 dabd
000000c0: 6d91 80bd 0ac8 073e b82c 56bd 1c63 993d
000000d0: ccf1 d83d 3abd f23d 1e1a 1dbd 49fa 133e
000000e0: 2c48 cfbb feac f63c 1caf 84bd a601 c2bd
000000f0: 949b b43d 3689 acbd b99a 5dbd 7635 353e
00000100: bf29 1cbd a640 9cbd 979b d43d bc83 7f3d
00000110: 5654 523c af4d 163d 3484 5bbd 5559 68bd
00000120: 65c0 f03b 5e54 923a 822d 563d a2bc 07be
00000130: 729d d0bd b04c f93b 3d25 9cbd 79ee 11be
00000140: 17b6 ea3d 79f1 003d 24dd 373d e18b 993c
00000150: 9f74 073e d99e 003c 2c4d 0a3d 4f29 0f3e
00000160: 5d69 5fbd 92bf 04be 019d 0abd fb1e 0c3e
00000170: b88a b73d 6501 fdbd c9e4 2dbd 8170 0c3e
00000180: cee4 563c 4ecc e23d 69b1 fc3d fbce 1bbd
00000190: 354a 053e de46 373d 43bc 80bd a466 ac3d
000001a0: e7a0 9dbd 126e 15be 8fb4 013e d15b 6bbd
000001b0: b04c 993d 26e5 a93d d1c9 63bd 8aff ae3d
000001c0: e698 3fbd 89f7 25bc bc7b 4f3d e98c 4cbd
000001d0: 2beb a63d 8df1 5f3d 4e57 db3d 79b3 183e
000001e0: 6baf 673d 128b 063e 80f7 003d 0268 ad3d
000001f0: 983a e63d 593c 793d 26bd e33d 046d d43d
00000200: 0455 693d 2d11 86bd ea40 823a c608 fcbc
00000210: 112a 1c3e 5515 ed3d 7dcf 8bbd 0a30 233d
00000220: 65ba eb3d 940b c1bd 1d13 283d 0f9c ccbd
00000230: a2fd 16bd 7fe5 583d 232e fabd e14e 653e
00000240: 8a1e 4d3d dda6 7dbc 902c 133e fa88 e9bd
00000250: 66d1 d5bd a966 da3d d366 f53d ab02 493d
00000260: 3dd7 af3d d974 35bc e39f 053e ed36 d9bd
00000270: b472 cf3d 1144 afbd 425e bb3c 9cda fa3d
00000280: 9a64 9abd 5ef1 45bd a8ef 193e 0145 b53d
00000290: be19 c5bd 3a74 c33d 9bd0 813c f3bf de3d
000002a0: 8968 0e3e 96b7 0d3e 255e 193e bb09 07be
000002b0: 1e8a 17bd f4d3 f1bd 978c 1d3d e1c3 d13c
000002c0: f26f f53c f0ea 6f3e 155f 133d 456b e1bd
000002d0: 053a dfbc bbad a93d fbf6 2abc 62cc be3d
000002e0: eeef 0c3e 51dd 43bd 3948 24bd d373 7abd
000002f0: 844d 97bd 3c8c b53d 24bb 863d 062a c6bc
00000300: de36 a2bd 64ca 043e 54cd 703d a072 263d
00000310: e67c f33d 9df7 3c3c 2bbb abbd c31f 5abd
00000320: 6aeb 5e3b a74d dc3c c738 6ebd 581d 44bd
00000330: a875 7e3d 5cc4 1a3d 4ede 26bd 90b0 ebbd
00000340: 8e02 873d 0e48 d63d f485 273e 2434 d03d
00000350: 71ea acbd 2070 083c 65bf b03d 1fcb eebd
00000360: 62aa 243e f051 69bd 024c e7bd df21 d43c
00000370: 4b79 03bc 2a89 133e 9742 e4bd 2d19 02be
00000380: 8e69 273d 033c 91bd 8380 ddbc 6fc8 913c
00000390: 2784 013b f9b1 d4bb d3be 87bd 2c31 18bd
000003a0: 16d2 30bd 82ba 4d3e 73b8 083e 7397 553c
000003b0: b7a6 eabd db60 24bd d6b6 b93d e60d ef3d
000003c0: 4c38 213e fdd4 d4bd e759 b13d ef13 0f3e
000003d0: 1d70 1a3e d77c 183e 84f8 843c aeb3 b63d
000003e0: c830 603c 452a 1f3e f4e0 c13b 9490 f83d
000003f0: 4591 353d 8cc7 afbd 616f d23d 62b9 0a3e
0.085380144 -0.13114846 0.1091787 -0.03719191 -0.053789373 -0.023759725 0.14924295 -0.092670664
-0.15019646 -0.10102102 -0.06395015 0.028969303 0.13398147 -0.11872494 -0.11882085 0.022316609
0.03278835 0.12966019 -0.030688675 -0.1259995 -0.02590762 0.009064453 -0.051736586 0.12892663
-0.004407334 -0.10391824 -0.124849625 0.05203272 0.015861316 -0.0020121997 0.07893171 -0.07105024
-0.10863252 0.060541835 0.02349195 -0.04028955 0.130088 -0.06332981 -0.0699096 -0.066581756
0.071218885 -0.010336017 0.015548133 0.16762534 -0.0021340896 0.033949744 0.03923389 -0.10672725
-0.06277738 0.13259903 -0.05228874 0.07489607 0.10592994 0.11852498 -0.038354985 0.14450945
-0.006325742 0.030111786 -0.06478712 -0.09472971 0.08818737 -0.084246084 -0.054102633 0.17696175
-0.03812575 -0.07629518 0.10381239 0.06238149 0.01283749 0.03669518 -0.053592876 -0.05672582
0.007347154 0.0011164059 0.052289493 -0.13255551 -0.1018628 0.007608019 -0.0762429 -0.14251126
0.11460512 0.031480286 0.04488863 0.018743457 0.13228081 0.007850372 0.033765003 0.13980602
-0.05454384 -0.12963703 -0.033841137 0.13683693 0.089620054 -0.123537816 -0.042454515 0.13714792
0.013116075 0.11074124 0.12338526 -0.03803919 0.13016589 0.04474532 -0.06285908 0.08418015
-0.07696705 -0.1459277 0.12666534 -0.05746061 0.0748533 0.0829566 -0.05561239 0.08544834
-0.046776675 -0.010129818 0.05065511 -0.04993907 0.081503235 0.05467372 0.107100114 0.14912213
0.056563776 0.13138989 0.031486034 0.084671035 0.112416446 0.060848568 0.111200616 0.103723556
0.056965843 -0.06546245 0.0009937559 -0.030765902 0.15250422 0.115763344 -0.068266846 0.039840735
0.11510161 -0.094260365 0.041033853 -0.09990703 -0.036862977 0.05295324 -0.12215831 0.22393371
0.050077952 -0.015481678 0.14372468 -0.11403079 -0.1044033 0.10664112 0.11982503 0.04907481
0.08585975 -0.011075222 0.13049273 -0.106061794 0.101293 -0.085579045 0.022872094 0.12248728
-0.075387195 -0.04832589 0.15032828 0.08851052 -0.096240506 0.09543653 0.015846541 0.10876455
0.13907064 0.13839564 0.1497732 -0.13187306 -0.036996953 -0.11808005 0.038464155 0.025606098
0.029960606 0.23429465 0.03597935 -0.11006788 -0.027249346 0.082850896 -0.010434861 0.09316327
0.13763401 -0.047818486 -0.04010794 -0.061145615 -0.07387832 0.08864638 0.06578663 -0.02418996
-0.07920621 0.12967831 0.058789566 0.04063666 0.11889057 0.011533645 -0.08385309 -0.053252947
0.003401483 0.026892496 -0.058159616 -0.047879547 0.062123924 0.03778492 -0.04073935 -0.11508286
0.06592284 0.10462962 0.16359693 0.10166195 -0.08443154 0.008327514 0.086302556 -0.11659836
0.16080621 -0.056962907 -0.11293794 0.025895057 -0.008024524 0.14407793 -0.111455135 -0.12704916
0.04087215 -0.070915245 -0.027038818 0.01779577 0.0019762607 -0.0064909426 -0.06628194 -0.03715627
-0.043169104 0.20090678 0.13351612 0.013036597 -0.114575796 -0.04013143 0.09068076 0.11672573
0.15744132 -0.10392187 0.08659726 0.13972448 0.1508183 0.14891373 0.016231783 0.0892099
0.013683505 0.15543468 0.005916709 0.12136951 0.044327993 -0.085829824 0.1027515 0.1354728

weight f4 [128, 256]
00000000: a783 eb3c 6e24 3dbd 0d6a 04bd 0938 25bd
00000010: d066 99bc ddc3 8b3c c0cf 4dbd c299 d03c
00000020: 7e30 4e3d e92c 6f3d 9ae4 ad3b 8070 5f3c
00000030: bd43 583d 685f 133d 9b38 21bc 07d0 5a3c
00000040: 7ac4 223b 6c4b 4b3d 455d 623c c912 19bd
00000050: 91cc d6bc 6492 2b3c 2bdf 71bd 1343 51bd
00000060: 1642 82bd 4d29 aebc f2e2 703d e8a2 4abd
00000070: 5685 7fbd 3e0c 0bbc c42b 443d 946c ba3c
00000080: de27 7dbd ae35 af3c 4daf 0fbd 853b 43bd
00000090: ab02 6d3d 68b6 cdbc 7c6a 2f3c bfd2 60bd
000000a0: 9452 0e3d 2277 7abd 52d5 c9bc e7df db3b
000000b0: 5763 f5bc 8ccb b83c 7252 c4bc 4cef 57bc
000000c0: 38a7 603d 2ddd 34bd 4eb0 3c3d 126e 78bb
000000d0: b123 593d 8082 353b 1044 323c c512 2abb
000000e0: 04b6 20bd 3699 69bd e8c0 32bd 261e 21bc
000000f0: 1c22 85bd d09f 9cbc 5d2e 353c c09f b7bb
00000100: 6284 4e3d 18b3 bf3c fc7c bdbc 35e1 803c
00000110: 7ee2 513d 6b5a 4abd 1552 c13c 392f 70bd
00000120: 83d1 9fbc b982 49bd 66b3 babc 93fe 1ebd
00000130: a0bf 1bbd 7d3b 213d de6f ff3b 44b9 30bc
00000140: 4778 04bd fd2e 3a3c e1af af3c 4c12 5a3d
00000150: 7ddc c0bc 3087 7fbd cb14 52bd cbbd 4abd
00000160: 8019 f03c 6a2c a1bb 982d 713d 2542 233b
00000170: 4094 28bd 41d9 063c 0038 c338 6e21 153d
00000180: a083 573d bc82 503d b076 40bc 3255 083d
00000190: 9622 2ebd cda2 8dbc d4c0 1abd ee40 023d
000001a0: 5f39 413c c84e b83c ae00 57bd d010 6b3d
000001b0: 6ec9 2d3d 64da 6dbc 90fb 1dbc 8bfb 223d
000001c0: dcb6 a03c 5b9e f03b d089 723d 9666 1f3d
000001d0: 27bc 07bd 50ee 46bd b8de 55bc 6024 6cbd
000001e0: 5cbb 9dbc 8d7f 223b 7043 50bd 3763 483d
000001f0: 3d40 a13c 5d4b 2b3c 143a bebb b525 a9bc
00000200: 1688 6dbd 12da 323d 4089 00bd 36cf 193c
00000210: 121b 62bd b5a7 c03c 2673 013d 4d2a 453c
00000220: d242 3fbd 3e5a f53c 4b3d 1ebc 0316 5dbd
00000230: ca35 d43c eb0d 203c 68cb 3e3d 4018 113b
00000240: dcd4 1ebb 2fc4 263d 5ed5 be3c a2ec 243c
00000250: 2425 acbc 5113 a53c d4ba 13bd ac90 e33c
00000260: 649b d2bc fa54 59bd 832b 2bbd 8abb 71bd
00000270: 92c6 603c 22f7 b4bc 5e9c e23c 12e1 c0bc
00000280: 7553 f3bc ca68 7dbd 9ece 093d f585 b4bc
00000290: e8f5 9dbc 99b8 cd3b 8981 de3c 871c 17bd
000002a0: 2e47 0ebd a600 2ebd ac61 69bc 2801 3bba
000002b0: e0bd 1b3d 2c98 c1bc 06be 9bbc ce83 83bd
000002c0: 35c5 2a3d e480 b1bc 9cdf 71bc c72e 50bd
000002d0: 4c58 cd3c 6e14 e6bc fd16 45bc d52e 943b
000002e0: 58e5 35bd 44ec 5abd 28de 603d 5679 0ebd
000002f0: a9a2 5bbd fb76 87bd 24e1 0ebc 6dac acbc
00000300: 602c 933c 8fdd 113d c938 dd3c 8aff 8fbc
00000310: 76a8 00bd 0a96 cc3b f3ea 42bc 0602 713d
00000320: 70ce aebb 7c44 74bd 9d41 f73c 3802 2bbd
00000330: d7f1 903b fa17 463d 0214 333d 626e 08bd
00000340: 0ff3 00bc 3cff 06bd b95e 1f3d 8d60 3fbc
00000350: c8c3 4fbc d679 5fbd ee5b 5a3d 0edc d1bc
00000360: 4603 60bd 6891 28bc 8fa4 1fbd d952 603c
00000370: ffde 0c3d 9be4 37bd 1ed8 313c 5866 ab3c
00000380: cf4e 693d f961 c1bc 7be5 70bd 3584 f3bc
00000390: a155 1ebd 2bdd 7e3c 3da7 2a3d 114a 09bd
000003a0: 8f53 ec3c da58 1e3d aacc 59bc 9200 253d
000003b0: a01d 13bd 924a 1c3d 722c ae3b 8325 183d
000003c0: fff8 613d f624 3c3d 708e 59bb aa50 b1bc
000003d0: c27a 52bd 7beb 2dbd ab75 89bd 954d 26bd
000003e0: 4756 d23c ff27 3fbd 268c 61bd 1517 1ebd
000003f0: 1d21 0d3d 3bf2 0cbd 37f2 4ebd 8212 27bd
0.0287493 -0.04617732 -0.0323277 -0.040336642 -0.018725783 0.017061168 -0.050246954 0.025463942
0.050339215 0.05839244 0.0053067924 0.013637662 0.052798975 0.03597966 -0.009840156 0.013355262
0.0024836347 0.049632475 0.0138161825 -0.03737143 -0.026220592 0.010471914 -0.05905072 -0.051089358
-0.06360261 -0.021259928 0.058810182 -0.049471766 -0.06238302 -0.0084868055 0.0478933 0.022756852
-0.0618056 0.021387901 -0.03507929 -0.047664184 0.057863872 -0.025111392 0.01070654 -0.054888483
0.03474672 -0.06114877 -0.024637852 0.006710041 -0.029954595 0.022557996 -0.023965094 -0.013179611
0.054846972 -0.044156242 0.046066575 -0.0037907404 0.053012554 0.0027696192 0.010880485 -0.002595113
-0.039236084 -0.05703088 -0.043641 -0.009833848 -0.065006465 -0.019119173 0.011058417 -0.0056037605
0.05041922 0.023400828 -0.023130886 0.015732387 0.05124139 -0.049402636 0.02359871 -0.058638785
-0.019509083 -0.049196932 -0.022790622 -0.038817 -0.038024545 0.039363373 0.007795318 -0.010786358
-0.032341268 0.011363742 0.02144617 0.053240106 -0.023542637 -0.062384784 -0.05128936 -0.049497407
0.029309034 -0.0049186246 0.058881372 0.0024911251 -0.041157007 0.008230508 9.3087554e-05 0.036408834
0.05261576 0.050905928 -0.011747047 0.033284374 -0.042513452 -0.017289544 -0.03778155 0.031800203
0.0117934635 0.022498503 -0.052490883 0.05738908 0.042428426 -0.0145174 -0.009642497 0.03979067
0.019618444 0.007343096 0.05921346 0.038916193 -0.03313842 -0.048567116 -0.013053589 -0.057651877
-0.019254379 0.0024795264 -0.050845563 0.048922744 0.019683952 0.01045498 -0.0058052633 -0.020647863
-0.05799111 0.043665 -0.03138089 0.009387782 -0.055201598 0.023517469 0.031603955 0.012034011
-0.046694584 0.029950257 -0.009658168 -0.05397607 0.025904555 0.009768943 0.046580702 0.0022139698
-0.002423576 0.04071444 0.0232951 0.010066183 -0.021013804 0.020150812 -0.036066845 0.027778946
-0.025708862 -0.053059556 -0.041789543 -0.05901674 0.013719218 -0.022090498 0.027662452 -0.023544822
-0.029702881 -0.061867513 0.03364431 -0.022036532 -0.019282296 0.0062781093 0.027161377 -0.03689244
-0.03473585 -0.042481087 -0.014244478 -0.0007133656 0.038022876 -0.023632132 -0.019011509 -0.06421624
0.041691978 -0.021667905 -0.014762785 -0.05082586 0.025066517 -0.028085914 -0.012029407 0.0045221844
-0.044408172 -0.053447977 0.054899365 -0.034783684 -0.05362192 -0.066144906 -0.00872067 -0.021078313
0.017965496 0.035611685 0.027004616 -0.017577905 -0.031410657 0.006243472 -0.011896837 0.05883982
-0.005334668 -0.059635624 0.030182654 -0.041750163 0.004423361 0.04836271 0.043720253 -0.033308394
-0.00787045 -0.032958254 0.038908694 -0.011680734 -0.012680955 -0.05455955 0.053310327 -0.025617626
-0.05469062 -0.010288574 -0.038975295 0.013691627 0.034392353 -0.04489575 0.010854749 0.020922825
0.056959923 -0.023606287 -0.0588126 -0.029726127 -0.03865588 0.01555566 0.041663397 -0.0335179
0.028848438 0.038658954 -0.013293425 0.040283747 -0.035916924 0.038157053 0.005315357 0.03714515
0.0551691 0.045933686 -0.0033196472 -0.021644909 -0.051386602 -0.0424609 -0.067118965 -0.04060133
0.025675906 -0.046669003 -0.055065297 -0.03859623 0.034455407 -0.034410696 -0.050523963 -0.040789135

bias f4 [128]
00000000: e8e1 3fbd 4ede 653d 86ff 4b3b 7a6e 36b9
00000010: a09d e23c 8897 0cbd 5f15 183d fd7f 353d
00000020: 77ae bb3c 7ec9 f03c b1e5 153c cecc f33b
00000030: 2cd7 13bb 3212 7dbd 86ac 03bd f25b 5a3d
00000040: e6df 573d 0bee a5bc 4e44 3f3d 03be 7eba
00000050: e068 0d3c b959 0dbc b0c3 f53c 8d3a cc3c
00000060: 5f2c 773c bca9 cd3c 6272 6bbd 800d 503d
00000070: 7e68 43bd 0912 95bb 1da9 6bbd f6e2 ab3c
00000080: 4b18 e53c 3314 133d b0e2 553d 646b 2ebd
00000090: fd85 693d b517 533d 0df5 b3bb 013e a93c
000000a0: bf2e c43c 3331 5ebd eea7 b1bc 92ff 313d
000000b0: 4fde 283d 82da 083d 36bb 203d 3a3f c13d
000000c0: e05e 67bc b8cc 733c 0393 35bd e896 23bd
000000d0: 54f0 f9bb 8c4d 3c3d eadc 21bc 9ca8 c5bc
000000e0: 248a 523d 702b 483d b5ef bf3c 12a1 35bd
000000f0: cf6e 903a e79d fbbb 97e4 3ebd e4ab a3bc
00000100: eb15 9b3b dd54 37bc 7121 803d ee62 1b3c
00000110: 0ab5 61bd 04f1 593d 89fc 22bc fb80 323d
00000120: 2092 53bc 9b17 60bc 043a 873b 49c6 b93c
00000130: 65ae 2ebd 953c 65bc 4742 f83c 2224 3d3d
00000140: 087e b3bc 8783 8a3d c8e8 a1bb 4892 1fbc
00000150: e9e1 9bbc 9a2e 12bd db78 8b3d 594d fc3c
00000160: dc7d 03bd 6ec9 2fbd ba65 223d f119 35bc
00000170: 48ed da3c 7a59 563d 5dcc 123d eccb 90bc
00000180: 4e51 4e3d d834 40bd 3c40 ce3a bc5b 463d
00000190: 3bbe 0f3d 4996 473d 9004 2ebb 9a51 2bbc
000001a0: 8340 e23a 294d 83bc 5035 83bc 1370 6bbd
000001b0: 9fe0 aa3c c81c 3bbd 3342 4cbc c977 563d
000001c0: b002 e93c 1cbe 33bd 3d5a 84bd 5a3f 393c
000001d0: f8e7 9bbb 0ed4 073d 80c4 083d 3abf 26bd
000001e0: ca24 2f3d 4847 28bd 07dc ff3c af42 d8bc
000001f0: a37b 54bc 5aab ea3c 0a52 f0bc 8f82 303c
-0.0468463 0.05612021 0.0031127646 -0.00017398028 0.027663052 -0.0343242 0.037129756 0.044311512
0.02291034 0.029392954 0.009149001 0.007440186 -0.0022558672 -0.06178493 -0.032146953 0.053310342
0.05270376 -0.02025511 0.046696 -0.0009717645 0.008630961 -0.008627349 0.030000538 0.024930263
0.0150862625 0.02510535 -0.05748213 0.050794125 -0.047707073 -0.004549269 -0.057534326 0.020982247
0.027965685 0.035907935 0.05221814 -0.042582884 0.057012547 0.05153628 -0.005491859 0.020659449
0.023948072 -0.05424614 -0.02168652 0.04345662 0.041227635 0.03341151 0.03924104 0.09435888
-0.014121741 0.014880352 -0.044329654 -0.039938837 -0.0076275263 0.045972392 -0.00987933 -0.02412825
0.051401272 0.04886955 0.02342973 -0.04434306 0.0011019352 -0.0076787355 -0.04660472 -0.019979425
0.0047328374 -0.011189667 0.062563784 0.009484036 -0.055104293 0.053208366 -0.009947904 0.043580037
-0.012913257 -0.013677503 0.004126789 0.022677558 -0.042646784 -0.013991495 0.030305041 0.046177037
-0.021910682 0.06763368 -0.0049410798 -0.009739466 -0.01902862 -0.035688974 0.06810161 0.030798601
-0.03210245 -0.042916708 0.039647795 -0.011053548 0.026724473 0.052331425 0.035839427 -0.017675363
0.050370507 -0.046925396 0.0015735696 0.04842733 0.035093527 0.048727307 -0.0026553012 -0.010456467
0.0017261658 -0.016028004 -0.016016632 -0.05747993 0.02085906 -0.045681745 -0.012466955 0.05236033
0.028443664 -0.043882474 -0.06462524 0.011306608 -0.0047578774 0.033161215 0.033390522 -0.04070971
0.042759694 -0.041083604 0.031232847 -0.026398985 -0.01296893 0.02864616 -0.029335994 0.010773315

weight f4 [16, 128]
00000000: e87b 063d dcf9 9fbd eb78 b2bd 564d c13c
00000010: d8f3 273d 4e3f e53c 328d 3dbd 5377 6bbd
00000020: 6828 c43c e3d5 a93d 373d 113d 4fd5 31bd
00000030: 11d9 febc 79f6 843d b2c6 32bc 6680 6a3d
00000040: ccbc 1fbd 61bf c13d e4f9 82bd 2808 5cba
00000050: b718 54bd 1b66 923d ec26 963c 7281 f03c
00000060: 9786 af3d 73e8 863d 39e6 89bc d1f4 93bb
00000070: d72c bd3d 1143 3abc 205c be3d 2a7a ff3c
00000080: 759c 35bd 9ad2 863d cab0 ae3d 81c5 2cbc
00000090: a9df 643c d29e aa3d ca0c 7cbd 89f3 3e3d
000000a0: 304e e13b deb1 83bc 06f1 c73c ac39 8a3d
000000b0: d3c1 af3d a0af 543d ad5b a2bc fe54 01bd
000000c0: e7e1 f83c c7cf b43d 48a2 003d 299f 9f3d
000000d0: 1450 a23d 68a2 113d 34b8 693d de3d 3dbd
000000e0: 3540 ca3a a590 88bd 39cb 44bd f863 3a3d
000000f0: 5103 bb39 db75 c03d 15c7 3fbd d6aa a43d
00000100: 0a39 8f3d 515d 113d 4891 14bd 3352 31bb
00000110: fa35 b33d cccc 76bc ca82 1cbd 43e2 87bd
00000120: cf6d cbbc a02c 9a3d fe65 bf3c c282 80bd
00000130: a119 b7bc 448b e33c a5e1 953d 2d44 9abc
00000140: eefe 6f3d a089 ef3c 4d11 28bd 005d 893d
00000150: 65c4 c93d 0794 923d 2c38 393d f045 aa3d
00000160: 5017 9ebd a77b 19bb 377b d13c 57e8 e93c
00000170: c03f 82bd b599 863c 2b7a e23c 71f0 da3c
00000180: 3c6e 7fbd 01c0 32bb ed68 a53c bdea 95bd
00000190: c725 e83b 0542 d4bc 7b93 783d ebd2 3a3b
000001a0: d74d 47b9 23cf 8cbd 1ff2 283d 888a acbd
000001b0: 04cc 723d 2e9e 043d 831d ae3d e126 8d3c
000001c0: ecc8 993d 28fc a5bc 55f0 73bd f557 b13b
000001d0: 90b5 933d 65b0 2b3d a6dd 5c3c ce6a 26bc
000001e0: 7023 deb9 53be b53d 01a1 463c ddf6 e9bc
000001f0: efd2 893c 7e03 23bd 11af e33c 4e62 c9bc
00000200: c127 563d 940a a23d 9e13 02bc a901 a3ba
00000210: 2272 8abd fd9c 55bd 9f9d f1bd c0e5 63bd
00000220: db3e 89bd 04f0 9e3d 5ed9 a13d ff00 c53b
00000230: e506 7a3d 324f 69bd f85a a13d 40b8 80bd
00000240: 373a 15bd dd16 53bc eca0 833c 0d58 bd3c
00000250: 99e0 dcbd 1e7e 9e3d a033 49bd fb41 c4bd
00000260: c355 123c b53a 89bd 242f dabc fa3b de3c
00000270: 39f3 77bd 1e0a 583d 668a d7bc 7dfc ce3d
00000280: f9d5 893d 0348 2d3d 5414 253d b478 07bd
00000290: 4215 bd3c cb67 ed3d eddc 14bd 333b 5c3d
000002a0: 6252 3ebd 4773 ac3d 09b1 1fbd 8e7a 9ebc
000002b0: 9bd4 ed3c b16d aa3d fe64 adbd b3e2 df3d
000002c0: b109 36bd 0ac7 71bd c2ce 23bd 131b 56bd
000002d0: 301e 793c 559d 20bd 4a7f 233c 8b64 983d
000002e0: 6298 b0bc 5b2b 643d 5ab8 593d 5f97 503d
000002f0: 1030 b8bc eb2d c03c 4cda 2cbd e694 ccbc
00000300: 49e7 963d 47df 863d d89b 80bd f2e9 c6bd
00000310: dc35 e83c fc66 f4bd 202c 9dbd aa60 e83d
00000320: aa16 0e3d e9c0 54bd debe 2d3d 446f 163d
00000330: 8d2a 2f3c 1757 22bc 0f16 49bc af6d 81bd
00000340: 66a5 5cbd 5578 7ebd ca83 58bd 23db 5a3d
00000350: 6a79 8dbd 2d72 7abd 9b03 4cbd 56ad a0bd
00000360: 3245 653d 05dd bdbd 5429 443d f042 af3c
00000370: dac5 8ebc 5955 a23d 1522 833d 7289 40bd
00000380: 9084 e03c 4762 aabd e278 813c ae1f 493d
00000390: e842 94bd e719 aa3d fb99 e13c c518 1f3d
000003a0: b867 823d c2b9 a5bd 4e1b e23c add8 083d
000003b0: 9664 afbd 8cd1 b0bd ad42 453d 663f 0dba
000003c0: de5c df3c edd5 173d b507 3f3d 6027 483d
000003d0: 1251 78bd f24a 1c3c c2b5 8c3d 3b38 c23d
000003e0: deef 4b3d 2b1e 82bd b176 4c3d 41ab 9e3d
000003f0: c9bb 15bd 74a5 57bd a31d 09be 916f c2bd
0.03283301 -0.07811329 -0.087144695 0.023596447 0.041004032 0.027984288 -0.046277232 -0.057486843
0.023945048 0.08292749 0.03545877 -0.043416318 -0.031109365 0.064923234 -0.0109116305 0.057251357
-0.03899841 0.09460331 -0.06395319 -0.00083935494 -0.051781382 0.07148381 0.018329106 0.0293586
0.08570593 0.06587305 -0.016833412 -0.0045152684 0.09237068 -0.011368529 0.09294915 0.031186182
-0.044338662 0.06583138 0.085298136 -0.0105451355 0.01396934 0.08331074 -0.061535634 0.046618972
0.0068757758 -0.016076025 0.024406921 0.06749281 0.08581891 0.0519253 -0.019819105 -0.031575195
0.030381156 0.08828693 0.031404763 0.07794029 0.0792543 0.035555273 0.057060435 -0.04620158
0.0015430512 -0.06668214 -0.04804537 0.045505494 0.0003566989 0.09397479 -0.04682072 0.08040397
0.06993301 0.035489384 -0.036271363 -0.0027057051 0.087505296 -0.015063476 -0.038210668 -0.06634953
-0.024832634 0.07528043 0.023364063 -0.0627494 -0.022351088 0.027776368 0.07318429 -0.018831337
0.05859273 0.02924043 -0.041032124 0.067071915 0.098519124 0.0715714 0.045219585 0.08314121
-0.0771929 -0.002341965 0.025571449 0.028553171 -0.063598156 0.016430715 0.027646145 0.02672598
-0.062360987 -0.0027275088 0.020191634 -0.073201634 0.0070845815 -0.025910387 0.060687523 0.0028507065
-0.00019007116 -0.06875446 0.04124653 -0.0842486 0.059276596 0.032377414 0.08501723 0.017230453
0.07509026 -0.020261839 -0.05955537 0.0054120966 0.07212365 0.04191627 0.0134805795 -0.0101573
-0.00042369543 0.08874192 0.012123347 -0.028560096 0.016824214 -0.039798252 0.02779344 -0.024583008
0.052284006 0.07912174 -0.007939247 -0.0012436408 -0.0676005 -0.05215167 -0.11797642 -0.05563903
-0.06701442 0.07760623 0.079027876 0.0060120816 0.06104173 -0.056960292 0.07878679 -0.06285143
-0.03643247 -0.012883869 0.016067944 0.023113275 -0.10785026 0.07738899 -0.0491215 -0.09582897
0.00893158 -0.067006506 -0.026633807 0.027128208 -0.06053469 0.052744024 -0.02631111 0.10106752
0.06730265 0.042305004 0.04030259 -0.033074096 0.023081426 0.115920626 -0.036343504 0.053767394
-0.046465285 0.08420425 -0.038987193 -0.019345548 0.029032042 0.08321703 -0.08466528 0.10931911
-0.044442836 -0.05902771 -0.0399921 -0.052271914 0.015204951 -0.039212544 0.009979079 0.07441052
-0.021557037 0.05570541 0.053154327 0.05092561 -0.022483855 0.023459395 -0.04220037 -0.024973344
0.07368333 0.065855555 -0.06279725 -0.0971259 0.028345995 -0.11933705 -0.07674432 0.11346562
0.034689583 -0.051941786 0.042418353 0.036727205 0.010691297 -0.009908459 -0.012273326 -0.063197486
-0.053868674 -0.062126476 -0.05286006 0.05343164 -0.069079235 -0.061144043 -0.049808126 -0.07845561
0.055974193 -0.09270672 0.047890976 0.021394223 -0.017428327 0.07926435 0.06402985 -0.047006078
0.02740696 -0.08319526 0.015804712 0.049102478 -0.07239324 0.08305722 0.027539244 0.03884198
0.06367439 -0.08092071 0.02760091 0.033409763 -0.08564107 -0.08633718 0.04815929 -0.000538817
0.027265962 0.03706925 0.04663821 0.048865676 -0.06062419 0.009539353 0.06870605 0.09483381
0.049789302 -0.0635341 0.04991788 0.07747508 -0.03655604 -0.052648023 -0.13390212 -0.09493936

bias f4 [16]
00000000: c8d1 9fbc d54d 903d 74a5 11bd 40ac 853d
00000010: 2c8c 543d e6e7 32bd 9bda a43b ebab 5bbd
00000020: 179a fc3c 315d 1dbd 45cd 933c 8cef 4e3d
00000030: 0bd3 093d 76c9 ce3d 2d7e 8bbd bfff 943d
-0.019509211 0.07046095 -0.03555818 0.06526995 0.05189149 -0.043678187 0.0050309426 -0.05363075
0.030835195 -0.038418952 0.018042216 0.05052142 0.033648532 0.100970194 -0.068111755 0.07275342

weight f4 [128, 16]
00000000: 7e39 d33d ecbc a73d ce76 4f3e 96f7 8ebd
00000010: 0490 9a3a 81a1 a8bd 3da4 4a3e fe3f 69be
00000020: 7d43 2cbe c399 7c3e ac9c 9dbd 0a57 0e3e
00000030: f60a 4e3e b1b6 5d3d fc4a 5e3e 8761 debc
00000040: d5c4 02be 8be2 513e cea1 3ebe fbe1 16be
00000050: 1180 a8bd a4be 16be ba35 1e3e a21e 3fbe
00000060: d047 3b3e 923f 993d 5067 0a3e 7cb7 993c
00000070: 78df 11bd 9236 59bc 9188 853e 1b05 6ebe
00000080: a433 363c b668 d93d 0bc9 3dbe 42f2 df3d
00000090: 1919 2bbe 1104 d63b 117e 3a3e a73c d1bd
000000a0: bbec 7fbe 83cb d1bd 267c c8bd 70fa fd3d
000000b0: 1083 11b9 4665 35be 9511 8f3b 96c4 e5bd
000000c0: f38d 7c3d bf9f 4c3e ab8a a63d 7da8 43be
000000d0: 8477 4a3e cfd9 53bb 1bd8 033e a721 673d
000000e0: ea3a d23d b01e 093e 769e 1a3e 9f0c 5bbe
000000f0: 5ec7 603c e2ae a13c 7099 6b3d aeca 703e
00000100: ae2c 8fbd 3f35 bc3d c513 923c ac7b e63d
00000110: 9396 7cbe d79b 59bd fca0 8bbd 0156 f8bd
00000120: 877c efbd b3c0 593e b36d 1fbe 1de5 2e3b
00000130: 133a 793e 24d6 4c3c 8223 113e 6306 28be
00000140: f908 56be 6247 28be 07bf 4f3e e760 3abe
00000150: 725e 5abe 433e 6d3e 3a39 c13d 1c1e 373e
00000160: 52f9 513d 228e 863d 64f4 103d 94fa 3dbe
00000170: caf8 0e3d 5d88 b23b 815c 1d3e 9123 6cbe
00000180: 1248 1d3e 2058 6c3e 9dab 373e 64fe 79be
00000190: 9072 c5bd 7e56 c2bd a15f 503e 4b1e 753e
000001a0: f391 d7bd ea77 a63d 6537 d33c 72e9 1ebe
000001b0: 83d2 293e 98d4 583e 46f7 d3bd 37c9 cd3d
000001c0: b518 5e3d bb10 16bd 4b68 4f3e e003 05be
000001d0: 6436 543e ccb0 cf3d 5641 e9bd dc6d 3c3b
000001e0: 69aa f9bc 3833 fcbd 2d4d b93c 27b6 a03d
000001f0: d8a7 dbbd 5264 a9bb 526b 953c 1e2d c33d
00000200: ba7c c1bd 422d 013e f4c6 04be fad6 2e3e
00000210: d94a 37be 6fc5 0d3d 3c55 ba3d f65a c13d
00000220: 4da0 613e 0ece ba3d 908f 0b3e 86c1 55bd
00000230: fc38 61be 9f35 2c3e 0eb6 1dbe 602c 063e
00000240: a356 433e d5d5 493e 6e35 c33b de41 6e3d
00000250: 72af 383d 1be1 a0bd dfc5 3b3d 395d 573e
00000260: e971 a2bd 751b b0bc e594 a13d c240 64be
00000270: 5d6a 953c d67c 563e 6c80 3cbd 5f93 47be
00000280: 2369 5d3e 0dd1 103e 12e4 42be e93d 663b
00000290: e5f7 64be 2ee0 4d3d 7a5e 303d 11b7 1fbe
000002a0: 8099 19be fb15 273e 06a9 293e c7d9 c23d
000002b0: 4a44 f03d 1339 353e 6201 163e 0e60 863d
000002c0: 8579 26be 5145 803c c516 5c3e 89e2 293d
000002d0: f2de ce3d 1b98 713e b83c 093e 3178 353e
000002e0: 692f da3b e1e6 54be 39c6 c5bd 81d1 3fbe
000002f0: 55f5 4ebc 9720 34be ccf8 df3d 6cc4 533e
00000300: 2c56 11be 1856 3e3e 7a76 643e 5f63 a6bc
00000310: 0f7a 1dbc ae21 5f3e fb2f 9b3d 44c4 013e
00000320: 2123 95bc 1367 543e 48b7 593e 9c46 763e
00000330: 1323 16be dec1 293e ab7b 033d 26db 85be
00000340: 85c0 f23d 2dd3 383e dbcc d63d ddbc 71be
00000350: 95cc 1c3e 02de aebd fa4f 28be 6dbb 6abd
00000360: 910a 73be 0507 b93d ab0c 41be 4383 74be
00000370: 34ad 8abc d404 ddbd 0e2b 65be 4883 403e
00000380: 8c53 013e 1405 af3d b485 12be 4888 1abe
00000390: 7fe0 40be 8ca7 4abd 0be6 403d 4344 89bd
000003a0: 4192 51be 37cf 7a3d 4a87 73bc d5ad 413e
000003b0: 6fca 183d a50a 453e e397 b6bd 6a3d 533e
000003c0: 7ce9 0fbe f2f4 34bd f86b fcbb 8336 edbc
000003d0: f338 383e 57ed 31be b8c4 123e f204 3d3e
000003e0: 6f2e f5bd 9fee 1cbd 2365 d1bd 19a0 e13d
000003f0: 14e5 7c3e 7fe8 43be d7ce 22be 6c7a 13be
0.103137 0.08190331 0.20260164 -0.06980817 0.0011792188 -0.082339294 0.19789214 -0.22778317
-0.1682262 0.2466803 -0.076958984 0.1390039 0.20121369 0.054129306 0.21708292 -0.027146114
-0.12770398 0.20496576 -0.18616411 -0.14734642 -0.08227552 -0.14721161 0.15450183 -0.18664029
0.18289113 0.07482828 0.13515973 0.01876425 -0.035613507 -0.0132576395 0.26080754 -0.23244135
0.0111207105 0.10615675 -0.18533723 0.10934879 -0.16708793 0.0065312465 0.18212153 -0.10216647
-0.2499265 -0.10243895 -0.097893044 0.12401283 -0.00013877102 -0.17714414 0.0043661096 -0.112191364
0.06165881 0.19982813 0.081319176 -0.19107242 0.19772154 -0.003232587 0.12875406 0.056428578
0.10265143 0.13390613 0.1509951 -0.21391533 0.013719408 0.019736711 0.057519376 0.23514816
-0.06990944 0.091898434 0.017831692 0.11254057 -0.24666815 -0.053127136 -0.06817815 -0.12125779
-0.116936736 0.21264915 -0.1556919 0.0026686855 0.2433856 0.012502227 0.14173701 -0.16408686
-0.2090186 -0.1643348 0.20287715 -0.18201028 -0.2132509 0.23168282 0.09434743 0.1788258
0.05126316 0.065700784 0.03538932 -0.18552619 0.034905232 0.0054483847 0.15367319 -0.23060443
0.15359524 0.23080492 0.17936559 -0.24413449 -0.09640992 -0.09489153 0.2034898 0.23937337
-0.105258845 0.081283405 0.02578325 -0.1551874 0.1658421 0.21174848 -0.10349898 0.10048144
0.05422278 -0.03663705 0.20254628 -0.1298976 0.20723873 0.10141143 -0.11389415 0.0028752005
-0.030476766 -0.12314457 0.022619808 0.07847243 -0.10725373 -0.00516943 0.01823965 0.0953009
-0.09447618 0.1261492 -0.1296652 0.17074195 -0.17899646 0.034612115 0.090982884 0.094411775
0.22033806 0.09121333 0.13628983 -0.05218651 -0.21994394 0.1681733 -0.1540148 0.13102865
0.19076018 0.19710477 0.005957297 0.058168285 0.045089193 -0.078554355 0.045843 0.21031655
-0.07931883 -0.021497468 0.078897275 -0.22290328 0.018239195 0.20946059 -0.04602091 -0.19489811
0.21622138 0.14142247 -0.19032314 0.0035132116 -0.2236019 0.050262623 0.04305885 -0.15597178
-0.14999962 0.16316979 0.16568384 0.09514194 0.11731775 0.17697553 0.14648965 0.0656129
-0.16257294 0.015658053 0.21493061 0.041475806 0.10101117 0.2359318 0.13402069 0.1772163
0.0066584838 -0.20791198 -0.096569486 -0.18732263 -0.012631734 -0.17590557 0.10936126 0.20680398
-0.14193028 0.1858753 0.2231082 -0.020311056 -0.009611621 0.21790192 0.07577511 0.12672526
-0.018205227 0.20742445 0.21261322 0.24050373 -0.14661817 0.1657786 0.03210036 -0.2614376
0.118531264 0.18049307 0.10488292 -0.23607202 0.15312417 -0.085384384 -0.16436759 -0.05730765
-0.237345 0.09034542 -0.18852489 -0.23878197 -0.016928293 -0.107919365 -0.22379705 0.1880008
0.12629527 0.085458905 -0.14308816 -0.1509105 -0.18835638 -0.04947619 0.047094386 -0.06702473
-0.20465948 0.06123277 -0.014863798 0.18913968 0.03730243 0.19242342 -0.08915689 0.20628896
-0.14053911 -0.04417891 -0.0077033006 -0.028956657 0.17990474 -0.17375694 0.14332855 0.18458918
-0.11971747 -0.038313504 -0.102243684 0.11016864 0.24696761 -0.19131659 -0.15899216 -0.14402169

bias f4 [128]
00000000: d6ae 953b 383d dbbd 2e7c 1bbe fb8b 4b3d
00000010: 83bd b13d 66d4 13be 7c22 323e 2bb6 a1bd
00000020: 875b fa3d 5645 893d 86f9 323e 5a88 693e
00000030: 5a66 47be 2bd7 d4bd 3097 e53d 2ebd 783e
00000040: a7bf 193e 13ed c5bd b180 1abd 639d 903c
00000050: 179b d13d 64f9 d6bd f1f8 f6bd a0fe 64be
00000060: 9c68 183e 89f3 9abc 2172 e3bd cc19 813e
00000070: d3f2 693e 6c11 a4bc ef43 56be a5f3 463e
00000080: 0561 21be 68b7 a43d 97c6 20be b001 96bd
00000090: ed3e 21be f7f9 823e 6054 53be ef22 9fbc
000000a0: 04f0 593e 3bac b03c a54b 68bc d6c4 813d
000000b0: 67c5 60be 90ac 43bc edc7 a8bd 8c56 233e
000000c0: c4c9 1a3d a603 cfbd a44e 27be de5b e5bd
000000d0: d5e7 743e e4de ce3c 388e 353d 941f 7e3e
000000e0: 046a 18be cf7c 103d 455d 36be e78a 8cbd
000000f0: 09a8 0fbe 3d5d 053e cafe f63d 014b 3bbe
00000100: c2c3 e1bd 7cde 5fbe d3f3 0f3d 0a52 20bc
00000110: 1214 0abe f10d 63bd de8d 4dbe 2aa2 1cbe
00000120: 9a36 61be 3354 ee3d c40f f53b 98dd c43c
00000130: 4e14 3dbd 8bd9 663e c11a 4e3e 480a 3b3e
00000140: 4fe2 d33c 4be5 103e b26b c5b9 cc1e 2e3e
00000150: cddd 00be d583 e03c 5017 e63a 289d 2fbd
00000160: 29d3 933d 0074 863d b91b 383e a9be 183e
00000170: 38bc 073e 833a 5f3e 68b2 2d3e 19d1 afbd
00000180: e3ff 13be 0ac0 30be b3ea febd 5d9d 443e
00000190: a065 c03c 95da 433e 072a 633d 9d1a fa3d
000001a0: 6a9b bd3a 4c99 54be 81a1 3f3e f37a 173e
000001b0: 0490 743e be02 b6bc b238 fbbc f551 b43d
000001c0: 7eed d13c 54b4 76bd 75cd 693c 9c2c 1d3e
000001d0: a736 43bd fc6f 923d bf47 133e fdd0 2c3e
000001e0: 1830 4a3d 5e2e 2ebe 6165 9d3c acd3 cabd
000001f0: 70b6 64bd 6bb0 c139 49dc 6d3d 8d8a 55bd
0.004567961 -0.10705036 -0.1518409 0.049694043 0.086787246 -0.14436492 0.17395967 -0.07896074
0.12224489 0.06702678 0.17477998 0.2280592 -0.19472638 -0.103926025 0.11210477 0.24290916
0.15014516 -0.09664359 -0.037720386 0.017653173 0.10234659 -0.10496786 -0.120592006 -0.22362757
0.14883655 -0.018914955 -0.11105753 0.25214994 0.22846536 -0.020027839 -0.20924352 0.1942888
-0.15759666 0.080427945 -0.15700756 -0.073245406 -0.1574666 0.25581333 -0.20637655 -0.019425837
0.21282965 0.0215665 -0.014178191 0.063363716 -0.21950303 -0.011942998 -0.08241258 0.15950984
0.037790075 -0.10108118 -0.16338593 -0.11199163 0.23916562 0.025252767 0.044325083 0.24816734
-0.14884192 0.035275277 -0.17809017 -0.06862431 -0.14028944 0.13023849 0.12060316 -0.1829033
-0.11023666 -0.21862215 0.03514464 -0.009785185 -0.13484219 -0.055433217 -0.2007365 -0.15296236
-0.21993485 0.116371535 0.007478686 0.024031445 -0.046161942 0.22543924 0.20127393 0.1826564
0.025864748 0.14149968 -0.00037655007 0.17003936 -0.1258461 0.027406612 0.0017554555 -0.042874485
0.0721801 0.06565094 0.17979325 0.14916481 0.13255394 0.21799664 0.16962588 -0.08584804
-0.14453082 -0.17260757 -0.12447109 0.19200654 0.023485959 0.19126351 0.055460002 0.12212107
0.0014465873 -0.20761603 0.18713953 0.14792995 0.23883063 -0.022218104 -0.030666683 0.088046946
0.02562594 -0.060230568 0.014270176 0.15349048 -0.047659542 0.071502656 0.14382838 0.16876598
0.049362272 -0.17009875 0.01921338 -0.099036545 -0.05583805 0.0003694327 0.05807141 -0.052134085

weight f4 [256, 128]
00000000: a3c2 c53c 6e21 e43c 84f8 aa3d 8198 67bd
00000010: f6fc 433d 9e35 c03c cda4 743c 9336 36bd
00000020: 225b 9f3d e6b2 a53d 0405 8f3b fe71 8bbd
00000030: a83b 9cbd 0d0c 98bd 4e9b a23d 1d8b 8c3d
00000040: 8483 a5bd 2cf2 39bd 161f e03c 004b 52bc
00000050: 3804 743d 07bd 16bc f748 133d d8ec a8bd
00000060: 0787 0cbd 17a3 3d3d 4d84 08bd 5899 67bd
00000070: 8cb3 a73c c2d3 8fbc e348 26bd 7fc1 99bc
00000080: 2131 a73c d286 0a3d 25ef ffbc 5deb 9a3c
00000090: dc40 9f3b bc24 87bd d49f 153d 364b dcbb
000000a0: 7f96 96bd d042 4cbd 1475 07bd eb6c 823d
000000b0: d1e7 b6bc 9ad1 8d3d 4821 b03c be28 a1bd
000000c0: 5ef7 fa3b b6ee 7f3d e4e5 aa3c 27bc 7bbd
000000d0: 64d8 1fbd cc84 233d d064 c93c a3e9 aebd
000000e0: dd85 4e3d 640b 37bd 2dd4 f4ba e995 41bd
000000f0: 21b0 343d 8119 b33d 86ac a83d e00b b33c
00000100: bd4e 91bd 452a a03d 0dfb f3bc 68fe 413d
00000110: d4d7 a73c e60d 243c 48f4 883d e6a8 5bbd
00000120: 7b6b 11bd 62ab 87bc e3ec 47bd 93ea 50bd
00000130: a503 22bd a10e 8abd 1426 9fbd 9615 94bd
00000140: 0dae 3d3d 32f2 b33c 7bd8 94bc eab1 39bd
00000150: dd47 8ebc b92b 99bd 8a8d 44bb 8306 993d
00000160: fec3 4cbd 61a4 7dbd d55f 313d 0daf afbd
00000170: 3424 c0bb 64a1 a53d cb4d 093c 3811 c53c
00000180: 268b 823c c970 93bd 19fe 5a3d f757 23bd
00000190: b730 98bd b7de 7dbc 92a0 7cbd b5b1 84bd
000001a0: 08ec b73c 797f 8c3d 0619 ab3d b62b 063c
000001b0: 6dc7 313c 4a83 223c a07b 873d c9d6 0d3d
000001c0: 49fd 09bd 40af 66bd 849e aabc d46f 94bc
000001d0: 94c9 2f3d 5c32 63ba 99c0 86bd 2439 a03c
000001e0: da27 d0bc 6d8a 5b3d 1520 ec3c c39e c7bc
000001f0: c65f 863b ea02 68bd ff03 a5bc 46f8 61bc
00000200: a8e9 c43c 9b9b 8dbd b995 9cbd 66bc 33bd
00000210: f9be c0ba 2b41 e73c 63db 1dbd ba96 6dbd
00000220: a82b 8fbd 6043 633d 6151 833d c1df f4bc
00000230: 7dcd 723d a81c fdbc 9599 0a3d 0b20 3b3d
00000240: dc50 84bd c8ac 353d b140 86bd 81f5 4a3d
00000250: 2f3a a83c 5a78 843d 9353 7abd 6012 583d
00000260: 4054 34bd 4657 e13c a88f 0a3b d05b df3c
00000270: bdd7 b9bd d1b2 2bbd 20b9 91bd f30c 533c
00000280: f190 a7bd a01b b23d 1ec2 51bd 0531 b13b
00000290: 12cc 9dbd 7e4c 833d 0617 a2bd e891 1c3c
000002a0: 9f6e f73c 1d46 19bd 35aa bc3c 1600 99bd
000002b0: 1791 5f3d 239f 8cbc 81c0 34bc ba6e a73d
000002c0: a083 b23d 09b0 a13a fd0e 6c3d 7d67 aa3d
000002d0: 9dd0 8bbd f41c 8cbd a479 b6bc d60d 533d
000002e0: fa7e a6bd 38f7 a73d 1a4e 89bc dc82 353b
000002f0: b119 e4bc 159a 89bd 4489 6a3d c5f7 04bd
00000300: df5c 27bd 509a 943d a643 a0bd 3aa7 7f3d
00000310: 7ffe 963d a259 6c3c 6012 a73d 92a5 833d
00000320: 397d 953d 9d95 903b 7075 80bd 3bec 933d
00000330: 2f06 44bd 6e6c b1bd 26da ef3b 8096 31bc
00000340: 7a8b 5fbc cf32 0fbd 471c 423c c99f 333c
00000350: cac6 81bd 12cd 97bd 327d 66bd 1f4c 8fbd
00000360: 56a7 f93c ef1a 9a3d 2876 b3bd 88f4 b0bd
00000370: ea98 9a3a 0d55 57bc be21 9eb9 380b 1f3d
00000380: a399 e43c 7906 373d f9ea b1bd 5171 98bd
00000390: 5215 823d 8cd2 38bd 4238 94bc 54b7 33bc
000003a0: 61b2 dc3c e2c1 06bd 4284 e23c f4ce 323d
000003b0: 14f4 b23d d696 8a3c 17c2 98bd 9146 07bd
000003c0: 030e 7a3d 3e71 453d 9578 d53b 2280 1d39
000003d0: 547e 8cbd 9172 4bbd 154b 53bd f5b3 8bbd
000003e0: d8fc 683d 7de7 5c3b dcb3 96bd f802 cb3c
000003f0: ebd2 d23c 75e6 82bd 0ea2 7dbd 2d7e 2bbd
0.024140662 0.027847972 0.08348182 -0.056541923 0.047848664 0.023463067 0.01493187 -0.04448564
0.07781054 0.08090763 0.0043646116 -0.06808852 -0.07628566 -0.074241735 0.07939778 0.06862471
-0.08081725 -0.04539697 0.027358573 -0.012835264 0.059574336 -0.009200341 0.035958257 -0.08248299
-0.03430846 0.046298113 -0.033329297 -0.056542724 0.020471357 -0.017557029 -0.040596854 -0.018769024
0.020409169 0.03381998 -0.031241963 0.018911058 0.0048600268 -0.065988034 0.036529377 -0.006722833
-0.073529236 -0.049868405 -0.03307064 0.06368431 -0.022327336 0.06924744 0.021500245 -0.07869099
0.007658883 0.062483512 0.020861574 -0.061458733 -0.039024726 0.039921567 0.024584204 -0.085406564
0.05042063 -0.044688597 -0.0018678956 -0.047262106 0.044113282 0.08745099 0.08236031 0.021856248
-0.07095096 0.07820562 -0.029782796 0.04736176 0.020488657 0.010013079 0.06687218 -0.05362787
-0.035502892 -0.016561214 -0.048809897 -0.051004957 -0.039554257 -0.067410715 -0.07770935 -0.0723068
0.046308566 0.021966074 -0.018169632 -0.045335688 -0.017368251 -0.074790426 -0.002999159 0.07471945
-0.0499916 -0.061924342 0.043304283 -0.0857831 -0.0058636907 0.080874234 0.008380364 0.024056062
0.015935492 -0.071992464 0.053464983 -0.03987881 -0.074311666 -0.015494994 -0.06167657 -0.064792074
0.022451416 0.06860251 0.08354382 0.008189132 0.0108507695 0.009918997 0.066153765 0.034628663
-0.033688817 -0.056319475 -0.02082754 -0.01811973 0.04291685 -0.0008666867 -0.06579704 0.019558497
-0.025409628 0.05359881 0.028823892 -0.024367696 0.0041007726 -0.056643404 -0.020143507 -0.013792103
0.024037197 -0.06914445 -0.07645745 -0.043880843 -0.0014705352 0.028229317 -0.0385393 -0.058005072
-0.06990749 0.055484176 0.06412006 -0.02989185 0.059278 -0.030897453 0.033837873 0.045684855
-0.06460735 0.04435423 -0.06555308 0.049550537 0.020535557 0.06468268 -0.06111486 0.0527519
-0.04402566 0.027507436 0.0021142755 0.02726546 -0.09074352 -0.04191858 -0.07115388 0.012881505
-0.08181942 0.08696675 -0.051210515 0.005407455 -0.07704939 0.06411074 -0.079145476 0.009556271
0.030204115 -0.03742038 0.02303038 -0.074707195 0.054581728 -0.017165726 -0.011032225 0.08175416
0.08716512 0.0012335788 0.05763148 0.0832052 -0.06826899 -0.0684146 -0.0222748 0.051526867
-0.081296876 0.0820145 -0.016760875 0.0027696406 -0.027844282 -0.06718842 0.057259813 -0.032462854
-0.040860053 0.07255995 -0.07825403 0.06241534 0.0737276 0.014425667 0.08157802 0.064280644
0.07299275 0.0044123665 -0.062723994 0.07222792 -0.04785746 -0.086632594 0.0073197065 -0.010839105
-0.013644094 -0.034960564 0.011847562 0.010963389 -0.06336744 -0.07412161 -0.05627174 -0.06996941
0.0304753 0.075246684 -0.08762771 -0.08640391 0.001179484 -0.013142836 -0.00030161248 0.03882906
0.027905291 0.044683907 -0.086873956 -0.074434884 0.06351723 -0.04512267 -0.018093232 -0.010969002
0.026940526 -0.032899745 0.027650956 0.043654397 0.087379605 0.016917627 -0.07458895 -0.03302628
0.06104852 0.0482037 0.0065146186 0.0001502042 -0.06860033 -0.049669806 -0.051585276 -0.068214335
0.056881756 0.0033707314 -0.07358524 0.024781689 0.02573534 -0.063916124 -0.061922126 -0.041868377
