models/embeding_models/embeding_v2_8_dim.pt (torch, 387811 bytes, 12 tensors)

weight f4 [256, 47]
00000000: 22be 4f3e cd4a 3ebd 29ee 313e 3289 473d
00000010: 84b8 be3d e05b f73d 9f4f 543e 0b34 d1bd
00000020: 1806 283e 57b1 603d 3f25 4fbc 0001 f23d
00000030: 5b53 65bd cb18 84ba fd11 a13d 1f26 f83d
00000040: 13b5 41be ff9d 833d 6c56 d43d 9e43 013e
00000050: 262d f33b 7617 933d f791 b1bd 1f7e a5bd
00000060: f767 7d3d 7f40 003e 4f3e 1e3d 6143 02bd
00000070: 218b 8f3d f1b1 193d f107 3abd a4da 2a3e
00000080: 1e22 813d 765d 2a3a 64c5 aa3d 8ce1 193e
00000090: 8272 cdbc 3e3a 493d 67f7 f9bd d469 cb3c
000000a0: b041 bdbd 5d73 a73d 2390 23bd f595 97bc
000000b0: 47a7 8abd 8854 93bd 94ec 253e 33fc 213d
000000c0: 2a96 8fbd e5fe 653d 3b8d 403e 320b e63d
000000d0: d8dc b5bd 1d66 60bd 9ad3 eebc 06e3 ea3c
000000e0: ab9c f93d c163 0a3e b61c 123c 436c 943d
000000f0: 43cd e23d 7ab1 f83c 9884 8db9 a823 d73d
00000100: 295f 8dbd c62e 1f3e 1eb4 38bd 9832 0dbd
00000110: 97bc e03d 6c5e b0bd a04c 603d b042 b03c
00000120: 4544 bdbd b915 80bd 7dbd 69bd 404d 07be
00000130: d3fb 1d3e 2f5d c23d 6218 b83d f569 2cbd
00000140: cc93 2abc ed8f 13be 27d5 24bd 2186 70bc
00000150: c6ff f83d 8df5 dabc fbfc 2e3e 55e0 993b
00000160: d68d f03b 817e 723d 115d 9ebd 6695 94bc
00000170: b5fc 69bd ed7d 653c 3a95 3c3d 2242 063e
00000180: 8658 0a3e 7a82 923b 89e4 02bd 5cdf dd3c
00000190: 2b34 903d 0825 4d3d 7254 c43d a111 f83d
000001a0: 0250 133e 2ca6 c03d 1710 7ebb 1387 a83d
000001b0: 7d4b eb3d 92c2 cabd 69e9 b63c 0a7b cb3d
000001c0: e5e2 843c 31a1 103e c4f2 a4bd a921 2e3e
000001d0: 5e84 9b3d 071b 31bd e65b d83c bf51 0fbe
000001e0: 86e6 243c 1d2a 133c 9a17 b5bc 6acc 8b3d
000001f0: 60c6 a03d 8db6 e73d c952 053c f331 313e
00000200: 6503 883d 1e85 933d ec1c cfbd 4d43 bdbd
00000210: b613 bf3d 8268 093e f898 27be e7fa 07bd
00000220: 93b0 9abd f467 9b3d cdbd adbd 41bf 63bc
00000230: 92af 5f3d 3b7c a5bd 3058 20bd 9e8e d5bd
00000240: a796 2a38 96ab 5ebd 74a5 a13b 8d3f 97bd
00000250: 4401 c33d 5fdb 15be 3af2 f13d a989 51bd
00000260: fcfb 2bbd 2fe4 e0bd 1536 f6bc cd5c a0bd
00000270: c3a4 2ebe 683a ecbb dc55 dcbc 5bc5 29bc
00000280: a712 ef3c 1dc7 5a3d 3da3 84bd 9e96 b5bd
00000290: d540 a63d be8a 1b3c 42ea cf3d cd8d 6ebd
000002a0: 789c 8b3d 1916 87bc 9f9b 923d 53e3 89bd
000002b0: 74c5 413d 6775 f13d c44b 15bd b177 99bc
000002c0: 7fa3 123d 7303 333d 9af0 503d 879f 8dbc
000002d0: c37e a93d 3f1f df3d c9ee bbbd f0eb dcbd
000002e0: 3f41 92bc a37b 0abe f97f 903d 9df6 173e
000002f0: 8ef5 bc3d e27e a23d 5fd1 733d df38 f93d
00000300: 49d7 80bd b83b 7cbd b08b f33d 323b c33d
00000310: 56d8 babc 2bea d93d adb4 c53b e19c 353d
00000320: 4432 de3d 60b8 b3bd eabb 3bbc dacf a6bd
00000330: 8476 ce3d 922d cfbd f8b5 3abe 2c5d 983b
00000340: 7e1d 15be 5dcb 483c 0ca2 1e3e d9e4 f8bc
00000350: ae2d 05bd 8af7 e0bc df53 4bbd 1d6d d7bd
00000360: 9ceb 203e cea4 60bc b66b 543c 43f5 e93b
00000370: d2c3 a03d c2d8 bfbd 1bbb 7fbd dc47 093e
00000380: 7f1b eb3d 066b fcbd 1a10 e5bd aa98 f5bc
00000390: 3d3e ad3d 9fcc b43d 5123 b13d 6b8a e4bd
000003a0: 67a1 be3d ab31 a7bd b4d1 973d 9605 c4bb
000003b0: 16bd 17bd efcd 843d f9ec 623b 237e bb3c
000003c0: 620c cc3d 32d8 c93d d5f1 063e 12ce 02be
000003d0: 78c8 04be 1053 c3bd b515 8fbd b76f b9bd
000003e0: dfd1 c9bd 42f9 81bc 0bb2 fdbd a9e8 af3d
000003f0: 18e5 ff3c 2b05 b73d 8765 15bd 9ac2 e6bd
0.20287374 -0.046458054 0.17376007 0.048714824 0.09312537 0.12078071 0.20733498 -0.102150045
0.16408575 0.054856624 -0.0126431575 0.11816597 -0.055987697 -0.001007819 0.07864759 0.12116646
-0.1891673 0.0642662 0.10368046 0.1262345 0.0074211536 0.07182209 -0.08670419 -0.08080696
0.061866727 0.12524603 0.03863364 -0.03180254 0.070089586 0.037523214 -0.04541773 0.16684967
0.063053355 0.0006498912 0.083384305 0.15027446 -0.025079016 0.04912781 -0.122053914 0.024830736
-0.092410445 0.08176301 -0.03993238 -0.018504122 -0.06770187 -0.071938574 0.16203529 0.039547157
-0.070110634 0.05615129 0.18803875 0.11232604 -0.08880013 -0.054784883 -0.029153634 0.028672706
0.12188085 0.13514616 0.008917978 0.07247212 0.11074307 0.030358065 -0.00026992406 0.10504848
-0.06902916 0.15545186 -0.045093648 -0.034472078 0.10973471 -0.086117595 0.054760575 0.021516174
-0.09241537 -0.06254143 -0.057065476 -0.13213062 0.15428095 0.094904296 0.08989026 -0.042093236
-0.010411214 -0.14410372 -0.04024234 -0.014680416 0.1215816 -0.026728416 0.17088692 0.004695932
0.007341127 0.059202675 -0.07732595 -0.018137645 -0.057125766 0.014007074 0.04604075 0.13111165
0.13510332 0.0044711204 -0.03195623 0.027084045 0.070412 0.050084144 0.09586419 0.121127374
0.1438599 0.09406695 -0.0038766915 0.08228888 0.114890076 -0.099003926 0.022328096 0.09935577
0.016221473 0.1412399 -0.08054116 0.17005028 0.075936064 -0.043238666 0.026411008 -0.13996027
0.010064727 0.008982209 -0.02210598 0.06826098 0.07850337 0.11314116 0.008137413 0.1730421
0.066412725 0.072031245 -0.10112938 -0.09241352 0.093299314 0.13418773 -0.16366947 -0.033198263
-0.0755321 0.07588187 -0.08483467 -0.013900579 0.054610796 -0.08080336 -0.039146602 -0.10427593
4.0671464e-05 -0.054362856 0.0049330536 -0.07385168 0.09521726 -0.14634465 0.11813779 -0.051156674
-0.041988358 -0.109810226 -0.030055085 -0.078302 -0.17055039 -0.007209111 -0.02689641 -0.010361995
0.029183699 0.053412545 -0.06476448 -0.088666186 0.081178345 0.009493528 0.10152103 -0.0582407
0.068169534 -0.01649003 0.071585886 -0.06732812 0.047307447 0.11789971 -0.03644921 -0.018733831
0.035800453 0.04370446 0.051010706 -0.017287983 0.08276131 0.108946316 -0.09176404 -0.10787189
-0.017853377 -0.13523726 0.07055659 0.14840169 0.09226523 0.07934357 0.059525844 0.121690504
-0.062910624 -0.06158039 0.11891878 0.09532775 -0.022808235 0.10640367 0.006033501 0.044339065
0.10849431 -0.08775401 -0.011458376 -0.08145113 0.10081199 -0.10116114 -0.18233478 0.004649779
-0.14562032 0.012255517 0.15491503 -0.03038256 -0.032514267 -0.027461786 -0.049640533 -0.105188586
0.15714878 -0.0137111675 0.012965133 0.007139833 0.0784985 -0.09367515 -0.062434297 0.13406318
0.11479854 -0.123251006 -0.11184712 -0.029980022 0.08459137 0.08828091 0.08649314 -0.11159214
0.09308129 -0.0816377 0.074130446 -0.005982111 -0.03704556 0.06484591 0.003462611 0.022887295
0.09963299 0.09855689 0.13178189 -0.12773922 -0.12967098 -0.09537327 -0.06986562 -0.09054511
-0.09854483 -0.015865926 -0.123874746 0.08589298 0.03123717 0.089365326 -0.036473777 -0.11267586

bias f4 [256]
00000000: f624 253e e885 393c 87c4 da3d 0de1 92bd
00000010: 4902 a63d f14e 63bd c00a ce3d 1fba 4c3e
00000020: d237 5f3e 5854 4d3d 87ae c4bc 7e52 a33a
00000030: 795c 883c c73e aebd 4b86 84bd 6e1f 0e3e
00000040: 4aa3 043e 3cb1 ea3d 5721 5b3d 7cc9 2fbd
00000050: 4e0f b6bd 8e69 dd3d c762 89bd 5028 c7bd
00000060: 3c28 443d 660d 343d cafc bf3d 34fd 9ebc
00000070: ef67 c13d 6d8b 61bd 5487 603d 1fde ef3d
00000080: 4131 08be 5509 e4bd 6636 7dbc cd81 7bbd
00000090: ccef 283b 6fcf d13d a89c 893c e2ae fbbd
000000a0: b86b de3d 4815 f73d 8cec 113e 5cfe 773d
000000b0: b075 163e 01c0 9cbc 5d21 01be 6e2e 0cbe
000000c0: 1793 09be 708e 713d db62 aebd 9bba 96bd
000000d0: c273 853c 4cfc f93c 0e18 e33d 135e a73b
000000e0: 70fb 883d 33dd 533d 7ffd 783d 7717 6dbd
000000f0: 6202 ee3d 21a6 1b3e 13bb 40bd 24c0 213e
00000100: ffb9 a4bd abfc 4ebd 3222 c83a 46af d13c
00000110: 877d 393e 1d6a 173d cedc bb3d fb90 19bd
00000120: 9f82 a13d acb5 08bc 7e14 a3bc 1dbe 95bd
00000130: d54b dabd e012 3b3e 1275 023d f6cb a7bd
00000140: b651 003e 1d9c 023e 89fc 4ebd e5c8 cebb
00000150: 5ed6 3d3d db1f 0cbd 470c a6bc d828 0a3e
00000160: b7b9 71bd e124 303c e2a8 683d d15d cabd
00000170: dc4e 653d 3669 13be 4e3c e0bd 7a00 89bc
00000180: 10be ccbd 620a 973a 0426 ae3d ad15 d53d
00000190: 5dc2 e4bc 42ce 92bc 8d00 b8bd 58c6 f13c
000001a0: d504 113e e304 8c3d 23b0 5abb e193 b73d
000001b0: 4662 00be dfdf 0e3e 9c90 bdbd bb96 813d
000001c0: f753 c63c 271d 0b3d c3b5 223e 6c10 3c3e
000001d0: c4ae 08be ecdc e0bd b525 f33d f428 c5bc
000001e0: 00c9 de3d 2b51 113d c32a a4bd 1bab 96bd
000001f0: ed7b a53c d2a0 0ebe 3a41 0dbd 2acb bfbc
00000200: e53c 0abe eecb 8dbd 28e1 f13d f882 923d
00000210: 6527 463e 3ca8 f3bd 86ad d43a 14e7 07be
00000220: 8008 523d f288 00be eae4 f2bd c0fe 0d3c
00000230: 473d b23c 502c 7bbd 3409 64bd 35c1 213e
00000240: e6af 4cbd 0672 32bd 0dd2 123e eaba 10bd
00000250: f1c2 0c3e 957e 04bd 6de0 983d 7573 f43c
00000260: a44f 7abd dc7d 493d 340f 8cbd f509 8abd
00000270: d19a 783b 39eb 67bd 8b10 bc3d 1507 273d
00000280: 4afb a3bd 5b7e 86bd e6b6 51bc 72da 423d
00000290: d748 09be dfff 3fbd 2e45 cebd f4c5 333d
000002a0: 95ae 043e 2402 91bd 692c ebbd 9428 ec3a
000002b0: 4cea d23b 0773 e7bd 9167 4e3c 49e1 b03d
000002c0: dafc 62bd 913b dcbd b75e 76bd 2ebb 973d
000002d0: 87d2 0e3e cdff 0bbe e196 6e3d b331 023c
000002e0: 9956 963d 40c6 953d d757 1c3d 5436 14be
000002f0: 3050 06be 5d80 303e 064f eebb bc4a 1f3e
00000300: f51c 87bd cd29 22bc a6b1 653d e4f7 e33b
00000310: 4c6e 433d 1fbe ebbd 26f0 813d 97d8 e9bc
00000320: 434d b73d f356 043e e15d 3bbb a9a0 0a3d
00000330: 553f fabc f981 803d 37c5 433e 7647 893d
00000340: 2757 00be e231 a5bd ec0a 2b3d b930 e53d
00000350: b9e5 083e f9a4 02be e4f0 14bd 2809 053e
00000360: fce9 de3c 1658 0f3e 075e c1bd 301f ebbd
00000370: 672f ee3c dc70 d43d cc6d 6bbc 7cd0 0ebd
00000380: c57d 5dbd 9a4b ea3c 77ec d3bd 143b e53c
00000390: 40ff a0bd e027 b3bb bf33 843b 77be b33d
000003a0: 939e edbd de56 123e 6982 fe3d cce6 dd3c
000003b0: 1bc6 2a3b 489e cdbc bf41 d33c af46 3bbd
000003c0: 979a ff3d 0aac d63d f6be a23d e380 123e
000003d0: 2623 9bbd 72f8 16bd ea3c c73b b190 d93d
000003e0: cf31 87bd 4a09 c23d 5e5d 8a3d dc87 01be
000003f0: fc13 833d cfee 9bbd bd93 24bd bda5 eb3a
0.1612738 0.01132343 0.10682016 -0.07171831 0.081059046 -0.055495206 0.10060644 0.19992875
0.21798638 0.050129265 -0.024009002 0.0012460498 0.016645657 -0.085080676 -0.06470927 0.13879177
0.12952915 0.11459586 0.053498592 -0.04291676 -0.08889638 0.108111486 -0.067082934 -0.09724486
0.047889933 0.04395809 0.093743876 -0.019407846 0.09443652 -0.055064607 0.05481656 0.11712288
-0.13300039 -0.111345924 -0.015454864 -0.061403085 0.0025777696 0.10244643 0.016798332 -0.122892156
0.108603895 0.12064606 0.14250392 0.06054531 0.14693332 -0.019134523 -0.12610383 -0.13689587
-0.13435017 0.05897373 -0.08514949 -0.07359811 0.01629055 0.030515812 0.110885724 0.00510765
0.06688583 0.051724624 0.060788628 -0.057883706 0.11621548 0.15200092 -0.047053408 0.15795952
-0.080432884 -0.05053393 0.001526898 0.025596272 0.18114291 0.036966432 0.091729745 -0.03749178
0.07886242 -0.008344095 -0.019907232 -0.07311652 -0.10658995 0.18268919 0.03184993 -0.08193199
0.1253117 0.12754865 -0.050533805 -0.0063105696 0.046347015 -0.034210067 -0.020269526 0.13492143
-0.059015002 0.01075098 0.056801684 -0.09881175 0.05598341 -0.14395604 -0.10949002 -0.01672386
-0.09997189 0.001152348 0.08503345 0.10404525 -0.02792471 -0.017920617 -0.0898448 0.029513523
0.14162 0.068368696 -0.0033369146 0.089637525 -0.12537488 0.13952588 -0.09256098 0.06327578
0.02420996 0.03396335 0.15889649 0.1836564 -0.13347918 -0.109796375 0.118724264 -0.02406738
0.108781815 0.0354778 -0.08015969 -0.073568545 0.020200694 -0.13928536 -0.034486033 -0.023412306
-0.13499792 -0.06923662 0.11810523 0.071538866 0.19350965 -0.118973225 0.001622603 -0.13271743
0.051277637 -0.1255224 -0.11860068 0.008666694 0.021757735 -0.061321557 -0.05567284 0.15796359
-0.049972437 -0.043565772 0.1433794 -0.035334505 0.13746239 -0.03234728 0.07464681 0.02984021
-0.061111107 0.049192294 -0.06838837 -0.067401804 0.0037934075 -0.05662081 0.09182843 0.04077824
-0.08006914 -0.06567069 -0.012799954 0.047571607 -0.13406692 -0.046874877 -0.10071789 0.043889955
0.12957223 -0.070804864 -0.1148308 0.0018017464 0.006436622 -0.113012366 0.012597934 0.0863672
-0.05541692 -0.10753549 -0.06014892 0.074087486 0.13947497 -0.13671799 0.058249358 0.0079464195
0.07340736 0.07313204 0.038169708 -0.1447385 -0.13116527 0.17236467 -0.007272604 0.15555853
-0.0659732 -0.009897661 0.056077622 0.006957041 0.04771261 -0.11510872 0.06344633 -0.02854566
0.089502834 0.12923793 -0.0028589892 0.033844624 -0.030547777 0.0627479 0.191182 0.06703083
-0.12533246 -0.08066155 0.041758463 0.11190934 0.13368882 -0.12758245 -0.036362544 0.12991774
0.027211182 0.13998446 -0.094417624 -0.11480558 0.029075338 0.10373089 -0.014369439 -0.034866795
-0.05407502 0.028600503 -0.103478365 0.027982272 -0.07861185 -0.0054674 0.004034489 0.08776563
-0.11602511 0.1429095 0.124272175 0.027087592 0.0026058021 -0.025099888 0.025788186 -0.045721706
0.124806575 0.104820326 0.07946579 0.14306979 -0.075750634 -0.03685803 0.0060802596 0.10623301
-0.06601297 0.09474428 0.0675609 -0.12649482 0.06400296 -0.076139085 -0.040179957 0.0017978471

weight f4 [128, 256]
00000000: 0080 fb3c 4cac 15ba ef53 273c f5f9 ecbb
00000010: 66e8 b5bc e89f 313d fd94 f63c 3e85 3a3d
00000020: 4266 ebbc 83e6 85bb beac 583d 44fc 593d
00000030: f1ea 33bc 55a8 42bd 18bb 0bbd 3b45 463d
00000040: 0634 ddbc 06bd e53c 1dc5 023c 3509 9eb8
00000050: 0f6d 523d 1f66 0c3c a4dc e8bc 29cf 8cbd
00000060: 8473 8b3c 462e 353d dd2c f03c bc2c 72bd
00000070: aa75 57bd 9160 8bbd dfa2 9f3c 41dd 02bd
00000080: 5b79 5dbc 646a e8bc d105 bcbc 9b77 09bd
00000090: d201 34bd d5c3 43bd aa7f 0abd a875 b23c
000000a0: 5eef 273d b87b 2dbd edf8 7b3b 5bb3 3fbd
000000b0: 3b85 193d 3ac3 ffbc cc4a 43bd a3fb 183d
000000c0: 0da7 983b c659 49bd 8e42 80bd 3485 a93c
000000d0: 55c6 2a3c 7e2d 65bd 5e4a e4bc e8eb 073d
000000e0: a379 5fbd 6513 b0bc 4649 443d 1ab5 a13c
000000f0: f0f6 2b39 db51 143c 6225 4bbc 5ef7 6abd
00000100: 57b9 02bc 7ca6 18bd 1db6 be3a a5b6 cb3c
00000110: 1bc6 92bc f98d 26bb c617 753c d1da 56bd
00000120: 2ac2 23ba 8e0a 51bd ed91 32bd 38f1 c2bc
00000130: a004 703d 4b17 46bd 2143 0b3c 4233 443d
00000140: 34bb 2abc 67fc 1abd e7df 26bc 6039 563d
00000150: 66ea 15bd e355 28bd 01ab 5fbc 52a3 d5bc
00000160: 2164 e33c a3a4 7fbc 3d70 f73c 446a ed3c
00000170: 476f 5ebd 69c6 73bd 85fb 713d 7f3d 263d
00000180: 64d6 063a 2d7e 5f3d a32e 493d 7dd1 bebb
00000190: 6f4b 9dbc 04b8 e2bb e6be 633d 21c2 49bb
000001a0: 3dd5 f2bb 9048 a2bc 9f4c 18bd 1d5d de3c
000001b0: 0023 483d 0530 7fbc 24fd 5b3d a588 b23b
000001c0: 8f76 8e3b 8dcb aebc 2e77 a7bc 6b0b 45bd
000001d0: 189e 0a3d 4c00 67bd d9f1 13bd d0aa 8f3c
000001e0: 061f d9bc 0d13 fb3c f632 133d b29c 6cbd
000001f0: ff2b 8bbd 93a9 36bd d29d 8d3c 6646 17bb
00000200: 98a0 89bd 7d34 99ba 81d8 54bd a36f 533d
00000210: 2f03 b23c cc3b 353d 5b1b 333d ed87 f93c
00000220: baf8 0dbc 982c 83bd 64e5 78bd 3709 8dbd
00000230: 80b5 3cbd 27f2 50bd be04 083d 0ab9 87bc
00000240: 0c13 1fbc 65a2 8cbd 61b2 7fbc 6f46 423c
00000250: 9b6b bd3c d3af d43a 6f3b 5cbd fc4c 38bc
00000260: 3af3 8bbd c428 3c3d 0810 6bbd 873b 8cbc
00000270: 0655 1a3c 3d6f 87bd 86ec 9e3c 7e2d 863c
00000280: a661 6f3c abc7 46bd e8f6 2c3d 916d e8bc
00000290: d689 6cbd ac4a ad3c c93e 3b3d b9fa 1fbd
000002a0: da02 c8bc dd17 bebc 0872 463d e46b 7abd
000002b0: db51 f93c 6f65 bcbc 587a 2fbd 78ae 563c
000002c0: d854 69bd e88d 15bd a886 6cbd 750c c63c
000002d0: fd72 253d a156 eabc edb2 7bbd fb4b dc3c
000002e0: df78 e1bc 4a72 003c 3fe8 bebb c96c 533d
000002f0: 8d80 343c fc28 833c 1c44 b0bc 0487 2a3d
00000300: c7cb 16bd 000a ef3c a7f1 693b c6b0 95bb
00000310: be18 f8bb 5791 f1bc a775 23bd d957 6e3b
00000320: 609d 4e3d ca60 cabc 8737 75bb 7023 393d
00000330: 3c40 42bc 84ff 3c3d 073c ce3c 3be8 70ba
00000340: 300d 223d 56f9 313c 40c1 8f3c 0ce2 183d
00000350: f428 65bd 55ec 18bb f6a8 473d 48be 473d
00000360: 1b4c 38bd 283f 7ebc b6a6 2a3d 3ce0 f7b7
00000370: 9596 39bd da59 ef3c 4ee5 85bc 3a37 34bd
00000380: fba4 1c3c ed3d 00bd fca8 2abd 3d20 83bd
00000390: 1764 73bd 2483 7d3c 7f60 1fbd c7d5 1f3d
000003a0: 8804 f43c e983 61bc 1f55 51bd 65f0 71bd
000003b0: 15ae c9ba 841a 6bbd eff1 00bd 064f aa3c
000003c0: 13cf 4c3d 0303 edbc 07f8 023c a4fa 01bd
000003d0: fa8f 1e3d 2ec0 f4bb 9ae1 303c 3c02 513d
000003e0: 3f9a 44bc 12ae 10bc 176c ea3c 21a7 b73c
000003f0: 3f69 f7bb 08f1 86bd f902 1bbd a6df 433d
0.030700684 -0.0005709573 0.010212882 -0.0072319456 -0.022205543 0.04336539 0.03010034 0.045537226
-0.028735284 -0.004086317 0.052899115 0.053219095 -0.010981307 -0.047523815 -0.034113973 0.048405867
-0.027002346 0.028044235 0.007981566 -7.535742e-05 0.051373538 0.008569269 -0.028425522 -0.0687545
0.017022856 0.044233583 0.029318267 -0.059124693 -0.052602448 -0.06805528 0.019486843 -0.031949285
-0.013517703 -0.028371044 -0.022951992 -0.03356133 -0.04394705 -0.04779418 -0.033813156 0.021784618
0.040999763 -0.042354316 0.0038447932 -0.046801906 0.037480574 -0.031221021 -0.047678754 0.037349354
0.004658586 -0.04915788 -0.06262694 0.020693399 0.010423263 -0.055951588 -0.027867492 0.033183962
-0.05455936 -0.021493623 0.04792144 0.019739676 0.00016399822 0.009052719 -0.0123990495 -0.057364814
-0.007978759 -0.037268147 0.0014550124 0.024867365 -0.01791673 -0.0025414212 0.014959281 -0.052454773
-0.0006246889 -0.051035456 -0.043596197 -0.023796663 0.05859816 -0.048362058 0.0084998915 0.047900446
-0.010420609 -0.037838366 -0.010185218 0.05230081 -0.036600493 -0.041097533 -0.01365161 -0.026078854
0.027757706 -0.015603217 0.030204887 0.028981335 -0.05430534 -0.05951539 0.05907776 0.04058599
0.0005143641 0.05456369 0.049116742 -0.005823313 -0.019201009 -0.006918909 0.055601977 -0.0030785876
-0.007410674 -0.019809991 -0.037182447 0.02714401 0.048861504 -0.015575414 0.05370821 0.005448418
0.0043476294 -0.021337295 -0.020442571 -0.048106592 0.033842176 -0.056396767 -0.036119316 0.017537504
-0.026504051 0.030648733 0.035937272 -0.057766624 -0.06795501 -0.044595312 0.017287169 -0.0023082732
-0.06720084 -0.0011688616 -0.051964287 0.051620137 0.021730034 0.04424648 0.04372726 0.030460322
-0.008665258 -0.0640499 -0.06076564 -0.06886523 -0.04607153 -0.051012184 0.033207648 -0.016567726
-0.009709131 -0.06866912 -0.015606494 0.011857613 0.0231226 0.0016226716 -0.053767618 -0.011248823
-0.06833501 0.045937315 -0.057388335 -0.017118229 0.009419685 -0.06613014 0.019399893 0.016379114
0.014610684 -0.048530262 0.042227656 -0.028372558 -0.057748638 0.02115377 0.045714173 -0.039057467
-0.024415422 -0.023204738 0.048448592 -0.06113805 0.03043454 -0.022997586 -0.042841285 0.01310312
-0.05696568 -0.036512285 -0.057745606 0.024175862 0.040392864 -0.028605761 -0.061449934 0.026891699
-0.027523456 0.007839749 -0.0058260257 0.051617417 0.011016977 0.016010754 -0.021516852 0.041632667
-0.03681543 0.029179573 0.0035697015 -0.004568192 -0.007571309 -0.029488249 -0.039907124 0.003636828
0.050443053 -0.024704356 -0.003741713 0.04519981 -0.011856135 0.046142116 0.025175108 -0.00091898785
0.039563358 0.010862669 0.017548203 0.03732495 -0.05594726 -0.0023334224 0.048745118 0.04876545
-0.044994455 -0.015517987 0.041662894 -2.9549112e-05 -0.04530962 0.02921765 -0.016344693 -0.04399798
0.009560819 -0.031309057 -0.041665062 -0.06402633 -0.059421625 0.015473161 -0.038910385 0.039022233
0.029787317 -0.01376436 -0.05110657 -0.05906715 -0.0015386963 -0.057398334 -0.031480726 0.020789634
0.05000217 -0.0289321 0.007993705 -0.03173317 0.038711525 -0.0074691987 0.010795975 0.05102752
-0.011999666 -0.008830564 0.028615994 0.02241856 -0.007550388 -0.06588942 -0.03784463 0.04782071

bias f4 [128]
00000000: 726f 3f3d 02f1 043d e416 b43b d213 b3bc
00000010: ec6b 043d 64e7 c73c ceb0 3a3d 69c7 4dbd
00000020: 83f4 503d 6133 45bd fd2c b2bb bb8b 183d
00000030: fd52 26bd fc7b aebc c121 1abc 4967 37bd
00000040: d86a 12bd da8b d6bb 09ad fc3c da02 31bc
00000050: 8d43 963d 7b13 083d 6b2f 8ebc 6ae2 61bd
00000060: b027 a23d 4140 393d ebd9 32bc 5b48 67bd
00000070: d4a4 1bbd bacb 173d 13ed 9b3c 4eb3 63bd
00000080: aec9 93bb df34 8abc 9e6d e13a d38c 753d
00000090: 24ac 423d 37dd c6bc bda1 82bc 99a5 d2bc
000000a0: 211f e73c 0759 2a3d 9b6d 343d e972 403b
000000b0: ff39 043d 1849 d83c 742e 9dbc b652 aabc
000000c0: aca7 003d 3560 0e3d e87c 8fbd 27fe 28bb
000000d0: 4f43 8a3d ae82 c4b9 1972 58bc 2aa1 983d
000000e0: 27cc 003d 9c80 eabc 6a7c 343c b615 163d
000000f0: e678 733d e4f9 d2bb 6099 3bbd 1014 7bbd
00000100: a14c 7abd 3a49 5c3a 94a9 2c3b 7081 44bd
00000110: a690 543d 17e9 5dbd f66a a03b 1b41 78bd
00000120: 72f3 a33c 5181 ecbc 6a6e d53c 06c3 1abd
00000130: 027b 263d 8213 5e3a cd57 41bc aa6e 273d
00000140: a321 0d3d d6f2 b8bb 3ffb 1bbd 3d9d e83c
00000150: e736 b93c 6305 afbc 77ee 863d f9cf 573d
00000160: 5d38 4abd 5c58 473d 2a73 bbbc 0680 263c
00000170: 410a 6e3c 0044 20bd 0870 ee3c bc29 a33c
00000180: 7acf 55bd db3d 693d 7844 0ebc 8b54 913b
00000190: 0eb3 50bd ded3 49bc 23d1 3bbc db54 233d
000001a0: f8f1 22bd cf05 14bb 62d5 343d 1a95 c13c
000001b0: 3cd7 3d3d 733b 5dbd 561e 383d d908 d03c
000001c0: bb53 6d3d bfc3 31bd 10eb 883d 4633 4bbd
000001d0: 971f eabc d4d7 2cbd 6953 553d 9ccb 8f3c
000001e0: 977d c13a 2b4b bfbc 8b2e 28bc 850d fd3c
000001f0: 8886 80bb 20ff 3b3c 1bc1 4ebd a885 14bd
0.046737142 0.032456405 0.005495893 -0.021860037 0.032329485 0.024402328 0.04557877 -0.050239
0.051014435 -0.048144702 -0.005437492 0.037242632 -0.040606488 -0.021299355 -0.009407462 -0.044776235
-0.035746425 -0.0065474333 0.030844228 -0.0108039025 0.07337103 0.033221703 -0.017356595 -0.055147566
0.07917726 0.045227293 -0.0109162135 -0.056465488 -0.03799899 0.037059523 0.019033944 -0.05559092
-0.004510126 -0.016870914 0.0017198806 0.059948754 0.047527447 -0.024275405 -0.015946263 -0.025713729
0.028213086 0.04158881 0.04404984 0.0029365367 0.032281872 0.026402041 -0.01918719 -0.020791393
0.031409904 0.03475972 -0.07006246 -0.0025786252 0.06751119 -0.00037481397 -0.013210797 0.074526146
0.031444695 -0.028625779 0.011015991 0.0366418 0.05944147 -0.0064384807 -0.045800567 -0.06129843
-0.061108235 0.00084032456 0.0026346194 -0.047975004 0.05189576 -0.05417737 0.0048955632 -0.060608964
0.020013545 -0.028870257 0.026053626 -0.037783645 0.040644653 0.0008471535 -0.0118007185 0.04087702
0.034455907 -0.0056441827 -0.038081404 0.02839529 0.022609187 -0.021364873 0.06588452 0.052688573
-0.04937016 0.04866825 -0.022882063 0.010162359 0.014528812 -0.03912735 0.029106155 0.019917361
-0.05219982 0.056943756 -0.008683316 0.004435127 -0.05095201 -0.0123185795 -0.011463436 0.039875846
-0.03978154 -0.002258647 0.04414881 0.023630667 0.04634784 -0.054011773 0.044950806 0.025394844
0.05794118 -0.04339957 0.066854596 -0.049609445 -0.028579516 -0.042198017 0.0520815 0.017553143
0.001476216 -0.023351273 -0.010265003 0.030890236 -0.0039222874 0.011474401 -0.05047713 -0.036260277

weight f4 [8, 128]
00000000: 2008 2c3d 9b9a 7fbd 7a64 7abc efb5 263d
00000010: 0055 073c 9cf7 8f3d 5cd7 553d 1127 ec3b
00000020: 65c6 81bd 80fa b2bc 55c7 443c 97ea 9d3d
00000030: 0afd 7b3d 6659 4a3c bd08 fb3c bd1f 4dbd
00000040: f2c7 6e3c 76d1 9cbd a270 fdbc 03e9 5cbd
00000050: 6386 c13a eb63 48bd c94f 32bb cd02 0ebd
00000060: 0bc9 ac3c 6a0e c33c 3890 dbbc 81e6 9fbd
00000070: 54b4 9d3d 77e5 90bd aaff 033d be92 b43d
00000080: b788 4bbd 6df2 633d c2ff a13d a8ec b73d
00000090: 9e51 793d 815d 823d b49e a03d f7b4 77bd
000000a0: 0989 f5bc 468f febc 34cf ab3d c85f 333d
000000b0: 893d 443d 079c b43d 2982 fd3c 5633 e63c
000000c0: ad6c 713d 04d5 06bc 2a7a a7bc b408 97bd
000000d0: c9d0 953c bbd8 8b3d db53 b83d 9adf faba
000000e0: 890f 54bd 41c3 923c 5657 6ebd 709d 903c
000000f0: ee81 553d 9fee ee3c 944c 29bd 4b5f 76bd
00000100: 054f 9d3d 49ef 7ebd a908 94bc c1f5 983d
00000110: 8e3d 2b3d d0ad 103d d581 61bd 0173 f23b
00000120: 90a2 5f3d 8663 b73d d850 f4bc 5265 94bd
00000130: 4632 adbd 4fba 64bb b5e3 aebc 48c8 b4bc
00000140: 5f37 b63d f8a0 97bd 9128 803d 6580 d23c
00000150: 1aba 24bd f410 6b3d ae89 5f3d 5455 b33c
00000160: 1749 6b3c 48f8 483d 7bc9 513b 2c20 9ebc
00000170: 3e99 943d 3d27 d1bc 846e 6b3d e54a e4bc
00000180: 2359 913d 36fb 92bd f75a c33d 9f57 30bd
00000190: 87a3 053d 4c60 d4bc 5f4a 403c 8e94 24bd
000001a0: 24a6 32bd 309e 6d3d 2174 68bc a2de a73d
000001b0: 68f5 303c 8cff a93d f894 aebc daa6 8c3d
000001c0: 0086 8abd 2789 123d 2d1d 2bb9 0ef4 ea3a
000001d0: 4eff 043c d14b c63c b08c 163c 1d4c 27bb
000001e0: 87bd 51bd e65d adbd ce0a 79bd 732d 483d
000001f0: 477c c63c 7e70 b4bd 4eed cebb 7a47 393c
00000200: c3e4 5f3d b253 72bd cd59 963d d321 d0bd
00000210: 1328 b33a 81f2 033d 3393 2ebd feb4 b03c
00000220: 0a57 7c3d 3182 233d 48a9 c0bd 1931 eebc
00000230: 6c37 b6bd 2e9e 003c 4646 a93d 6547 1c3b
00000240: c545 c43a a9c9 d63c a4b3 99bd 936d 45bd
00000250: ad81 043e a72e a5bc 2d4e 68bc d02e 263d
00000260: f7fb 443d 4e5a a23d 1f4a a13c 3cf9 53bc
00000270: b1b6 36bd 414e 97bd 1af6 de3c 489e fbbc
00000280: 5502 053d 3507 673d 3c5e 4ebd 9420 813c
00000290: b7b3 ccbc 6143 3dbd df63 bd3d 7cb6 703b
000002a0: 19f7 423d d5e2 7dbd a853 5abd 352d 40bd
000002b0: 9b83 c1bc f2ac 1cbd 8c18 9bbc c2da c5bc
000002c0: 09d2 c5bd a6ea 0ebd 794d 26bc c87d aebd
000002d0: 2db9 f33d c4a8 1ebc 0904 7dbd 3330 be3d
000002e0: 1d81 1c3d e62b 503d 378f 8cbd 9cb8 2a3d
000002f0: bd2c 02bd 32e4 1fbd 4108 2dbd f0fa acbb
00000300: 78e4 333c f724 8abd 53df c1bc 8c41 6cbd
00000310: 1cdf e9bc 72e2 683d 8edd a93d b34c c6bc
00000320: 1402 9b3b b814 a33c 5325 843d 51ad 593b
00000330: 9d0e 4c3d a5a6 a1bd bed8 a6bc b64e a03d
00000340: 982f b1bd ae6a 5ebd 52bc c0bd 9069 cb3c
00000350: b4f6 9a3d d319 213d 9be0 a5bd 6cd2 9abd
00000360: 9b4a fe3c 797a 4cbd c524 573c e4c0 46bb
00000370: 5e19 45bd ddec 8e3d 6054 7ebd ac3e e4bc
00000380: d982 66bd 05b7 b53c 6511 ccbd 6eae c03c
00000390: bf37 36bd 7551 9dbd f1e3 6bbc 13a5 9ebc
000003a0: 328a 383c 3809 c13b c95d 1abc d2df f53b
000003b0: 5ff9 8abd cd3a 6dbd 6407 633d bdad 97bd
000003c0: f1e5 943d 793b 3bbb b3dc 123d 6080 053d
000003d0: 6914 55bd 6d82 303d f28d f73c b1f8 6f3d
000003e0: e193 c3bd a7e9 383d 12a4 c5bc 30fb 83bd
000003f0: b9e1 a83c 42bb cf3d bd82 10bd 4bbe 633d
0.041999936 -0.062403303 -0.015282745 0.04070085 0.008260012 0.070296496 0.052207336 0.0072068055
-0.06336669 -0.021847963 0.012010415 0.0771076 0.061520614 0.012350416 0.030643815 -0.050079096
0.014574038 -0.07657139 -0.030937497 -0.053933155 0.0014764782 -0.048923414 -0.00272082 -0.03467064
0.021091959 0.023810584 -0.026802167 -0.07807637 0.077004105 -0.07075017 0.032226242 0.08817051
-0.04969093 0.055651117 0.0791011 0.089806855 0.06086885 0.06365491 0.0784277 -0.060475316
-0.02997257 -0.031074177 0.0838913 0.043792516 0.047910247 0.08818822 0.030945854 0.02810065
0.058941532 -0.008229498 -0.020443995 -0.07374707 0.018288033 0.068284474 0.09000369 -0.0019140125
-0.051772628 0.01791537 -0.05818876 0.017653197 0.052125864 0.029166518 -0.041332796 -0.060149472
0.076810874 -0.06223992 -0.018070536 0.07468749 0.04180675 0.03532201 -0.055055458 0.0073989634
0.05459839 0.089545295 -0.029823706 -0.07245888 -0.084568545 -0.0034901088 -0.021348814 -0.022068158
0.0889728 -0.07403749 0.062577374 0.025695989 -0.040216543 0.057389215 0.05457466 0.021891274
0.014360688 0.049064904 0.003201096 -0.01930245 0.07255791 -0.025531406 0.057478443 -0.027867744
0.070970796 -0.07176821 0.095388345 -0.043052312 0.032626655 -0.025924824 0.011736481 -0.040180735
-0.043615475 0.058012187 -0.014187844 0.08196761 0.010800697 0.08300695 -0.021311268 0.06867762
-0.0676384 0.03577533 -0.000163187 0.0017925517 0.00811751 0.024206074 0.009188816 -0.0025527545
-0.051206138 -0.08465175 -0.06080132 0.04887147 0.024229182 -0.08810519 -0.00631491 0.011308545
0.054661524 -0.05916185 0.07341347 -0.101627015 0.0013668559 0.03221369 -0.04262085 0.021570679
0.061606444 0.039919082 -0.09407288 -0.029076146 -0.0889729 0.007850213 0.08265357 0.0023846265
0.0014974406 0.026219206 -0.07504967 -0.0482002 0.12940092 -0.020163847 -0.014178795 0.040571988
0.048091855 0.079273805 0.019688664 -0.01293784 -0.04460782 -0.073879726 0.02721696 -0.030715123
0.032472927 0.056403358 -0.050382838 0.015762605 -0.024988038 -0.046206836 0.092475645 0.0036729863
0.047598932 -0.061983902 -0.053302437 -0.046918113 -0.023622325 -0.03825087 -0.018932603 -0.024152163
-0.09659202 -0.034891747 -0.010150307 -0.085200846 0.11900554 -0.009683792 -0.061771426 0.09286537
0.03820907 0.050823115 -0.068632536 0.041679963 -0.031780947 -0.039035983 -0.0422442 -0.0052789375
0.010979764 -0.06745332 -0.02366606 -0.057679698 -0.02854877 0.05685658 0.08294211 -0.024206495
0.0047304723 0.01990734 0.064524315 0.0033214877 0.049818624 -0.07893113 -0.020367023 0.07827513
-0.08651656 -0.054300956 -0.09410919 0.02483061 0.07566586 0.03933127 -0.08099481 -0.07559666
0.031041434 -0.049921487 0.013131325 -0.0030327374 -0.048119895 0.06978772 -0.062092185 -0.027861916
-0.05627713 0.022181997 -0.09964255 0.023520675 -0.044486757 -0.07681552 -0.014397607 -0.019365823
0.011263417 0.0058909915 -0.009421774 0.007503488 -0.06785845 -0.057917405 0.05542697 -0.07406185
0.0727042 -0.0028569384 0.035855006 0.03259313 -0.052021418 0.043093134 0.030219052 0.05858678
-0.0954969 0.045144703 -0.024126086 -0.064443946 0.020615445 0.101431385 -0.03528093 0.0556014

bias f4 [8]
00000000: 72dd 403d 4d50 703d d935 9ebd 6a6e f5bc
00000010: e032 203d 0d81 aabd fa7d a5bd 1571 f9ba
0.047086187 0.05867033 -0.077251144 -0.029959876 0.03911102 -0.08325396 -0.08080669 -0.0019030893

weight f4 [128, 8]
00000000: 8624 b2be 8320 b6bd 6091 353e 92e5 d63d
00000010: 45bb a33e fbb4 893e 55f1 aa3e 783b a73e
00000020: aeb7 3dbe 1c3c 5dbd b503 0f3e d084 923d
00000030: 6eb4 51be 8c84 743d c264 2e3c d612 a13e
00000040: 780e 92bd 90f7 873d 9f5c 713e d8bd 0cbe
00000050: 8ee3 8abe 11c1 b0be fc6b 6ebc 9d02 c8bd
00000060: 0a40 143e 5fe1 143e 82a5 1b3d f89b a93e
00000070: e0ad 823e de3a b03d 2950 773e 0205 ddbd
00000080: b8c9 a13c 262c 51be bda6 003e 28be 883e
00000090: b439 8cbe ea5a a93e bb93 763c 74e1 1a3d
000000a0: eb86 1d3e e350 00be e5bf a43e 3505 c83d
000000b0: c12a a13e e553 163e 1986 35be 4277 2c3e
000000c0: 53a4 aabe 5953 803d 66d7 26be 17e1 57be
000000d0: d5cb 983e 9434 1cbe 9816 193e 7715 a03e
000000e0: 8a8a 9abe 885b ef3d 5903 22bd df7c 0fbd
000000f0: b8d7 81bd 8e65 883e ff3a 913e f269 c83d
00000100: 15de a33e 519c 5b3c bcb1 813e e3cd 7eba
00000110: 26b0 8cbd 53ab a5be f092 2b3e 933b a2be
00000120: 6b96 d43d 01fb 50be 607d 5a3d 8e4e 3fbe
00000130: 577e 203e a5a2 56be 4fb2 b43e 2fee 6b3e
00000140: cba8 ff3d 91c5 8fbd db32 49be bae0 0fbe
00000150: c8fe 3a3e 4452 bdbd c0aa b2be 0304 7abe
00000160: 44e6 5ebe 9d93 dabd 046e 0abe 3060 85be
00000170: cc30 a33e 7e56 68be f9fc 6e3e 433f fb3c
00000180: 06b1 dc3c 345f 163e 3896 8e3e 4c46 993e
00000190: 50bc 8dbe 1a03 6cbe 7813 fcbd 5fb1 54bd
000001a0: eb68 a7bd 6f71 1c3e 5fee 21be 792e 433e
000001b0: d176 88be 607e 863e 724f 5a3d 49ec 8c3e
000001c0: 0d55 a2be 40bb c6bd 2fa7 053e 5c24 b33e
000001d0: a4ff 9bbe c4e8 8d3e 6e7b b5be e373 6d3e
000001e0: a833 673e 5f1f 82be ede3 87bd 7233 3a3d
000001f0: 1715 3e3e 3c74 f1bd 7745 9a3e a3c9 b43e
00000200: 814a a0bd 59d7 0e3e 5f10 60be 3efb 803d
00000210: 2437 b9be 60ba ac3e a6e5 3ebe e953 85bd
00000220: 1809 1d3e c5cb 043e 2f0c 85be c603 94be
00000230: 2998 0abe 5e69 a2be 78f8 cdbc fe0d 8a3e
00000240: f2ad 5bbe d231 6cbe a80d a93e a276 7fbe
00000250: 0e75 91bc b43d 813e a08f 78be a414 28be
00000260: 9e2f 6dbe 3c72 a03e d9ed 823e 2942 4d3d
00000270: cfa1 c0be 5699 6abe 03b5 4d3e d289 3cbc
00000280: 6ed1 8ebc b946 77be 32e4 6a3e 798b b1bd
00000290: 3225 d2bd 0dc0 6ebe 286f b6bd f256 70be
000002a0: ffb6 b1be 1c3c c23d 632f d53d 2138 8f3e
000002b0: 997f 973e fc16 3f3e 35d3 b63e 80d2 56be
000002c0: 286d 4b3d 77e5 f8bd 129c 98be 4b35 7abd
000002d0: 578f d63d 6bae 983d 6d7f f73d 70f7 21bd
000002e0: 3536 9fbe 0f0f 0b3e 98b9 b93c a591 17be
000002f0: 63dd 7b3e bbda 113e 40dd 843a 6d7e 7b3c
00000300: 9579 71be 38b6 8a3e cb32 043e d6c3 463e
00000310: b70c 9c3e 74ca 783e 7060 23be 4ea1 753e
00000320: 0abd 4ebd 6430 9f3d 6329 0ebe ec04 94be
00000330: b3a7 5abe 4a6f 41bc 5641 66be 3a1d 383d
00000340: f4c3 983c b343 1dbd 5029 78be 35f3 0ebe
00000350: b7dd 54be b92d b0bd af5a 423e 87d5 043e
00000360: 6e97 443d 0803 7b3e 097c bebc 2b40 283e
00000370: fddc 593e 07d3 cfbd 62ad 6d3d bb5f 36bd
00000380: 4f48 0e3e cd71 7e3e 3cb1 42be f607 24bd
00000390: cae8 253e adfe 5dbe 1f71 ac3d 64d7 1ebe
000003a0: 9a6e ac3e c7b3 e53d 95fe 503e 6303 e1bd
000003b0: 3f22 62be c516 463d 5ea2 95be 3a90 c1bc
000003c0: 273a 7e3e 0c75 30be 6b88 f63d 14e4 c43c
000003d0: 9639 4bbe 0c78 74be ba1b 373e 117b b13d
000003e0: 56cc a23d df04 75be eee3 77be 4d65 993e
000003f0: 935e 9fbe e7f0 a5be 1b65 203e eba4 6dbe
-0.3479349 -0.0889292 0.17731237 0.10493006 0.31978813 0.2689589 0.33387247 0.3266256
-0.185271 -0.054012403 0.13966258 0.07154238 -0.20478985 0.05969672 0.01064414 0.31459683
-0.07131666 0.06639016 0.23570488 -0.13744295 -0.27126735 -0.34522298 -0.014552113 -0.097661234
0.14477554 0.14539097 0.037999637 0.33126807 0.2552328 0.08604978 0.24151672 -0.10791971
0.019749507 -0.20426998 0.12563606 0.26707578 -0.27387774 0.33077174 0.01504987 0.037812665
0.15383498 -0.12530856 0.32177654 0.09766618 0.3147793 0.1468044 -0.17726935 0.16842368
-0.33328494 0.06265897 -0.16293105 -0.21081959 0.29843011 -0.15254432 0.14950025 0.31266376
-0.30183822 0.1168738 -0.039553974 -0.035031196 -0.06339973 0.2663998 0.28365323 0.097858325
0.32005373 0.013403968 0.25330913 -0.00097200106 -0.06869535 -0.32357273 0.16755271 -0.31686077
0.103802525 -0.2040825 0.053342223 -0.1868231 0.15673195 -0.20960481 0.3529229 0.23040079
0.124833666 -0.07020105 -0.19648306 -0.1405057 0.18261254 -0.092442065 -0.34895897 -0.24415593
-0.21767527 -0.10672686 -0.1351853 -0.26049948 0.31873167 -0.22689244 0.23338689 0.030669814
0.02693988 0.14684755 0.27848983 0.29936445 -0.27682734 -0.23048058 -0.12308401 -0.051926967
-0.081743084 0.15277646 -0.15813588 0.19060697 -0.2665315 0.2626829 0.05329842 0.2752402
-0.31705514 -0.09703684 0.13052057 0.34988678 -0.30468476 0.2771665 -0.35445732 0.23188739
0.22578299 -0.2541456 -0.0663527 0.04545922 0.18562733 -0.11789748 0.30131122 0.35310087
-0.078267105 0.13949336 -0.21881245 0.06297921 -0.3617488 0.33735943 -0.18642291 -0.06510145
0.153355 0.12968357 -0.25985858 -0.2890913 -0.13534607 -0.31721014 -0.025142893 0.269638
-0.21453074 -0.2306588 0.3301823 -0.24947599 -0.017756011 0.25242388 -0.24273539 -0.16414124
-0.23162696 0.31337154 0.25572088 0.050111923 -0.3762345 -0.22910056 0.20088582 -0.011507468
-0.017433848 -0.24148072 0.22938612 -0.086691804 -0.10261001 -0.23315449 -0.0890792 -0.23470667
-0.34709927 0.09484121 0.10409429 0.2797251 0.29589537 0.18661112 0.35708013 -0.20978737
0.049664646 -0.12153142 -0.29806572 -0.06108598 0.10476559 0.074551426 0.120848514 -0.039542615
-0.31096044 0.13579963 0.022671506 -0.14801653 0.24596171 0.14243595 0.0010136738 0.0153499665
-0.23581536 0.27092147 0.12910001 0.19410643 0.3047845 0.2429598 -0.15954757 0.23987314
-0.05047325 0.07772902 -0.13882975 -0.28910005 -0.21353035 -0.011806319 -0.22485861 0.044949748
0.018648125 -0.03839464 -0.2423451 -0.13959964 -0.20787703 -0.08602471 0.18979906 0.12972079
0.047995977 0.24512875 -0.023252504 0.16430728 0.21275707 -0.10147672 0.05802668 -0.04452489
0.13894771 0.24848099 -0.19012922 -0.040046655 0.16202083 -0.21679182 0.08420014 -0.15511853
0.33678132 0.112159304 0.20409615 -0.10986974 -0.22083376 0.04836156 -0.2922544 -0.023628343
0.24826871 -0.1723215 0.120377384 0.024034537 -0.19846186 -0.23873919 0.1788167 0.08666051
0.0794913 -0.2392764 -0.24208042 0.299601 -0.31126842 -0.32410356 0.15663569 -0.23207442

bias f4 [128]
00000000: cfec 813e 25c4 d03d 618d 763e 6268 9f3e
00000010: 8276 53bd 62ec 413e e583 f63d 1c0a 1ebe
00000020: 6410 be3e da9f 7d3c 948f 813d 940c b53d
00000030: be30 86be c234 9fbe b343 683e 643a 813d
00000040: 42f8 fbbd 0bfe 10be 988d 07be 6f77 1dbe
00000050: 32a4 c63d cd52 4ebe f371 943d 9182 0ebe
00000060: 0a00 94be f6af 253e d6af 6cbe 0cdf 68bb
00000070: b3eb 95be 5af9 6c3e e236 1a3e 7111 1a3e
00000080: 0bc4 b8bd debe de3d 3541 973e 97cf b03d
00000090: a264 a2be a995 5a3d c3c4 2b3e f188 91be
000000a0: 9a26 98be 272e 90be b78f 983e af2b 5fbe
000000b0: d095 8c3e a0d5 a53d 8175 b0be 637b 9abe
000000c0: 9cde 99be 57d6 bb3d 4d24 f9bd 697c 4a3e
000000d0: 4aa9 3a3e 0c56 733e 2d14 54be 02ed 5cbe
000000e0: 8d98 a6bd a004 8a3e 13a4 7f3e 83da bb3d
000000f0: 1fd2 65be e3d4 59be 571f 2ebe 5349 d8bd
00000100: 5388 1c3e ddb8 aa3e 5d91 abbe 3844 8a3e
00000110: 6dd2 7e3c b271 52be c7d8 af3e 9dbc a2be
00000120: b4ca c63d e738 733c 86d0 893e 6ef7 9cbd
00000130: 6e9e f9bd 81e8 cd3d 133d 8dbc cf7b 003e
00000140: 9470 5ebe 7f52 89bd 230a a53e de25 a03e
00000150: 3875 c53d 2baa 1cbe 4a5e b73e 9254 86be
00000160: 83a6 28be 04f9 71be f324 0cbe 217a a23e
00000170: 2a0c 913d b7ae 063e fe5b 13be 94f7 1d3e
00000180: e5ba 4a3e c3d4 14be 4d6f 543d ea54 913e
00000190: 273f b03e 3d7e 623e 73b5 863e 50ab 983e
000001a0: 8981 823e b783 11bc 5a1f 92be 4688 24be
000001b0: 2af6 6fbe 24db 57be af0f b33e f3cc 103e
000001c0: b294 8b3e 3881 b2bd 10c2 afbe 9464 80be
000001d0: 012e 403e d256 9d3e 479d eabd 1a07 8d3d
000001e0: 3fe9 d4bc 0119 f83d 88a5 03bd 6c90 92be
000001f0: 3af0 8ebe 4d5d a73d 8718 b2be 121b b93e
0.25375983 0.101936616 0.2407737 0.31134325 -0.05162669 0.18937829 0.12036876 -0.15433544
0.3712188 0.015480006 0.063262135 0.0884029 -0.26209062 -0.3109494 0.22682075 0.06309965
-0.12303211 -0.1415941 -0.13237607 -0.15377592 0.096992865 -0.20148773 0.072482966 -0.13916995
-0.2890628 0.16180405 -0.23113951 -0.0035533337 -0.29281387 0.23141995 0.15059999 0.15045716
-0.09021767 0.10876249 0.29541937 0.086333446 -0.31717402 0.053365383 0.16774277 -0.2842479
-0.2971695 -0.2816021 0.29797146 -0.21794008 0.27458048 0.08097386 -0.34464648 -0.30172262
-0.3005265 0.091717415 -0.12165127 0.19774021 0.18228641 0.23763293 -0.20710821 -0.21574786
-0.081345655 0.26956654 0.24964933 0.09172537 -0.22443436 -0.21272616 -0.17004143 -0.105608605
0.15286379 0.33344164 -0.3350934 0.27005172 0.015553099 -0.20551184 0.34345075 -0.31784526
0.09706631 0.01484511 0.26916903 -0.07664381 -0.12188421 0.10054112 -0.017241037 0.12547229
-0.21722633 -0.06705188 0.32234296 0.3127889 0.09641498 -0.15299289 0.35814124 -0.26236397
-0.16469769 -0.23630148 -0.1368597 0.31733802 0.07082398 0.13152586 -0.14390561 0.15426475
0.19797857 -0.14534287 0.051863957 0.28385097 0.3442318 0.22118469 0.2631031 0.298182
0.25489452 -0.008881501 -0.28539544 -0.16067609 -0.23433748 -0.2107969 0.34972903 0.14140682
0.27261883 -0.08716053 -0.34327745 -0.25076735 0.18767549 0.307303 -0.114557795 0.0688612
-0.025990127 0.12114144 -0.032140285 -0.2862581 -0.27917653 0.081720926 -0.34784338 0.36153466

weight f4 [256, 128]
00000000: ca4c 06bd babf 8dbd de1c a53c 83bd 903d
00000010: 3b39 343d f586 8c3d ad96 f0bc b41b 363d
00000020: e5b5 75bd dc2d 4b3d d04f 563c 79a9 aebd
00000030: 613a df3c 3162 8dbd e774 5e3d 360e 79bd
00000040: fedf 9e3d bf54 d23c 16df a6bd 78b8 7e3d
00000050: 7848 6fbd a9ce 873d df1f f8bc ae87 6f3d
00000060: e64b 23bd b589 68bd 4d3d 3dbd 7f84 773d
00000070: cda8 35bc 9b46 40bd 4bca 1abd 6536 20bc
00000080: ca94 54bd 42cb 3b3b dbec 753c 885a d33d
00000090: ca95 5a3d f67c a03d fc59 9c3d 1f37 313d
000000a0: 9363 c5bc e1b8 d03c fd46 febc 2a4a 28bc
000000b0: 7991 b03d ed48 a5bd 3f5a 1bbc a7da 0f3d
000000c0: 014d 8c3d b15e 96bd 1cc6 a6bc 6443 2c3d
000000d0: 0f45 293c 3514 f53c 3cc2 8bbc c0bd 3ebd
000000e0: 8ed6 3d3d 2104 1ebd 1fa4 de3b 59c9 61bd
000000f0: f9a2 653d 9e25 d13c fdfc 34bd fb4c 2e3c
00000100: 4dd5 1bbb 4bbc 0ebc 54f4 b7bc 8077 953c
00000110: 7493 1f3b ca24 e4bc c732 e63b efbe 84bc
00000120: 587b a53a 5b6a 263c 2625 6fbd ae05 5fbd
00000130: a9dd 2abd 045e ce3d 7291 1e3d 3216 85bd
00000140: e363 f3bc 7892 fb3c 364e 11bc 41a0 ef3c
00000150: 2643 7ebc 6992 8fbd 4755 7b3d 213e 7e3c
00000160: d863 44bd 43ed 57bd 9dea aa3d 46c0 bb3c
00000170: 5eb9 7b3d 69d7 92bd d4a3 89bd 995d 8dbd
00000180: 70d6 7a3d dabf 44bb e1f4 2ebd a967 7fbc
00000190: 0a3f 75bd 0b69 8d3d 8411 923d 7777 9f3d
000001a0: 7a35 20bd 7162 bd3c 51c1 c83d f153 8d3c
000001b0: 32c1 153d f578 993d 8016 93bd d172 a33d
000001c0: eaf4 16bc 573c 1ebc a06f e73c 6cb7 b4bc
000001d0: 44d6 133d 965a 40bd 55f0 c43d 879c 5f3c
000001e0: 6f0a 473d 7ae4 babb 7d13 8d3d 4adf 2f3d
000001f0: a422 b0bd f3e0 64bd 9092 b63c 3a59 813d
00000200: 3d96 0fba d5ac b0bd be72 aabd c7a5 8a3d
00000210: 559f 503d 3d06 93bd 4e82 ab3d 5d29 ac3d
00000220: 8d80 7ebd fddf a6bc 6e94 86bc 446d 14bd
00000230: 34c0 063c 37c5 07bd a422 b0bd bb55 89bd
00000240: 584f 75bd 0d48 06bd feb0 253d 4ac7 9f3d
00000250: 806a 80bc cd2d 06bd 463c 543d d959 39bd
00000260: 7856 aabd 1ad5 c2bb dfb0 3abd 0dd6 603c
00000270: 828e dabc 419b 1cbd 74ea daba fe58 05bb
00000280: ba52 8cbc 02bf 8bbb 788f aa3d f22a b33d
00000290: ad5b 943c 6c9a 983d ae62 383d a5d3 a3bd
000002a0: 2b12 06bc 9ef8 9fbc 20c2 853d 575a cdbc
000002b0: 5d4b 67bd 0823 d53c 6814 a43d 689d 1ebd
000002c0: cc18 233d 549c 693d 5555 063d fb93 ad3d
000002d0: a985 96bd afdb 713b ba90 3b3d 7b08 753d
000002e0: 02e4 86bd ff8c a43d ac6e 46bd bbcf 14bc
000002f0: 294a acbc 9b1f 813c 55b1 abbd 3b7f b4bd
00000300: 9e27 33bd 7bf4 9e3d 12b5 abbc 5903 913c
00000310: bfa2 8ebd 1e14 fbbc ef1f b3bd 7db9 0a3d
00000320: 83b3 6f3d 00ae cdb7 c325 703d 61f0 01bc
00000330: c940 b0bd 467b 193c c3c7 82bd 725e 81bd
00000340: aa6a 4c3d 472c 643d 3de6 d53c 31b3 a9bd
00000350: f40f a0bc f4d5 5dbc 8769 e5bc 7f46 92bc
00000360: 2b19 9f3d 6636 6abd c0b0 773d 1ee6 a93c
00000370: b208 89bc 159f 773d 5baa 07bd 8073 9b3d
00000380: 12b1 033d 6cfd 8fbd 4bc8 733d dd73 683d
00000390: bc0a a1bd 292b 06bd 505b 993d 4575 8fbb
000003a0: 11fe cfbc 1183 07bd 2462 e63c b2bc 6cbd
000003b0: 79b9 78bd 511b 8e3d 37f6 7b3d dc41 55bd
000003c0: 62ea b93c f5d4 d1bb 1590 9d3d c8e0 e1bc
000003d0: e029 0f3b ec8f b43b 00b6 ee3c f12d 84bd
000003e0: 38f0 6b3d de73 61bd c021 3c3c d68c 35bd
000003f0: 34e5 f23c 81ce 75bd eaea e3ba dea3 163d
-0.032788076 -0.069213346 0.020155367 0.070673965 0.04399989 0.068616785 -0.029368723 0.044460014
-0.05998792 0.04960428 0.013080552 -0.08528418 0.027249517 -0.06903494 0.054310706 -0.06080457
0.07757567 0.025675176 -0.08148019 0.06218764 -0.05841872 0.06631214 -0.030288635 0.058479004
-0.039867304 -0.056771953 -0.04620104 0.060429092 -0.0110876085 -0.046942335 -0.037790578 -0.009778594
-0.05189971 0.0028655087 0.015010084 0.10320002 0.053365506 0.078363344 0.07634351 0.04326546
-0.024095332 0.025478782 -0.03103971 -0.010271588 0.08621497 -0.0807055 -0.009481966 0.035120632
0.06850625 -0.0734228 -0.020358138 0.042056456 0.010331406 0.029916862 -0.017060392 -0.04656768
0.046347193 -0.038578156 0.006794467 -0.05512366 0.056063626 0.025530633 -0.04418658 0.010638471
-0.002377826 -0.008711885 -0.022455372 0.018245459 0.0024349364 -0.027849574 0.007025096 -0.016204325
0.001262526 0.010157193 -0.058385037 -0.054448776 -0.041715298 0.10076526 0.038712926 -0.06498374
-0.029710716 0.03070949 -0.008868745 0.02925122 -0.015518939 -0.070103474 0.061360624 0.015517742
-0.04794678 -0.052716505 0.0834553 0.022918832 0.061456077 -0.071699925 -0.06720701 -0.06902618
0.06123966 -0.003002158 -0.042714003 -0.015588679 -0.05987457 0.06904801 0.07132247 0.07786458
-0.0391135 0.02311823 0.09802497 0.01725194 0.0365612 0.07493774 -0.07182026 0.07980884
-0.0092136655 -0.009657941 0.02825147 -0.022060119 0.03609301 -0.04696139 0.09616152 0.013648159
0.048593935 -0.005703506 0.06888483 0.042937554 -0.08600357 -0.05587859 0.022286683 0.06315847
-0.00054774043 -0.08626715 -0.083226666 0.06769901 0.0509332 -0.07178924 0.08374463 0.08406327
-0.062134314 -0.020370478 -0.016428199 -0.036237016 0.008224536 -0.033147063 -0.08600357 -0.06705805
-0.05989012 -0.032783557 0.040451996 0.07801683 -0.015675783 -0.032758523 0.051815294 -0.0452517
-0.08317274 -0.005945814 -0.045578834 0.013722909 -0.026679281 -0.038234 -0.0016701953 -0.0020347233
-0.01712929 -0.0042647133 0.08328146 0.087484255 0.01811012 0.07451329 0.045015983 -0.07999352
-0.0081830425 -0.01952773 0.06531167 -0.025067491 -0.056468356 0.02601768 0.08011705 -0.038724333
0.03981857 0.05703385 0.032796223 0.08475491 -0.073497124 0.0036904623 0.04579232 0.05982254
-0.06586458 0.08034705 -0.04844539 -0.00908273 -0.021031456 0.015762141 -0.08383433 -0.0881333
-0.043738954 0.07761475 -0.020960364 0.017701792 -0.06964635 -0.030649241 -0.08746325 0.0338683
0.058520805 -2.451893e-05 0.058629762 -0.007930846 -0.08606107 0.00936777 -0.06385758 -0.06316842
0.04990641 0.05570629 0.026110763 -0.08286131 -0.019538857 -0.01353978 -0.02800442 -0.01785588
0.07768472 -0.057180785 0.060471296 0.020739611 -0.016727779 0.060454447 -0.033121448 0.07590389
0.03215129 -0.07030758 0.059517186 0.05675112 -0.078633755 -0.032756004 0.074881196 -0.0043779933
-0.025389703 -0.03308398 0.028122969 -0.05779714 -0.060723756 0.06938804 0.061514106 -0.05206476
0.02269477 -0.0064035603 0.07693497 -0.027573004 0.0021845028 0.005510321 0.029139519 -0.06454075
0.057602137 -0.05504214 0.011482656 -0.044323765 0.029650308 -0.06001139 -0.0017388735 0.03677737
