models/recomendation_models/scripted_user_preference_model_v5_8_dim.pt (torch, 41141 bytes, 14 tensors)

hidden f4 [2, 1, 12]
00000000: 7ae3 4fbd 13ff a63e 4122 a63d 344f b53e
00000010: eabd 01bb 9f21 923e 3bcd 8b3a 3fe7 293e
00000020: e2a9 a8be a7a4 aebb 8843 0f3f cb29 8abe
00000030: af2e 9ebc 25ea 4ebe 3c78 073e 6308 8a3c
00000040: b36f 36be e69f 353e e6f8 343e 45fd 423d
00000050: 3efa f53d 16ff db3d 86e3 163e 548b 4ebd
-0.050754048 0.3261648 0.08112002 0.3541199 -0.0019797035 0.28541276 0.0010666022 0.1659212
-0.3294211 -0.0053296867 0.5596242 -0.2698501 -0.01930937 -0.20206507 0.1322946 0.016849702
-0.17816047 0.17736778 0.17673072 0.047604818 0.120106205 0.10742013 0.14735231 -0.050425842

hidden f4 [2, 1, 12]
00000000: d087 0cbe 8dc9 513f 9370 fa3d d2cf 283f
00000010: 4c31 97bb e1c9 e73e 3275 543b 46e0 a73e
00000020: ab98 51bf 26b4 80bc 5f19 473f 8971 43bf
00000030: e127 2abd d745 a8be 2f54 973e 4c52 1f3d
00000040: c596 84be f8bd a73e 03b4 ad3e 7755 d63d
00000050: 40a7 603e 7655 7a3e 3745 943e aa5e 02be
-0.13723683 0.8194817 0.12228503 0.6594211 -0.004614031 0.4527121 0.0032418487 0.32788295
-0.8187358 -0.015710901 0.7777309 -0.76345116 -0.041541938 -0.32865784 0.29556414 0.038896844
-0.25896278 0.32762122 0.339264 0.1046552 0.21938801 0.24446663 0.28959057 -0.12731424

weight_ih_l0 f4 [48, 12]
00000000: b986 8abe 7b4d 57bd bfa1 a93d 523e 7b3e
00000010: 9772 b3bd df0c 2abd 04a3 acbd 86a6 30be
00000020: 5033 02be c703 9abe fa9c 4bbe aa30 4abe
00000030: 7ba0 f83d 1b14 dbbd f05a 843e 51be 3c3c
00000040: 767b 2cbe 35f5 9dbe 1afd 3b3e fea7 81bd
00000050: 22f7 c83b 0d63 8a3e 9a22 6a3e 0e0b eebd
00000060: 2d3b 30bd 4247 813e f948 2cbd da81 08be
00000070: ee58 05be 1544 343e 764d 2c3e c6f6 53be
00000080: 9bf1 ddbc b19c a23e 3043 573e 905f 0b3d
00000090: 9bdf 52bd 26eb 713e 8824 2a3e e786 543e
000000a0: 0957 5f3d ec5e 67be 70f8 0a3c 9220 803e
000000b0: d15f 79be 3d59 6f3e 230f 643e d31f 4a3e
000000c0: 0170 383d 8cd1 c43d 158b b1bc 3997 3c3e
000000d0: 6bcc 483e e9c3 9d3e f00a d03c ee1b 61be
000000e0: dd68 a33d 67e6 99be fa91 0ebd 0200 513e
000000f0: b6de 05bc 2b5c 4abe 3c9d 983e d118 913e
00000100: 7688 85be c535 06be 6d83 4b3e 604c 3f3e
00000110: 538b 0c3e 35af d5bd cc7c 57bb 2111 353e
00000120: 95b0 20be 4f45 79be 0ea9 aa3d d7aa 8bbe
00000130: 963f 56be 0827 763e e9bd 2d3e c5de f6bd
00000140: 54a3 99be dbd0 20bd 4a63 363c 6ac5 96be
00000150: a45a 033e 477a 71be a430 04be 9d76 74be
00000160: b3de 84be c752 bbbd 0cf0 2fbe 681f 083e
00000170: 2452 543e c491 e9ba d1f6 943d edc6 81be
00000180: 02f3 dcbd 4ca7 263d a3ce 323e 513f 8c3e
00000190: a3c3 103e aefc 253d 4aef 043e dd05 90bd
000001a0: ede8 493e 99ea 933e 93c8 933e a833 fbbd
000001b0: 3ff3 f4bc 515c e83c 05b6 1bbd 91a9 90bd
000001c0: fe59 bebd 3e62 5dbd 2062 5b3e 4514 8b3e
000001d0: 3203 ba3d c0c4 55be 3aa4 1d3e cb8e 7dbe
000001e0: bab3 c23d ad25 623e c7ef e7bd 1f2d b83d
000001f0: 580b f53d 735c 9bbe 8f9b 5dbe 3cfb 7abc
00000200: a3b7 65be 673b 473e 9740 39be 1227 773e
00000210: 2d01 2dbe cd27 833e 0040 963e 3992 f83d
00000220: a538 8fbe 1278 bfbd c097 483e dd96 1f3e
00000230: eaa9 f83d 3306 47be e4ff a03e caed d23d
00000240: 2013 47be 0f12 083e aa18 6a3e 31c5 2b3e
00000250: 41a5 1d3e a2c5 413e 6398 343e 6893 663e
00000260: 5eb5 18be 7ae6 4abe ee29 26be b643 173e
00000270: 8daa b3bd b36a 3fbe cfe4 1fbe 9576 83be
00000280: 9904 ee3d d561 eabd 7165 613d 5e21 eb3c
00000290: da8b cbbd ba04 c13d dbc8 5f3c 7763 063b
000002a0: a3b8 f9bd 5b16 463e ce47 bcbd 0f64 45be
000002b0: fcad 11bd c80a 14be 6a6b abbd 8036 89be
000002c0: 060c 603e b1a6 c93d 9245 e8bd a0d9 913e
000002d0: 6e50 1ebe 5f00 413e f809 543e 8cb8 81be
000002e0: 0f78 883e d208 5c3e 1af8 e4bd 53aa d73d
000002f0: 32f6 b3bd 2640 1cbe 18d9 8a3e cfe9 323e
00000300: 6c0a 91be 20fa 61be ebec 81be 58c5 0ebe
00000310: 6bfa 2ebb c176 8d3d f4db 57be 7aac 1fbe
00000320: 9a2c 83be a92c 98be ee95 0dbe f126 5c3e
00000330: 150d 953d d72f 8a3d f7b3 16be f910 023e
00000340: a0e8 4b3e 8a27 cdbd 5978 8ebe 4129 0cbe
00000350: 3df9 3a3e ee1a 67bd aa9e 993e 7588 dd3d
00000360: edd2 d2bd f5cb 553d c9c9 6a3e 09bf ea3c
00000370: 5b96 fabc 2a64 af3d 511e 863e 1550 4c3d
00000380: f6a6 13be 69e2 57be 7d45 2c3d b76f 31be
00000390: 3617 743e c409 98be df76 763c 3107 773e
000003a0: c1d5 e5bd 19f1 023e ffcf bcbd 3bad 1c3e
000003b0: c60d 83be b7a9 e5bd af26 f4bd be16 82be
000003c0: 1738 5a3d d725 403e b6f7 d6bd dc39 3dbe
000003d0: 0d5a a0bd d241 bc3d c396 383e f9e1 493e
000003e0: f588 883e f6c3 d73b c4a1 683e eef4 103e
000003f0: a8eb 6dbe 44f0 7d3e 44dd 703e 640f ed3c
-0.2705591 -0.052564126 0.08282804 0.24535492 -0.08762091 -0.04151618 -0.0842953 -0.17251024
-0.12714887 -0.30081007 -0.198841 -0.19745126 0.12139984 -0.10697194 0.2585063 0.011519984
-0.16843972 -0.3085114 0.1835827 -0.0633087 0.006132976 0.27028695 0.22864762 -0.11623202
-0.043025184 0.25249678 -0.04206178 -0.13330784 -0.13022205 0.17604096 0.16826424 -0.20699605
-0.027092746 0.3176017 0.21021724 0.034026682 -0.051482778 0.23624858 0.16615498 0.20754586
0.054526363 -0.22594804 0.008482084 0.2502485 -0.24352957 0.23373885 0.22271399 0.19738702
0.04502869 0.096102804 -0.021672765 0.18417062 0.1960923 0.3081353 0.02539584 -0.2198331
0.079789855 -0.30058596 -0.034807183 0.20410159 -0.008170774 -0.19761722 0.2980746 0.28339246
-0.26080674 -0.13106449 0.19874354 0.18681479 0.13725023 -0.10433809 -0.0032880781 0.17682315
-0.1569236 -0.24342845 0.08333026 -0.27278778 -0.20922694 0.24038327 0.16966976 -0.12054209
-0.30007422 -0.03926168 0.011132071 -0.2944749 0.12827545 -0.23581801 -0.1290918 -0.23873372
-0.25951156 -0.09146648 -0.17181414 0.1329323 0.20734459 -0.0017819931 0.07273639 -0.2534708
-0.107885376 0.04068689 0.17461638 0.27392057 0.1413713 0.040524177 0.12981907 -0.07032368
0.1971776 0.2888992 0.28863963 -0.12265712 -0.029901145 0.028364332 -0.038015384 -0.07063592
-0.092945084 -0.05404877 0.2142415 0.27163902 0.09082641 -0.20875835 0.15394679 -0.24761502
0.09506936 0.22084685 -0.11325031 0.08992981 0.11965054 -0.3034397 -0.21641372 -0.015318688
-0.22433333 0.19456254 -0.18091045 0.24135998 -0.1689498 0.25616303 0.29345703 0.12137265
-0.27972904 -0.093490735 0.19589138 0.15584894 0.121417835 -0.19435959 0.3144523 0.10299261
-0.1944089 0.13288139 0.22860971 0.16774441 0.1539507 0.18923047 0.17636256 0.22517169
-0.14912936 -0.19814482 -0.16226932 0.14771923 -0.08772764 -0.18693046 -0.15614627 -0.25676408
0.11621971 -0.11444441 0.055028383 0.028702434 -0.09938784 0.0942473 0.0136587275 0.0020506063
-0.1219342 0.19344465 -0.09193383 -0.1927645 -0.035566315 -0.14457238 -0.08370097 -0.26799393
0.21879587 0.09846247 -0.113413945 0.28486347 -0.15460369 0.18847798 0.20706928 -0.2533611
0.26654097 0.2148774 -0.11180134 0.10530534 -0.087871924 -0.15258846 0.27118754 0.17472003
-0.28328264 -0.22068071 -0.25376067 -0.13942468 -0.0026699554 0.06907416 -0.21079999 -0.15593138
-0.25619966 -0.29721573 -0.13826725 0.2149923 0.07277886 0.06747406 -0.14717089 0.12701787
0.19912958 -0.10017307 -0.27826193 -0.13687612 0.1825914 -0.056422167 0.30003864 0.10817043
-0.10294137 0.05219646 0.22928537 0.028655546 -0.030589273 0.08564027 0.26195005 0.04988106
-0.1441916 -0.21082462 0.042058457 -0.17327772 0.2383698 -0.2969495 0.0150429895 0.24123837
-0.11222411 0.12787284 -0.092193596 0.15300457 -0.25596446 -0.11214011 -0.11921441 -0.25407976
0.053276148 0.18764435 -0.10496466 -0.18479103 -0.07829676 0.09192242 0.18026261 0.19715108
0.2666699 0.0065846397 0.22717959 0.14155933 -0.23234427 0.24798685 0.23521906 0.028938003

weight_hh_l0 f4 [48, 12]
00000000: 13e9 1d3e 5ddd fd3d 2e98 043e b8fd 95be
00000010: 3201 bb3d e1e6 e53d 7266 37be b774 613d
00000020: eb80 693c d2cc e23d 8f68 9d3d f309 2b3e
00000030: cc83 d03d 870d 033e 4885 67be 72f0 683e
00000040: ac41 a53d ae2d 14be e511 883e 1518 8c3c
00000050: 0ef0 8abe 3223 47be eda1 72be f746 59be
00000060: 44f4 69be e832 55be 80c0 72be 9f02 8b3e
00000070: 0fe0 ea3d 7706 3ebe ab84 013d 3b91 ebbd
00000080: 1fa4 8ebe 7b55 153e 627d 3c3e 3e75 05be
00000090: c604 3cbe fac2 3cbe eced 6bbe 03bd 1b3d
000000a0: 7d7d 9cbd 8304 ba3c 9e7f e43c eee2 45be
000000b0: b36e 7f3d ade5 353e cbc1 913e cb50 fabc
000000c0: 6722 29bd 9530 bcbd ccc4 28be d2c0 9fba
000000d0: d728 e03d cc15 d5b9 c4e4 333e e729 77bc
000000e0: 0584 0abe 6c21 83be b7f3 93be b999 ecbc
000000f0: 70a0 7f3e 471f 28be ff3d 43bd c8ee 923e
00000100: ed8c 6abe c800 40be 6666 94bc 3168 54be
00000110: 2f17 263e b88f 1cbd 5eed 0b3e 3199 393e
00000120: 0a02 31be e40f ef3d b9a1 30be a3cb 563d
00000130: 7548 87be fc88 2c3e eea8 283c 629d 213e
00000140: d856 4f3c 9d03 983e 42d7 4cbe 01de 82bc
00000150: f035 49bd 3eb6 debd 77b8 96be 2756 c63c
00000160: fd16 7abc 4d42 cfbd 931b 323e a144 313e
00000170: 457c 193e 94bb 1bbd 00dc 563e d289 4bbc
00000180: 1bfd 583e 9b2e 16bc dfe3 5c3e 506d e9bd
00000190: c37c 8d3e 741a dbbc 78c8 273e 3535 7dbe
000001a0: 58ca 0abe 4c94 c4bd fbab 4ebe 695c 8ebe
000001b0: 739c 31be 2773 94bc 3e6c f83c 1c1f 7dbd
000001c0: 83d5 68be be18 2b3e 06d4 9a3d 0da7 95be
000001d0: 3122 9b3d 049a 6b3e f6c0 823e a1c0 06be
000001e0: 6930 c23d 190b 623c 2566 20be f929 313e
000001f0: f761 0cbd 0a2c 91bd a1c1 d2bd 70fb 293e
00000200: 4b2b 92bb 09c2 5d3e 6559 933d e590 653e
00000210: 1505 203e 05c7 32bd 24b9 fe3d 4ddb f13d
00000220: 6005 65be b389 08be 1a81 02be 415b 9c3e
00000230: d3ae 0c3e 01e2 523e 5805 323e a26d 8dbe
00000240: 7a50 46be ecd7 0abe 1744 283d 9a64 3c3e
00000250: 1ad0 713e 954c 05be 6368 88be f739 95be
00000260: 19fc b0bc 2d7a 2f3d f1dd 6ebe d458 7f3e
00000270: 933f 603e 15d0 693c a089 ac3d 2576 073d
00000280: f436 50bd 2771 dfbd 56c2 80bd e54f a1bd
00000290: 7212 dabc 75bf 3a3d 8196 abbd ec2f 09be
000002a0: bc97 5dbe 4432 173e beaa 03be dcd0 7fbe
000002b0: 18ea debd 8ddc a73c 84a6 9fbd 4750 613e
000002c0: 0653 2f3e 3fe3 013e 7a40 8bbd a816 c4bd
000002d0: 3b99 f9bd fcc7 833e cad0 74be cc20 fc3d
000002e0: 7faf ad3d e568 8d3e 3b8b 24be fc4f fdbd
000002f0: 287e bdbd 15a1 45be a135 f4bd 09ee 26be
00000300: bf58 81be 93fc 8bbe b690 efbd 6fb2 153d
00000310: af3c 47be 0cd4 fcbd 53af 32be 1eee e6bc
00000320: 2ba1 653d 474a 16be a7e2 c2bd 262d edbd
00000330: d70b d3bd 30e2 963d 898f 48be 3cc4 6fbe
00000340: bea6 433e df66 a13e 258e 033d 28c4 6b3e
00000350: ffbb 103e 003f 84bc 0728 733e 39ec 8cbe
00000360: 2b96 203e a67d 4b3e cd9c 443e 2f34 9cbd
00000370: 7f27 a83d 61f4 88be cec4 6e3e 0ccf 543e
00000380: 9461 64be 4260 4a3e 5b6a f03c 08b9 273e
00000390: f145 3c3e a614 4f3e b1d4 8ebe 684b 04bd
000003a0: 5c34 d13b 6c44 843e c7c6 803e 5588 443e
000003b0: 5f73 993d 8fbe c23d 7246 cc3c 1968 7a3e
000003c0: 6e04 1d3e df45 dabd 1954 08be a8a2 903e
000003d0: 2ef4 7b3c ff05 0e3e c4c4 923e 797b 363e
000003e0: 4638 94be cf44 4d3e 63b4 0bbe 34b7 1e3e
000003f0: e5fa 5e3e 7b4b d33d d4ec b73d 98b8 e3bc
0.15420942 0.12395737 0.12948677 -0.29295135 0.09131087 0.11225677 -0.17910174 0.05504295
0.014251928 0.110742226 0.076859586 0.16703014 0.10181388 0.12798129 -0.22609437 0.22747973
0.080691665 -0.1447055 0.26576152 0.017101327 -0.27136272 -0.1944702 -0.23694582 -0.21218477
-0.22847086 -0.208202 -0.23706245 0.27150437 0.11468517 -0.18557154 0.031620663 -0.1150231
-0.2785959 0.1458339 0.18407205 -0.13033006 -0.18361196 -0.18433753 -0.23039979 0.038022052
-0.076411225 0.02270723 0.027892884 -0.19324848 0.06236143 0.17763396 0.28468165 -0.030556103
-0.041292574 -0.09188954 -0.16481322 -0.0012188202 0.109452896 -0.00040642766 0.17567736 -0.015085674
-0.13526924 -0.25611436 -0.28896877 -0.028881894 0.24963546 -0.16418181 -0.047666546 0.286978
-0.22905321 -0.18750298 -0.018115234 -0.20742871 0.16219781 -0.038223 0.13664767 0.18124844
-0.17285934 0.11672953 -0.17249192 0.052440297 -0.26422468 0.1684913 0.010294182 0.15782693
0.0126549825 0.29690257 -0.2000399 -0.015975 -0.049123704 -0.10874604 -0.2943761 0.024211003
-0.01526427 -0.10120068 0.17393331 0.17311336 0.14988811 -0.038020685 0.20982361 -0.012422996
0.21190302 -0.009166385 0.21571301 -0.11397803 0.27634248 -0.026746012 0.16385067 -0.24727328
-0.1355375 -0.09598598 -0.20182793 -0.27804878 -0.17344837 -0.018121315 0.030325051 -0.061797246
-0.22737698 0.16708657 0.075599715 -0.29229012 0.07574881 0.23007971 0.25537843 -0.1315942
0.0948189 0.013796591 -0.15663965 0.17301168 -0.034273114 -0.07088478 -0.10290838 0.16599822
-0.0044607273 0.2165605 0.07194785 0.22418554 0.15626939 -0.04364683 0.124376565 0.118094064
-0.22365332 -0.13333778 -0.12744561 0.3053837 0.13738565 0.20594026 0.17384851 -0.27622706
-0.19366637 -0.1355893 0.04108056 0.18397751 0.2361454 -0.13017495 -0.2664214 -0.29145786
-0.021604585 0.042841125 -0.23326851 0.24936229 0.21899252 0.014270802 0.084246874 0.033071656
-0.050833657 -0.10910254 -0.06287067 -0.07876567 -0.026620124 0.045592744 -0.08378316 -0.13397187
-0.21639913 0.14765269 -0.12858102 -0.24982017 -0.108844936 0.020490909 -0.07795432 0.2200328
0.17121515 0.12684344 -0.06799407 -0.09574634 -0.121874295 0.25738513 -0.23907772 0.12310943
0.08480739 0.2761909 -0.16068737 -0.123687714 -0.09252578 -0.19299729 -0.119242914 -0.1630174
-0.2526302 -0.27341136 -0.11697523 0.03654712 -0.19456743 -0.12345132 -0.17449693 -0.028189715
0.056061905 -0.14676772 -0.09515887 -0.11580877 -0.10304993 0.073673606 -0.19586004 -0.23414701
0.19106576 0.31523797 0.03211798 0.23024046 0.14134215 -0.016143322 0.23745738 -0.27523974
0.15682285 0.1987215 0.1920044 -0.07627141 0.08210658 -0.26748946 0.23317263 0.20782107
-0.22302848 0.19763282 0.02934759 0.16379178 0.18386056 0.2022272 -0.27896646 -0.032298476
0.0063844156 0.25833452 0.25151655 0.19192632 0.074927084 0.095090024 0.024935935 0.24453773
0.15333721 -0.10657858 -0.1331333 0.28249097 0.015378041 0.13869475 0.28665745 0.17820539
-0.28949183 0.2004578 -0.13643031 0.15499574 0.21775396 0.10317131 0.08980718 -0.027797982

bias_ih_l0 f4 [48]
00000000: a4ce 19bd 6108 72be 4fef 4c3e ceca 323e
00000010: e309 4ebe e12f 5ebe 994c 00be 56df 3ebe
00000020: 6cd2 e83c eef5 ba3a 364a 6a3e a8a5 493e
00000030: 0360 6d3d f8e1 8f3e 633d 6c3e 116a 3abe
00000040: 08a2 8ebe 64b0 9d3e a282 f73d 3a62 8ebe
00000050: a76c 823d a9a6 0bbe 6aec ff3d 244b 993e
00000060: 250f b83d 2d62 c53d 6291 943e 2fd1 b5bc
00000070: aaa6 403d d11e 83bd 62b8 723e 5bfd e73d
00000080: 0880 e3bd 2b46 1f3e 6520 83be 3a8a 25be
00000090: c332 fe3d 1379 0f3e d307 7cbe 232f 6bbd
000000a0: ffca 94be 5f5c 13ba f8ab b93d b53e 813d
000000b0: 18e6 863e 61da 76bd 97e1 063e 8948 c9bd
-0.037550583 -0.23636009 0.20013164 0.17460176 -0.20120959 -0.21697952 -0.1252922 -0.18639883
0.02842065 0.0014263967 0.22879872 0.19692099 0.057952892 0.28102088 0.23070292 -0.18204524
-0.27857995 0.30798638 0.12085463 -0.27809316 0.0636838 -0.13637795 0.12496264 0.2994014
0.089872636 0.09637866 0.29017168 -0.022194473 0.047033943 -0.06402362 0.23703149 0.113276206
-0.111084044 0.1555411 -0.25610653 -0.1616601 0.12412026 0.1401103 -0.2461236 -0.057418
-0.29061124 -0.00056213693 0.090660036 0.063107885 0.26347423 -0.060266856 0.13171993 -0.09828288

bias_hh_l0 f4 [48]
00000000: 5d50 323e 8369 4c3d edf9 073e f61a c93d
00000010: 6433 59bd b33b 803c a080 3e3c 758d 723e
00000020: 03da 853e d30c f7bd 1bb2 93bd adcb e3bd
00000030: bfd8 bcbc 5e4c b23d 44dd 103e 0b27 953e
00000040: 48c2 20be cd06 7cbe 388e 99be 920e 81be
00000050: 82f2 6c3d 64b6 883c 58ef bb3d d27a 943e
00000060: 3ac8 9dbe fd2e 59be cfc3 0abe 7749 31be
00000070: b1ef 1c3d 34a3 c4bd a3e1 5e3e b678 2f3d
00000080: 6591 443e 8a02 01bd 96a4 1dbe f6b5 09be
00000090: 9f99 573e 3405 0c3e 5692 5c3e 559a 0cbe
000000a0: 70d1 983b f685 c3bd 3164 8bbd 3f92 7ebe
000000b0: 8a79 0abe 6059 fdbd 84e4 843e 20ae d23d
0.17413469 0.04990531 0.13278933 0.098195955 -0.053027526 0.015653467 0.011627346 0.23686774
0.26142892 -0.12062993 -0.07211705 -0.111228324 -0.023052571 0.08705972 0.14146906 0.2913135
-0.15699112 -0.2461197 -0.29991317 -0.2520643 0.05784846 0.016688533 0.091765106 0.28999954
-0.30816823 -0.21209331 -0.13551258 -0.17313181 0.038314525 -0.09601441 0.21765761 0.04283973
0.19196089 -0.031496562 -0.15394816 -0.13448319 0.21054696 0.1367386 0.21540198 -0.13730748
0.004663639 -0.095470354 -0.06806219 -0.24860476 -0.13522926 -0.123705626 0.25955594 0.10287118

weight_ih_l1 f4 [48, 12]
00000000: ed54 fb3d b427 013d c820 9abe 96d2 55be
00000010: a564 91bd 5b65 19be bb8f 8abe 2131 043d
00000020: 4ff7 86be 6c9d 433e b9d8 2e3e aba3 923e
00000030: 0ef1 ae3c 1ea6 563e 3e97 48be da2b 6bbd
00000040: a979 b23d bca9 ef3c fe91 4dbe 93e1 ff3d
00000050: 64b8 27be e58d 3ebe 922a 72be 06a3 5e3e
00000060: 1ea3 28be d2a1 593e ca15 3dbd da43 6f3e
00000070: 57a7 1fbe 574a 523d e821 673e c13f 0a3d
00000080: f98c 13be 7a9e 053d e187 563c 5046 de3d
00000090: 76b0 e73d b1a9 e93d 1e6a 9fbe 946a 0a3e
000000a0: 64dc 333e c918 163d 9040 1f3d 1c9c 373e
000000b0: 7735 3a3e 5a2a 333e 39b9 8fbe d53d 54be
000000c0: 43af 3cbe ddd0 db3d fdf6 15be f181 d83d
000000d0: 43aa 673e ceb8 28be d308 41bc 7f5b 5bbe
000000e0: 7f31 8dbc 5776 6a3e d39a c3bd 33be 2abe
000000f0: 592e 453e 07c2 19be 8372 49be 3703 e7bd
00000100: bbd3 2abe 61ae ae3d 3373 ae3d 0b16 823e
00000110: 3ba5 8abe eee0 c33d b0a3 8bbe 6740 303d
00000120: 436a 23be dfe5 653e 4d56 8dbd afd9 65be
00000130: ba09 22be b72e 0cbd 91a0 063e 6372 9e3d
00000140: b36f 013e 6896 26be ec43 223d 1c98 91bd
00000150: a30f 203e e030 6e3e a653 c53d 162f d6bd
00000160: f2d1 f1bb 2915 81be 457c 9abe 057e 3dbe
00000170: 5b71 7ebe 86f0 e6bd fdff 8abe ab65 823d
00000180: 357a 6e3e 0275 25bd 01c2 5dbe 73ac d53d
00000190: 4f3b 9d3d 9907 fc3c a291 f23c d357 913e
000001a0: 823a 93be cc36 5ebe d84d 0d3e 07a4 eb3d
000001b0: 9c53 003e f7c5 a43e c587 9c3e bf71 6d3e
000001c0: 1971 8f3e e7a2 043e dbcd 34be 03f6 e23d
000001d0: 118c 57be 998f 28bd b081 1fbc 47a0 453e
000001e0: 9270 b4bc 178a 3fbe a9a5 e1bd 8ef9 36be
000001f0: cdd3 d73d c618 17bd 6e18 74be 4cd4 223e
00000200: 21c8 3c3e c5e2 e33d 9f26 e13c c22b 123e
00000210: 73bf c73d da7c 533e 207d 53be c0c4 93be
00000220: 3004 33bd 4c93 373e d8e2 66bc 9632 04be
00000230: d58d babd 51ea e0bd f310 393d dfa3 edbd
00000240: 9359 5a3e 1968 10be cf64 323c 6e16 453e
00000250: fb99 1b3d 429b 02be 7b9d a2bd 48e2 9ebe
00000260: 5d86 cdbd cc34 97bd a26c 96be 17f3 4c3e
00000270: f869 0f3d 3847 34bd d0cf 013e 764e 20be
00000280: e5b7 4ebd adc3 73bb 0d8e 7abe 1e8d f53b
00000290: 2835 ddbd 1d27 b6bc 4868 69be 32eb 713d
000002a0: 704b 4dbe ff92 0bbd b9f1 b13d 614b e23d
000002b0: 8eb5 9b3d 04d3 873d 675c 653e 2430 3fbe
000002c0: 5919 1abd d3d8 30be a90b d2bc 40dd ee3c
000002d0: 9961 58be dbb6 25bd 1dce 3f3e 9491 c23d
000002e0: b0ba 3a3e b88b 94be a774 88be af0b 82be
000002f0: 7b5c 2abd 1941 a2bd 5dbb 413d eb25 56be
00000300: d101 383e ddd4 ac3d a647 0c3e a5fe 693e
00000310: 759e 24bc 28a9 e83d 2b59 1d3e 02c5 f83d
00000320: 8d02 82be 8726 053d 38d9 3d3e 92d8 273d
00000330: 0c02 863e ce3a 53be 6e7a 6a3e adf1 87bd
00000340: 89e9 813e da76 813e 6845 bdbd 858e 88be
00000350: b6f1 e1bd 40a4 04bd ca88 143d dfd3 9cbd
00000360: e933 863e a076 0abb fd6c b3bc 20ff edbd
00000370: 7e16 97bd a181 6f3e 5e50 0fbe 3101 4f3e
00000380: 242f fcbd d533 a33c ff04 bf3c 279d d1bd
00000390: f7e3 eabc c19f 473e 91fb 21be f0f8 443e
000003a0: fd89 36be ff2c 40be d601 73be ec0b 99be
000003b0: b199 693e 8fad c9bd be23 7d3e a16b 3abe
000003c0: 25dc 1e3e b501 9e3d 903e d0bd e866 213e
000003d0: 53a9 873e a73a 73be f5db 1fbe 407a 4dbe
000003e0: 8c9a 1d3e a582 dc3d 0e11 853d a09f 4c3e
000003f0: 8e66 173d de7e 51be ae50 9d3e 5f6c dc3d
0.12272058 0.031532004 -0.30103135 -0.20881113 -0.070992745 -0.1498007 -0.27062783 0.032273415
-0.26360556 0.1910302 0.1707486 0.28640494 0.021355178 0.20961806 -0.19588944 -0.057414867
0.08714611 0.02925574 -0.20075223 0.12494197 -0.16378933 -0.18608816 -0.23649052 0.21741876
-0.16468474 0.21253136 -0.046163358 0.23365727 -0.15591179 0.051340427 0.22571528 0.033752207
-0.14409246 0.03262184 0.0130939195 0.10853255 0.11312954 0.11409319 -0.31135648 0.13517219
0.17564541 0.03664473 0.03887993 0.17930645 0.18184458 0.17496625 -0.28071 -0.20726712
-0.18426232 0.10733197 -0.14645 0.10571659 0.22623543 -0.16476747 -0.011781889 -0.21421622
-0.017235516 0.22896706 -0.09551015 -0.16674118 0.19255961 -0.15015422 -0.19672589 -0.1127991
-0.16682331 0.08529354 0.08518066 0.25407442 -0.27079186 0.09564386 -0.2727332 0.04303017
-0.15958504 0.2245097 -0.06901226 -0.22446321 -0.15824023 -0.03422424 0.13147189 0.07736661
0.12640266 -0.16268313 0.039615557 -0.07109091 0.15630965 0.23260832 0.09635095 -0.104582
-0.0073797638 -0.25211456 -0.30172935 -0.18505104 -0.24847929 -0.11276345 -0.2714843 0.06367048
0.23288806 -0.04039479 -0.21656038 0.10433283 0.07677328 0.030765342 0.029610459 0.28387317
-0.28755575 -0.21700591 0.13799226 0.11505895 0.12531894 0.32182285 0.30572334 0.23187922
0.28015974 0.12952767 -0.17656653 0.11082079 -0.21049525 -0.04115257 -0.00973551 0.19299422
-0.022026334 -0.18705021 -0.11017925 -0.17868635 0.10538445 -0.03688886 -0.23837444 0.15901297
0.18435718 0.11127237 0.027484236 0.14274505 0.09753313 0.20653096 -0.206532 -0.28861046
-0.043705165 0.17927283 -0.01409217 -0.12909922 -0.091090836 -0.10982192 0.04518218 -0.116035216
0.21323232 -0.1410221 0.010888292 0.19246837 0.037988644 -0.12754539 -0.07940193 -0.31032014
-0.100353934 -0.07383117 -0.29379755 0.20014606 0.03501317 -0.044013232 0.1267693 -0.1565493
-0.050468344 -0.003719549 -0.2446825 0.007493629 -0.108011544 -0.022235448 -0.22793686 0.05906219
-0.20048308 -0.034075733 0.08688683 0.11049534 0.07602988 0.06632045 0.2239853 -0.18670708
-0.03762183 -0.17270212 -0.025640326 0.029158235 -0.2113098 -0.040457588 0.1873097 0.09500423
0.18235278 -0.29012847 -0.266515 -0.2539954 -0.041592102 -0.07922573 0.047297824 -0.20912902
0.17969443 0.08439038 0.13699207 0.22851045 -0.010047545 0.11360389 0.15366046 0.12146951
-0.2539257 0.032507446 0.18539894 0.040978022 0.26173437 -0.20627901 0.22898266 -0.06637893
0.25373486 0.2528599 -0.09241754 -0.26671234 -0.11032431 -0.032383204 0.036263265 -0.07657599
0.2621148 -0.0021127835 -0.021902556 -0.11620927 -0.07377337 0.23389293 -0.13995501 0.20215298
-0.12313679 0.019922176 0.023317812 -0.102350526 -0.028673155 0.19494535 -0.15818621 0.19235587
-0.17826076 -0.18767165 -0.23731169 -0.29891908 0.22812535 -0.09847557 0.24720666 -0.1820512
0.15513666 0.07715169 -0.10168183 0.15761912 0.26496372 -0.23752843 -0.1561125 -0.20066166
0.15390986 0.10767106 0.064973935 0.19982767 0.03696304 -0.20458552 0.30725616 0.10762858

weight_hh_l1 f4 [48, 12]
00000000: 868a 533e 2ccb 0b3e b46d 683e 6e37 813e
00000010: fbf8 febd d33d 28bd 6669 b0bd 20dc 79bd
00000020: 2c08 07be ddae 05be 4692 283e e724 1c3e
00000030: 51e9 153e b30d c1bd 7d58 813d c56d 07bc
00000040: 698d 72bd 7652 80be c462 953e d0b4 0dbd
00000050: 4553 553e 32fb 0ebe 0199 02be 6dfc 323e
00000060: dc84 76be 22bb 4d3e b2d6 2fbe ddbe 463e
00000070: bcc4 5dbe 5a90 8a3e ac9d f3bc 705d 85be
00000080: 492c 613e ab81 033e 9378 963e 1f2e 27bd
00000090: fb58 d33b ab54 203d afe5 093e c0a3 323e
000000a0: 3589 51be 1932 f6bd f570 0fbe 8055 793e
000000b0: aeaa 923d 9894 0fbd bbac 083e 0013 a5bd
000000c0: 6095 6ebd 94ca 25bd 6e90 1dbd f37c 8abd
000000d0: 9eeb 8ebe 7e4a 47bc f117 343e 2dd5 873e
000000e0: ac2d 5cbe 525b 96bc 412c 16be ca52 3f3e
000000f0: ee16 6dbe 3a80 b43b 2e39 33be 522c a6bd
00000100: 9b6d 883e 2ba6 4fbd 96e5 523e 8909 6c3d
00000110: e6f6 89be 5e6e a33c e042 603e 8475 87bd
00000120: 2ae6 82be 57fe 4dbd ab0c 2f3e eb0f cb3d
00000130: 4f59 7a3e 8384 58be bb91 d6bd 0286 253e
00000140: 7f1e b9bd 4c8f 993e be16 c8bc 29c6 d33d
00000150: b8e1 993d 8843 d3bd 1571 39be 5d0d 173e
00000160: adfb a53d 2a62 b53d ce69 9dbe 8aee a8bd
00000170: 41dd c3bd 99b2 f63d 127f d4bd f78e 963e
00000180: 78af 65be dfd6 803e 81f1 09be 0908 8fbe
00000190: a24b 34bd d9d8 393b 1bca 13be fe44 cc3d
000001a0: bf9a 903e c8e0 dbbc 7fd9 243e 89bd 633e
000001b0: cbd2 1d3d 0f82 553e a1df e13d f803 42be
000001c0: 3006 b83d 30c4 5bbd 8466 8a3d 0d63 ddbd
000001d0: c878 8cbd 1627 6ebe cf1b ecbd 7786 4bbe
000001e0: a54e 4cbe f1a0 803e 760d c0bd e411 f93c
000001f0: d4d4 b33c 226f 5abe 5a63 54bd 17b8 6f3e
00000200: 4649 65be e1ed e8bd 0fcc 203e 25d2 a93d
00000210: b89d d4bc 7e0a fabd 7092 833e 07f3 14be
00000220: 8971 373e aa82 453e 1686 aebd 07f2 04be
00000230: d41a 253e a298 73be c388 f43d cdea 833e
00000240: e52f 8b3d acc0 e1bc e067 98be 028e 36be
00000250: c551 22be b24b ac3d f73d 813a 546e c4bd
00000260: cddb c53b 3af6 1d3c abe5 57be 0f0f 02be
00000270: f095 64be 8ab5 9ebe 87d7 45bd eb16 633e
00000280: 6ec9 613e c5bc d33c 6284 17be 3834 f2bd
00000290: 267d 493e 1ea8 033e 4878 8c3e 84e0 cabc
000002a0: f83a 863e 669e 9fbe 95d3 2b3e c813 f7bd
000002b0: 36f8 023e e582 d93d 02d7 55bd ab01 0d3e
000002c0: 79ce 833d e7a2 b93d 191c d1bc 0b43 1fbe
000002d0: 63a1 95bd 9e9b d0bd 9b24 e6bd e4d6 1abe
000002e0: cbdb 263e 4159 c63d b286 073e cd99 973e
000002f0: 5703 513e 0281 193e 5680 bcbd b78c 49be
00000300: 67cd 6dbe 26eb 743e 36e6 c33d 86d7 053d
00000310: b089 d03d be55 813e fdd6 463e b953 a8bb
00000320: 38e4 efbd 0f4b 0fbd edb6 54be 60a1 94be
00000330: 4543 4dbd b99c 71be eca6 233e effc a5bd
00000340: 483a 8d3e 5c15 8abd 14a1 8fbe 00c9 02bd
00000350: 38ad 6e3e d4f6 05be 164b 97bd 19c2 033e
00000360: 2cf0 623e 8036 103e 5dc5 10be 8400 9fbe
00000370: ae4c 3cbe e637 79be 895e e1bc fe43 84bd
00000380: dc2b 153e 1c78 5fbe 6657 0fbe 9ac1 533e
00000390: deb3 a3bc 847d a5bc 9776 a23d b941 e53d
000003a0: 3e10 313b 5913 18be d993 84be 7d47 0c3e
000003b0: 0781 f9bd cbfe 96be 10bc 23be c533 9d3d
000003c0: fcf1 803e b6a0 23bd 3c62 d23d a921 b93d
000003d0: e5f9 76bd d022 54be 0ea2 5abc bf6b 1ebb
000003e0: 85e9 633e 7d56 4dbe 0963 75be 79a6 91be
000003f0: 115a af3c b38c 4d3e d7f2 f63d f386 193e
0.20658311 0.13651723 0.22698098 0.25237602 -0.12449833 -0.041074585 -0.08613853 -0.061000943
-0.13186711 -0.13054986 0.16462049 0.15248452 0.14639784 -0.09426441 0.06315706 -0.008265917
-0.05921689 -0.25062913 0.29176915 -0.034596264 0.20832546 -0.13963011 -0.12753679 0.17479105
-0.2407412 0.20090917 -0.17171744 0.19408746 -0.2165708 0.27063257 -0.02973827 -0.2604785
0.2198955 0.12842433 0.29388866 -0.04081547 0.0064498163 0.039143246 0.13466524 0.17445278
-0.20462497 -0.12021274 -0.14007933 0.24349022 0.07161461 -0.03505382 0.13347141 -0.080602646
-0.058247924 -0.040476397 -0.038467817 -0.067621134 -0.27914137 -0.012163756 0.17587258 0.26529828
-0.21501797 -0.018354092 -0.14665319 0.18683925 -0.23153278 0.00550845 -0.17502281 -0.08113922
0.26646122 -0.05069558 0.20595393 0.05762628 -0.2694618 0.019950088 0.21900511 -0.06614211
-0.25566226 -0.050291386 0.17094676 0.099151455 0.24448131 -0.21144299 -0.10477015 0.16164401
-0.0903902 0.2999214 -0.024424907 0.103405304 0.075137556 -0.10315615 -0.18109544 0.14751191
0.08104644 0.08856614 -0.30744785 -0.08248623 -0.09563685 0.120457835 -0.10375799 0.2940595
-0.22430217 0.25163934 -0.13471033 -0.27935818 -0.04401744 0.002835801 -0.14432566 0.09974097
0.28243062 -0.026840582 0.16098593 0.2224027 0.038531106 0.20850395 0.11028982 -0.18946826
0.08985555 -0.053653896 0.067578346 -0.10809908 -0.06858975 -0.23257098 -0.115287416 -0.19875513
-0.19951876 0.2512279 -0.093775675 0.030404039 0.02195207 -0.21331456 -0.05185256 0.23410068
-0.22391233 -0.11373497 0.15702842 0.08292035 -0.025954112 -0.122090325 0.2569766 -0.14545833
0.17914404 0.19288126 -0.085216686 -0.12982951 0.16123515 -0.23788694 0.11940148 0.25765076
0.067962445 -0.027557693 -0.2976675 -0.17827609 -0.15851505 0.08412875 0.0009860386 -0.09591356
0.006038165 0.0096412245 -0.21083705 -0.12701057 -0.22322822 -0.30997878 -0.048301246 0.22176711
0.22049496 0.025846848 -0.14796594 -0.11826366 0.19676647 0.128571 0.27435517 -0.02476526
0.26216865 -0.31175536 0.16779931 -0.1206432 0.12789997 0.10620669 -0.052207 0.13770168
0.06435866 0.09064274 -0.025526093 -0.15552919 -0.07306173 -0.101859316 -0.11237451 -0.15121037
0.16294782 0.096849926 0.13234976 0.29609528 0.2041143 0.14990619 -0.09204166 -0.19682585
-0.23222886 0.23917827 0.095653936 0.032676242 0.10182512 0.2526073 0.19417949 -0.0051369336
-0.11713451 -0.03498369 -0.20772906 -0.2902937 -0.05011298 -0.23594941 0.15981644 -0.08104884
0.27583528 -0.06742355 -0.2805258 -0.03192997 0.23308265 -0.13082439 -0.073873684 0.12867011
0.22161931 0.1408329 -0.14137788 -0.3105508 -0.18388626 -0.2433773 -0.027510898 -0.06458281
0.14567512 -0.21823162 -0.13998184 0.20679322 -0.019983228 -0.020201452 0.079327755 0.11194176
0.0027017738 -0.1485113 -0.2589405 0.13699146 -0.12182813 -0.29491267 -0.15989709 0.0767589
0.2518462 -0.039948188 0.10272643 0.09039623 -0.06029691 -0.20716405 -0.013344301 -0.0024173108
0.2225705 -0.20052524 -0.2396356 -0.2844732 0.021405252 0.20073204 0.12058037 0.14992885

bias_ih_l1 f4 [48]
00000000: c9c8 81be 4fe3 4fbd 0efd bebd 4083 c03d
00000010: d7ad 13be 7ec4 133e 9bce 853e 799c 92be
00000020: 67f7 32be c88b 233e 20a5 4abd 48a3 b1bd
00000030: 9b8b 833e 3051 833e f8e7 2c3e 30a5 37be
00000040: 9bc4 3e3e 631d 423d 05d1 9dbd 1ffe 333d
00000050: 53e6 5bbd 542e 17be 9730 8cbe 6bf7 65be
00000060: 976f 673e 36e1 0e3d 7b85 273e 4ef3 d13d
00000070: 7bbf 09be ca46 a43d ed66 a83d 1fc5 ea3d
00000080: c29e c23d 952f 203e f461 6d3e 377a 5bbd
00000090: 04c2 e93d 0802 b2bd 4c9f efbc c641 8abe
000000a0: 444f 503e 73fd 913d 781e 79be 310c 7abd
000000b0: df88 38be 83cc 703e c57a 573e 091d 013e
-0.253485 -0.050753888 -0.0932561 0.09400034 -0.14421783 0.14430425 0.2613419 -0.28635004
-0.17477189 0.15971291 -0.04947388 -0.086737216 0.25692448 0.2564788 0.16885364 -0.17934108
0.18629687 0.047391307 -0.07705883 0.04394352 -0.05368645 -0.14763767 -0.2738082 -0.22457664
0.22601162 0.034882747 0.16359513 0.10251485 -0.1345195 0.080213144 0.082227565 0.11463379
0.09502937 0.15643151 0.23181897 -0.05358335 0.11413959 -0.08691794 -0.029250763 -0.27003306
0.20342737 0.0712842 -0.24328029 -0.061046783 -0.18020962 0.23515515 0.21042927 0.12608732

bias_hh_l1 f4 [48]
00000000: a548 623d 7edf ef3d 0c51 2a3d b802 3abe
00000010: 45ca 1cbb da92 1abd 43c0 6c3e eb5f 87bd
00000020: bbde 913b 49af 8abd 23c0 5e3d e500 8f3d
00000030: 097f 93be b2a8 873e f531 753e 5729 abbd
00000040: c65f 103e c70b 1cbe 434a 913d 7fc9 91be
00000050: 8f99 3dbe 1637 46bd 346d 823e 86e0 7fbc
00000060: 34fc 7dbe a877 35be aa2a 8c3d 2239 7cbe
00000070: 79e1 043e e256 713e f2d0 de3d 3f2e 2c3d
00000080: 30ea 943d cbda 28bd 7c0d 683e 398e 34be
00000090: 7abb 95bc df13 873e 9f5d afbd 02e7 3f3e
000000a0: b153 7b3e a654 1d3c 71ad 3a3e 2558 223d
000000b0: 4d87 003e a39a 58be 73ab ba3d f345 92be
0.05524506 0.117125496 0.0415812 -0.181651 -0.0023924273 -0.037737705 0.23120217 -0.06610092
0.0044516004 -0.06771714 0.054382455 0.069825925 -0.28807858 0.26495892 0.23944838 -0.08357494
0.14099035 -0.15238868 0.070942424 -0.28474042 -0.18515609 -0.048392378 0.2547394 -0.015617495
-0.24803239 -0.17721426 0.06844075 -0.2463117 0.12976636 0.235683 0.10879697 0.04203629
0.0727123 -0.041224282 0.22661394 -0.17632379 -0.018277872 0.26382348 -0.08562779 0.18740466
0.24543644 0.009602701 0.18230225 0.039634842 0.12551613 -0.21152739 0.091147326 -0.28568992

weight f4 [64, 12]
00000000: 988d 3e3e ee36 1d3e 8d1f 943e 58d3 803e
00000010: dee3 73be 4c93 a5bd 2df0 373e caad e3ba
00000020: beb6 8d3e d811 d4bd 618a 98bd e87b f7bc
00000030: 6fec 023e 4529 f9bd 87b6 2f3e c19a 2abe
00000040: 32ae acbd 347c 183e 1d69 373e 76f6 473e
00000050: f396 c9bd 6358 443e c889 9f3c 8020 1b3e
00000060: 0106 c73d c8db 0c3e 9389 53be cff6 223d
00000070: b524 5a3e d33a 89be aa97 7fbe fa92 69be
00000080: bb9a 92be c283 93be 76d0 4c3e d1a1 46bd
00000090: 6e4d 9fbd 15bd 683e e780 7b3e 0fc1 b53d
000000a0: a170 953e 5541 163e e16d 93be 9362 323e
000000b0: b610 c3bd 2be3 2abe c3a8 a7bd 33e2 bf3d
000000c0: 69d3 87be 118c 873e a95b 1fbe 201b a13d
000000d0: c555 f2bd 39a7 3bbe 4c99 d8bc 9fe9 60be
000000e0: bd12 a53d f643 95be 9ad3 aa3c 08bd 6a3e
000000f0: 5d07 05be b97f ec3d b1f1 8f3d 1ac6 82bc
00000100: e774 1d3e f2e7 ddbd 28f5 673e 146c 313e
00000110: d29d fdbd 5141 4abe be97 8bbe f362 733e
00000120: 6a18 00bd 13e0 3a3d 816e f83c c489 a53d
00000130: c4b7 13be ee00 c9ba 0628 5ebd 76bf fbbd
00000140: 4530 513e a973 19be e3df c43d c3d0 29be
00000150: 0666 0f3e a834 17be f1c0 4dbe d916 603d
00000160: efad 28be 0fb6 f43d d4ca 82be 8f1f ef3d
00000170: 0acd c63d 3817 713d b57d 7fbe 44cc 15be
00000180: a43d ccbd 9843 6f3e 55bb d03d c9af 53bd
00000190: b6f5 72bd 34bb 0d3e b6aa e1bd 78c5 7abe
000001a0: 79f0 3bbd e1ba e3bd a981 ec3d 2333 0ebe
000001b0: d4ad 8cbd 7023 813e f96a 783c 1024 483e
000001c0: 41c8 78be baf9 48be 5b33 513d 6338 0fbe
000001d0: 232a 83be b3d4 7b3e 5d25 fc3d f6ef f33d
000001e0: b300 a93c fadb 0cbe 518a 583e c2c2 85bd
000001f0: 9f1d 07be 858d e03d 179a 55bd f490 65be
00000200: 9a52 cebd f9c0 d4bc 2563 a5b9 4ac8 9e3c
00000210: 5c24 c73d a665 51be e33c 2c3e e44b 773e
00000220: 722e 14be 8d51 23be 4382 d5bd d4f7 853e
00000230: 92ec 8bbd 69c0 00bd 4039 23bc 7fde 01be
00000240: 6e38 ee3d 0a94 44be 2c01 c8bd de1a a1be
00000250: 7c5d c33d 3775 243e 3dcd 823e ffa1 fcbd
00000260: 8adc 973e 4b09 e03c 1bf1 f63d 4a69 6ebe
00000270: a2d0 863e 3f50 2d3e f9bc 03bd 8cee 1bbe
00000280: fc2c 053e d004 e0bd 4dc5 52be 1f2f f83d
00000290: 3a5a 4f3e 70df c93d b2c2 253c 9d44 07be
000002a0: 5359 803e f7bc 49bd d6bf 9b3e b63c 913c
000002b0: 4455 11be cf30 1c3c 676b 1fbd c243 cdbd
000002c0: 764a 233e af4e 273e b658 673e 4f33 cb3d
000002d0: c61a 89be 5e7e 93bc 87b1 15be d31a 65be
000002e0: 5fc2 903e 3e31 abbd 0bf8 b03d dba6 07be
000002f0: a7b8 893d ecdf 53be aac4 7c3e a8b1 3cbe
00000300: 8630 703e 9b90 35be 4db3 6c3e 84ba 51be
00000310: f5b7 48be be4d 143e 3721 71bd 68c9 6a3e
00000320: 433b 89be 3fef 713e 0803 7dbe 8813 08be
00000330: 097e 4fbd 929f e6bc f09c d4b8 8154 7b3e
00000340: 6d6a 463e 7e54 bd3d d64f c43d 1a13 02be
00000350: a3bd ad3d 7e2d 223d 2339 863d 57e1 48be
00000360: 02c6 9dbe 5c14 313e 61a8 20be f594 ecb9
00000370: 4cba 83be 1cb5 8abe 286b 613e 07f2 80be
00000380: aaa6 2abe 716d a93d 8cb0 09be d25e 7f3e
00000390: a502 73be 3afc 43be 4dfb d33d b22c 003d
000003a0: 3a17 c43d 1776 6cbe 08c4 86bd 16e2 3ebe
000003b0: 2d6e 9a3e 1f6f 9b3e 1aa3 b4bd 321c 593e
000003c0: dd6f 97be b1ba 593d c8c4 8abe ab74 20be
000003d0: 2852 84be f44b d939 0387 053c 7f1c 8b3e
000003e0: 3376 7e3e 4de1 94be c5d7 323d 8356 95bd
000003f0: ce7f fbbc c7c0 363e 005a 8d3e cca2 00be
0.18608701 0.15352985 0.2893032 0.25161242 -0.23817393 -0.08084735 0.17962714 -0.0017370519
0.27678484 -0.10354966 -0.07448269 -0.03021045 0.12785505 -0.12166075 0.17159472 -0.16660596
-0.084316626 0.1489113 0.17911191 0.19527611 -0.098432444 0.19174342 0.019474879 0.15149117
0.09717942 0.13755715 -0.20657949 0.039786156 0.21303065 -0.26802692 -0.24960199 -0.22809973
-0.28633675 -0.2881146 0.20001397 -0.048494164 -0.077784404 0.22728379 0.24560891 0.08874714
0.29187492 0.1467336 -0.28794768 0.17420416 -0.09524672 -0.1668822 -0.081864856 0.09369316
-0.2652848 0.2647405 -0.1556231 0.07866502 -0.118327655 -0.18325509 -0.026440285 -0.2196412
0.08060215 -0.29153413 0.020852853 0.22923672 -0.1299109 0.11547799 0.07028521 -0.015963603
0.15376626 -0.10835256 0.22652113 0.17326385 -0.123836175 -0.19751479 -0.27264208 0.23768215
-0.031273283 0.04562385 0.03032613 0.08082917 -0.1442557 -0.001533536 -0.054237388 -0.12292378
0.2042857 -0.14985527 0.096130155 -0.16583543 0.14003763 -0.1476618 -0.20093133 0.05470929
-0.164726 0.119487874 -0.2554537 0.11675941 0.09707077 0.058860034 -0.24950297 -0.14628702
-0.099726945 0.23365629 0.10191981 -0.051681314 -0.05931636 0.13840944 -0.11018889 -0.24489391
-0.04588363 -0.11119629 0.11548168 -0.13886695 -0.068690926 0.2522235 0.015162223 0.19545007
-0.24295141 -0.19626513 0.051074367 -0.13986354 -0.25618085 0.24592857 0.12311814 0.11911003
0.020630216 -0.1375579 0.21146514 -0.06531288 -0.13194893 0.10964493 -0.052148905 -0.22418576
-0.10074349 -0.025970923 -0.0003154512 0.019382615 0.09723732 -0.20448932 0.16820101 0.24150044
-0.14470842 -0.15949078 -0.10425236 0.2616564 -0.068322316 -0.031433497 -0.00996238 -0.12682532
0.11631857 -0.19197097 -0.097658485 -0.3146581 0.09539315 0.16060339 0.2554721 -0.12335586
0.29660445 0.027348181 0.12057706 -0.23282352 0.2633105 0.16925143 -0.03216264 -0.15227717
0.13005441 -0.10938418 -0.20583077 0.12118363 0.20249262 0.098570704 0.01011722 -0.13209768
0.2506815 -0.049252477 0.30419797 0.017729145 -0.14192683 0.009533121 -0.038920786 -0.100226894
0.15946373 0.16338609 0.22592434 0.09921896 -0.2677824 -0.018004593 -0.14618503 -0.22373514
0.28273293 -0.083590016 0.086410604 -0.13247244 0.06724673 -0.20690888 0.24684396 -0.18427145
0.2345601 -0.17730944 0.23115273 -0.20481306 -0.19601424 0.14482781 -0.058869567 0.22928393
-0.26803026 0.23626421 -0.24708188 -0.132887 -0.050657306 -0.02815226 -0.0001013818 0.24543954
0.19376536 0.09244631 0.0958554 -0.12702599 0.08483436 0.039594166 0.06553867 -0.1961721
-0.3081513 0.17292923 -0.15689231 -0.0004512441 -0.2572807 -0.270913 0.22013533 -0.25184652
-0.1666514 0.082728274 -0.13446254 0.24938515 -0.23731478 -0.19139186 0.10350666 0.031292625
0.095747426 -0.23091923 -0.06580359 -0.18640932 0.30162182 0.30358216 -0.08820172 0.21202162
-0.29577532 0.05315656 -0.27103257 -0.15669505 -0.2584393 0.00041446055 0.008149865 0.27170178
0.24849777 -0.2907814 0.043662805 -0.072918914 -0.03070059 0.17846976 0.27607727 -0.12562102

bias f4 [64]
00000000: 65c5 b13d 9a0a 9bbe f39d 333e 0a7b 453e
00000010: 1237 a0be 6b26 9fbe a30e 863d b773 93bd
00000020: 7325 563e c8ba d83d d8eb 21be f10e 213d
00000030: 05c8 9b3d 0817 27be 56e8 643e dd49 2d3e
00000040: 17a2 5a3e f9af 14be c626 723d 960f b8bd
00000050: 0255 96bd 48f5 333e 46f6 51bd 353c 903e
00000060: 4f00 163d 12f9 e5bd 09d1 8f3c b258 623e
00000070: 611c 493e c139 823e c1c8 c4bd 2f92 283d
00000080: c52f 9c3d 6650 353e 8ae8 9abd 762f 80be
00000090: 8f8b 783d b29b 8e3e a86c 9f3d 22af 703d
000000a0: ff62 93be d463 65be 94f3 74bd e12e 72be
000000b0: 60c8 cebd e53f 85be 2004 96be ef72 233d
000000c0: edcc f03d 5fe1 743d e0aa 2cbe 6b9c 04bd
000000d0: 216e ae3d b5f2 b7bd 1345 213e 7a6a 50be
000000e0: 2535 383e 6e1d 83be 04fe 2d3e 0dae 5dbe
000000f0: 019b 633e e31c 21bd 00b0 cf3d 4abb ddbc
0.08680228 -0.30281526 0.17540722 0.19285217 -0.31292015 -0.31083998 0.065457605 -0.07199805
0.20912723 0.10582501 -0.15812624 0.03932089 0.0760651 -0.1631738 0.22354254 0.16922708
0.21350895 -0.14520253 0.05911901 -0.08987348 -0.07340433 0.17574036 -0.051260255 0.28170934
0.036621388 -0.11229147 0.01755573 0.22104147 0.19639732 0.25434688 -0.09608603 0.041155037
0.07626299 0.17706451 -0.075638846 -0.2503621 0.06067997 0.2785316 0.077843964 0.05876077
-0.28786466 -0.22401363 -0.059802607 -0.23650695 -0.10096812 -0.2602531 -0.29300022 0.03990453
0.117578365 0.059785243 -0.16862059 -0.032375734 0.08517099 -0.089818396 0.15749006 -0.20353118
0.17989023 -0.2560839 0.1699143 -0.21648426 0.22227098 -0.03933419 0.10140991 -0.027066845

weight f4 [8, 64]
00000000: 0baf 123e 65a1 813d 1f34 aebc af93 b13c
00000010: d15d 3d3d a56e f23c 152a 7c3d 37ed 123b
00000020: 29b4 f63d 47be 4e3d d832 b63d c0a1 063d
00000030: e22c da3d f842 67bd a435 50bd 83b3 8b3d
00000040: 6a19 08bd e1cb c83c 1bf5 a73d 0c3a 1abe
00000050: fb4c d3bd d624 463d d4da 9abd 071a 043e
00000060: 80ad b43d f761 333c 8cc8 b93d 2163 92bc
00000070: b1d3 8e3d 31c3 89bd 0872 10bd 8c06 17bd
00000080: 1c34 143e b641 0e3e 8b34 f3bd 0055 36bd
00000090: 3b18 ef3c f623 dd3d bb4d 593d 9240 683d
000000a0: 5be9 0a3c ff17 37bd 6e29 2ebd e7de 8bbd
000000b0: ab35 863c a3f3 98bd 77e2 933d 0964 f43d
000000c0: 2f60 a5bd 8016 363d de2f 1fbc e3f5 d3bd
000000d0: 706f acbc 3e99 863d 22ed b53d b852 f0bc
000000e0: d922 adbb 3831 f9bd ff63 133d 03e2 733d
000000f0: f735 953d ee4a 583c 0a86 793d 676d 9cbd
00000100: f370 1b3e 6618 c8bd 15ec b2bb 4175 323c
00000110: 6ad0 b3bd 2867 8ebd a956 e8bb df80 fb3c
00000120: 13ce adbc e195 b73d 7f01 be3d a937 7f3d
00000130: 73cd d63d f58c 3abd fa61 1e3c a04a b3bd
00000140: 0507 21bd 6bce 5ebd a807 b23d a29b 753d
00000150: 83e3 bbba 0cbf d43b 7c11 0ebc b236 b53d
00000160: 4d61 74bd 3c7f ddbd f3ce ddbc 1c1d 353d
00000170: 9e29 c03d bb47 b1bd 668d 9a3d ea29 84bb
00000180: bede aa3d 959f 913d 58d7 d3bd bb7c ab3d
00000190: c420 90bd f6cb 5c3b 580f f63d ea7d 2a3c
000001a0: 4fc8 06be 31a5 303c 26b0 a5bd 6e50 b53d
000001b0: 0036 ba3d 5583 133d be39 cabd 25c7 abbc
000001c0: a111 1b3e f7a0 0a3d b25a ea3c 8a5b d4bb
000001d0: a629 7cbd cf8e cdbd d652 073b 1625 1ebe
000001e0: f681 483c 1b09 c9bd c460 853c c43d b93c
000001f0: d29c da3d bb80 8a3c 5ce1 dd3d 8fff 19be
00000200: 5664 253d 85aa 1cbe 133e 93bd e516 a33d
00000210: e96a fcbd 0365 ccbd 5083 9f3d 7992 f9bc
00000220: 1010 283c 8d09 8bbd bf2f 89bc c03a febc
00000230: ed51 0abd b024 063d dab1 a03d c7ea 123d
00000240: 9f6c e03d a6c4 b63d 39bb 08bd 37f2 993c
00000250: 7461 463d 9218 c03c 48d3 09be 1fba 8d3d
00000260: 4231 533d 70c3 933c f931 fc3d 24ef 0c3e
00000270: 8ef6 773d 6af1 673d 1b7a 3bbd 6481 90bd
00000280: af0e 9d3d e8f2 963d 0f8d 8abd a61a 973d
00000290: 4790 adbd 40a0 a03d 8097 12bd a3f2 803d
000002a0: 0848 b33c 3557 09be fa5b 813d e379 febd
000002b0: 32c4 2fbd 9490 11be 520e f63c 8951 92bd
000002c0: a672 0a3e 6cce 2bbd bff7 08be 61fc 06bd
000002d0: 81a1 0abd d6a9 debd dbb5 7c3d 98b2 1bbe
000002e0: 587c c73d aeea 93bd 5bf0 9b3d 0f37 0cbe
000002f0: 9837 183e 5d48 da3c 7bd9 b03d 592e ddbc
00000300: ed92 0e3c 275b 143e 9e5f 5a3d 5411 f5bd
00000310: 5a12 e03d fe03 c33d ed85 923d f788 893d
00000320: 29d9 aa3d 77c7 323d 9118 bdbd b533 d63d
00000330: 2058 a53d 7293 853d c650 823c d2ff b73d
00000340: be68 7cbd 9a51 193e 50ec 17be d064 163e
00000350: bf85 303d 9c6f ebbd 9aeb 173e 272f 09be
00000360: bfe4 87bd a2f7 b43c 2a0c 983d 6ea2 463b
00000370: 63c5 023d 9d9e aa3b 6ac2 0b3d 0612 81bd
00000380: a493 7f3d f8b0 d03c 701b 773d c1ad 2d3d
00000390: 8544 0abe ed8d adbd 19ab c1bd b19b 93bd
000003a0: ecf3 ab3d fdec 173e 45b1 fe3b 6102 1bbd
000003b0: 3203 023e fe0d 1b3e 3ef7 8bbd 35d4 f43c
000003c0: 7e33 a03d 4089 10be 5bde d23d a4b1 833d
000003d0: 5477 9b3d 7526 dabc f9fd f8bd aec9 af3d
000003e0: 445b 06be 3135 4e3d 9c3f 253d d0a6 8c3d
000003f0: 1fcd e03c a0a3 3abd 1e0e 5abd 93f3 f13c
0.14324586 0.06329612 -0.021265088 0.021676866 0.04623205 0.029593775 0.06156357 0.0022419223
0.120460816 0.05047443 0.088964164 0.0328691 0.10653092 -0.05646035 -0.050832406 0.068213485
-0.03322736 0.02451128 0.08201047 -0.15061206 -0.10317417 0.048374973 -0.075612694 0.12900554
0.08822155 0.01094865 0.090714544 -0.017869534 0.06973971 -0.06726683 -0.035265 -0.036871478
0.14473003 0.13892254 -0.11875256 -0.044514656 0.029186359 0.10797875 0.053052645 0.056702204
0.008478488 -0.04470062 -0.04251998 -0.068296246 0.016383013 -0.07468345 0.07220929 0.11933143
-0.08074986 0.04445505 -0.009716002 -0.103496335 -0.021049231 0.065721974 0.0888312 -0.029336318
-0.005283695 -0.12167591 0.035984036 0.059541713 0.072856836 0.013201458 0.060918845 -0.07638054
0.15179805 -0.09770279 -0.005460272 0.010892213 -0.08779986 -0.06953269 -0.007090409 0.030701099
-0.021216428 0.08964134 0.09277629 0.06230894 0.10488405 -0.045544583 0.009666914 -0.08754468
-0.039313335 -0.054396074 0.086928666 0.059962876 -0.0014334772 0.006492501 -0.008671161 0.08848323
-0.059663106 -0.10815284 -0.02707622 0.044217214 0.09382938 -0.086562596 0.07546501 -0.004033317
0.08343266 0.07110516 -0.10343808 0.083734 -0.070374995 0.0033690906 0.12014645 0.010405997
-0.13162349 0.010781572 -0.08090238 0.08853231 0.09092331 0.03601392 -0.09874295 -0.020968983
0.15143444 0.033844914 0.0286077 -0.006480639 -0.061563157 -0.10037004 0.002064874 -0.15443835
0.012238016 -0.0981619 0.016281493 0.02261246 0.10674442 0.016907087 0.108339995 -0.15038894
0.04037889 -0.15299423 -0.07189574 0.07963351 -0.12325079 -0.09980204 0.07788718 -0.030465351
0.010257736 -0.06788931 -0.0167464 -0.031033874 -0.033769537 0.03274983 0.078464225 0.035868432
0.10958218 0.089242265 -0.033381674 0.018792255 0.048432782 0.023449216 -0.13459504 0.069202654
0.051560648 0.018037528 0.12314219 0.137631 0.060537867 0.056626715 -0.045770746 -0.07055929
0.07668816 0.073705494 -0.06765186 0.0737813 -0.08474784 0.07843065 -0.035789013 0.06296279
0.021884933 -0.13412173 0.06316371 -0.12425592 -0.042911716 -0.14215308 0.030036125 -0.07144458
0.13520297 -0.041944906 -0.13375758 -0.03295553 -0.03384543 -0.108722374 0.06169687 -0.15204847
0.097405136 -0.07222496 0.076142035 -0.13692878 0.14864957 0.026645834 0.08635231 -0.02699964
0.008702022 0.14487897 0.053313844 -0.11966196 0.10941 0.09522246 0.071544506 0.06715577
0.08342201 0.043647256 -0.09233201 0.10459081 0.08073449 0.065222636 0.015907656 0.08984341
-0.061623327 0.14972535 -0.1483624 0.14686894 0.0430963 -0.11495897 0.14835969 -0.13396893
-0.06635427 0.022090737 0.07424195 0.0030309218 0.031926524 0.0052068965 0.034120955 -0.06302266
0.06239666 0.02547501 0.0603289 0.042402033 -0.135027 -0.08474336 -0.094564624 -0.0720743
0.08396134 0.14836498 0.007772597 -0.037844066 0.12696531 0.15142056 -0.06834267 0.029886344
0.07822321 -0.14114857 0.10296317 0.06430367 0.075911194 -0.026629666 -0.121578164 0.08583389
-0.13120753 0.050343696 0.040343866 0.068677545 0.02744156 -0.0455662 -0.05323612 0.02953509

bias f4 [8]
00000000: d6ec 833d d5a9 50b9 4ba5 97bd 0e61 633b
00000010: 074c 10be 9429 9e3d a35d 74bd 4cf0 25bd
0.06441657 -0.00019899693 -0.07404574 0.00346953 -0.14091502 0.07722774 -0.05965961 -0.040512368
