models/recomendation_models/scripted_user_preference_model_v9_8_dim_really_good.pt (torch, 90677 bytes, 10 tensors)

hidden f4 [1, 1, 32]
00000000: d4b4 c7be fc24 ba3e 242e 09be 4973 ccbe
00000010: 8a22 f2bd 744a c73e fca8 9e3e 59cf 2f3d
00000020: b1dd b6be 3995 8cbd e03a 863e 1e59 0b3e
00000030: 28b3 9c3d 0ac9 65be 51bd 8c3e af39 f33e
00000040: dc31 f8bc d141 8fbe 15eb 7cbe 4ab8 e63e
00000050: 32ec 6b3e 2b09 dabe 7393 cbbe f604 12bc
00000060: 71ad 9d3e daef d8bd ba49 d0be 737c a6be
00000070: 13fe af3d 345d ba3e 2b8c a1be 69bd 983e
-0.39005148 0.36356342 -0.13396508 -0.39931706 -0.11822994 0.3892399 0.309883 0.04292235
-0.35716012 -0.068643995 0.26216793 0.13608214 0.07651359 -0.22439972 0.27488187 0.47504947
-0.030297212 -0.279799 -0.24699052 0.45062476 0.2303932 -0.4258512 -0.39760932 -0.008912316
0.30796388 -0.10592623 -0.4068125 -0.32516822 0.08593383 0.36399233 -0.31552252 0.29832008

hidden f4 [1, 1, 32]
00000000: 1bdb 29bf 8201 693f bde6 b3be 86e8 28bf
00000010: 4e30 92be 751c 8c3f 2152 273f 6d56 bf3d
00000020: e9da 49bf 7405 32be 6e4b c63e efad 893e
00000030: 9c7e 2e3e 65b4 efbe 2a49 e73e fb05 db3f
00000040: ecbb 78bd 3b74 39bf 046e e8be 592b 703f
00000050: 67e3 2b3f ee60 5ebf 8643 1dbf 61c9 99bc
00000060: 1f44 203f 5eee 65be 7e82 3cbf db6a 44bf
00000070: 8f8a 363e 9ffa 6a3f 9c5c 13bf 7210 273f
-0.66349953 0.91017926 -0.35136977 -0.659798 -0.2855248 1.0946184 0.65359694 0.09342656
-0.78849655 -0.17384893 0.38729423 0.26890513 0.17040485 -0.46817318 0.45173007 1.71112
-0.06072609 -0.7244298 -0.45396435 0.93816143 0.67143863 -0.8686665 -0.6143116 -0.018772783
0.62603945 -0.22454211 -0.73636615 -0.7672555 0.17826293 0.9178867 -0.57563186 0.6525947

weight_ih_l0 f4 [128, 12]
00000000: 53fb 1abd 109a bbbd 03b6 2d3e c72b bdbc
00000010: c53a 24be b4e2 b1bd 3b2b c3bd 3afd d73d
00000020: 7dba 383e ff74 f53d 6e42 bcbb a258 0e3e
00000030: 9a5a 423d 80c6 1ebd e6e8 2d3c b2de 08be
00000040: e4ed fbbd 184b fabc ed9a 933d e154 453e
00000050: 92b2 35bd 6758 1cbd 44bd 2dbd ef72 183c
00000060: d09d f63d fc1c da3d 7462 f63d f551 dcbd
00000070: 294f 5abd 4970 e73d 76f5 913d 2e7e 38be
00000080: 73ef 2fbd 6324 203e f9d6 f73c f708 21be
00000090: f8f2 813c 6184 4f3d dbe9 4a3d 836c 03be
000000a0: 1ead 79bb 70f3 9f3d a950 b6bd 6c4e febc
000000b0: 9372 233e 8ffc 243e 2ca7 463e 2c5c 763d
000000c0: 0d39 11be 9c85 e73d 66fc ed3d 73f0 57bd
000000d0: e0c3 d23d 810c 103e 14f8 b13d 79ef eebd
000000e0: 981c 23be fd3a ae3c 509b de3c 7912 20be
000000f0: 2f8d d83d e5cd 2d3e acf5 08bd d778 223d
00000100: 982c 34bd abec 053d 69eb 403d e2c1 8d3d
00000110: 597c 7a3a 3049 853d 0e99 aebd 540c 18be
00000120: fe3d e03c 753b c03d 949d f63c 9097 19be
00000130: 1348 423d ef1a e4bd 05fd 213d c1e8 b7bd
00000140: bd4b afbd 2888 d23d 0abf 1d3e 1ffb 24bd
00000150: 62fe 32bd b4ff 473d c188 f3bd 9f42 023e
00000160: 0fb2 a7bb b326 313e f868 d0bd f91a 503d
00000170: f359 1a3e 7980 d53d 4d37 93bd 7e33 a5bd
00000180: f998 2e3d 3a0e 2b3e 9305 edbd c3ab cbbd
00000190: 6650 c43d 467f 29be 77bd 083e 1d08 323e
000001a0: b910 c9bd 4de8 b2bd 3f92 eb3c 5dd6 803d
000001b0: c661 2ebe 79ba eebd 8e85 3cba c6c7 113e
000001c0: 5424 eabd bf9c 01bd 2160 1bbd 7040 30be
000001d0: d1d1 0f3e 5069 bebd 2207 1abe 9890 84bd
000001e0: 2fbd 5dbc bbba 6a3c a0c6 293e e18b 313e
000001f0: b189 cc3d 6547 e93d 35bb b93b 031e 0ebc
00000200: 0835 02bd b749 8d3d 7ac0 d7bd 1838 bebd
00000210: 86c8 053e 31d9 083e e303 16be b1c2 333c
00000220: 5151 753d 2c8c 1a3e b487 8d3b 292c 69bb
00000230: abae 323c 45a2 e9bd fb3f 1ebe 0bf9 89bd
00000240: eb1f 0abe 9066 fc3c f491 1e3e f917 123c
00000250: 799b 0b3e 2551 0f3e b69d ac3d 95dd 143c
00000260: 97fb 1c3d 002b ef3d 82c6 f2bd 1ac4 18be
00000270: 2a4d 553d 25eb eabd 611e 0e3e 3060 bd3d
00000280: 9d12 883b ef14 0d3d 12a0 e63d c442 20bd
00000290: d4bf 103e d21a ff3d a691 debd dd9c 04bd
000002a0: 0172 f7bd f254 503c 1b53 edbc c2fc 05be
000002b0: bf09 213e ef78 6abd 0242 c73d 227d ac3b
000002c0: bd21 9c3d ae26 18be 2af3 e1bd 02bf 803c
000002d0: 6e2f 01bc 175b 053c 2f1a dc3d 56b6 57bc
000002e0: ade7 793d 9781 6dbd c063 c5bd db49 3e3e
000002f0: 98f5 1cbd 7f75 b63d 8cdc 453e eb92 efbc
00000300: 0dc3 0ebe 243c 0dbe 8b63 213e 7b7a 14be
00000310: 11de 14be 31c6 e3bc 2593 423e bb65 f1bd
00000320: afd1 0cbe ecf4 1fbe 4fcf cabd 048b fb3d
00000330: 1def c0bd 4a34 a8bd bd66 7b3d 1ab5 15be
00000340: c640 cfbd ff6a 523d daa9 91bd 7558 833a
00000350: 5a6c f6bc dc53 3b3c 85c7 07bd 4857 563c
00000360: caf8 e73c c831 0b3e 1a39 433e c783 723d
00000370: 39cd dbbd 3dfc 11be 1d66 87bd c698 36bc
00000380: 72ac babd 7f81 1abc ca8a 24bd f7d1 f23c
00000390: c037 9c3d eb1e 04bd 7e9c 7bbd 97ba be3d
000003a0: 9a79 203d 2086 11bd c756 d1bd a043 3c3e
000003b0: a33e f53d 5d51 1fbe 12d8 343e feeb 293e
000003c0: 7e9e f7bd 9bdd 8e3c 43f9 2a3e 3434 adbd
000003d0: ffe8 c4bd 99bc 23be 9bc3 d6bd 9110 afbc
000003e0: a319 fc3d c6c9 c73d 01ce 323e d661 e03d
000003f0: 9569 743d 5cf5 0b3e ea3c 4c3c ec41 9cbb
-0.037837338 -0.091602445 0.16963963 -0.023092164 -0.16038044 -0.08685818 -0.0952973 0.10546346
0.1803989 0.11985206 -0.0057452237 0.13900998 0.047449686 -0.038763523 0.010614609 -0.13366202
-0.123012334 -0.030553386 0.07207284 0.1927066 -0.04435975 -0.038170245 -0.042416826 0.009304746
0.12041819 0.106500596 0.12030497 -0.107578196 -0.05329815 0.113007136 0.07126896 -0.18016884
-0.042952966 0.1563888 0.030253874 -0.15726076 0.015862927 0.050663356 0.04953943 -0.12834363
-0.003809757 0.07810104 -0.089021035 -0.031043254 0.15961675 0.16111968 0.19399709 0.060146496
-0.1418192 0.11304781 0.11620407 -0.052719545 0.102912664 0.1406727 0.08689895 -0.116667695
-0.15928876 0.021268362 0.027173668 -0.15632047 0.10573804 0.16973074 -0.033437416 0.039666023
-0.04398784 0.032696407 0.047099505 0.06921746 0.00095552724 0.065081 -0.085252866 -0.14848453
0.02737331 0.093863405 0.030104436 -0.14999223 0.047432017 -0.1113795 0.03954794 -0.08979941
-0.08559368 0.10279876 0.15404907 -0.04027855 -0.04369963 0.048827842 -0.11891318 0.12720726
-0.005117662 0.17299919 -0.10176271 0.050806973 0.15073375 0.10424895 -0.07188282 -0.08066462
0.042626355 0.16704646 -0.11573329 -0.0994487 0.09585647 -0.16552457 0.13353525 0.17385907
-0.09817643 -0.08735714 0.028756259 0.062908866 -0.17029485 -0.116566606 -0.0007191532 0.14236364
-0.1143271 -0.031643625 -0.037933473 -0.17212081 0.14044882 -0.092974305 -0.15041783 -0.064728916
-0.013533874 0.014326747 0.16579676 0.17338516 0.099872 0.113905706 0.005668069 -0.008674148
-0.031788856 0.068988256 -0.10534759 -0.09288043 0.13064775 0.13364102 -0.1464992 0.010971711
0.059892002 0.15092534 0.0043191556 -0.00355793 0.010905902 -0.114079036 -0.15454094 -0.06736954
-0.13488738 0.030810624 0.15485364 0.008916848 0.13633527 0.13995798 0.084285185 0.009086032
0.038325872 0.116781235 -0.118542686 -0.14918557 0.052075543 -0.114706315 0.13878776 0.09246862
0.0041526095 0.034443792 0.11261 -0.039126173 0.14135677 0.124562874 -0.10867624 -0.03237616
-0.120822914 0.012715565 -0.028970292 -0.130847 0.15726374 -0.057244238 0.09729387 0.0052639404
0.076236226 -0.14858505 -0.11032708 0.01571608 -0.007884843 0.008139393 0.107471816 -0.013166031
0.06101196 -0.057984915 -0.096381664 0.18582861 -0.038320154 0.08909129 0.19322413 -0.02924486
-0.13941593 -0.13792473 0.15760629 -0.14499848 -0.14537837 -0.027804466 0.19001444 -0.11786982
-0.13751863 -0.15620774 -0.09902822 0.122823745 -0.09420607 -0.08213098 0.061377276 -0.14619866
-0.101197764 0.05137157 -0.07112475 0.0010020869 -0.030080963 0.011433568 -0.03314926 0.013082333
0.028316874 0.13593209 0.19064751 0.059207704 -0.107325025 -0.14256378 -0.066112734 -0.011144822
-0.091149226 -0.009430288 -0.040171422 0.029641135 0.07627821 -0.03225605 -0.06142854 0.09312933
0.03917847 -0.035528302 -0.102216296 0.18385172 0.11974838 -0.15558381 0.1766055 0.1659393
-0.12090777 0.017439654 0.16696648 -0.084572226 -0.09614753 -0.15989913 -0.104865275 -0.021370204
0.12309577 0.09755282 0.17461397 0.10956161 0.059671003 0.13667816 0.012465695 -0.0047686007

weight_hh_l0 f4 [128, 32]
00000000: e3b3 fb3d a416 993c 2973 743d e33f abbc
00000010: 73d4 25be 91b3 97bd aa4a 38bd 8448 463e
00000020: 56e5 bc3d 12d4 1ebe 7545 073e 73e1 d73c
00000030: 0a18 e93c 5007 013e ce6d 263e abad 86bd
00000040: ed25 29be f121 f03d 53ca 08be 6357 ccbd
00000050: 88a8 53bd f364 ce3d 37a3 ccbd 9836 9dbd
00000060: a9c2 18bd 1a34 ffbb 25db 19be 1168 df3d
00000070: 9a2a 0a3c 85f8 0b3e 6c5d 40be 7331 bc3c
00000080: 1fea 41be bf1e 89bd 3407 003d f10b 073e
00000090: 8553 c2bc c83b f23d 682d a7bd 4100 133e
000000a0: ccd5 e6bd 4d36 4a3d 7b71 d83d 66c3 1bbe
000000b0: 7978 7eb8 30f3 22be 78e2 dfbd 4c91 ab3d
000000c0: 41e5 e5bd d9d8 f73d a5e2 a23c 140e 463e
000000d0: e6b7 ea3d f6c4 4d3d 285f 47be d1b0 883d
000000e0: 5109 533d 4516 773d fb1c d13d 98e5 01be
000000f0: a833 303e e62f 093d 1a85 8a3d 2876 9dbc
00000100: 4cd2 803c 8644 57bd 075d 03be 494f 133e
00000110: 906d 3c3e 30f5 40bd 2366 03be 95bd 42be
00000120: ac36 6e3d 6a39 f3bc 6a6e 213e 560b a63d
00000130: b661 ddbc 004c cb3c 72dd 24bd 5903 a9bd
00000140: f23f 7fbc 0ba7 a9bd ef36 613d 4b9e 3fbe
00000150: 84c8 003e 1f60 22be febd 193e 2fbd a7bb
00000160: 6527 913d b0d9 dfbd 4b42 413e 680b dbbd
00000170: 2c2c ad3d f344 00be b6e8 153e f78a 14be
00000180: a1bf 093e d2ab 1fbe f3af 883d 984e 583d
00000190: 4e4b e23d 8272 8a3d c4b0 123d a89c 91bd
000001a0: 953a 023e 9215 f93d c7c8 26bd 4547 0d3e
000001b0: 7a60 3dbe c052 48bd 6ea4 26bd 52e5 ef3d
000001c0: 0f13 2c3d ef4b 3abe 4c5d 00be 2287 b1bd
000001d0: 2037 3b3e f225 bb3d 8f7d 893c 6a91 b83d
000001e0: bc35 2d3e d6ad 3abe 05bc c13d 1867 a73c
000001f0: 20a4 983d 9e08 253e abe0 e53d 9f7f e9bd
00000200: 9b5e ebbd 16c3 883c ab66 08bd adcf 393d
00000210: b00f dbbc 730a 083d 4d23 053e dba9 773d
00000220: d139 983d 7604 85bd 4f42 0f3e c2f8 30be
00000230: 5c73 773d 6047 0bbe 1ed0 29be 1cdd a63d
00000240: 9bfc 8bbc d56f e6bd dd50 003d ba18 06bd
00000250: 4ae6 5b3c 0820 0d3e 2288 0cbe 306c e7bd
00000260: c23d 30be b427 bb3d b141 00bd 4c79 a43c
00000270: 228c 15bd 056f edbd 112d 28be 93e6 7a3c
00000280: f35f 113e 3907 2c3e 93b6 26be 6735 4c3d
00000290: 6d7e 113e 8919 12be dd86 253e ef32 143d
000002a0: fb51 e3bc daf9 da3c 5929 3b3e 55eb b4bd
000002b0: 64a7 a83d b243 53bd 3f7b 2dbb 51d2 cebd
000002c0: 0a6e 633d e220 a73c af25 e13d 20d4 023d
000002d0: 0df7 03bd 8c62 103e 873a 27be 8426 bd3d
000002e0: 6697 c03d db24 393d 62d4 883b 7529 1c3e
000002f0: a511 15bd 1ef5 1b3c fcd3 933d 398d 633d
00000300: 3318 193e 34db cb3d 0ec9 63bd 5188 cdb9
00000310: fe99 bdbd e6af 033e b5b1 223d e5db 923d
00000320: bc93 123e 1c6f d03d 4296 033e e638 c13d
00000330: 4708 3abe 3af8 14be f2da 0d3d be83 243e
00000340: 796c 07be 5889 a5bd a42a 8a3d 2e06 a43d
00000350: 464b d4bd 92a3 d1bc 6a33 b13d 35dc dcbd
00000360: a40c bebd ae12 2dbd 270b 1ebe 6363 27be
00000370: edff 303e 32db fc3d 222a e8bd 1320 303e
00000380: 45f4 0e3e fe98 8abd c1d4 d63c e5d6 e13c
00000390: 54a5 f63d 93df 133d a036 a53d a4f3 2bbe
000003a0: 7a44 88bd 56a6 d03d 933a 773d 1b9c 0fbe
000003b0: d818 df3d fb35 20be 552d c53d b2b2 ed3d
000003c0: 8e6d 35bc 0976 403b 7707 d9bd 5ae2 1a3e
000003d0: 5de1 1ebd e08b 0cbe cbe2 503c 96c6 81bc
000003e0: 17c7 173e 082c 1fbe beb8 1fbd 238a 2cbe
000003f0: 485a 2cbe 7daa 213e b433 d5bd 3977 da3c
0.1229017 0.018687554 0.059680138 -0.020904487 -0.16194324 -0.074072964 -0.04499308 0.193636
0.0922343 -0.15510586 0.1321009 0.02635262 0.028453846 0.12600446 0.16252825 -0.06576093
-0.16518374 0.11725224 -0.1335843 -0.09977605 -0.051674396 0.10077848 -0.09992068 -0.076764286
-0.037295017 -0.0077881934 -0.15025003 0.10908521 0.008433009 0.13669021 -0.18785638 0.022972798
-0.18936966 -0.066953175 0.03125687 0.13188149 -0.023721466 0.118278086 -0.081629574 0.14355566
-0.11271247 0.04936819 0.1056852 -0.15211257 -6.0670518e-05 -0.15913081 -0.10931867 0.083773226
-0.11225367 0.12101907 0.019883463 0.19341308 0.11460857 0.050236665 -0.19469893 0.0667435
0.051522557 0.060323972 0.10210606 -0.1268524 0.17207205 0.033492945 0.06763668 -0.01922138
0.015725277 -0.052555583 -0.12828456 0.14385714 0.1840117 -0.04710883 -0.12831931 -0.19017632
0.058157608 -0.029690463 0.15764776 0.08107631 -0.027024131 0.024816513 -0.04025025 -0.08252592
-0.015579211 -0.08283814 0.05498403 -0.18712728 0.1257649 -0.1585698 0.15013883 -0.005118988
0.07087592 -0.109301925 0.18872945 -0.10695535 0.08455691 -0.12526302 0.14639553 -0.14506136
0.13452007 -0.15592888 0.06674185 0.052809328 0.110495195 0.06760122 0.035813108 -0.07109958
0.1271766 0.12162317 -0.04071882 0.13796718 -0.18493834 -0.04890704 -0.040684156 0.11713661
0.042010363 -0.18193029 -0.1253559 -0.08668353 0.18282747 0.09138097 0.016783504 0.090121105
0.1691503 -0.18230376 0.0945969 0.020434901 0.07453179 0.16116568 0.11224493 -0.11401295
-0.11492654 0.016694587 -0.033301037 0.04536407 -0.026740879 0.03321309 0.13001747 0.06046472
0.074329026 -0.064949915 0.13990138 -0.17282394 0.06041275 -0.13601446 -0.16583297 0.08147642
-0.017088225 -0.11251799 0.031327117 -0.032738425 0.013421604 0.1378175 -0.13723806 -0.11299932
-0.17211059 0.09138432 -0.03131265 0.02007737 -0.036510594 -0.11593441 -0.16423441 0.015313762
0.14196758 0.1679963 -0.16280584 0.049855616 0.14208384 -0.14267553 0.16164728 0.036181387
-0.027749052 0.026730467 0.18277492 -0.088339485 0.08235052 -0.05157823 -0.0026471165 -0.100987084
0.055524863 0.020401422 0.10993516 0.03194058 -0.032218028 0.14100093 -0.1633092 0.09235862
0.09403877 0.045201164 0.0041757086 0.1525019 -0.03639378 0.00951889 0.07218167 0.055554602
0.14950638 0.09953919 -0.055611663 -0.0003920221 -0.09257887 0.12860069 0.039720256 0.07170848
0.14314169 0.101774424 0.12850288 0.09434681 -0.1816722 -0.14547816 0.03463263 0.1606588
-0.13224973 -0.08082837 0.06746414 0.08008991 -0.1036592 -0.025590692 0.086523846 -0.10784189
-0.09279755 -0.042254142 -0.15433942 -0.16346507 0.17285128 0.12346496 -0.11336161 0.17199735
0.13960369 -0.06767462 0.026224496 0.02756829 0.120432526 0.03610189 0.080670595 -0.1679216
-0.06653686 0.10187976 0.060358595 -0.14024393 0.108934104 -0.15645592 0.09627787 0.11606349
-0.011073483 0.002936723 -0.10597127 0.15125409 -0.038789142 -0.13725233 0.012749384 -0.015841763
0.1482204 -0.1554414 -0.038994543 -0.1684957 -0.16831315 0.15787692 -0.10410252 0.026668178

bias_ih_l0 f4 [128]
00000000: 14f9 bfbd daa6 373e 2140 2bbd 61dd 103e
00000010: e1d1 31be 84e7 a83d 8a89 8fbd 7451 823d
00000020: 5678 a43d c944 33be e13b 29bd 2829 cebd
00000030: 276c 1dbc 603d 3cbd e6b7 98bd a7ef 3b3e
00000040: 2520 78bd 2495 1b3e c52f e83d f340 c6bd
00000050: b4a9 30bc 2cf0 263e b7f2 bfbd f668 453c
00000060: cb36 453e 2509 9b3d b3c8 a93d b990 83bd
00000070: 1510 3e3e 128f 4e3c 680f bcbd 10b2 a33d
00000080: 32d7 8abc 1aa1 dd3d 8dd1 123e 23ce de3a
00000090: 66c9 bd3d d5d1 10bd 2c7f 783d e1af 83bd
000000a0: e62c 393e 32af d6ba c71c 9c3d 1a23 28bd
000000b0: 2abf e23d a5c4 d7bd 01b7 923d fb15 b93d
000000c0: 07d4 b1bd fd42 bf3d a090 2a3e b4a5 57bd
000000d0: b5a4 623d 8f68 763c 146d afbd d33e 3bbe
000000e0: 6a71 393d 1f73 f7bd 6f32 d03d 7410 173e
000000f0: 1368 a8bc 03f8 e43c 7478 1e3c c673 ea3d
00000100: 02b4 2dbe 929f 45bd d860 f7bd 9988 aabc
00000110: 7943 e5bd c71d 08be 191e 363e e923 fabc
00000120: a1e3 9f3d 2542 2abe e6f3 ccbc 963d 77bd
00000130: 206b 2d3c 0eca 4cbe 63e2 df3d 00cd e4bd
00000140: 65db 17bd d78a 34bd 4eac 003e 55e3 d6bc
00000150: 1c5c d4bc 1c67 a8bd 7b9b 8abd 9c61 a83d
00000160: 7837 043e efc2 3abe b530 d4bd 8e12 14bd
00000170: 7810 87bc 2a19 513d 3e15 06be d801 e4bd
00000180: 6687 bc3d 41d6 5b3d 57e1 45be fe5a 263e
00000190: 95cf 9ebd c7f8 c93d 4660 6fbd 0784 233e
000001a0: 7332 28ba fda4 223e b901 363e 0480 41bd
000001b0: 0e33 1dbe e16e 01be d458 db3d ef64 423e
000001c0: fafc 063e ab20 ebbd 8973 153e b486 373e
000001d0: d088 82bd 3c8c e53d 069b 813c 0575 d43d
000001e0: f848 c63d 61e3 eb3d 2a57 09be 8766 8dbd
000001f0: 2c77 21bd 859a b5bd 82b7 013e 7242 d0bd
-0.0937368 0.17934743 -0.041809205 0.1414695 -0.17365219 0.08247283 -0.07008655 0.06363192
0.08030765 -0.17506708 -0.04131687 -0.10066444 -0.009608305 -0.04595697 -0.07456951 0.18353139
-0.06057753 0.15193611 0.11337236 -0.09680357 -0.010782648 0.16302556 -0.09372466 0.01204895
0.19259183 0.075701036 0.082902335 -0.06424088 0.18560822 0.012607353 -0.09182626 0.07992947
-0.016948316 0.10821743 0.1433775 0.0016998689 0.09266929 -0.03535636 0.060668156 -0.064300306
0.18083534 -0.0016379117 0.07622676 -0.0410491 0.11071618 -0.10535554 0.071638115 0.090373956
-0.08683019 0.09338949 0.16656733 -0.05264826 0.055332858 0.015039577 -0.08565727 -0.18285684
0.045274176 -0.120825045 0.101658694 0.1475237 -0.020557439 0.027950292 0.009672273 0.11447863
-0.16963199 -0.04824788 -0.12079018 -0.020817088 -0.1119451 -0.13292609 0.17784919 -0.030534701
0.07807089 -0.16626795 -0.025018644 -0.060361467 0.010584623 -0.19998953 0.10931852 -0.11171913
-0.037074465 -0.04407772 0.12565729 -0.026231447 -0.025922827 -0.082227916 -0.06767937 0.082217425
0.12911785 -0.18238424 -0.10360853 -0.036150508 -0.016487345 0.05104939 -0.13094041 -0.11133164
0.09205513 0.053671125 -0.19324242 0.16245648 -0.07754437 0.09861904 -0.058441423 0.15968333
-0.0006416209 0.1588325 0.17774095 -0.047241226 -0.15351507 -0.12639953 0.10710302 0.18983816
0.1318244 -0.1148084 0.14594854 0.17922479 -0.06373751 0.11208388 0.015820991 0.10373882
0.096818864 0.115179785 -0.13412157 -0.06904321 -0.03942029 -0.08867363 0.12667659 -0.101689234

bias_hh_l0 f4 [128]
00000000: 3c33 46bd 8658 cdbd 6fb5 343d 85cd 383e
00000010: 3f76 f2bd a41d ad3c 617d 52bc f9c2 0ebe
00000020: d8c4 c5bd 7ab4 943d effd 0bbe e407 1b3e
00000030: 8184 98bd 3846 ecbd b720 0fbe a33a fcbc
00000040: ff90 583d 9d8e 36bd bac2 43bd 4ed0 5fbd
00000050: 40fc 23be 4763 623c 9040 dc3d 68a2 753d
00000060: a8f6 6cbd cf5c 373e 121e bdbd ce88 00be
00000070: f624 e4bd 7109 98bd 0e66 bdbc 5111 9bbd
00000080: f6e7 7ebc 9545 e7bc 1deb 12bd fbe6 f4bd
00000090: 19f5 aabc 9a32 aa3d 1c20 113e 6ae9 a83d
000000a0: 7b24 453d d34f 103e 5919 0abc 86be 1c3e
000000b0: 9bed 36be 824f 803d eee1 283b be07 8a3d
000000c0: e8f4 20be 0f41 1dbe 0ddb 3d3e 7b9c 3f3e
000000d0: 2730 b73d d083 633d 4f71 e53d ad5e 16bd
000000e0: 52a8 e7bd 66a5 343e 837f 18be b944 dbbd
000000f0: 5d91 f2bd 1a54 00be d484 1abe 05ae fdbd
00000100: 7290 3fbe dccf fc3b 8e43 e33c 68ba 583d
00000110: ad96 9ebd 12c6 cf3d 29f0 8fbb c507 99bd
00000120: 64ee fd3c cbf5 f03d 3e88 9f3c 2402 983d
00000130: a66e 903d a8b6 2ebe 5047 e83b 3095 cd3d
00000140: d7ae 3a3e 3202 1dbe 2719 22be 6f83 0b3e
00000150: bcde 933d 1311 1dbd b0b6 bd3c f99b 883d
00000160: 7cb5 613d b58e 85bd 2839 853b f108 013e
00000170: 921d e538 7549 033e 4560 463d b7fe 133e
00000180: 80b6 a03d fe2b 95bd 26c7 30be e02f df3d
00000190: 74f9 2c3d b5bb 52bd bc8c 0bbd e2fa 243e
000001a0: 0189 3a3e e2cb 383c 2ea5 b23d cf93 9f3d
000001b0: 7871 ccbd a443 62bd b693 d0bd b0e6 3c3e
000001c0: 89f8 c03d 9fa0 1ebe 799e 14be fdea 033e
000001d0: 8705 8ebd 3b51 a9bd cbea 343e c525 ff3d
000001e0: b444 39bd e44c e1bd 8965 63bd b639 a73d
000001f0: cce7 3c3b 8f91 043e f22b 7dbd c89e bdbd
-0.048388705 -0.1002665 0.04411834 0.1804715 -0.1183896 0.021132298 -0.0128472755 -0.13941564
-0.096566856 0.07260986 -0.13671087 0.15139729 -0.07447148 -0.11536831 -0.13977323 -0.030789679
0.052872654 -0.0445696 -0.047793128 -0.054642014 -0.16014194 0.013817615 0.10754502 0.059969336
-0.057852417 0.17906497 -0.09234251 -0.12552187 -0.11139862 -0.07423676 -0.023119953 -0.07571662
-0.0155582335 -0.028231421 -0.035868753 -0.119581185 -0.020868825 0.08310433 0.14172405 0.08247645
0.048130494 0.1409295 -0.008428895 0.15307054 -0.17864077 0.06265165 0.002576943 0.06739758
-0.15718424 -0.15356849 0.18540592 0.18712036 0.08944731 0.055545628 0.112032525 -0.036711384
-0.113114014 0.1764122 -0.14892392 -0.10706467 -0.11844132 -0.12532082 -0.15089732 -0.12386707
-0.18707445 0.0077152085 0.027742174 0.052912146 -0.07743583 0.10145201 -0.004392643 -0.07472185
0.030997463 0.11765631 0.019474145 0.07422283 0.070523545 -0.17061865 0.0070885792 0.10038221
0.18230759 -0.15332869 -0.15829907 0.13624357 0.072202176 -0.03834636 0.023158401 0.066703744
0.055104718 -0.0652136 0.0040656514 0.12601067 0.00010925079 0.1282099 0.048431654 0.14452635
0.07847309 -0.072837815 -0.17263469 0.10897803 0.042230085 -0.051448543 -0.03406976 0.16111329
0.18216325 0.011279078 0.08722912 0.07791864 -0.0998258 -0.05524029 -0.101844236 0.18447375
0.09422404 -0.1549096 -0.14513578 0.1288261 -0.06934648 -0.082674466 0.17667691 0.12458376
-0.045231536 -0.11000994 -0.055516753 0.08165304 0.0028824685 0.12946151 -0.061809488 -0.09258801

weight f4 [256, 32]
00000000: 43e3 1f3d d2cd 00be cfe6 243e 3c05 063e
00000010: 7f5c 163e d800 0e3e 362e 15be fc31 ee3d
00000020: 267d 17be 5269 42bd bd63 3dbd 25cf 5c3d
00000030: c7d2 9abd 2260 2ebd 0c20 89bd 8e99 8f3d
00000040: f09e 063e 0906 1f3d d580 273d f1cf d2bd
00000050: b94a abbc ceff 333d d317 2bbe 83e1 f7bd
00000060: c44c bfba d434 573d 7235 32be b629 2fbe
00000070: 6968 ad3d 1c5c abbd 65a0 8ebd f261 443d
00000080: 31d2 8cbd 48ec cb3d b914 36be dd0f 303e
00000090: 5450 ccbd f1c3 21bd d522 10bd b068 bc3d
000000a0: 9934 05be 18be aa3d 0ae7 0b3e 2c95 cbbd
000000b0: cbf0 74bd b71f cebd 2de8 853d 465a f73c
000000c0: d54c fc3d 6f26 1bbe 73c5 7cbd 4785 60bd
000000d0: 72af 11be 008b 9dbd 4b3b b1bc aaa6 153d
000000e0: 6371 01be 9e12 7dbc 7af0 02be 805e a03d
000000f0: f0f0 a13d 6460 a4bd a37b 3d3e 97d0 d3bd
00000100: 54e1 393e e99f 3ebe 9de9 a5bd 673a 473e
00000110: 124d b4bc d938 0b3c 3a6b 2bbe 88c2 ba3c
00000120: ce1f e5ba 31a0 053e 8115 3ebe 42e9 853d
00000130: dda4 a53d e880 a73d 62e4 123d 0566 763d
00000140: fa52 00be c62c 953d 90fc 09be 903a 1b3e
00000150: 2ef4 b1bd 6cdc 0e3e 372d 183d 7b7c 20be
00000160: fa17 1ebe 1afe f43d 1c1c 9bbd ec4f bbb9
00000170: 3ff9 26be d8c7 a2bd 613a fc3d 905b b0bd
00000180: 202a 753d bc38 c63d 996c dbbd 507d e9bd
00000190: df5f b2bd cbb0 353e 2bb1 d4bb eec0 0dbc
000001a0: a195 28bd a43b f2bd 4746 17be 915a a73d
000001b0: d860 1fbe 659f 9cbd 1bf1 f93b eba3 993d
000001c0: 799a 0f3d 06c5 0d3c a3ea 2ebc 486b e83d
000001d0: f964 07bd 4f3d ffbd ef85 9abb 610f 14be
000001e0: 2c35 00bd 29bf 2bbe 4e97 493d 9d1b b43d
000001f0: 6c1a e13d 14d2 c53c 6772 a13d f6d2 dd3d
00000200: 8d75 153e 5607 01be 198b 1dbc 0759 893c
00000210: f9d0 143d 7ecb b5bd b12e 82bd 5f77 cfbd
00000220: cc51 b8bd 0dd5 203e 92ce 93bd cc49 a6bd
00000230: 42ce c1bd d67f eebd e0d5 f23d 251a 413c
00000240: d712 e13d 79f8 143e 719c 0c3e 3042 09be
00000250: 99ec 913d bb82 873c f23a 1dbe 5a13 ab3a
00000260: 76ff b03d 8d3a d23d 3987 043d b6a8 17be
00000270: 2c37 08be e947 ab3d d502 723d ca6b eebd
00000280: d839 d93d 31e7 0c3e a7d1 19be 0968 b43d
00000290: 920b e1bc 6ab0 5a3d df03 1a3e 5b62 f43d
000002a0: 72a2 65bd 1d5b 9fbd a069 0b3e 1682 173e
000002b0: 2df4 0c3d e372 993c ef5b cd3d e908 913b
000002c0: f7ee 163e 36ad 0dbe 64cc 163e 3ca3 09be
000002d0: 7811 f1bc 4354 263e 2429 873c 0243 653d
000002e0: 86a0 3cbe 3c28 bdbd 4eee 063e 243f ca3d
000002f0: 1cb2 6b3d fd16 27be 46a6 1bbd 03d2 0cbd
00000300: 820b 2f3e e0b2 dcbd e53b ed3d d488 e2bd
00000310: fc71 17bd baaa 07be 3fb3 e63d a75b fa3c
00000320: bce0 b63d 900e f63d 1460 bd3d edac 023e
00000330: 9cd2 0dbe 4d68 ab3c 887e 1b3d 9fe9 80bc
00000340: d6a7 8fbd faf2 b53d dcb2 9d3d c5d2 fbbd
00000350: d4c0 db3d 11eb f73c ba9a 1abd f116 cdbd
00000360: e5da 41be 7146 22bb 3e90 853c 48a1 adbd
00000370: b0cf 06be 2fb1 0f3d 77c3 e5bd 85f4 643d
00000380: 655f e53d 84dc 25bd 98db 563d 1f5b 04be
00000390: 7a14 953c 4257 883b 1548 f03d d0c9 663d
000003a0: a36a dbbd e044 293c f30b 573c 728a efbd
000003b0: 0b21 d7bd 8b6d 2f3e f21e 91bd dec4 e5bd
000003c0: d274 043e 4027 9c3d b8df 49bd 29c2 feba
000003d0: 2948 e43d 9e58 17be 13bc 443d 843b bcbd
000003e0: 9aa0 14be 2e6c f33c 267a 373e 5392 9dbc
000003f0: 7def 9bbd 77b2 9b3d 373b 513d 700b 86bb
0.039035093 -0.12578514 0.16103671 0.13087934 0.14683722 0.1386751 -0.1456841 0.116306275
-0.14793834 -0.047463723 -0.046237696 0.053908486 -0.07559734 -0.04257215 -0.066955656 0.0701171
0.13146567 0.038824115 0.04089435 -0.10293568 -0.020909654 0.043945126 -0.16708307 -0.1210356
-0.0014595021 0.052540615 -0.174032 -0.17105755 0.0846718 -0.08367178 -0.069641866 0.04794497
-0.06876028 0.099571764 -0.17781343 0.17193551 -0.09976259 -0.039493505 -0.03518947 0.09199655
-0.13008346 0.08337039 0.13662353 -0.09940562 -0.05979995 -0.10064643 0.06538425 0.030194413
0.12319342 -0.1515138 -0.06171174 -0.054814603 -0.14227083 -0.07692528 -0.021634718 0.036535896
-0.1264091 -0.015446333 -0.12787047 0.078305244 0.07907283 -0.080261976 0.18504195 -0.1034252
0.18152362 -0.18615688 -0.08101199 0.19455872 -0.022009406 0.00849744 -0.16740122 0.022797838
-0.0017480792 0.1304939 -0.1856289 0.06538631 0.08088086 0.08178884 0.035862334 0.060155887
-0.12531653 0.072839305 -0.13475251 0.15159059 -0.08689152 0.13951272 0.037152495 -0.15672486
-0.15438834 0.119625285 -0.07573721 -0.00035726966 -0.16306017 -0.079482734 0.123158224 -0.08611214
0.059854627 0.0967879 -0.10714073 -0.114008546 -0.08709692 0.17743222 -0.0064908466 -0.008651955
-0.041158322 -0.11827782 -0.14772902 0.08171571 -0.15564287 -0.076475896 0.007627619 0.07501968
0.035059426 0.008652931 -0.010676059 0.11348587 -0.03305528 -0.124628656 -0.004715673 -0.14458992
-0.03130071 -0.1677214 0.04921656 0.08794329 0.10991368 0.024148025 0.07883149 0.10831253
0.14595623 -0.12600455 -0.009615683 0.016766084 0.036332104 -0.08876704 -0.06356562 -0.1013019
-0.089999765 0.15706272 -0.072171345 -0.081195444 -0.09463169 -0.116454765 0.118572 0.0117860185
0.109899215 0.1454791 0.13731553 -0.13404155 0.071252055 0.01654183 -0.15354517 0.0013052032
0.08642475 0.10265074 0.03235552 -0.14810452 -0.13302296 0.08363325 0.059084732 -0.11641653
0.10606736 0.13760068 -0.15021382 0.08808906 -0.027471337 0.053390898 0.15040539 0.11932822
-0.056063123 -0.0778105 0.13614511 0.14795718 0.03441255 0.01873154 0.100273006 0.004426111
0.14739595 -0.13835606 0.14726406 -0.13441175 -0.029427275 0.16243081 0.01649911 0.055972107
-0.1842061 -0.0923619 0.13176844 0.09875324 0.057542905 -0.16317363 -0.038000368 -0.03437997
0.17094234 -0.10776305 0.115836896 -0.11061254 -0.03697394 -0.13248721 0.11264657 0.030561281
0.089295834 0.12014496 0.09246841 0.12761278 -0.13849872 0.020923758 0.037962466 -0.0157364
-0.07014434 0.08884235 0.0770013 -0.122960605 0.107301384 0.030263456 -0.037745215 -0.10014141
-0.18931158 -0.0024761225 0.016304132 -0.084780276 -0.13165164 0.035081085 -0.112189226 0.055897254
0.11199836 -0.040493503 0.052455515 -0.12925385 0.01819824 0.0041607926 0.117324986 0.056344807
-0.10713699 0.0103313625 0.0131254075 -0.11696328 -0.10504349 0.17131631 -0.070859805 -0.1121919
0.12935188 0.07624674 -0.04928562 -0.0019436526 0.11146576 -0.14779899 0.048030924 -0.09191039
-0.1451439 0.02971467 0.1791769 -0.019234812 -0.07614038 0.07602399 0.051081862 -0.004090719

bias f4 [256]
00000000: 8659 2b3e bb13 a03a a440 f3bc 2060 3f3e
00000010: a26f 113e d2aa 0fbe 1bc6 713d 6ea7 3abe
00000020: 7720 72bd 6bef 9d3d d76e f23d ada4 923d
00000030: e5d3 c63d 53c2 1a3e 79e4 e3bd f173 8c3c
00000040: 693d 87bd b718 d2bd a3df 0cbe 8aa7 f3bc
00000050: a25f 1e3e 02b9 3a3d 8b7b cdbd f734 06bd
00000060: 158e c4bd 136d d6bd 6302 263e faf1 e23d
00000070: c0f3 b1bd 13f4 b43d c44c 22be ac95 e4bd
00000080: 6465 5cbd dbf5 6ebb ad06 163d 8574 c73d
00000090: 8f75 2abe dba1 053c 0c03 0a3e 66a1 503d
000000a0: 3ec3 683d d516 ecbd b1e1 0dbe 82fa 2c3e
000000b0: 5789 40be d714 c63c 6723 21be b493 08be
000000c0: 6b45 1c3e 1f5a 1c3e 356b 4a3e fae7 f3bd
000000d0: 98b1 893c ed16 0b3e 9b66 e1bc 3189 90bd
000000e0: 2010 c6bc e2c2 40bc cd53 e33c f178 34be
000000f0: d1bd c33d 7017 15be 7a8b a4bb 45bc 2f3e
00000100: 4e47 a43c c3c0 1bbd d6ce e23d 8308 84bd
00000110: 12da 023e c567 bc3d 6ace a7bd d2fe 223e
00000120: f18c 11be 1c48 2bbd a6a5 463e d9e1 0b3e
00000130: 4010 b03d 6322 8e3c 6997 293d cf22 afbd
00000140: a99a e2bb 53bf 6bbd 18a4 313e d83c 323e
00000150: 94dd acbd 7b5d a53d 0a65 c13d de4d a6bd
00000160: 8416 c5bb 7e38 98bd 4ccd 223e 8971 0dbe
00000170: 7e8d 20bd bd9c 9b3d 383c 033d e218 6fbd
00000180: bf28 3ebd 50b8 15bc e0c2 0cbd db97 833d
00000190: 00f2 2c3e 25a4 30be a95f ba3d 2284 3cbe
000001a0: dec7 ca3d b380 353e b207 dbbd 4652 aa3d
000001b0: d524 c53d 9818 1bbe c900 9c3d 3a7d c83c
000001c0: 7bb5 593d 594e 073e ccf7 21be d7c0 96bd
000001d0: 8f67 363d 44cb 033e a87d 1e3e 3898 4d3d
000001e0: a63d b93d f707 683d f59d 353c 13f2 963d
000001f0: 5684 9c3d 524a 21bd 3af1 39bc 1fe0 9bbb
00000200: 807c c6bd 0808 803c 942c d1bd 7b4a 2ebe
00000210: 2d5a ec3d 2b68 bbbb c475 d3bc 733e 193d
00000220: 6421 303e b30f 3a3e 1230 68bc 8a2c 89bd
00000230: 62f1 90bb 5ac2 dfbd bf54 f63d 2a60 bf3c
00000240: 08fc b3bc 6a11 07bb 54a3 d9bd 2443 0e3e
00000250: 187a 44bd a237 1fbe 02de bdbd 4e5c c33b
00000260: b7b8 71bd c20e 2d3e 3889 27be 0a4c ccbd
00000270: 75a2 343e 182c 1f3e 43d2 9dbd 623b da3d
00000280: b39d 2b3d acdc 00be 738a 16bd 72a8 0ebe
00000290: ebb4 b7bd 8ce3 ec3d 7dd2 85bd 286b f93d
000002a0: 2886 7cbd 50f4 bfbd 73c8 243e 6ab2 333e
000002b0: fc13 ebba e4a3 11be aa30 1f3e dcdc 193d
000002c0: 3404 1a3e c2b3 0fbe 7737 96bd 160a 63bd
000002d0: b1c0 dcbd bbcb 453e a2b7 38bc df21 38be
000002e0: 0b87 5dbd 79ad 23be a5ba 2e3e dafa fdbb
000002f0: 19cf a93d 8cf7 dabd 5e6f 7b3d 1429 6cbd
00000300: 9e9b 76bd f5e6 12bd d6eb abbd 1389 983d
00000310: a2dc 38be d2a8 08be 0d82 1f3e 00c4 0dbe
00000320: 91c3 b6bd 14b4 0b3e 5170 94bd 3a2d f2bd
00000330: 1275 2e3d 1fda b33d 6470 0fbd 4d35 e8b9
00000340: cdda 65bd d0ea 0f3e eacf 8e3d 59b9 8c3d
00000350: dd1c 213e d340 8ebd ecbb ebbd 87d2 ed3c
00000360: f384 823c ad82 85bd 6e28 0dbd 986b aebd
00000370: 00cc 97bd 3429 c8bd 7874 223e 1fce 143d
00000380: eee5 1a3e fa28 2fbe 5a5d 11be 9121 95bd
00000390: ed96 13be d819 233d 2643 ffbc a533 c63c
000003a0: d65b bcbd a69f 2cbc f8e2 82bd 48f7 b63d
000003b0: f7ea 553d ac16 5a3d f21b 1f3e 3f6c 9b3c
000003c0: bcc4 62bd 6735 9e3d 5586 713d ab1c b13d
000003d0: ea3d 4a3d eefe 0e3e d528 313d 9c34 8abd
000003e0: 7690 e63d 70b3 89bd e4b1 06bc 0f54 3fbe
000003f0: f353 0a3e 51c0 6e3c 25d5 1bbe c136 293e
0.16733369 0.0012212911 -0.029693909 0.18689013 0.14202741 -0.14030007 0.05902682 -0.18227932
-0.059112992 0.07711681 0.11837547 0.07160316 0.097083844 0.15113191 -0.11127562 0.017145129
-0.0660351 -0.1025862 -0.13757186 -0.029742975 0.15466169 0.045586593 -0.100333296 -0.032765355
-0.095974125 -0.10470023 0.16211848 0.110813096 -0.0868907 0.08835616 -0.15849596 -0.1116136
-0.05380763 -0.003646246 0.03662746 0.09739021 -0.16646408 0.008156265 0.13477725 0.05093517
0.056826822 -0.11527792 -0.13855626 0.16892436 -0.18802391 0.02417986 -0.15736161 -0.13337594
0.15260856 0.15268753 0.19767459 -0.119094804 0.016808316 0.13582964 -0.027514746 -0.07057417
-0.02417761 -0.011765214 0.02774992 -0.1762426 0.09557689 -0.14559722 -0.0050215097 0.17161663
0.020053532 -0.03802563 0.11074607 -0.06446936 0.127785 0.0919948 -0.08193667 0.15917519
-0.14213921 -0.041816816 0.19399127 0.13660373 0.085968494 0.017350381 0.04140416 -0.08551561
-0.0069154096 -0.057555508 0.17347753 0.17406023 -0.084407 0.080744706 0.094431 -0.08120321
-0.006014647 -0.0743265 0.15898627 -0.13812841 -0.039197437 0.07598255 0.03203985 -0.05837334
-0.046425577 -0.009138182 -0.034365535 0.064254485 0.1688919 -0.17250116 0.09100277 -0.1840978
0.09901403 0.17724876 -0.10694827 0.08316474 0.09626166 -0.151461 0.07617337 0.024473775
0.05315159 0.13213481 -0.15817183 -0.07361 0.044532355 0.12870508 0.15477622 0.050193995
0.09044962 0.05664822 0.011085023 0.07370391 0.076424286 -0.039377518 -0.011349017 -0.004756942
-0.09691715 0.01562883 -0.10213581 -0.170206 0.11540637 -0.005719205 -0.025812991 0.03741307
0.17200238 0.18170051 -0.014171617 -0.06697948 -0.0044233063 -0.109257415 0.12027883 0.023361284
-0.021970764 -0.0020609745 -0.106268555 0.138928 -0.047968 -0.15548566 -0.0927086 0.0059619313
-0.05901405 0.16900161 -0.16360939 -0.09975441 0.17640097 0.15544164 -0.0770612 0.106558576
0.04189844 -0.1258418 -0.03675313 -0.13931444 -0.08970054 0.115668386 -0.06534288 0.121786416
-0.06165138 -0.09372771 0.1609209 0.17548528 -0.0017935033 -0.14222676 0.15545908 0.037564144
0.15040666 -0.14033416 -0.07334798 -0.05542954 -0.107789405 0.19315998 -0.01127425 -0.17981671
-0.054083865 -0.15984143 0.17063387 -0.007750851 0.08291454 -0.10691747 0.061385505 -0.057656363
-0.060207002 -0.03586479 -0.083945915 0.0744802 -0.18052915 -0.1334565 0.15576954 -0.138443
-0.0892402 0.13642913 -0.07247985 -0.118250325 0.042592116 0.08781838 -0.035019293 -0.000442902
-0.056116868 0.14054418 0.0697325 0.0687129 0.15733667 -0.06945958 -0.11510453 0.029031051
0.015932536 -0.06519065 -0.034462385 -0.08516616 -0.07411957 -0.09773484 0.15864742 0.036329385
0.15126774 -0.17105475 -0.14195767 -0.07281793 -0.14413042 0.03981957 -0.031159949 0.024194548
-0.09197204 -0.01053611 -0.06390947 0.08933884 0.052226033 0.053244278 0.15538004 0.018972514
-0.0553634 0.077250294 0.058966 0.08648046 0.049375452 0.13964435 0.04325183 -0.06748316
0.112580225 -0.06723678 -0.008221123 -0.1868441 0.13508587 0.014572219 -0.15218027 0.16524793

weight f4 [8, 256]
00000000: 46fb 333d 3cda 483d ca7a 37bd 78d7 873d
00000010: f153 243d 1ee9 75bd f5a2 8bbc 2a0a 3a3d
00000020: a76c d63c 8c74 11bd 3a90 823c 8985 1fbd
00000030: ea27 fbbc 7519 0d3d ad16 38bd 207f 4f3c
00000040: 67c9 e1bc 93ac 183d 52d6 0fbc 5376 013d
00000050: 94a6 dfba b4fd 603c db0b 8f3c e38b 313d
00000060: ad3d 99bd 78a1 82bd d536 9f3d e0bf 643d
00000070: 5118 94bc 7b26 a73c 3e6a 22bd 4eb9 963c
00000080: f452 79bd defb 02bc f866 9c3c 6e26 343c
00000090: ec70 82bb 2f2f 1a3d f101 39bc c70c 67bc
000000a0: c500 06bd e61f 5cbd 2b13 2fbc 85ad 8f3d
000000b0: 538c 8cbb 387c 2b3b 95e6 20bd c82e 63bd
000000c0: fb7c 57bb d4b9 f33b dc53 2e3d c11f de3c
000000d0: 1a05 22bc fa3f 06bd 9c61 6d3d 5056 2a3d
000000e0: 5768 813d 7c62 4dbd 2723 f73c f23a 8bbd
000000f0: 53ff 85bc c9ec 0ebd a540 543d 8deb 19bd
00000100: ebd7 0a3d 80c5 4dbc 8aff f63c c96a 82bd
00000110: 8bd2 933c 491a 1e3d 0850 1d3d c14a 4ebb
00000120: bc0f fc3c 3897 843c 4156 f23c d18d d7bb
00000130: 480d ddbb 702a 15bd dd91 81bb fea2 ddbc
00000140: ce3a 353d 10c8 08bd f40b 003d b1d3 ecbc
00000150: fa85 873c 9d96 e63c 107c 0a3d 4067 ccbc
00000160: 5bd3 df3c 0995 1ebd 6b4d b7bc 2a0f b3bb
00000170: d523 c6bc c744 813d 197c 093b 57d1 7dbd
00000180: 2841 ab3a 3f5f 2bbc 3b72 e33c cb17 c8bc
00000190: 625c 813c 551c 293d 50ae a6bb 9332 92bd
000001a0: 538b 913d 1e76 393d c304 b23c 2cc5 cd3b
000001b0: 1782 8d3d 0ef6 d2bc b875 fd3c 4d3f 3e3d
000001c0: 3bd2 6d3d 18f0 9a3c 1014 8dbc 9271 b6bc
000001d0: c0f3 f03c d4d3 833c ec41 793d 0689 93bd
000001e0: 10ba 313d 1920 2bbc 0d8a 623c 946c b23c
000001f0: 7a0e 0bbd 608c 213d cae8 e63a f851 eb3c
00000200: f43a 27bd 8fb7 f63c 9549 1d3c d0e5 203d
00000210: ebb2 053d 9121 393c 8a35 283d 7c09 143d
00000220: 312e 743d 60a2 853d afaf 1e3d 2330 b0bc
00000230: 0e15 f53c bbba 1a3d 6d7f 2fbd 6db2 293d
00000240: 24ec 97bd 1b36 13bd ddfb 85bb a80f 4abc
00000250: 04b8 debb 9d2a 7bbd ecf8 9fbd 298e 2cbc
00000260: 899a af3c 3f15 7d3d b404 023d 9a44 41bc
00000270: c010 0fbd 7212 49bc 1926 8fbd 9267 833d
00000280: f203 8cbd e3a3 f43c bb38 ce3a baa8 053d
00000290: 8547 ee3b 3ceb 993d d331 19bd fbb8 713d
000002a0: 1a72 053b 54e7 9c3c f4b3 433c a089 4a3d
000002b0: 568c a73c 6d7d 71bd 804a c03c 1dcb f63c
000002c0: 23a2 643d 6a2b 87bd 6ce7 dfbc 45f0 31bd
000002d0: 459f 8abc a47e a3bc ca59 45bd 62a5 19bd
000002e0: c23c 1bbd e4bd 96bd 20a8 c3ba 1b65 a7bc
000002f0: 2559 923d 005b fcbc 2993 a63d 557c e2bc
00000300: 1219 76bd f520 02bd b35d 773c d403 2ebd
00000310: d4c6 fcbc a5eb 183c 2763 d13c c1e5 82bd
00000320: d6a5 74bc 54dc 843d 06c7 13bd 5ab1 56bd
00000330: 30bb c4bc 74ea 1fbd 3f50 09bd 1b8f 1b3d
00000340: a917 9f3c d32c 55bc 5849 0d3c 7001 21ba
00000350: 4619 233b b6f9 c13c a947 d83c 9790 f73c
00000360: ed93 933d 8461 1fbd 9fe7 59bd 878c 8bbd
00000370: d16e 083d 8fac d0bc 152f 683d e5fe 4e3b
00000380: 1eb3 04bd 0a14 9ebd 6263 173d 2d7d ee3c
00000390: b09c d63c bb5c 2dbd 4194 383c 94da e03c
000003a0: ce13 b5bc ffd3 8bbd 1e39 c43c e1ab a03c
000003b0: fac4 01bd b0e3 423d e1f1 8b3d ad4c 133d
000003c0: 36a4 a9bc ff82 9fbc 291b 643c 4f14 96bc
000003d0: 9ff4 9d3d e69b 123d a4fc 343c ea07 95bd
000003e0: 1975 d13b 7447 fd3b d255 403d 0670 b23c
000003f0: cdd1 863d 47a5 873d 1acd 51bd 3010 313c
0.043940805 0.04903625 -0.044794835 0.06632894 0.040119115 -0.06003677 -0.017045477 0.04541985
0.026174856 -0.03551154 0.015937913 -0.03894571 -0.030658681 0.034448106 -0.0449435 0.012664586
-0.027561856 0.037273955 -0.008779125 0.031606983 -0.0017063194 0.013732363 0.017461708 0.043346297
-0.07482467 -0.06378454 0.0777413 0.05584705 -0.018078001 0.020404091 -0.0396521 0.018398907
-0.060870126 -0.00799462 0.019092068 0.0109954905 -0.0039807465 0.037642654 -0.011291967 -0.014102167
-0.032715578 -0.05374136 -0.010685722 0.07015518 -0.004289189 0.002616657 -0.0392824 -0.055464536
-0.003288089 0.007437924 0.042560443 0.02711475 -0.009888912 -0.032775857 0.057954416 0.04158622
0.06318729 -0.05014275 0.03016813 -0.06798352 -0.0163571 -0.034893785 0.051819462 -0.037578154
0.03389732 -0.012559295 0.030151147 -0.06368024 0.01804473 0.038599286 0.038406402 -0.0031477662
0.030769221 0.016185388 0.029582145 -0.006578185 -0.006745968 -0.036417425 -0.003954156 -0.02705526
0.044245534 -0.03339392 0.0312614 -0.028909536 0.016543377 0.02814799 0.03380972 -0.024951577
0.027322462 -0.03871635 -0.022375783 -0.005464454 -0.024187008 0.06311946 0.002097851 -0.06196722
0.0013065683 -0.01045972 0.02776443 -0.024425408 0.015791122 0.041286785 -0.0050866976 -0.071385525
0.07106652 0.04527866 0.021730786 0.0062796082 0.06909578 -0.025752094 0.030939922 0.046447087
0.05806182 0.018913314 -0.01722148 -0.022270951 0.029413104 0.016092218 0.060853884 -0.072038695
0.043390334 -0.010444664 0.013826859 0.02178029 -0.033949353 0.039440513 0.0017616984 0.02872561
-0.040827706 0.030116824 0.009600063 0.039281666 0.032641333 0.011299507 0.041066684 0.036141858
0.059614364 0.06525111 0.038741764 -0.021507328 0.029917266 0.037775736 -0.042846132 0.041429926
-0.07418087 -0.03594027 -0.0040888623 -0.012332834 -0.0067968387 -0.061319936 -0.0781115 -0.0105319405
0.021435993 0.06178784 0.031742766 -0.011796141 -0.034928083 -0.012272464 -0.069896884 0.06416239
-0.0683669 0.029863304 0.001573346 0.032631613 0.0072717094 0.075155705 -0.03740103 0.0590143
0.00203622 0.019153275 0.01194476 0.049447656 0.02045266 -0.058957506 0.023473024 0.030126149
0.055818688 -0.066000775 -0.02733203 -0.04344203 -0.016921649 -0.019957848 -0.048181333 -0.037511237
-0.03789974 -0.073604375 -0.0014927424 -0.020433953 0.07145909 -0.030805111 0.08133537 -0.027647177
-0.060082503 -0.03176971 0.015098023 -0.04248412 -0.030856527 0.009333526 0.025559975 -0.06391478
-0.0149321165 0.06487337 -0.036078475 -0.05241523 -0.02401504 -0.03904195 -0.033523794 0.037978273
0.019420462 -0.013011175 0.008623444 -0.0006141877 0.002488689 0.023678642 0.026401358 0.030220313
0.07205949 -0.038911358 -0.053199407 -0.06813913 0.033308808 -0.025472907 0.056685526 0.0031585034
-0.032397382 -0.07718666 0.036960013 0.029112423 0.026197761 -0.042324763 0.011265815 0.027447976
-0.02210417 -0.068275444 0.023953017 0.019613208 -0.031681992 0.04758042 0.06833244 0.035961796
-0.020708185 -0.019471643 0.013922491 -0.01832023 0.077126734 0.035793208 0.011046562 -0.072769
0.006392133 0.007729465 0.046956845 0.021781933 0.06582985 0.06623321 -0.05122099 0.010807082

bias f4 [8]
00000000: 9b00 a03c 29fc 8b3c 4c95 81bc 2fc2 49bc
00000010: 47ef 88bd 80ea 0abc 2fa7 eebc ab93 343d
0.019531539 0.017088013 -0.01581826 -0.012314363 -0.066862635 -0.008478761 -0.029132454 0.04408614
