models/recomendation_models/scripted_user_preference_model_v8_8_dim_wide_range.pt (torch, 124459 bytes, 14 tensors)

hidden f4 [2, 1, 32]
0.5660772 -0.45885798 -0.3555946 0.41478398 -0.30643472 0.63725984 0.17501394 -0.43645298
0.16654748 -0.467181 -0.36187902 0.5818726 -0.6226539 -0.45646462 -0.3885959 -0.40956014
0.30873576 0.31755453 0.4755912 -0.52589184 -0.3233796 0.09346406 -0.23462048 0.05662847
0.4477589 -0.59330374 -0.22771296 -0.43693808 0.5258126 0.5773389 -0.043090526 -0.37596345
0.067653015 0.18294084 0.6244663 -0.15578774 0.36308193 -0.08895329 -0.3952278 0.5817217
0.046585225 0.5021419 0.4338587 0.11561518 -0.605346 0.5011848 -0.048310045 0.11879894
-0.31790084 0.28305677 0.5008909 0.2915391 -0.30013373 -0.25035378 -0.6877282 -0.49289775
0.5617494 -0.4235292 -0.37410137 -0.3544664 0.13590278 -0.68301153 -0.18875602 0.08204169
00000000: 6fea 103f 6fef eabe 7f10 b6be 915e d43e
00000010: 03e5 9cbe 7623 233f db36 333e c476 dfbe
00000020: 6c8b 2a3e 5932 efbe 3548 b9be 9af5 143f
00000030: 3f66 1fbf bbb5 e9be 0bf6 c6be deb1 d1be
00000040: 9d12 9e3e 8296 a23e b180 f33e d9a0 06bf
00000050: 0392 a5be 166a bf3d 5a40 70be 41f3 673d
00000060: a840 e53e c1e2 17bf 962d 69be 59b6 dfbe
00000070: a89b 063f 7bcc 133f b17f 30bd 487e c0be
00000080: aa8d 8a3d d854 3b3e 06dd 1f3f d286 1fbe
00000090: e0e5 b93e 242d b6bd 4c5b cabe b7eb 143f
000000a0: 26d0 3e3d 5f8c 003f ba22 de3e a7c7 ec3d
000000b0: f5f7 1abf a64d 003f c1e0 45bd dc4c f33d
000000c0: e6c3 a2be d1ec 903e 633a 003f 9d44 953e
000000d0: 21ab 99be 5f2e 80be f50e 30bf 185d fcbe
000000e0: cfce 0f3f d2d8 d8be 378a bfbe 9f7c b5be
000000f0: 192a 0b3e d8d9 2ebf 4249 41be 7905 a83d

hidden f4 [2, 1, 32]
0.99013513 -1.0031508 -0.6486658 0.72261626 -1.072189 1.2922926 0.3358545 -0.8658471
0.4137509 -0.7559854 -0.602952 1.0198038 -2.051348 -0.8699814 -0.7470503 -0.7045123
0.7054314 0.60381395 1.1738713 -1.4783579 -0.6457186 0.21785687 -0.62258315 0.16029191
0.7475378 -1.184971 -0.4769825 -1.0254512 1.3215169 1.1993971 -0.09788504 -0.8281133
0.15027069 0.31364125 1.4103863 -0.20690134 1.0083923 -0.18639949 -0.6811841 1.5339752
0.12857929 1.2574728 0.619471 0.18278024 -1.4708543 1.1090816 -0.15886457 0.30545375
-0.91376317 0.54652286 0.9711308 0.59406483 -0.6341552 -0.62406415 -1.2829701 -1.3828552
0.80037653 -0.93982065 -0.96025497 -0.7163672 0.3005721 -1.3061848 -0.3861632 0.12970647
00000000: 7f79 7d3f 3f67 80bf f60e 26bf 61fd 383f
00000010: 7d3d 89bf d869 a53f 1ff5 ab3e 28a8 5dbf
00000020: 28d7 d33e 4288 41bf 105b 1abf ee88 823f
00000030: 4949 03c0 1ab7 5ebf b03e 3fbf eb5a 34bf
00000040: 2797 343f 8d93 1a3f 6a41 963f d53a bdbf
00000050: d04d 25bf df15 5f3e 9c61 1fbf 9023 243e
00000060: a35e 3f3f 21ad 97bf 0d37 f4be fc41 83bf
00000070: 7727 a93f d885 993f f477 c8bd 3cff 53bf
00000080: 8fe0 193e 9695 a03e 8a87 b43f f2dd 53be
00000090: 0013 813f 82df 3ebe 1562 2ebf 4d59 c43f
000000a0: 4aaa 033e def4 a03f a795 1e3f be2a 3b3e
000000b0: f444 bcbf 63f6 8d3f 65ad 22be 6f64 9c3e
000000c0: 62ec 69bf ece8 0b3f 079c 783f a214 183f
000000d0: ff57 22bf abc2 1fbf 5d38 a4bf 6601 b1bf
000000e0: 7ae5 4c3f 1698 70bf 45d3 75bf d763 37bf
000000f0: 96e4 993e 1031 a7bf 2fb7 c5be c6d1 043e

weight_ih_l0 f4 [128, 12]
0.09882834 -2.2638927e-05 0.06947533 0.08772833 0.032727614 -0.0031478142 0.08742312 -0.13786407
0.06543638 -0.0524403 0.08877292 -0.06284886 0.1777954 0.011483057 0.121735476 -0.058731336
-0.18843512 -0.08066425 0.0474007 -0.09080388 0.03649866 0.16187206 0.041475326 -0.10951175
0.05796614 0.03571521 0.087283276 -0.009253665 0.015198187 0.13314733 -0.03266921 0.028157508
-0.12601621 -0.15739344 0.059074983 -0.15021102 0.03189764 0.03944013 0.12057601 0.05984843
-0.18961191 0.11983914 -0.18975991 -0.06283769 0.039262455 0.14948729 -0.057012975 -0.097214766
0.07863976 -0.10493293 0.18533169 0.08409852 0.027091794 -0.11173464 -0.05826244 -0.0028426384
-0.113284804 -0.025639348 0.100221686 -0.14574699 -0.097603254 -0.002611077 0.19569969 -0.05058826
0.121198304 0.010174323 -0.069603145 -0.043529686 0.16060936 -0.0958978 0.07849638 0.072962955
0.13694896 0.08709496 -0.040496387 -0.17290665 -0.04746426 -0.06233866 0.06715351 -0.092689194
-0.08033405 0.07295758 0.0151444385 0.050059855 -0.08943798 0.16155452 0.18318903 0.058326576
0.13584745 0.08347526 -0.035688955 0.1353578 -0.031128703 -0.11224141 0.04435635 -0.05296779
-0.10332353 -0.18863897 0.027758608 0.15182254 -0.014223101 0.12082917 0.09999015 -0.048374183
-0.05294901 0.14204308 0.13627285 -0.12212056 -0.0684473 0.11944319 -0.16651405 0.12943548
0.028834542 0.09994938 -0.13046642 -0.08098948 0.07949014 0.025490688 -0.046746317 0.19507523
0.02203736 -0.029119639 -0.07684013 0.06324784 0.10806247 -0.15159433 -0.1778228 -0.12251328
-0.06851263 0.08723131 -0.09126843 -0.040821083 -0.10739906 -0.05885234 0.10643165 -0.12287485
-0.19636832 -0.08034512 0.035902467 0.048150837 0.06672747 -0.029641246 0.04340481 -0.07233013
-0.05374477 -0.08030622 0.106812455 0.12342161 0.019877106 -0.12524703 -0.064757474 0.14505987
0.1917955 0.099297926 0.13291417 0.117767505 0.187498 0.017761555 -0.06778417 0.101278946
0.05126361 -0.13664685 -0.12765728 0.12823945 0.0076999567 0.07071253 -0.065915115 0.12500907
-0.03049152 0.019076433 -0.010683998 0.07331394 -0.009006282 -0.09388669 0.15079676 0.14776929
0.1226224 -0.04909977 0.15687834 -0.01225241 0.1415964 0.12783337 0.12890868 -0.10224177
0.06415189 -0.06511967 -0.026895612 0.111105315 -0.08821679 0.11282523 -0.14053525 -0.14780907
0.10835939 0.063463494 0.11704582 -0.033285573 -0.10519391 -0.15188351 0.068465024 0.13359113
-0.034728482 -0.07667749 -0.09634836 0.15588331 0.1111312 0.14689302 0.14725988 0.062078774
0.07473723 0.14537892 -0.041405983 0.10168618 0.044134144 -0.13998102 -0.05583085 -0.1197508
0.054368094 0.012840746 0.032287452 0.13757972 0.13802876 0.14444365 0.09032889 0.040757667
-0.099233724 0.0117163295 0.15665518 -0.10057203 0.17938317 -0.07905045 -0.13308616 -0.058477525
-0.10151972 -0.17298047 -0.011175282 -0.124106914 -0.09293503 0.06118534 -0.06590655 0.03460677
-0.005458974 -0.12018761 0.18350685 0.10836449 0.07728707 0.12678242 0.060214926 -0.00954742
0.12629612 0.07380527 0.09037715 0.047745995 0.12420021 0.031573173 0.019099135 -0.026272235
00000000: 8366 ca3d bae8 bdb7 1549 8e3d e9aa b33d
00000010: 640d 063d 8f4b 4ebb e50a b33d 3d2c 0dbe
00000020: 8203 863d a4cb 56bd 94ce b53d e7b6 80bd
00000030: ff0f 363e 6f23 3c3c 7350 f93d 4590 70bd
00000040: 23f5 40be 4c33 a5bd 3d27 423d 62f7 b9bd
00000050: 9e7f 153d cac1 253e 08e2 293d b247 e0bd
00000060: e76d 6d3d 1d4a 123d 93c1 b23d af9c 17bc
00000070: d101 793c c657 083e 26d0 05bd 93aa e63c
00000080: 650a 01be bf2b 21be 9cf8 713d ebd0 19be
00000090: 1aa7 023d f98b 213d 8ef0 f63d a123 753d
000000a0: a029 42be 396e f53d 6c50 42be 0cb1 80bd
000000b0: abd1 203d 3213 193e 7086 69bd 8918 c7bd
000000c0: e20d a13d 13e7 d6bd 97c7 3d3e d83b ac3d
000000d0: 9cef dd3c 22d5 e4bd 99a4 6ebd 8f4b 3abb
000000e0: dd01 e8bd 9c09 d2bc 0741 cd3d b33e 15be
000000f0: 37e4 c7bd 9a1e 2bbb 8065 483e a335 4fbd
00000100: d136 f83d 34b2 263c 188c 8ebd 2f4c 32bd
00000110: c876 243e 1166 c4bd b6c2 a03d 9a6d 953d
00000120: 593c 0c3e d85e b23d 8adf 25bd 710e 31be
00000130: e269 42bd d356 7fbd c887 893d d5d3 bdbd
00000140: 2e86 a4bd c96a 953d 6120 783c 900b 4d3d
00000150: 422b b7bd 8c6e 253e e895 3b3e d9e7 6e3d
00000160: 981b 0b3e 14f5 aa3d 952e 12bd 3c9b 0a3e
00000170: 9f01 ffbc d3de e5bd 01af 353d c1f4 58bd
00000180: 499b d3bd 932a 41be 0566 e33c 5e77 1b3e
00000190: 0208 69bc 4975 f73d a3c7 cc3d 0224 46bd
000001a0: 10e1 58bd be73 113e 1c8b 0b3e 581a fabd
000001b0: 192e 8cbd a29e f43d a982 2abe bc8a 043e
000001c0: 6b36 ec3c 43b2 cc3d fd98 05be d0dd a5bd
000001d0: bacb a23d d9d1 d03c 1179 3fbd cdc1 473e
000001e0: b287 b43c 4f8c eebc 5c5e 9dbd 1588 813d
000001f0: db4f dd3d 8b3b 1bbe 2e17 36be 3ee8 fabd
00000200: 5a50 8cbd 54a6 b23d f1ea babd 0234 27bd
00000210: 0af4 dbbd 270f 71bd d6f8 d93d cfa5 fbbd
00000220: c714 49be fb8b a4bd 770e 133d d039 453d
00000230: 69a8 883d 33d2 f2bc 3ec9 313d d221 94bd
00000240: 7a23 5cbd 9677 a4bd 7dc0 da3d 78c4 fc3d
00000250: 50d5 a23c c240 00be 919f 84bd 938a 143e
00000260: 0a66 443e b65c cb3d a71a 083e 1730 f13d
00000270: 7aff 3f3e ae80 913c 6dd2 8abd 566b cf3d
00000280: cbf9 513d 27ed 0bbe 97b8 02be 3451 033e
00000290: eb4f fc3b bbd1 903d 81fe 86bd 6102 003e
000002a0: 5ac9 f9bc 2e46 9c3c f00b 2fbc 9e25 963d
000002b0: 168f 13bc aa47 c0bd 776a 1a3e d550 173e
000002c0: 7421 fb3d d71c 49bd b7a4 203e 55be 48bc
000002d0: a6fe 103e c0e6 023e a300 043e 2264 d1bd
000002e0: 1162 833d 765d 85bd 3054 dcbc 2f8b e33d
000002f0: 01ab b4bd ea10 e73d 79e8 0fbe 435b 17be
00000300: 87eb dd3d 26f9 813d b8b5 ef3d 7456 08bd
00000310: e86f d7bd 5a87 1bbe 6437 8c3d 1dcc 083e
00000320: 743f 0ebd 1609 9dbd 4a52 c5bd e09f 1f3e
00000330: c198 e33d 206b 163e 4bcb 163e 5046 7e3d
00000340: d50f 993d 36de 143e 5299 29bd d840 d03d
00000350: 01c6 343d 2f57 0fbe e4ae 64bd e83f f5bd
00000360: 14b1 5e3d fe61 523c d93f 043d b3e1 0c3e
00000370: 6957 0d3e 09e9 133e 5afe b83d 83f1 263d
00000380: 0d3b cbbd d9f5 3f3c 376a 203e b5f8 cdbd
00000390: 39b0 373e 34e5 a1bd bd47 08be 2186 6fbd
000003a0: 92e9 cfbd cb21 31be 8818 37bc c42b febd
000003b0: b954 bebd 7b9d 7a3d 03fa 86bd d4bf 0d3d
000003c0: 31e1 b2bb ec24 f6bd 38e9 3b3e 34ee dd3d
000003d0: af48 9e3d 40d3 013e eda3 763d c86c 1cbc
000003e0: c553 013e 3827 973d a817 b93d 4e91 433d
000003f0: ae5c fe3d df52 013d ca75 9c3c df38 d7bc

weight_hh_l0 f4 [128, 32]
0.07404441 -0.08151126 0.0067850337 0.12802838 -0.05372247 -0.112518065 -0.04423277 -0.11121006
0.1454173 -0.0052745384 0.06950648 -0.047686905 -0.060571697 0.060667712 -0.16513419 0.030591402
-0.15948364 0.097378016 0.16293682 0.13286503 0.12086162 -0.16679993 -0.008882654 -0.0832276
0.13074094 -0.17516069 -0.18296583 -0.16698729 0.08716763 -0.13748321 0.07059537 -0.05417592
-0.12433248 -0.17645365 0.122636504 0.18740872 -0.013126935 -0.006348446 0.14913122 -0.016754985
-0.12736085 0.09773241 -0.077780515 0.017853377 0.12055441 -0.18506078 -0.17974268 -0.18944356
0.15029505 0.043653123 -0.111356854 -0.12652129 -0.03847537 -0.08632345 -0.11812558 -0.0067493664
-0.14547694 -0.13871494 0.064107895 -0.04767527 0.15095507 -0.108299226 0.11877722 -0.15501711
-0.099588126 -0.017292954 -0.15524536 0.07774307 0.1092482 0.08619221 0.07876962 0.04441069
0.07425484 0.14794768 -0.1120296 0.0070787696 -0.16791578 0.03872383 0.07729466 -0.08699045
0.14550382 0.080671705 0.16120611 0.068129085 -0.17668809 0.029026804 -0.046915323 -0.15255517
-0.15425631 -0.0304032 0.009104057 -0.106390454 0.05787358 0.10744021 -0.08696595 0.09139844
0.15658116 0.103454225 -0.015534399 0.017781125 0.022339042 -0.14993922 -0.15159777 -0.14955144
-0.07220306 0.061853334 0.03608927 -0.10203285 -0.11923615 -0.047814365 0.11294653 0.1454998
-0.0659031 -0.079680055 -0.07423888 0.11661762 -0.17438996 0.14162774 -0.0075783976 -0.08212229
0.060542393 -0.1583605 0.0735724 -0.035377946 0.014577146 0.120894544 -0.019003179 -0.046076696
0.06127749 0.047216322 0.14022456 -0.043137304 0.06841586 -0.044048175 0.0843859 -0.1412708
-0.16734736 -0.085798316 -0.020147692 -0.044391345 -0.12668285 -0.1605796 0.026883582 -0.10889697
-0.063734494 -0.058375318 -0.094579354 0.0006231209 -0.10914619 0.14505316 -0.03664119 -0.09101961
-0.10551397 0.12181359 -0.17705432 -0.05348659 -0.1406182 -0.055477522 0.008965469 0.14547314
0.19008934 0.040528987 -0.15411146 0.17300892 -0.09283387 -0.08029092 0.12029363 0.116421595
-0.018774632 0.056328136 -0.195911 -0.10725721 0.10639959 0.003447607 0.10074526 -0.020089883
-0.020262524 -0.017216498 -0.06191724 0.03758305 -0.16125095 0.029894048 0.12176557 0.03741009
0.026833516 0.06524706 0.13031654 0.08169206 0.101955846 0.008195381 0.14699516 -0.11656225
-0.029557051 -0.05262211 -0.047056302 0.05138716 0.14097525 -0.10417256 0.08100594 0.07034219
0.054741174 0.009956115 0.13801 0.14973353 0.08402033 -0.10966191 0.13741891 -0.14845455
0.115453355 0.0868127 -0.054793198 -0.069553934 -0.0021850986 0.13095443 0.03995807 0.15553863
-0.17748322 0.13353828 -0.17508036 0.048760433 -0.013310926 0.048313715 -0.11720217 0.016691
-0.15805055 0.07989978 0.12144287 -0.12999667 -0.123849005 -0.13471763 0.011261735 -0.08719853
-0.09340922 -0.1942389 0.013481354 -0.047557652 -0.16004674 -0.07628342 -0.1890675 -0.14072894
0.028736396 0.13666165 -0.07658267 -0.13634688 0.07010818 0.11152075 -0.15731 -0.086835906
-0.033138573 0.13900885 0.02190733 0.105507255 0.12652846 0.10244291 -0.0017237712 0.069283634
00000000: 98a4 973d 60ef a6bd fd54 de3b df19 033e
00000010: 180c 5cbd df6f e6bd 6c2d 35bd 1ac2 e3bd
00000020: 46e8 143e 09d6 acbb 6a59 8e3d 5853 43bd
00000030: 071a 78bd b57e 783d f018 29be d29a fa3c
00000040: ae4f 23be 206e c73d e9d8 263e c50d 083e
00000050: 4c86 f73d 9acd 2abe 8d88 11bc 3b73 aabd
00000060: f4e0 053e 535d 33be 655b 3bbe b7fe 2abe
00000070: f184 b23d 66c8 0cbe 4e94 903d 92e7 5dbd
00000080: 07a2 febd 44b0 34be d928 fb3d 12e8 3f3e
00000090: 5b12 57bc a006 d0bb dbb5 183e c041 89bc
000000a0: e26a 02be ee27 c83d 644b 9fbd 3f41 923c
000000b0: 3be5 f63d 9380 3dbe 770e 38be 7efd 41be
000000c0: f2e6 193e 9ecd 323d 100f e4bd cc8e 01be
000000d0: 5998 1dbd 59ca b0bd d3eb f1bd ca29 ddbb
000000e0: e8f7 14be 4a0b 0ebe 004b 833d 2547 43bd
000000f0: f793 1a3e fccb ddbd 7941 f33d cebc 1ebe
00000100: dcf4 cbbd f4a9 8dbc a4f8 1ebe c237 9f3d
00000110: 85bd df3d 8b85 b03d f751 a13d fce7 353d
00000120: ec12 983d 997f 173e c66f e5bd 06f5 e73b
00000130: 1df2 2bbe e19c 1e3d aa4c 9e3d 0d28 b2bd
00000140: f4fe 143e 3537 a53d 3713 253e 4387 8b3d
00000150: b9ed 34be 9fc9 ed3c 482a 40bd 6c37 1cbe
00000160: 5ef5 1dbe 2210 f9bc 2f29 153c 3de3 d9bd
00000170: d90c 6d3d 9d09 dc3d 341b b2bd 1b2f bb3d
00000180: d056 203e cfdf d33d fe83 7ebc b9a9 913c
00000190: 5e00 b73c ab89 19be 723c 1bbe 0324 19be
000001a0: 33df 93bd ec59 7d3d 58d2 133d 99f6 d0bd
000001b0: 1532 f4bd ffd8 43bd 8350 e73d e6fd 143e
000001c0: 34f8 86bd 4c2f a3bd 8e0a 98bd 38d5 ee3d
000001d0: 4893 32be dd06 113e 3554 f8bb bb2f a8bd
000001e0: 4dfb 773d 4129 22be 20ad 963d 77e8 10bd
000001f0: fbd4 6e3c 8f97 f73d 8eac 9bbc ebba 3cbd
00000200: 1bfe 7a3d e765 413d 0797 0f3e beb0 30bd
00000210: 9d1d 8c3d dc6b 34bd 84d2 ac3d 4ba9 10be
00000220: 1b5d 2bbe 07b7 afbd c60c a5bc b3d3 35bd
00000230: 26b9 01be fb6e 24be f53a dc3c 6005 dfbd
00000240: 3b87 82bd f51a 6fbd d2b2 c1bd f058 233a
00000250: 0a88 dfbd d188 143e 1315 16bd 7d68 babd
00000260: b517 d8bd 6779 f93d ba4d 35be c114 5bbd
00000270: 38fe 0fbe 663c 63bd e7e3 123c e9f6 143e
00000280: c8a6 423e b901 263d 65cf 1dbe 4029 313e
00000290: af1f bebd 916f a4bd 825c f63d 726e ee3d
000002a0: 42cd 99bc 55b8 663d e59c 48be aba9 dbbd
000002b0: 07e8 d93d 3ff1 613b 8853 ce3d 8a93 a4bc
000002c0: 98fd a5bc 9d09 8dbc ef9c 7dbd aff0 193d
000002d0: f81e 25be 5de4 f43c 3a60 f93d 533b 193d
000002e0: f6d1 db3c 40a0 853d b371 053e 2b4e a73d
000002f0: 3ace d03d eb45 063c e685 163e 30b8 eebd
00000300: a121 f2bc 488a 57bd 1cbe 40bd 587b 523d
00000310: d15b 103e 6c58 d5bd 71e6 a53d 910f 903d
00000320: 4838 603d f91e 233c 7e52 0d3e bf53 193e
00000330: da12 ac3d 6c96 e0bd 8bb7 0c3e 7804 18be
00000340: cf72 ec3d dbca b13d d56e 60bd 4b72 8ebd
00000350: df33 0fbb eb18 063e 13ab 233d 8545 1f3e
00000360: 29be 35be 42be 083e 4448 33be 05b9 473d
00000370: 1216 5abc 9ae4 453d b107 f0bd 90bb 883c
00000380: 01d8 21be 7fa2 a33d 0ab7 f83d d91d 05be
00000390: 8ca4 fdbd 6bf3 09be 2483 383c 2595 b2bd
000003a0: 554d bfbd 90e6 46be e6e0 5c3c d0cb 42bd
000003b0: 4be3 23be 7b3a 9cbd e99a 41be 3f1b 10be
000003c0: 9768 eb3c 08f1 0b3e 60d7 9cbd 849e 0bbe
000003d0: e194 8f3d fe64 e43d df15 21be 06d7 b1bd
000003e0: 50bc 07bd 5658 0e3e 0077 b33c 3014 d83d
000003f0: ad90 013e 97cd d13d 2af0 e1ba 94e4 8d3d

bias_ih_l0 f4 [128]
0.15026778 0.0323373 -0.09278852 -0.0648979 0.17864253 -0.064885244 0.14983359 -0.114194766
0.096182354 0.058666646 0.11010593 -0.027015178 0.049946826 -0.062325254 -0.08595445 -0.020035794
0.023196502 -0.11478672 0.06002701 0.19353509 0.16419262 -0.19510698 0.17559078 -0.021206794
0.19627483 -0.038809914 0.18756427 0.066255964 -0.00049231254 0.14980204 -0.04511994 0.053044345
-0.122256055 0.10716726 0.056833304 0.00981015 -0.13123302 -0.15178578 -0.1922688 0.028602714
-0.034630958 -0.06468822 -0.031763777 0.15353644 -0.03343126 0.05818747 0.1355874 -0.11393215
-0.13296425 0.057686914 0.17224643 0.06752751 -0.1364081 -0.10058303 -0.017475318 -0.035782356
0.19423987 0.020406937 0.10115507 -0.038873307 0.1843179 0.14489555 0.10899033 0.105017595
0.07732759 -0.009370417 0.0881766 0.20034908 0.14473182 0.12938325 -0.04484369 -0.006708687
-0.085460275 0.08412212 -0.17709675 0.06972916 -0.030694809 0.064598724 -0.065708905 -0.00082716293
0.06687098 -0.14404176 0.012993514 -0.053345967 0.09687983 0.1849204 -0.030995136 -0.07670757
0.035945654 -0.15744185 0.044162393 0.1616529 0.19993758 0.06256587 -0.029184677 0.071802326
0.18282788 0.039541546 0.06837656 0.0022677348 0.018547248 0.112681314 -0.05417186 0.055918567
-0.13389534 -0.12033561 0.16791026 0.19994248 0.0643947 0.067897566 -0.108970255 0.16260971
-0.097782 0.1621888 0.086420394 -0.114159636 0.1322716 0.053711575 0.0826034 -0.18345337
-0.07460953 0.074594915 0.012195126 0.015900835 -0.04035933 0.13187443 -0.13587473 0.111656874
00000000: ccdf 193e 1e74 043d e807 bebd 31e9 84bd
00000010: 11ee 363e 8ee2 84bd fa6d 193e f2de e9bd
00000020: 41fb c43d 704c 703d 387f e13d ef4e ddbc
00000030: 0b95 4c3d c448 7fbd e308 b0bd 1b22 a4bc
00000040: 9706 be3c 4d15 ebbd e2de 753d 102e 463e
00000050: 1c22 283e 20ca 47be 12ce 333e dfb9 adbc
00000060: 45fc 483e 25f7 1ebd d910 403e 35b1 873d
00000070: 890e 01ba b565 193e b0cf 38bd 0745 593d
00000080: 6261 fabd 827a db3d 0aca 683d c0ba 203c
00000090: f361 06be bb6d 1bbe 1de2 44be 3d50 ea3c
000000a0: 31d9 0dbd 427b 84bd bc1a 02bd a838 1d3e
000000b0: 38ef 08bd fc55 6e3d 6cd7 0a3e 4255 e9bd
000000c0: c827 08be 1d49 6c3d 5e61 303e dd4b 8a3d
000000d0: 91ae 0bbe 7afe cdbd 6628 8fbc 8590 12bd
000000e0: d1e6 463e 732c a73c 642a cf3d 9e39 1fbd
000000f0: d5bd 3c3e 805f 143e 5236 df3d 7713 d73d
00000100: ed5d 9e3d 6186 19bc ef95 b43d 4f28 4d3e
00000110: 9434 143e 0b7d 043e 04ae 37bd 8cd4 dbbb
00000120: cc05 afbd 3848 ac3d da58 35be 29ce 8e3d
00000130: ae73 fbbc 564c 843d 6492 86bd f7d5 58ba
00000140: a7f3 883d af7f 13be bfe2 543c 4d81 5abd
00000150: ef68 c63d c65b 3d3e 83e9 fdbc dc18 9dbd
00000160: c03b 133d 7038 21be a0e3 343d 5688 253e
00000170: 70bc 4c3e 8922 803d b414 efbc 190d 933d
00000180: 3b37 3b3e 51f6 213d 0309 8c3d 479e 143b
00000190: 66f0 973c 76c5 e63d 50e3 5dbd de0a 653d
000001a0: dc1b 09be 8472 f6bd abf0 2b3e b9bd 4c3e
000001b0: 5ee1 833d e10d 8b3d cc2b dfbd 2983 263e
000001c0: ee41 c8bd d214 263e 2dfd b03d 87cc e9bd
000001d0: 3572 073e ab00 5c3d f92b a93d 33db 3bbe
000001e0: e2cc 98bd 38c5 983d 11ce 473c 7842 823c
000001f0: d34f 25bd 170a 073e bf22 0bbe 5cac e43d

bias_hh_l0 f4 [128]
-0.15343748 0.07986766 -0.052157797 -0.01068666 0.06547359 0.10052105 -0.10152855 -0.019229975
-0.045608547 -0.15908337 0.008672273 -0.081418656 0.13929488 -0.037749853 0.1448912 0.18433571
-0.04137392 -0.110743396 0.033745103 0.08111916 0.1304108 -0.094943084 -0.10477341 -0.096600756
-0.09074454 -0.035342555 0.017410822 -0.13743648 -0.02152546 -0.0918184 0.007133593 0.13656338
0.13010998 -0.115935646 -0.035543606 0.014391906 0.09917765 0.033255186 0.11563153 0.096831195
0.03556582 0.054253135 -0.11372945 0.015147844 -0.041235644 -0.15256594 -0.13429055 -0.055133704
-0.1167168 -0.1454781 0.07150083 0.08565678 0.19724017 0.12972754 -0.07066775 0.15382788
0.07697466 0.17488937 -0.09839219 0.15948488 0.186124 0.044295944 0.10170261 -0.014131438
-0.009177664 -0.12029078 -0.12913918 0.08156224 -0.09346077 0.16752265 -0.042149883 -0.05467893
-0.029915169 -0.068021886 0.078097194 0.012215092 -0.18302256 0.09907413 -0.1543793 0.029660916
0.113621265 0.09338178 -0.057981048 -0.19374533 -0.13074191 -0.007893959 -0.18327464 -0.07887312
-0.14937536 0.1232481 -0.11515493 -0.18708882 -0.07975198 -0.011732089 -0.053488914 0.037833754
0.063965894 0.12239969 0.02072671 0.13844924 -0.052008446 0.10148433 0.14348716 -0.118543126
-0.02380048 -0.09430453 0.039179668 0.05007556 0.06146701 0.19600984 0.09452582 -0.07456416
-0.022273159 -0.06854844 -0.14272463 0.011030343 0.061845932 -0.13661137 0.13261199 -0.044453096
0.17479253 0.045609955 -0.14007181 -0.07269922 0.12502201 -0.069466636 -0.14477536 0.018748494
00000000: b71e 1dbe a891 a33d 6aa3 55bd 1a17 2fbc
00000010: 0417 863d fbdd cd3d 33ee cfbd 2e88 9dbc
00000020: 07d0 3abd c0e6 22be 2616 0e3c d3be a6bd
00000030: 51a3 0e3e 979f 1abd 5c5e 143e 80c2 3c3e
00000040: b377 29bd 6fcd e2bd 4e38 0a3d cd21 a63d
00000050: 698a 053e 8571 c2bd 7193 d6bd 9ed6 c5bd
00000060: 46d8 b9bd 5bc3 10bd 24a1 8e3c 26bc 0cbe
00000070: 2956 b0bc 490b bcbd eac0 e93b 45d7 0b3e
00000080: 8d3b 053e ab6f edbd 2c96 11bd 07cc 6b3c
00000090: a71d cb3d 9736 083d 39d0 ec3d 6f4f c63d
000000a0: 77ad 113d 8938 5e3d fcea e8bd aa2e 783c
000000b0: b5e6 28bd 3f3a 1cbe 7683 09be e1d3 61bd
000000c0: 3809 efbd 36f8 14be 076f 923d d26c af3d
000000d0: 54f9 493e 4cd7 043e 41ba 90bd 0e85 1d3e
000000e0: e4a4 9d3d 3316 333e d881 c9bd 0150 233e
000000f0: 4a97 3e3e aa6f 353d 7549 d03d 8c87 67bc
00000100: ea5d 16bc 035b f6bd 103d 04be 1b0a a73d
00000110: 5c68 bfbd 0f8b 2b3e 5ba5 2cbd 04f7 5fbd
00000120: a810 f5bc 0f4f 8bbd 6cf1 9f3d cf21 483c
00000130: 446a 3bbe 61e7 ca3d 9b15 1ebe 73fb f23c
00000140: 44b2 e83d f23e bf3d 897d 6dbd 2d65 46be
00000150: 35e1 05be aa55 01bc 59ac 3bbe 3b88 a1bd
00000160: dbf5 18be 8069 fc3d 59d6 ebbd 3694 3fbe
00000170: 0255 a3bd f337 40bc 3117 5bbd 91f7 1a3d
00000180: 8d00 833d b0ac fa3d 10cb a93c a3c5 0d3e
00000190: cf06 55bd 04d7 cf3d 4cee 123e bdc6 f2bd
000001a0: 39f9 c2bc bc22 c1bd dc7a 203d 081c 4d3d
000001b0: d5c4 7b3d ceb6 483e c196 c13d 18b5 98bd
000001c0: 3376 b6bc 2063 8cbd 6826 12be 9db8 343c
000001d0: 2952 7d3d dae3 0bbe 70cb 073e 7314 36bd
000001e0: d0fc 323e 81d1 3a3d fc6e 0fbe 54e3 94bd
000001f0: c505 003e 8644 8ebd fe3f 14be 7196 993c

weight_ih_l1 f4 [128, 32]
0.0491537 0.018884858 0.0814567 0.114406735 -0.13114016 -0.033677783 -0.057240333 -0.13400671
-0.09138045 0.1162515 0.15892342 0.05745811 -0.14756218 -0.13607395 0.102994464 0.073427215
-0.12404101 0.14000666 0.066037886 0.15151161 -0.094783455 -0.14503805 0.058061033 0.15776461
-0.17285362 -0.04191267 0.0889854 0.027901355 -0.047204956 -0.06592473 -0.0004243651 0.19617383
-0.061756354 0.104657 -0.13269019 0.009553258 -0.1805235 0.0042061554 -0.18972108 -0.046117436
0.049609866 0.040797703 -0.013459561 0.06650286 0.017194204 -0.117442675 0.123191334 -0.008716628
-0.11925965 0.19462346 0.07507127 -0.13684936 -0.18332203 -0.18431132 0.13648228 0.11061257
-0.009729393 -0.12585525 -0.16834126 -0.045133673 0.19242984 -0.13354337 0.14411095 -0.19292262
0.17418736 -0.091507696 0.087235466 0.10926333 -0.117868595 0.124340065 -0.12204835 -0.19139162
0.07455139 0.042113155 -0.17813182 0.18972287 -0.108607784 -0.18140948 -0.05249741 0.13496725
0.08294477 -0.030712534 0.055377353 -0.0291832 0.07334635 -0.027747184 0.08871059 -0.012693163
0.030984169 -0.19695155 0.05032757 0.044821683 0.09793221 -0.11714954 0.021970974 -0.009687121
-0.1233928 0.118401684 -0.013044601 -0.050775386 0.14598742 -0.00479356 0.11908147 -0.06413849
0.0551832 0.075626634 0.13241063 -0.10156912 0.14350472 -0.020941442 0.0012981943 -0.09786972
-0.09998274 0.17625198 0.022929205 0.11960231 -0.09659542 -0.08685513 0.035427216 0.13395765
0.1528942 0.061656427 -0.10025377 0.05152181 0.078501135 -0.08800106 0.056520943 0.07665619
-0.041031938 0.015121701 0.1124385 -0.07745064 -0.1693285 0.18933265 -0.14106405 0.08651166
-0.18519796 0.11818547 -0.03936672 -0.14087696 -0.13737833 0.120523475 0.11204602 0.05420028
0.10896925 0.076134704 0.093376674 0.15168023 -0.102401726 0.08086798 0.083037965 -0.08335681
-0.046046518 -0.008407273 -0.021762801 -0.05666468 0.17413531 0.13770516 0.095785394 0.10112475
-0.05035885 0.16650428 0.02813232 -0.091754474 0.1368079 -0.14409082 -0.090591185 -0.0890821
0.01767542 0.15123661 -0.085354045 0.051353693 0.091810666 0.11090309 -0.06446119 0.050249808
-0.17295347 -0.043770906 -0.1544442 -0.030907936 -0.16421361 0.10574331 0.16772994 -0.103283554
0.15785396 0.02602996 -0.008951917 -0.14956176 -0.1310221 0.15466346 -0.0818169 -0.13993599
-0.14799298 0.022187194 -0.19804505 -0.04979574 0.05261009 -0.147223 0.14078356 -0.18272783
-0.12874377 0.12827583 0.11434549 0.04499113 0.09342661 0.07406321 -0.17614338 -0.078063235
-0.0753325 -0.089310005 0.15409176 0.027516205 -0.086486995 0.1517314 -0.10131174 0.11686195
-0.10206073 -0.021895288 -0.15274127 0.12206325 -0.027162485 0.19903748 -0.02614173 0.13650912
0.015648551 -0.13601553 -0.067217596 0.11793941 -0.016222777 -0.10865464 -0.06330688 -0.15333547
-0.17676876 0.13014361 -0.027077718 0.06112479 0.06250315 -0.11875637 -0.065506026 -0.07328265
-0.11536355 0.13585034 0.18569233 -0.17827044 0.022666467 -0.07921033 -0.019381747 0.14105828
-0.014991685 0.010941808 0.12927593 0.0023872727 0.036150176 0.060480535 0.029283656 0.093620524
00000000: 6455 493d 6bb4 9a3c c5d2 a63d 144e ea3d
00000010: 9b49 06be b7f1 09bd d774 6abd 0e39 09be
00000020: ac25 bbbd 4415 ee3d d2bc 223e 3259 6b3d
00000030: 8a1a 17be f856 0bbe c3ee d23d 0261 963d
00000040: 3709 febd e85d 0f3e df3e 873d dc25 1b3e
00000050: d41d c2bd db84 14be 68d1 6d3d 0c8d 213e
00000060: 8a00 31be 9fac 2bbd fa3d b63d 6291 e43c
00000070: fc59 41bd 8b03 87bd 527d deb9 cbe1 483e
00000080: 3bf4 7cbd 6956 d63d f0df 07be 4585 1c3c
00000090: 27db 38be cad3 893b 3e46 42be a3e5 3cbd
000000a0: b733 4b3d 7e1b 273d 7e85 5cbc a732 883d
000000b0: dcda 8c3c c985 f0bd bd4b fc3d 30d0 0ebc
000000c0: 673e f4bd 5f4b 473e f7be 993d 3d22 0cbe
000000d0: c5b8 3bbe 1bbc 3cbe 03c2 0b3e d888 e23d
000000e0: 0868 1fbc 33e0 00be a761 2cbe 16de 38bd
000000f0: 540c 453e 98bf 08be d291 133e 828d 45be
00000100: 2c5e 323e 6368 bbbd 82a8 b23d 74c5 df3d
00000110: 1765 f1bd 01a6 fe3d 7cf4 f9bd 2afc 43be
00000120: 66ae 983d d87e 2c3d 3068 36be b646 423e
00000130: c26d debd 68c3 39be 8607 57bd db34 0a3e
00000140: f3de a93d da98 fbbc 5dd3 623d 9b11 efbc
00000150: 9c36 963d 104e e3bc e6ad b53d fcf6 4fbc
00000160: 83d2 fd3c abad 49be 4824 4e3d f196 373d
00000170: af90 c83d 19ec efbd 79fc b33c bbb6 1ebc
00000180: 5db5 fcbd 957c f23d 06b9 55bc daf9 4fbd
00000190: ba7d 153e 4c13 9dbb fce0 f33d 0a5b 83bd
000001a0: c707 623d 23e2 9a3d a796 073e 7903 d0bd
000001b0: e7f2 123e 638d abbc 2c28 aa3a eb6f c8bd
000001c0: c0c3 ccbd 667b 343e 07d6 bb3c 0ef2 f43d
000001d0: d2d3 c5bd 1ae1 b1bd 211c 113d 322c 093e
000001e0: 4c90 1c3e 738b 7c3d d951 cdbd 8908 533d
000001f0: 34c5 a03d e639 b4bd 8182 673d ecfd 9c3d
00000200: 1b11 28bd 03c1 773c 2846 e63d 719e 9ebd
00000210: 7364 2dbe 6be0 413e 1873 10be 062d b13d
00000220: 89a4 3dbe 390b f23d ff3e 21bd 0d42 10be
00000230: e8ac 0cbe 03d5 f63d 6278 e53d 1d01 5e3d
00000240: 452b df3d 83ec 9b3d 453c bf3d 1052 1b3e
00000250: ffb7 d1bd 1d9e a53d cf0f aa3d fab6 aabd
00000260: 469b 3cbd a9be 09bc e747 b2bc 3919 68bd
00000270: 8750 323e 9502 0d3e 222b c43d 7e1a cf3d
00000280: 1545 4ebd 1980 2a3e c075 e63c c5e9 bbbd
00000290: 5f17 0c3e 8b8c 13be df87 b9bd ad70 b6bd
000002a0: 0bcc 903c c5dd 1a3e 1ace aebd 4058 523d
000002b0: 3b07 bc3d 2921 e33d 3a04 84bd bed2 4d3d
000002c0: b71a 31be 1f49 33bd 9f26 1ebe a432 fdbc
000002d0: 9d27 28be f38f d83d 66c1 2b3e 5486 d3bd
000002e0: 78a4 213e c83c d53c 10ab 12bc b826 19be
000002f0: a82a 06be 1960 1e3e 9e8f a7bd 614b 0fbe
00000300: 798b 17be ebc1 b53c 52cc 4abe 9ef6 4bbd
00000310: ad7d 573d a0c1 16be 9129 103e 011d 3bbe
00000320: 68d5 03be bd5a 033e f82d ea3d 9e48 383d
00000330: 7356 bf3d 74ae 973d ee5e 34be 9edf 9fbd
00000340: ed47 9abd 2ae8 b6bd 3bca 1d3e aa69 e13c
00000350: 1820 b1bd 7a5f 1b3e 887c cfbd 5155 ef3d
00000360: 3705 d1bd bf5d b3bc 3568 1cbe 4cfc f93d
00000370: dc83 debc 7bd0 4b3e 2e27 d6bc 0cc9 0b3e
00000380: 6431 803c a847 0bbe 61a9 89bd 388a f13d
00000390: a1e5 84bc 5386 debd 0aa7 81bd f903 1dbe
000003a0: df02 35be 5e44 053e 17d2 ddbc fd5d 7a3d
000003b0: a701 803d 8a36 f3bd 0628 86bd 3715 96bd
000003c0: ba43 ecbd 5a1c 0b3e 2126 3e3e 878c 36be
000003d0: 07af b93c 0739 a2bd 78c6 9ebc 9571 103e
000003e0: af9f 75bc 4545 333c e960 043e ca73 1c3b
000003f0: 3512 143d 70ba 773d 47e4 ef3c 1ebc bf3d

weight_hh_l1 f4 [128, 32]
0.017392255 0.00049556745 0.057507552 -0.012006802 0.07995232 -0.17298077 0.16890174 -0.03800921
-0.0985564 -0.07082469 -0.17984238 0.008028862 0.08349622 -0.08310027 0.13049449 -0.13204455
0.18164918 -0.016873185 -0.17256917 0.10139376 0.1335344 -0.12822054 0.04544019 -0.00552065
-0.17723599 -0.08038358 0.09889278 -0.15118559 -0.00224806 -0.086343534 -0.0257617 0.030794363
-0.10095704 0.17927712 0.14082195 0.071887225 0.03538035 0.04638426 0.036540832 0.13813882
-0.19813909 0.11163195 0.168952 0.016179513 -0.045296364 0.08092872 -0.14454839 0.087958686
-0.10347105 0.15191719 0.13319692 -0.14279902 -0.033861175 -0.020615784 -0.055519193 -0.017770566
0.078550816 0.03938517 0.13937254 -0.18973994 0.10745263 -0.0054682367 0.09821057 -0.026357988
-0.18079922 0.17354482 0.09103155 -0.07692165 0.13053271 0.0745398 0.023630677 -0.054658145
-0.19555774 -0.08272769 0.14867045 -0.10112449 -0.11519038 -0.14207503 0.023582665 0.037148546
0.0892532 0.17817132 0.016980499 0.18621938 0.009198413 -0.0867521 0.06057984 -0.10213693
0.11151412 -0.15071905 -0.1753674 0.12496351 -0.09318837 0.08178716 0.018445937 0.040609308
-0.1385228 -0.026596019 -0.107250534 -0.055930637 0.014660036 0.06683013 0.021760106 0.054534927
-0.016744606 0.015772205 0.15644558 -0.06929324 -0.17868055 0.14846803 -0.09520126 -0.010031758
-0.0065630083 0.011538459 -0.050814763 0.091459766 0.017383263 -0.12578721 -0.11260415 -0.07917014
0.023434041 0.13974619 0.14807427 -0.12026436 -0.08387265 -0.10141527 -0.046147697 -0.0074646627
0.08981386 -0.10594905 0.045682944 0.014996405 0.158088 0.14717329 0.10486838 0.02769751
0.14247197 0.11742382 0.02472591 -0.10741356 -0.17178376 -0.121946394 0.098562874 -0.020601073
-0.02365479 0.15830147 -0.09822397 0.056985456 0.15662949 0.00791341 0.034674514 -0.030052394
-0.1099547 0.002256671 0.15239553 0.09614776 0.05189114 -0.009001115 -0.10197611 0.122654274
-0.028338173 -0.12452931 0.06907297 -0.05925688 -0.09982578 -0.18674383 -0.15964939 0.088014215
0.1428376 -0.1495202 -0.010013058 -0.058649283 0.0293898 0.0032144217 0.047860086 0.18259123
-0.11638066 0.11902263 0.075965546 0.0043583787 -0.17312782 0.015183525 -0.011607876 0.12919547
-0.16267085 0.1042309 -0.16123651 0.12750024 0.06536767 -0.04752497 0.073408246 -0.18869723
0.10886628 0.029774064 -0.068632066 0.06856015 -0.00029529832 -0.051577266 0.011023618 0.15587026
0.13165644 -0.15074131 -0.093033075 0.1901415 0.05486792 -0.070260055 -0.064171225 0.048852555
-0.18537486 -0.06254437 -0.10940167 0.081677884 0.022802487 -0.035165127 0.0897195 0.05286827
0.052320942 0.14698407 0.13590369 -0.1809125 -0.008537177 0.13262227 -0.043738604 -0.100449175
0.10463816 -0.1419152 0.077537 0.089995615 0.16428067 -0.056774724 0.15186074 -0.04253526
-0.120172806 0.13969877 0.19119152 0.045026675 0.064593256 0.031289287 0.13095234 0.07390187
0.11906565 0.008369702 0.0563865 -0.13453507 0.10743028 -0.1079181 0.08977768 0.039096564
0.02647966 0.047654804 -0.19302599 -0.1599164 0.15015462 -0.034773905 0.020854637 0.18356398
00000000: 347a 8e3c f8e8 013a 0a8d 6b3d 2db8 44bc
00000010: 0bbe a33d df21 31be 94f4 2c3e 8caf 1bbd
00000020: f0d7 c9bd 890c 91bd 9a28 38be 7d8b 033c
00000030: 1100 ab3d 7930 aabd 59a0 053e b036 07be
00000040: 3e02 3a3e a239 8abc f9b5 30be 88a7 cf3d
00000050: 3ebd 083e 3f4c 03be 7e1f 3a3d 92e6 b4bb
00000060: 5a7d 35be 25a0 a4bd 4c88 ca3d 65d0 1abe
00000070: 3054 13bb e1d4 b0bd 330a d3bc 7644 fc3c
00000080: 91c2 cebd 6c94 373e a133 103e 9c39 933d
00000090: fcea 103d 6cfd 3d3d d7ab 153d 4374 0d3e
000000a0: f9e4 4abe 4b9f e43d c101 2d3e e68a 843c
000000b0: ae88 39bd f5bd a53d 7e04 14be af23 b43d
000000c0: a1e8 d3bd 2e90 1b3e c664 083e e839 12be
000000d0: 04b2 0abd 6fe2 a8bc 1868 63bd 9493 91bc
000000e0: 40df a03d 5852 213d adb7 0e3e 304b 42be
000000f0: 2010 dc3d e52e b3bb a022 c93d b5ec d7bc
00000100: 6e23 39be bcb5 313e c06e ba3d 1989 9dbd
00000110: 5eaa 053e 53a8 983d 1f95 c13c 38e1 5fbd
00000120: 4a40 48be 236d a9bd 113d 183e 5b1a cfbd
00000130: efe8 ebbd 1e7c 11be 6f30 c13c 1329 183d
00000140: 62ca b63d 8b72 363e b01a 8b3c 4bb0 3e3e
00000150: f1b4 163c 16ab b1bd 9122 783d 2b2d d1bd
00000160: 8461 e43d 1856 1abe 8393 33be deec ff3d
00000170: 8bd9 bebd 0780 a73d ef1b 973c f255 263d
00000180: ecd8 0dbe e5df d9bc 2ba6 dbbd 8617 65bd
00000190: a630 703c 3cde 883d 4042 b23c 0460 5f3d
000001a0: fc2b 89bc b634 813c 4533 203e 9de9 8dbd
000001b0: 09f8 36be 0108 183e e1f8 c2bd 3e5c 24bc
000001c0: 810e d7bb ce0b 3d3c 2423 50bd 424f bb3d
000001d0: 5867 8e3c 5dce 00be 019d e6bd f423 a2bd
000001e0: bff8 bf3c a019 0f3e c8a0 173e 294d f6bd
000001f0: 6dc5 abbd cfb2 cfbd 5e05 3dbd 219a f4bb
00000200: 54f0 b73d d1fb d8bd 0a1e 3b3d 7bb3 753c
00000210: d2e1 213e 98b4 163e 3cc5 d63d e3e5 e23c
00000220: 2ce4 113e e67b f03d fe8d ca3c a4fb dbbd
00000230: 15e8 2fbe 08bf f9bd 55db c93d 95c3 a8bc
00000240: b1c7 c1bc c819 223e a629 c9bd 9569 693d
00000250: 7b63 203e 3fa7 013c dd06 0e3d 7030 f6bc
00000260: ee2f e1bd a8e4 133b 930d 1c3e 1ee9 c43d
00000270: ce8b 543d 6a79 13bc dad8 d0bd 2a32 fb3d
00000280: 7525 e8bc 3909 ffbd 2176 8d3d 58b7 72bd
00000290: 7571 ccbd c639 3fbe 217b 23be cc40 b43d
000002a0: 0544 123e d31b 19be cf0d 24bc 3b3a 70bd
000002b0: e1c2 f03c 0ca9 523b f008 443d 32f9 3a3e
000002c0: fc58 eebd 23c2 f33d d393 9b3d bbd0 8e3b
000002d0: 6b48 31be 52c4 783c f62e 3ebc d14b 043e
000002e0: 3093 26be 0377 d53d 2f1b 25be 6c8f 023e
000002f0: 7cdf 853d 8ba9 42bd 1057 963d d939 41be
00000300: 49f5 de3d bde8 f33c f88e 8cbd 4469 8c3d
00000310: 45d2 9ab9 af42 53bd 689c 343c 749c 1f3e
00000320: f2d0 063e ee5b 1abe 2088 bebd 74b4 423e
00000330: 2fbd 603d 81e4 8fbd 346c 83bd 9e19 483d
00000340: e8d2 3dbe 4317 80bd fc0d e0bd bc46 a73d
00000350: 48cc ba3c 4f09 10bd dbbe b73d 668c 583d
00000360: 7c4e 563d fe82 163e 562a 0b3e 2041 39be
00000370: 84df 0bbc 22ce 073e 4027 33bd 4cb8 cdbd
00000380: 884c d63d 3852 11be b8cb 9e3d 9f4f b83d
00000390: 3139 283e 9d8c 68bd 6281 1b3e 7439 2ebd
000003a0: 291d f6bd 320d 0f3e b6c7 433e e46d 383d
000003b0: 7849 843d 3229 003d 5f18 063e dd59 973d
000003c0: b1d8 f33d 1321 093c 88f5 663d 90c3 09be
000003d0: 6804 dc3d 2a04 ddbd 5cdd b73d b823 203d
000003e0: dfeb d83c af31 433d 9ba8 45be 20c1 23be
000003f0: 22c2 193e 156f 0ebd 58d7 aa3c 32f8 3b3e

bias_ih_l1 f4 [128]
0.110095836 0.034242027 -0.115047015 0.07247865 0.1167738 0.13322176 0.098900944 -0.033742264
-0.10561719 -0.010808289 -0.056719914 -0.1428228 -0.09697636 0.17604505 -0.12289767 0.03796797
-0.11297029 0.05411195 0.01489111 0.08572247 0.043120842 0.047575824 -0.11153228 -0.12000447
0.11557444 -0.0430129 -0.09439 0.028435685 -0.087702155 0.11689077 -0.06438761 -0.060046177
-0.16423361 0.031617075 0.19755298 -0.15713559 0.06276717 -0.16178311 -0.05648855 0.19431366
-0.02007987 -0.1168238 -0.13379398 0.16358411 0.009875034 0.1567464 -0.18109685 -0.071650706
-0.0053878147 0.15358812 -0.10398743 -0.10435373 0.14576924 -0.09902657 -0.10543248 -0.094522946
-0.042940922 -0.003815046 -0.01678635 -0.04899552 0.05566756 0.08114365 -0.054138675 0.025156135
0.16010231 0.13114761 0.10051307 -0.13488278 0.18303016 0.1514865 -0.10048721 0.0047513563
-0.13113838 -0.0766448 0.1471971 -0.0769631 -0.1900624 -0.0392355 0.102707066 -0.10658957
0.04233393 0.14301467 0.13813747 0.036657307 0.034089178 -0.06570743 0.12862636 -0.13114768
0.016575519 -0.13223122 -0.15145247 0.09576131 -0.1379686 0.081809476 -0.18183449 0.09571939
0.06872297 -0.14370857 0.10703343 0.10813849 0.013106707 0.02649913 -0.0946682 -0.09191265
-0.009273021 0.09710278 -0.031902827 -0.05286199 -0.0822264 0.12229676 -0.17274088 -0.17609717
0.0016817754 0.07699872 0.08284194 -0.0118259005 -0.053073887 0.16544715 0.160039 0.097461
-0.008017182 -0.12882486 0.04121951 0.13162021 -0.07737431 0.14331515 0.1689478 -0.051659413
00000000: ed79 e13d 5e41 0c3d c59d ebbd b06f 943d
00000010: 1a27 ef3d 496b 083e 948c ca3d 5435 0abd
00000020: d34d d8bd 4015 31bc 2453 68bd 2440 12be
00000030: 8b9b c6bd 2745 343e c6b1 fbbd 4d84 1b3d
00000040: f85c e7bd 7ea4 5d3d d8f9 733c 438f af3d
00000050: 7b9f 303d dede 423d 096b e4bd e7c4 f5bd
00000060: 4bb2 ec3d 4b2e 30bd 8b4f c1bd f4f1 e83c
00000070: 309d b3bd 6e64 ef3d a7dd 83bd fbf2 75bd
00000080: db2c 28be e880 013d 544b 4a3e 27e8 20be
00000090: 138c 803d 79aa 25be 8a60 67bd 29fa 463e
000000a0: 8a7e a4bc 5141 efbd 4a01 09be 9882 273e
000000b0: e5ca 213c 2182 203e 7471 39be 9bbd 92bd
000000c0: 448c b0bb 3446 1d3e 5df7 d4bd 69b7 d5bd
000000d0: 8844 153e 71ce cabd fcec d7bd 3f95 c1bd
000000e0: d2e2 2fbd da05 7abb 8783 89bc 87af 48bd
000000f0: ab03 643d a42e a63d 84c0 5dbd 3d14 ce3c
00000100: dcf1 233e 8f4b 063e ccd9 cd3d b61e 0abe
00000110: 426c 3b3e 471f 1b3e 3dcc cdbd 44b1 9b3b
00000120: 2449 06be f3f7 9cbd d6ba 163e d49e 9dbd
00000130: b89f 42be 67b5 20bd 1558 d23d a24b dabd
00000140: 5866 2d3d 7072 123e e973 0d3e f925 163d
00000150: 18a1 0b3d 9e91 86bd a1b6 033e 944b 06be
00000160: 62c9 873c 9f67 07be 5b16 1bbe 811e c43d
00000170: a447 0dbe ba8b a73d d232 3abe 8708 c43d
00000180: a1be 8c3d 5728 13be 5834 db3d b677 dd3d
00000190: 83bd 563c b414 d93c 67e1 c1bd b33c bcbd
000001a0: deed 17bc d3dd c63d 8aac 02bd d085 58bd
000001b0: 5166 a8bd b976 fa3d fce2 30be d152 34be
000001c0: 056f dc3a 81b1 9d3d 09a9 a93d 6cc1 41bc
000001d0: 0164 59bd fa6a 293e 43e1 233e a299 c73d
000001e0: 805a 03bc aaea 03be cad5 283d 73c7 063e
000001f0: 6c76 9ebd 35c1 123e a700 2d3e d298 53bd

bias_hh_l1 f4 [128]
0.041571323 0.053398624 -0.022852499 0.042471457 0.10292203 0.11294347 0.17238405 -0.009729388
0.011463306 0.14803194 -0.12626708 -0.0094994465 0.005449785 0.032023836 -0.1361689 0.04262334
-0.10227126 0.14961404 0.053677328 -0.12509772 -0.0017154735 -0.009155181 0.15829885 0.042122763
0.010396489 0.019292459 -0.07997569 0.0702445 -0.12688984 0.17291775 -0.038311236 0.1733929
-0.09411686 0.061781384 0.08776886 -0.033281635 0.06589972 -0.12423876 0.117801175 -0.005622295
-0.17195721 0.013920191 0.08105459 -0.063998386 0.17570066 0.083901584 -0.022152463 -0.10480671
0.019260393 -0.0882254 0.02115238 0.061614703 0.10964981 -0.094925955 -0.020415202 0.08994664
0.09677596 -0.003449106 0.10516481 0.18113436 0.10266997 0.078223005 0.06850887 -0.05983549
-0.10915725 0.07555788 0.11661433 0.04123621 -0.15270053 0.14233726 -0.1595373 0.00723035
0.0035521765 0.19169965 0.03869901 0.13639201 0.12005334 0.09467438 0.06949392 0.123270966
-0.044646204 -0.0493607 -0.0010163417 0.1703313 -0.10689252 -0.0011572829 -0.17671788 0.06958494
0.13358787 -0.11271208 -0.18654087 -0.18007849 -0.087031424 -0.07758193 0.04212789 -0.06726165
-0.029125193 -0.008751116 0.1805657 0.13844095 0.008154074 -0.067858815 -0.15330583 -0.12416597
0.13369372 -0.14720331 0.11429867 0.115326844 0.07393616 -0.1483447 0.031364176 -0.090437055
-0.096897945 -0.071633786 -0.10965034 0.0853553 0.07985088 -0.065747775 -0.008571961 0.02503586
0.19619066 -0.07278636 -0.12651792 0.16957232 0.11883321 0.1377726 -0.083815396 0.17405657
00000000: b146 2a3d 84b8 5a3d 2a35 bbbc 8df6 2d3d
00000010: c9c8 d23d e84e e73d 7285 303e 0368 1fbc
00000020: 97d0 3b3c af95 173e 284c 01be 91a3 1bbc
00000030: 1c94 b23b 6d2b 033d dc6f 0bbe d095 2e3d
00000040: 9873 d1bd 6c34 193e c2dc 5b3d 9e19 00be
00000050: bdd9 e0ba 9dff 15bc 1819 223e eb88 2c3d
00000060: 0956 2a3c 380b 9e3c 4bca a3bd 59dc 8f3d
00000070: 69ef 01be 5a11 313e 3eec 1cbd e98d 313e
00000080: 57c0 c0bd 7a0e 7d3d 29c0 b33d 5352 08bd
00000090: 6ff6 863d e470 febd be41 f13d 3b3b b8bb
000000a0: 8d15 30be 8311 643c f3ff a53d 9611 83bd
000000b0: e0ea 333e 98d4 ab3d 1579 b5bc e6a4 d6bd
000000c0: f9c7 9d3c 85af b4bd c247 ad3c b35f 7c3d
000000d0: 1490 e03d 8a68 c2bd c83d a7bc f235 b83d
000000e0: 7932 c63d 650a 62bb a660 d73d 497b 393e
000000f0: a244 d23d 6233 a03d 614e 8c3d 0f16 75bd
00000100: d68d dfbd 17be 9a3d 7ed3 ee3d 4de7 283d
00000110: 875d 1cbe dcc0 113e bf5d 23be 92ec ec3b
00000120: a2cb 683b ea4c 443e da82 1e3d 59aa 0b3e
00000130: 87de f53d a4e4 c13d d452 8e3d 7d75 fc3d
00000140: f0de 36bd 722e 4abd c536 85ba 546b 2e3e
00000150: 77ea dabd f8af 97ba 88f5 34be 8d82 8e3d
00000160: 42cb 083e 97d5 e6bd 9204 3fbe 7f66 38be
00000170: 883d b2bd 46e3 9ebd 4b8e 2c3d 7ac0 89bd
00000180: f597 eebc d760 0fbc 37e6 383e 77c3 0d3e
00000190: aa98 053c 90f9 8abd 34fc 1cbe ba4a febd
000001a0: 02e7 083e 77bc 16be 6c15 ea3d 7b30 ec3d
000001b0: d76b 973d ace7 17be b977 003d 1037 b9bd
000001c0: 6e72 c6bd bcb4 92bd 5c90 e0bd c2ce ae3d
000001d0: dc88 a33d c5a6 86bd 6971 0cbc 0118 cd3c
000001e0: 34e6 483e 0411 95bd ea8d 01be 5ea4 2d3e
000001f0: d35e f33d 4314 0d3e 68a7 abbd e33b 323e

weight f4 [256, 32]
0.10933239 -0.029813595 0.08711207 -0.11080176 0.12795146 -0.18231674 -0.09487474 0.017504504
0.110669784 0.0076232483 0.048916705 -0.04203336 0.12975176 0.01495567 -0.09249009 -0.033211593
0.025723763 -0.04603577 0.008771657 -0.16390985 -0.15314107 0.17006317 -0.14996445 -0.12371637
0.10723815 -0.08423719 -0.12837104 -0.09710228 -0.08040862 -0.024281073 -0.069298305 0.114599906
0.150172 0.07675917 -0.0718734 0.0074596633 -0.045785774 -0.1271048 0.16352868 -0.1921686
0.040923886 -0.18094853 -0.040263753 -0.009380737 0.12121073 0.090681076 0.08142693 0.055243667
0.12273066 -0.10993824 0.09315897 0.01309016 0.03241049 0.09883581 -0.0808447 -0.105786376
-0.08859901 0.17847584 0.051128127 -0.13708626 0.16172294 0.0063481913 0.09974871 -0.12338926
-0.13596241 0.15055275 -0.101422854 0.19170249 0.030457502 0.12787728 0.08801215 0.10190879
0.029310405 -0.19304276 0.13785411 0.0051774173 0.057824057 0.091171324 0.06266126 0.014168754
0.05667503 0.15373151 -0.0053428775 0.14077625 -0.1410797 0.061134446 0.1524459 -0.017283363
-0.14878266 -0.09153798 -0.14184529 -0.022903716 0.12831978 0.18184555 -0.08753388 -0.02091827
-0.07298206 0.08457761 0.16454004 -0.004860057 -0.09892089 -0.004703239 0.14726815 0.1358691
0.0020354246 0.0524278 -0.13880958 -0.08111035 0.092815585 0.13608105 -0.016458996 -0.13083884
0.00645693 -0.06645064 -0.0412744 -0.019156732 -0.023286095 0.010581725 0.118758254 -0.061427478
0.024872437 0.059449915 0.06785546 0.11616545 -0.091254465 -0.050492782 -0.08077811 0.01797408
0.007400084 0.14789957 -0.05684492 0.13245718 0.0066124434 0.086107336 0.020989094 0.013796002
-0.06305716 0.120767124 -0.16650172 -0.038547583 0.161228 -0.09231051 -0.17891866 -0.054404348
-0.04373113 0.05672707 0.1498812 -0.15939072 -0.032983154 0.14164564 -0.011966237 -0.085623145
0.038903754 -0.11235999 -0.007387486 -0.0613862 -0.020295443 -0.15574105 0.051263902 0.14054437
0.023541933 -0.0059029344 0.078844465 -0.03000528 0.15023206 -0.05956696 0.07465702 0.027059576
0.09924551 0.020769278 0.14084059 -0.023525538 0.02325623 0.051181935 0.009752685 -0.13388348
0.13368776 0.00574883 -0.07009707 -0.036683362 0.092178166 -0.07711525 0.10880215 -0.10538751
-0.072957374 -0.0068969866 0.08489275 0.10066714 -0.097950004 -0.0030860947 0.037444558 0.1624618
0.14427297 -0.05929407 0.16126437 0.07337992 -0.11903927 -0.11929628 0.081664614 -0.020456187
-0.0379844 -0.088617615 -0.0987212 0.065248325 -0.19333903 -0.13922906 -0.11763558 0.09876283
-0.10618948 0.113188624 -0.048082218 0.19330426 0.01723063 0.123330496 -0.17420332 -0.015741855
-0.042147484 0.059134558 0.15023424 -0.07986317 -0.036244452 0.09966538 0.0823038 0.16199663
0.09014783 -0.19492994 -0.17780028 0.048725247 0.039949544 0.10396904 -0.094619036 -0.14075693
0.12419651 0.064681165 -0.018104546 0.042996958 0.12739049 -0.018198572 0.029788144 0.13895413
0.123470955 0.15321642 -0.0798697 -0.08495535 0.09363231 -0.10896766 0.16943593 0.19077924
-0.048781253 0.08296501 0.103851385 -0.054022804 0.11190855 -0.13775788 -0.05289642 0.14124906
00000000: a9e9 df3d a43b f4bc d067 b23d 08ec e2bd
00000010: b505 033e 3db1 3abe b04d c2bd 9b65 8f3c
00000020: d7a6 e23d 71cc f93b e25c 483d 2c2b 2cbd
00000030: a5dd 043e a008 753c 726b bdbd e108 08bd
00000040: a4ba d23c 0190 3cbd ffb6 0f3c fcd7 27be
00000050: 03d1 1cbe 0a25 2e3e 4890 19be 025f fdbd
00000060: ad9f db3d 8c84 acbd b373 03be 8fdd c6bd
00000070: 46ad a4bd 1ae9 c6bc 45ec 8dbd 5bb3 ea3d
00000080: b0c6 193e e933 9d3d 5c32 93bd 3170 f43b
00000090: dd89 3bbd c327 02be 1074 273e d8c7 44be
000000a0: ce9f 273d 924a 39be 9beb 24bd aab1 19bc
000000b0: 553d f83d 00b7 b93d 2ac3 a63d 2f47 623d
000000c0: 365a fb3d 4d27 e1bd 21ca be3d 1c78 563c
000000d0: ddc0 043d 6e6a ca3d e891 a5bd 87a6 d8bd
000000e0: 6673 b5bd 5fc2 363e ba6b 513d 5760 0cbe
000000f0: b39a 253e 7d04 d03b 0d49 cc3d 82b3 fcbd
00000100: bb39 0bbe 802a 1a3e c9b6 cfbd a84d 443e
00000110: 0382 f93c 43f2 023e b73f b43d 8eb5 d03d
00000120: 601c f03c 00ad 45be a129 0d3e 53a7 a93b
00000130: ebd8 6c3d 08b8 ba3d 8c54 803d 1024 683c
00000140: 1424 683d cb6b 1d3e 4e13 afbb a627 103e
00000150: 3277 10be 1d68 7a3d c71a 1c3e d795 8dbc
00000160: 7b5a 18be 4478 bbbd e43f 11be 93a0 bbbc
00000170: 4366 033e b835 3a3e f644 b3bd cb5c abbc
00000180: 9e77 95bd 0737 ad3d 2f7d 283e 1d41 9fbb
00000190: 0997 cabd a11d 9abb 76cd 163e 4521 0b3e
000001a0: c264 053b 88be 563d 1924 0ebe 2f1d a6bd
000001b0: 1916 be3d d558 0b3e 04d5 86bc 9efa 05be
000001c0: a894 d33b 4617 88bd 580f 29bd 94ee 9cbc
000001d0: 7bc2 bebc f95e 2d3c 8737 f33d 619b 7bbd
000001e0: 48c1 cb3c c181 733d cef7 8a3d 27e8 ed3d
000001f0: 9fe3 babd 85d1 4ebd fe6e a5bd 613e 933c
00000200: 677c f23b fc72 173e 38d6 68bd dba2 073e
00000210: 32ad d83b 0b59 b03d 52f1 ab3c a008 623c
00000220: 1d24 81bd c154 f73d 6d7f 2abe 12e4 1dbd
00000230: f418 253e 4b0d bdbd 7436 37be 18d7 5ebd
00000240: 6a1f 33bd a55a 683d 757a 193e 5237 23be
00000250: 5819 07bd 8e0b 113e 090e 44bc 305b afbd
00000260: 8b59 1f3d ff1c e6bd b912 f2bb 1970 7bbd
00000270: a142 a6bc 957a 1fbe 19fa 513d ddea 0f3e
00000280: 03db c03c 676d c1bb 3579 a13d a2cd f5bc
00000290: 6fd6 193e 7cfc 73bd c8e5 983d 0bac dd3c
000002a0: 3b41 cb3d 5524 aa3c 8438 103e a1b8 c0bc
000002b0: d983 be3c 26a4 513d bac9 1f3c c018 09be
000002c0: 72e5 083e ae60 bc3b 0d8f 8fbd 4b41 16bd
000002d0: e8c7 bc3d 9aee 9dbd a9d3 de3d 68d5 d7bd
000002e0: ad6a 95bd 1e00 e2bb 40dc ad3d 932a ce3d
000002f0: 039a c8bd 1440 4abb 775f 193d 635c 263e
00000300: 4bbc 133e 57de 72bd 7d22 253e 3648 963d
00000310: dcca f3bd 9c51 f4bd c73f a73d bc93 a7bc
00000320: 8895 1bbd 277d b5bd 572e cabd eaa0 853d
00000330: abfa 45be 1092 0ebe ecea f0bd 2b44 ca3d
00000340: df79 d9bd 70cf e73d dcf1 44bd 8df1 453e
00000350: 4027 8d3c b394 fc3d 5b62 32be 10f5 80bc
00000360: d7a2 2cbd 1437 723d 01d7 193e 4d8f a3bd
00000370: 1075 14bd 5d1d cc3d e58e a83d 72e2 253e
00000380: 6d9f b83d b79b 47be 4711 36be 2094 473d
00000390: 22a2 233d b8ed d43d a0c7 c1bd 9622 10be
000003a0: bd5a fe3d 8f77 843d fc4f 94bc 941d 303d
000003b0: a772 023e 2c15 95bc 4406 f43c fe49 0e3e
000003c0: 57de fc3d c4e4 1c3e ba92 a3bd 12fd adbd
000003d0: 4cc2 bf3d 702a dfbd 9d80 2d3e a25b 433e
000003e0: dace 47bd 8fe9 a93d 09b0 d43d 0447 5dbd
000003f0: 4f30 e53d 6710 0dbe eba9 58bd 98a3 103e
