models/recomendation_models/scripted_user_preference_model_v21_16_dim_wide.pt (torch, 746982 bytes, 12 tensors)

hidden f4 [1, 1, 128]
000000 3b e8 33 b5 32 32 1c bb b8 f2 57 bf 36 ae c7 b7
       -6.7020636e-07 -0.002383363 -0.84354734 -2.3803772e-05
000010 85 4a a3 35 12 e7 12 36 5a 21 25 b5 32 9e 29 b5
       1.2166134e-06 2.1890196e-06 -6.151582e-07 -6.318761e-07
000020 24 2d 4a 36 87 88 01 b9 7a 9b cb 3b fe 66 02 b5
       3.012662e-06 -0.00012353259 0.0062136026 -4.857865e-07
000030 b3 f0 8e bd 09 be 49 34 86 c1 41 36 e7 78 a5 b3
       -0.069795035 1.8788718e-07 2.8871887e-06 -7.705403e-08
000040 00 7d 9b 3d fb b7 b3 35 8e ef da b3 29 11 69 b3
       0.07592201 1.3390085e-06 -1.0194991e-07 -5.4265147e-08
000050 68 34 51 3f 5d c8 bc b4 9f 8f 76 3f d4 89 b8 35
       0.8172059 -3.5163512e-07 0.963129 1.3749182e-06
000060 8b a0 bb 35 e7 b0 70 bf 1e 41 96 35 21 fd 1e b8
       1.397931e-06 -0.9401993 1.1194822e-06 -3.790588e-05
000070 f1 0a 16 be 48 c4 d4 bd 09 f3 43 bf 45 1d 03 37
       -0.14652611 -0.10389 -0.7654272 7.815023e-06
000080 27 7e e3 32 6b e0 80 b1 77 c9 11 3e a2 72 bb b4
       2.6483645e-08 -3.7508037e-09 0.14237009 -3.491487e-07
000090 73 99 8c bd 5a c4 3c bd 7b 20 69 bf 80 af 40 bf
       -0.068652056 -0.046085693 -0.91065186 -0.7526779
0000a0 cf 0b cc 3c 77 3f b4 37 12 b0 59 bd 3c 41 4b b4
       0.024907975 2.1487225e-05 -0.05314643 -1.892958e-07
0000b0 c6 3c 02 38 7b 58 59 b3 0f ce 10 33 8f 8f 00 b6
       3.1051015e-05 -5.0604722e-08 3.3715022e-08 -1.9157048e-06
0000c0 c2 36 56 3f 98 71 04 38 7d a1 1d b6 72 20 04 37
       0.83677304 3.1577045e-05 -2.3488822e-06 7.875367e-06
0000d0 6f 61 1f bf 73 43 7c bc c0 20 65 bf bc 1c 3f 38
       -0.62258047 -0.0153969405 -0.895031 4.556471e-05
0000e0 27 0d 9e 35 6a b1 74 38 6e 59 73 33 2b ac 4c b6
       1.1775745e-06 5.8339363e-05 5.6659182e-08 -3.0498584e-06
0000f0 83 ba 40 bf 04 ab b5 3d bc 13 86 b4 cf 23 4f 3f
       -0.75284594 0.08870509 -2.4973804e-07 0.80914015
000100 d4 66 18 33 68 7e 8d 34 77 a0 45 36 c7 1b 01 35
       3.548378e-08 2.635527e-07 2.944869e-06 4.8096666e-07
000110 42 cc 7d bf e0 3d 41 3d 13 86 d0 37 9d e8 ef b5
       -0.991398 0.04717815 2.4857965e-05 -1.7874587e-06
000120 c1 3c eb b5 56 c0 4b 35 9a 2a 6e 3f 68 2d f1 ba
       -1.7526546e-06 7.590328e-07 0.93033755 -0.0018400373
000130 7c 2c 3a 3e 95 7a 78 bf 5a 44 67 3e 62 3b ca 3b
       0.18181032 -0.97062045 0.22584668 0.0061716298
000140 7c a2 1e b2 af bb 0b bf b4 9f e0 34 9a e8 0a b6
       -9.233755e-09 -0.5458326 4.183945e-07 -2.0698994e-06
000150 64 49 5d 37 7c c4 92 b6 65 cc 5f bf eb d1 be 3e
       1.3189714e-05 -4.374013e-06 -0.87421256 0.3726953
000160 ff 3e 8a 34 19 1e c8 35 86 75 4b 3d c7 30 4d b6
       2.575034e-07 1.4909921e-06 0.049672626 -3.0575773e-06
000170 03 1f a0 35 77 ed 63 3f 47 b0 93 3e 7e f3 36 b6
       1.1929955e-06 0.8903422 0.28845426 -2.7261844e-06
000180 13 ef e9 b2 4f 9d d6 bd af cc 5c bf 51 b1 78 37
       -2.7233488e-08 -0.10479223 -0.8624982 1.4823237e-05
000190 e1 aa 6d bf 41 7c 3d b4 fc d4 b6 3c 14 2e 16 37
       -0.92838866 -1.76472e-07 0.022318356 8.951425e-06
0001a0 f0 76 73 3f d2 3d 96 3d 26 9b 26 b6 e7 2c 4f bf
       0.9510336 0.0733601 -2.4826236e-06 -0.8092789
0001b0 ab ed 81 34 68 23 73 bd 53 b7 ff 34 27 40 41 3f
       2.420105e-07 -0.059359938 4.7630837e-07 0.75488514
0001c0 98 38 71 37 e6 1d 88 be aa 2c fe b6 34 3b 30 3e
       1.4377896e-05 -0.2658531 -7.5749895e-06 0.17210084
0001d0 6b 62 ec b7 bb a7 32 bf 32 5d 39 bf 06 34 2b b4
       -2.8179222e-05 -0.69787186 -0.7240783 -1.5944542e-07
0001e0 2f e3 60 bf ff 4f 29 36 6f d4 59 b6 7d c8 e5 32
       -0.87846655 2.5229526e-06 -3.2459172e-06 2.675028e-08
0001f0 ec f9 b1 39 8d b5 d1 3c d2 c9 08 38 c3 90 7b be
       0.00033946277 0.025599265 3.2612887e-05 -0.24566941

hidden f4 [1, 1, 128]
000000 d9 77 43 ba ab 2f 38 c2 8f 1a 3d c2 f3 ee d4 bb
       -0.00074565184 -46.04655 -47.275936 -0.0064982115
000010 18 26 1e 3a 7d b5 70 3b e5 70 57 ba 69 0d ac b9
       0.0006032898 0.003672927 -0.0008218422 -0.00032816388
000020 2f b7 dd 3a 68 d4 28 bd ff 17 31 40 b3 3b c7 b9
       0.0016915555 -0.04121819 2.7670896 -0.00038000717
000030 05 d2 3f c2 22 40 06 3a 43 14 12 3b 53 d4 00 b9
       -47.955097 0.0005121251 0.002228991 -0.00012286128
000040 1a fe 3e 42 f5 9e e8 3a aa 1f 18 ba 9f 53 52 b8
       47.748146 0.0017747568 -0.0005803058 -5.014578e-05
000050 a8 43 3a 42 cd cd 94 ba 47 5f 3f 42 12 e1 8a 3a
       46.56607 -0.0011352837 47.843044 0.0010595641
000060 06 66 b0 39 30 48 3c c2 34 0c 38 39 7b 3b 1e bc
       0.0003364535 -47.070496 0.00017552153 -0.009657736
000070 01 3c 42 c2 08 4a 34 c2 a0 cf 36 c2 f9 15 10 3b
       -48.558598 -45.072296 -45.70276 0.0021985753
000080 7d 69 11 39 ba 31 0d b8 9f 4b 52 3f 26 5d 3b ba
       0.00013867575 -3.366333e-05 0.8214664 -0.0007147364
000090 07 66 3f c2 7e 35 83 bf 30 b6 11 c2 ba 85 39 c2
       -47.849636 -1.02507 -36.427917 -46.380592
0000a0 a5 46 19 3f 76 b7 7e 3b 22 eb 31 c2 6e 79 bd b9
       0.5987342 0.0038866675 -44.47962 -0.0003613936
0000b0 8d fe ab 3b d2 3d 58 b9 38 bf 23 39 eb 47 54 ba
       0.0052488507 -0.00020622395 0.00015616126 -0.0008097875
0000c0 8a 02 42 42 91 23 76 3b 39 d5 bd ba 04 2e da 3a
       48.50248 0.003755782 -0.0014483101 0.0016645794
0000d0 89 44 3b c2 6e bf 3b c2 f6 f9 07 c2 15 be 35 3b
       -46.81693 -46.936943 -33.994102 0.0027731706
0000e0 68 d9 a1 3a 46 ac ca 3b a1 e6 9d 39 35 2c a0 ba
       0.0012348117 0.0061850874 0.00030117205 -0.0012220206
0000f0 37 08 3f c2 a6 41 3b 42 d2 ad 78 ba 52 6e 2c 42
       -47.758022 46.81411 -0.00094863505 43.107735
000100 2b 8d a6 39 1e 21 e9 38 c9 25 e4 3a be b3 4f 39
       0.00031767166 0.00011116474 0.001740628 0.00019808018
000110 6d 10 3b c2 81 b5 3c 42 41 34 7b 3c cb 6b a0 b9
       -46.76604 47.17725 0.0153322825 -0.0003059789
000120 52 d0 66 ba 03 f6 e2 39 1e a6 3d 42 60 64 d7 bd
       -0.0008804846 0.00043289372 47.412224 -0.10517192
000130 c7 98 39 42 aa d4 42 c2 bb 6c 3e 42 a1 1b 33 3e
       46.399197 -48.70768 47.606182 0.17491008
000140 5f 0b 8d b8 75 fe 1b c1 49 02 f1 39 03 b8 ad b9
       -6.725522e-05 -9.749623 0.00045968805 -0.0003313423
000150 19 4f a6 3b 7e b9 5d ba cc f1 33 c2 14 1a 31 42
       0.005075347 -0.00084581214 -44.98613 44.275467
000160 d6 79 6a 39 d1 26 db 3a 26 37 38 42 fc f7 cc b9
       0.00022361366 0.0016719942 46.053856 -0.00039094675
000170 e9 34 39 3a 6f a1 42 42 67 e9 3d 42 5f 9a af bb
       0.0007065074 48.65765 47.477932 -0.0053589786
000180 61 cd 93 b9 f2 0b 36 c2 ba 6f fa c1 eb d5 16 3b
       -0.00028191044 -45.511665 -31.304554 0.0023015689
000190 7c 9e 3c c2 75 dc 5f b8 f3 2e 89 3e d3 47 c1 3a
       -47.15477 -5.337266e-05 0.26793632 0.0014746137
0001a0 72 54 41 42 a9 6b 36 42 11 5f cd ba 98 a3 27 c2
       48.332466 45.605137 -0.0015668591 -41.90976
0001b0 e2 4b 90 3a f6 78 3d c2 e9 99 1f 39 fb 91 40 42
       0.0011008943 -47.368126 0.00015220758 48.14256
0001c0 7e af 84 3a 5c 5b 38 c2 f7 bf 2c bb 03 c2 16 41
       0.0010123102 -46.08922 -0.0026359537 9.422366
0001d0 6e 9e b6 ba 97 57 fa c1 b8 e3 15 c2 5e 62 cb b9
       -0.0013932714 -31.292768 -37.47238 -0.00038792467
0001e0 7e 80 37 c2 5b 50 fb 3a 52 7a 15 bb b5 96 3b 3a
       -45.87548 0.0019173728 -0.0022808504 0.0007155941
0001f0 25 1c 16 3e de f4 66 3f 0c ea 16 3c 43 c8 3c c2
       0.14659174 0.9021739 0.009211075 -47.195568

weight_ih_l0 f4 [512, 20]
000000 40 0b 66 bd d5 db 1f be 85 1f fa 3a a9 f6 91 bd
       -0.056163073 -0.15611203 0.001908288 -0.07127125
000010 19 ab 2c 3c 6f bc 18 be 85 56 74 bd 66 ab 88 bd
       0.01053884 -0.14915632 -0.059652824 -0.06673317
000020 ac 02 84 3c 62 04 0c be f9 e5 2c be 03 f4 14 be
       0.016114555 -0.13673547 -0.16884603 -0.14546208
000030 e2 f5 b9 b9 e0 95 b8 bd f5 08 45 bd 45 41 7b bd
       -0.00035469147 -0.090129614 -0.048104245 -0.061341543
000040 22 c2 af 3c 1b 39 d2 bd 02 fa f4 bd c1 66 0f be
       0.021454874 -0.10264798 -0.11961748 -0.14004041
000050 eb 6e 95 3d 61 25 c7 bb 20 80 d8 bd 5c cd 9e 3d
       0.072965465 -0.006077454 -0.10571313 0.07754013
000060 79 78 c5 bb d9 8b dd 3d 25 7e 73 3d 85 91 2d bd
       -0.0060263244 0.108176894 0.059446473 -0.042375106
000070 5f 7d a3 bd 37 ab 96 3d e3 a6 f2 3c 91 b0 0b 3d
       -0.07982897 0.073568754 0.029620593 0.034103934
000080 e0 36 73 3d fd 92 f0 bc a2 71 3c 3d f0 21 e2 3d
       0.059378505 -0.029366964 0.046006806 0.11041629
000090 a1 41 e6 bd ee 9c 48 bd f0 f6 a5 3d c5 40 d8 3d
       -0.112429865 -0.048977785 0.0810374 0.10559229
0000a0 41 d3 bd 3d 8a 5e a5 3d 2e aa b8 bc 3a c5 a8 3d
       0.09268809 0.080746725 -0.022542085 0.08240743
0000b0 28 ec 0a bd 10 50 0a 3c f6 74 2c 3d 68 18 55 bb
       -0.033916622 0.00844194 0.04210373 -0.0032515768
0000c0 9e f2 56 bb 88 12 6b 3c ba 7b 99 3d 68 8f 0a 3e
       -0.003279842 0.01434768 0.07494302 0.13531268
0000d0 ab ff 30 3c c2 d4 ee 3b 5e 2b aa 3d 43 62 95 3b
       0.0108031435 0.0072885463 0.08309053 0.004558833
0000e0 e9 ec d1 bd a4 39 09 3e b5 26 ec 3c b3 94 f4 3d
       -0.10250265 0.13400894 0.02882705 0.119424246
0000f0 3b 4a 09 be cf 14 bd bd 1b d3 38 3d 76 f0 e7 bd
       -0.13407223 -0.092324845 0.0451232 -0.11325161
000100 fc 31 f9 3d f3 a1 84 3c dc 48 c6 bc e3 fe 6a bd
       0.12167737 0.016190505 -0.024204664 -0.057371985
000110 4a ea 23 bd fb 40 f5 bd 2c cd 25 bd 28 a6 8d bc
       -0.040018357 -0.11975285 -0.04047887 -0.017291144
000120 5e 19 a4 bc 2c d1 18 3d 31 12 b7 bd 10 1d 23 bd
       -0.020031627 0.037308857 -0.089390166 -0.039822638
000130 ad be ef 3d fb b5 b4 bd 4a 1e 99 bd c5 ac 05 be
       0.117062904 -0.088237725 -0.0747648 -0.13054188
000140 09 f3 e7 bd a0 d0 af bb f4 60 ce 3d a0 a2 94 bd
       -0.11325652 -0.005365446 0.10077086 -0.07257581
000150 a1 a9 90 3c 35 3c 42 3c aa f0 e9 bd 00 0d d9 bd
       0.01765901 0.011855175 -0.11422856 -0.10598183
000160 ff 48 15 3e 58 fb 1e be 21 8c f7 bd 55 6b 50 3c
       0.14578627 -0.15525568 -0.12087274 0.012720902
000170 ac fe 8d bd 0d c6 00 3c c9 21 20 be 02 cd 18 be
       -0.069333404 0.007859719 -0.15637888 -0.14921954
000180 83 01 d6 3b 67 e3 68 bd 45 18 58 bc 84 43 9d 3c
       0.006530942 -0.056857493 -0.01318938 0.019197233
000190 6c bd c5 3c e1 30 ae bd fd da f5 3c 24 48 8c bd
       0.024138175 -0.08505417 0.030011648 -0.06849697
0001a0 79 27 50 3d 35 45 b3 bd e9 f6 81 3b 75 13 cf bc
       0.050818894 -0.087534346 0.0039662016 -0.025277833
0001b0 f4 aa aa 3d b5 73 17 3b 95 18 61 bd ab 82 cb bd
       0.08333388 0.0023109738 -0.054955084 -0.09937032
0001c0 c5 1b c2 bc 51 b1 dd bd 87 89 04 be 4b ea 49 bd
       -0.023694882 -0.10824836 -0.12943088 -0.049295705
0001d0 6d 49 94 3c 1a 2a dc bb 49 cc 9e bd 1d 3f 32 3d
       0.018101418 -0.006718886 -0.07753808 0.04351722
0001e0 e3 ae 37 bd 06 e8 54 bd 88 f5 c5 3d 5f e2 e5 bd
       -0.04484452 -0.051979087 0.09665972 -0.112248175
0001f0 7a d0 2e 3d d5 ed 2f 3c 5b 0f 60 bd 52 a6 e5 bd
       0.042679287 0.010737856 -0.054702144 -0.11213364
000200 82 db 8b 3d 65 ce f2 bd 14 01 1d be f7 96 08 3c
       0.06828977 -0.11855773 -0.15332443 0.008336774
000210 86 ed 1f bd 02 51 b8 bd 9d 79 09 be 84 dc de bd
       -0.03904488 -0.08999826 -0.13425298 -0.10881904
000220 f8 42 99 3d 65 7c ff bd 1d 66 ce bc 67 fe 32 bd
       0.074834764 -0.12474898 -0.025195176 -0.04369965
000230 5c d6 0c 3c 11 8e 16 be d3 35 5a 3d b2 c2 57 bd
       0.008596029 -0.14702632 0.053273987 -0.05267591
000240 10 18 f5 3d e9 c8 aa bb e5 66 e1 ba 75 ec 38 bd
       0.1196748 -0.0052119386 -0.0017196803 -0.045147378
000250 a8 f2 fe 3d 1a 8e db bd 6d 2a 50 bd 2d f2 f9 bd
       0.12448627 -0.10720463 -0.05082171 -0.122043945
000260 30 c5 16 bd 58 9a d6 bc df d0 12 bd b2 db 01 3c
       -0.036809146 -0.026196644 -0.035843726 0.007925915
000270 bb 83 0c 3e dc 5a 06 be 62 9a 94 bd c0 ec dc bd
       0.13722126 -0.13120598 -0.07256009 -0.10787344
000280 73 39 17 bb 3f 0f e8 bc a1 00 e3 3c 66 89 79 bd
       -0.0023075014 -0.028327582 0.02771026 -0.06092205
000290 e3 fe a8 3d 20 db b7 bc 99 63 05 bd 2d f1 e9 3b
       0.08251741 -0.022443354 -0.032565687 0.007139346
0002a0 92 54 10 3e d8 ce 87 bd e8 86 0f be 66 77 bb bd
       0.14094761 -0.06631249 -0.14016306 -0.09153633
0002b0 58 83 86 bd 3b 52 ec bd ab d3 8b bd b8 14 99 bd
       -0.065680206 -0.11539122 -0.06827482 -0.07474655
0002c0 f3 87 c0 3d 17 25 02 be e3 00 11 be 07 b9 77 bd
       0.0940093 -0.12709461 -0.14160495 -0.06047919
0002d0 98 1b 48 bd e8 ec 48 bd 8f a5 dc 3d 03 43 8d bd
       -0.04885444 -0.049054056 0.10773765 -0.06897547
0002e0 57 be 48 bd 1f e5 ee bd 17 40 e6 3b ee b7 ef bd
       -0.049009647 -0.11664795 0.007026683 -0.11705004
0002f0 a9 1e 38 bd 12 d5 6a bd 81 8e 2b bd 2f ac 0d bc
       -0.044951115 -0.057332106 -0.04188395 -0.008647009
000300 e6 63 66 bd 91 5e 6c bd 0d d0 88 bd c5 b2 53 3b
       -0.056247614 -0.057707373 -0.066803075 0.00323026
000310 a2 b6 0e bb e6 ca e9 bc 26 3b 49 bd e4 3a f2 bc
       -0.0021776338 -0.028539132 -0.049128674 -0.029569097
000320 f8 91 dd 3d d9 d4 9e 3a c2 88 e3 bd a5 af 10 3e
       0.10818857 0.0012117877 -0.11110069 0.14129503
000330 3c c4 31 bd 44 74 81 3c f3 7c d9 3d 9f d8 87 3c
       -0.043400034 0.01580251 0.10619535 0.016582785
000340 57 7a 1d bd 50 3a 5a 3c 94 16 13 3e fa 0a 07 3e
       -0.03844675 0.013319567 0.14364082 0.13187781
000350 73 1e 18 3e 85 6c ab 3d 46 ff e6 3d 7b 02 cb 3d
       0.14855365 0.08370308 0.11279158 0.099125825
000360 4b 14 02 be 94 e7 23 3d 8e 76 0d 3e d7 8c 26 3d
       -0.12703054 0.040015772 0.13814756 0.04066166
000370 38 b8 b7 bc b8 3a 94 bd 84 68 c4 3d 1f c2 16 bb
       -0.02242671 -0.07237762 0.09590247 -0.0023003889
000380 43 8c e3 3d 00 77 6d bd fa b5 d4 bd 4f 2d 9b bd
       0.11110737 -0.057974815 -0.10386272 -0.07577001
000390 3c 4e c2 3d e0 9f 09 be 05 8a c3 bb e0 50 13 be
       0.09487578 -0.13439894 -0.005967381 -0.1438632
0003a0 a9 06 e6 bd 90 ed 13 bd 36 a1 21 be 9c a5 e4 ba
       -0.11231739 -0.03611523 -0.15784153 -0.0017444375
0003b0 c9 52 fd 3d f8 f8 99 bd 49 e5 e9 bd 21 e4 cb bd
       0.12369306 -0.0751819 -0.11420686 -0.099556215
0003c0 c3 33 0c 3e b9 44 7b 3d 1d 00 36 bb 7e 57 01 3d
       0.1369162 0.061344836 -0.0027771064 0.03157758
0003d0 c1 ac 0c be 83 c1 28 3d f2 ed 84 3c 3f 41 cc 3d
       -0.13737775 0.041200172 0.016226742 0.09973382
0003e0 97 1f 2f 3d e1 ce a5 3c de ff dc 3d b8 7f 1c 3d
       0.042754736 0.02024025 0.1079099 0.03820774
0003f0 56 f1 0f 3d e8 16 d6 3d 66 f4 2c 3c 2a 69 0c 3e
       0.035142265 0.10453588 0.010556316 0.13711992

weight_hh_l0 f4 [512, 128]
000000 42 17 ed 3d 48 fc 79 3d 60 f6 c7 3c 48 70 9e 3d
       0.11576702 0.06103161 0.024409473 0.0773626
000010 04 2c b1 3b 0f 2b 00 bc 76 96 9a 3d 83 d9 eb 3b
       0.0054068584 -0.007822766 0.075482294 0.0071975603
000020 f6 e2 72 3d 21 ad c3 3d 4d 29 15 be 17 9d 11 3e
       0.059298478 0.09554506 -0.14566536 0.14220081
000030 f1 cf a7 3d 83 a8 6f bd 19 37 2d 3d 03 0b 6e 3d
       0.081939586 -0.058510315 0.042288873 0.05811597
000040 52 ff 14 be ab e7 82 bd 24 9a a1 3d 1a 76 96 3c
       -0.14550522 -0.063918434 0.07890728 0.018366862
000050 b6 72 e6 bd 36 76 57 bd 36 46 e3 bc 0f ca a3 bb
       -0.11252348 -0.05260297 -0.02774344 -0.0049984525
000060 7c 23 62 bc d3 9c 89 3d 64 1c 8b bd bf e5 b9 3d
       -0.013802405 0.06719365 -0.067925245 0.09077024
000070 d7 d9 13 3e 22 f4 9e 3c db e9 c2 3d f8 ee f5 bd
       0.14438568 0.019403521 0.09517261 -0.1200847
000080 84 f8 f7 bd c6 39 f2 bc 23 c3 78 bd 32 dc 97 bd
       -0.121079475 -0.029568564 -0.060732972 -0.07415046
000090 6d e6 bf 3d 6d 66 87 3d be 46 e3 3d d8 1b ab 3d
       0.09370122 0.06611333 0.110974774 0.0835492
0000a0 de f4 9b bd c8 74 17 bc 41 45 bd 3d 8c 2e fc 3d
       -0.07615064 -0.009244151 0.09241725 0.123135656
0000b0 99 c9 4f bd f4 64 38 3d ec e1 09 3c 19 1b 5f 3d
       -0.050729368 0.04501815 0.00841568 0.0544692
0000c0 dd e6 1c be 30 26 e7 bb ab 2f 95 3d c4 94 b6 3d
       -0.15322442 -0.007054113 0.072844826 0.089150935
0000d0 1a 91 e1 3d 96 80 1b 3d 3b 1f 25 3e 8e e7 0f bd
       0.11014004 0.037964426 0.16125195 -0.035132937
0000e0 b2 4f d2 3d 21 76 8a bd 6f 87 b1 bd e4 7a ff bd
       0.10269107 -0.067608126 -0.0866841 -0.124746114
0000f0 39 68 1a 3e b6 58 1c bd ed fa bb 3d 32 e1 22 be
       0.1507882 -0.03817054 0.0917872 -0.15906218
000100 f7 8b a2 bc e3 b0 3d bd 2b 39 b8 3d 47 14 a0 3d
       -0.019842131 -0.04631127 0.08995279 0.078163676
000110 1a e3 a6 3b f9 c9 ac bd b4 d7 7b 3d 74 16 93 3d
       0.0050929906 -0.08436961 0.061485007 0.07182017
000120 e0 b2 10 3c 99 1a 8b bd 15 e5 0a bd 38 54 27 3e
       0.00883171 -0.067921825 -0.033909876 0.1634072
000130 54 40 aa bd 9a fc ae 3c b1 45 8d bd be a9 01 be
       -0.08313051 0.021360684 -0.06898058 -0.12662408
000140 d3 97 0c bd 8d 86 06 3e 74 1d bb 3c da fb 62 3d
       -0.03432448 0.13137265 0.022841193 0.055415966
000150 6f 65 1b be 01 9b d2 3d 83 b0 5c 3d 2e 24 0b be
       -0.15175413 0.10283471 0.053879272 -0.1358802
000160 0a 4e b2 bc b2 cd fb bd af ae 12 be 7b 45 d4 bd
       -0.021765728 -0.12295093 -0.14324449 -0.10364815
000170 fe c3 4f 3d 60 11 61 bc 52 84 0f be 3c 62 3b bd
       0.050724022 -0.013737053 -0.1401532 -0.04574798
000180 04 d8 58 3d fc 30 f0 3c 12 c7 10 3e 76 25 b2 bd
       0.052940384 0.029320233 0.1413844 -0.08698551
000190 d9 74 e8 3d 8a d7 d4 bc 65 b1 12 bd 13 c6 6f bc
       0.11350412 -0.025981683 -0.035813708 -0.014634627
0001a0 8a 85 ce bd e0 92 a9 bd 45 24 13 3e 9d ec 4b 3c
       -0.10084064 -0.08279967 0.14369304 0.01244655
0001b0 4a 72 a5 bb 51 5e 35 3d 18 73 14 3c ca 36 0e 3a
       -0.0050490247 0.0442794 0.009060644 0.00054250343
0001c0 1b d8 82 3d 27 c9 f7 3c 82 05 d7 3d 22 4c 37 bd
       0.06388875 0.030247284 0.104990974 -0.04475034
0001d0 58 79 f8 3d 29 84 d7 3d 17 50 87 bc ce 66 f6 bd
       0.121325195 0.105232544 -0.016517682 -0.12031327
0001e0 eb 30 d2 3d 59 47 d7 bc a7 5b 75 3c 80 7d 06 be
       0.102632366 -0.026279138 0.014975465 -0.13133812
0001f0 0c be 05 be 27 02 13 be 49 9a 02 be 40 89 ad 3d
       -0.13060778 -0.1435629 -0.12754168 0.08473444
000200 31 68 7d 3c 96 bd 7e 3c d7 1b 01 be 68 3f e0 bd
       0.015466736 0.0155481305 -0.12608276 -0.10949594
000210 65 53 f4 3c 68 98 29 3d b2 64 d5 3b 18 0e 3d bd
       0.029824922 0.04140511 0.006512248 -0.04615602
000220 d0 42 d6 bd 67 56 ab bd c3 74 94 3c b6 3d c2 3d
       -0.10461962 -0.08366089 0.018122083 0.09484427
000230 73 45 12 3d 98 15 af bb 17 33 df 3a 31 d8 9b 3c
       0.035710763 -0.0053431503 0.0017028776 0.019023987
000240 24 6b c0 3d 72 69 1f bd a8 53 f7 bd 10 a8 18 3d
       0.093954355 -0.03891892 -0.12076503 0.037269652
000250 23 3b 79 3d 28 b5 b6 bd 30 9d c6 bc 7e 7a 2f bd
       0.060847413 -0.089212716 -0.024244875 -0.042841427
000260 fc da 22 bc 98 3d 06 3d df 95 db 3d 53 88 6a 3d
       -0.009939905 0.032773584 0.10721945 0.057258915
000270 37 92 e1 bc 2d e2 52 bd 0f 95 f2 bd d0 0e 8e bd
       -0.027535541 -0.05148523 -0.11844837 -0.06936419
000280 fc 8f 15 be 3f 23 ac 3c 31 d2 03 3a 07 b4 da bd
       -0.14605707 0.0210129 0.00050285744 -0.10678869
000290 b1 14 23 bd c3 74 26 bd 01 d2 c9 bd e2 e7 03 be
       -0.039814655 -0.040638696 -0.09854508 -0.12881425
0002a0 e1 0d 9b bb fe b5 89 bd a8 fa c1 bd 0b 02 d7 3d
       -0.004731879 -0.067241654 -0.09471637 0.104984365
0002b0 68 b5 c7 bd bc 67 75 3d 17 89 a2 bd 82 87 28 3c
       -0.09751397 0.059913382 -0.07936304 0.010286214
0002c0 18 82 18 bd bf 78 94 3d 7d 97 2e 3d 67 3c e6 bd
       -0.037233442 0.07249593 0.04262494 -0.112419896
0002d0 d5 5c 7f bd 2e 89 16 3d d6 2d 2b bd 57 06 be bc
       -0.06234439 0.03675192 -0.04179176 -0.023196382
0002e0 6e 38 5b bd 4d 6f b4 3c 54 1b fa bd b6 d8 4b bd
       -0.053520612 0.022025729 -0.12212244 -0.04976722
0002f0 eb b5 8d bd 46 93 aa 3d 71 c3 e1 3d ee 15 54 bc
       -0.06919464 0.083288714 0.110236056 -0.012944682
000300 2f 4c 11 3d ed b8 06 be af af 01 be 91 be 4f 3d
       0.035473045 -0.13156481 -0.12664674 0.050718848
000310 c8 7f d6 bd cf f7 a1 3c a7 0d fa bd a0 49 78 3b
       -0.10473591 0.019771485 -0.12209635 0.003788568
000320 b2 d4 d6 bd d3 b3 0f bc 9a 29 9d bc df 48 20 bd
       -0.10489787 -0.008770901 -0.019184876 -0.039131995
000330 36 b2 95 3d ef f2 12 3d 9a dd 72 3d 45 cd fb 3d
       0.07309382 0.03587621 0.059293367 0.122950114
000340 03 ea 23 be 25 2c 13 3d be f2 74 3d b7 6b 10 3e
       -0.16007237 0.03593077 0.05980181 0.1410359
000350 e6 61 bf 3d ca bb 19 be 54 e0 aa bd f6 29 c7 3c
       0.093448445 -0.15013042 -0.083435684 0.024312
000360 27 e3 e9 bd 06 3f fb 3c 99 76 3d 3b c9 87 d7 3b
       -0.11420279 0.0306697 0.00289098 0.006577466
000370 8c 06 b3 bd 6a 68 72 3d 73 dd b3 3d 63 ec 2a bc
       -0.08741483 0.05918161 0.087824725 -0.010432336
000380 53 1c 88 3d 03 cf 0d bc ea 31 13 be 88 74 e3 3c
       0.066460274 -0.0086553125 -0.1437451 0.027765527
000390 e3 e8 c6 bc 0b 79 99 3d 38 1d 80 3d 59 a4 b4 bd
       -0.02428097 0.0749379 0.06255573 -0.08820409
0003a0 cf d6 23 bc 21 78 ae 3b c9 51 43 3c b0 72 fd bd
       -0.009999945 0.005324379 0.011921355 -0.123753905
0003b0 a9 9c 0c 3e 9d ab ac bd e0 14 7e 3b 37 fc a9 3d
       0.13731636 -0.0843117 0.0038769767 0.08300059
0003c0 3d 05 aa bd ee f4 b6 bd a7 61 00 be 60 be 4d 3c
       -0.083017804 -0.089334354 -0.12537251 0.012557596
0003d0 f9 40 8a 3d b1 d9 98 bd 23 f9 9f bd f5 d5 11 bd
       0.06750674 -0.07463396 -0.07811191 -0.035604436
0003e0 80 17 c2 bd ab 58 b9 bd fe 2f 21 3d 0c 5c 9c 3b
       -0.094771385 -0.09050115 0.03935241 0.004771715
0003f0 c1 dd 07 bd 36 7a 9e 3d f5 f4 df 3d 48 3d 03 be
       -0.033170465 0.07738154 0.10935394 -0.12816346

bias_ih_l0 f4 [512]
000000 3b e4 0d be 4c 9b c9 3d 3a e1 f2 3b 2d 81 85 3c
       -0.13856594 0.09844074 0.007412103 0.016296947
000010 a6 00 64 bd 0d 3f dd bd 96 69 c8 bd 1a 35 d1 bd
       -0.05566468 -0.108030416 -0.09785764 -0.102152064
000020 42 3c 5f bd 71 91 94 3b 17 1e 4e bc 8b 40 0c bc
       -0.054500826 0.0045339395 -0.012580416 -0.00856031
000030 83 9d c4 3d 3e 45 08 be 1d 18 a2 3c 7e 01 72 bc
       0.096003555 -0.13307664 0.019786889 -0.014770864
000040 cd 3e a8 3d cf ef 13 be 33 5b 13 be 29 78 26 be
       0.08215103 -0.14446948 -0.14390258 -0.16256775
000050 4f 74 28 3d 9d 55 d0 bd 3e 45 39 3d 31 fa 77 bd
       0.041126546 -0.101725794 0.04523205 -0.060541335
000060 fc 5e be bc 62 2e b3 3b d6 c9 8c 3c 9c 4d 44 bc
       -0.023238651 0.0054681757 0.017186087 -0.011981394
000070 f1 00 a9 3d 16 14 02 3d 06 32 52 bc 4a e3 f7 bd
       0.08252133 0.031757437 -0.012829309 -0.12103899
000080 f3 cf db bd 88 42 cb bd 70 96 3f bc 7d 6e a2 bc
       -0.107330225 -0.09924799 -0.011693582 -0.019828076
000090 47 d8 25 3e 36 e1 f2 3d e0 63 e8 bb 82 a8 90 3d
       0.16195785 0.11859362 -0.007091984 0.0706339
0000a0 18 f3 28 3d 42 d7 99 3c 76 59 9a 3c 65 4e 69 3b
       0.041247457 0.0187794 0.018841486 0.0035599705
0000b0 d5 cd 07 be ca 6f 7f bd a1 a7 da bd 8a ee ca bd
       -0.13262112 -0.06236247 -0.10676504 -0.09908779
0000c0 dc 5c 73 3d 8b ab a6 bd 2c 9f 65 bd 63 30 17 be
       0.05941473 -0.08138188 -0.05606 -0.14764552
0000d0 32 55 f3 bb 9b 30 22 3d e9 ff 11 3e be 22 07 be
       -0.0074259276 0.039597135 0.14257778 -0.13196847
0000e0 19 25 9d bd fa 02 d2 3c 1f 47 b9 bc 81 b2 f3 3b
       -0.076730914 0.025636185 -0.022616921 0.007437051
0000f0 41 e5 b7 3b f6 f8 c7 3c 71 3f bc bc bd 7c 0f 3e
       0.005612046 0.024410706 -0.02297947 0.14012428
000100 d8 85 1a be 28 61 45 bd ae c8 e5 bd 64 8d c5 bb
       -0.1509012 -0.04818836 -0.11219917 -0.006028818
000110 a8 09 c5 3d d8 79 9e 3c 81 95 96 3b ec 8c 26 be
       0.096209824 0.019345209 0.004595459 -0.16264695
000120 2c 79 04 be 83 08 0a be 80 74 57 3d ce 66 3c 3d
       -0.12936848 -0.1347981 0.052601337 0.04599648
000130 0f 68 f1 3d 71 fa 8a 3d 0d b6 b3 3d ff 8c f6 bc
       0.11787426 0.06786049 0.08774958 -0.030096529
000140 c8 23 e5 bd 7f ae a9 bc d2 55 fd bd 0d 61 12 be
       -0.11188465 -0.020713089 -0.123698846 -0.14294834
000150 81 da e8 bd 1f db a5 bd ed ba 1a 3e 4d 7f 7f 3d
       -0.11369801 -0.08098435 0.15110369 0.062377263
000160 a0 ac d9 bd 92 35 1c be ec 23 d4 3d 01 a4 59 bd
       -0.10628629 -0.1525481 0.10358414 -0.053134922
000170 ba 18 12 be eb 77 fc 3d 60 bf 05 3e c9 c2 0d bd
       -0.14267245 0.1232756 0.13061285 -0.03460959
000180 a8 de 83 bd 52 8b 0c 3e b1 1b 4b 3d cd bf 00 be
       -0.06438953 0.13725021 0.049586955 -0.12573166
000190 1d 92 0c 3e e3 a8 8b bd b6 9b 20 3d 46 e7 f0 bd
       0.13727613 -0.06819322 0.039210998 -0.11762862
0001a0 0a e5 a7 3c 2e 48 c9 3d 47 54 a1 bd 67 54 9a 3d
       0.020494957 0.0982822 -0.07877403 0.0753563
0001b0 97 4f 8f bd a4 eb 12 3e 39 fb 51 bd 57 9f a0 bb
       -0.069976024 0.14347702 -0.051264975 -0.0049018073
0001c0 06 6d c4 bd b4 8c 92 3d 2e e0 03 be 50 10 19 ba
       -0.09591107 0.07155743 -0.12878487 -0.00058389176
0001d0 42 0c de bc 2a 2e d9 3d 6f fb 5e 3d 01 8e 18 be
       -0.027105454 0.10604508 0.054439005 -0.1489792
0001e0 07 a7 7d 3d 81 a4 97 bc 34 a3 00 be 85 90 bf bd
       0.061926868 -0.018511059 -0.12562257 -0.09353737
0001f0 5e 59 96 bd b8 e4 cc 3d ce a5 da bd 1a 6b 61 3b
       -0.07341264 0.10004562 -0.10676156 0.0034396113
000200 99 67 13 be 66 02 4b bc b8 85 fb 3d ae ed a7 bd
       -0.14394988 -0.012390709 0.12281364 -0.08199631
000210 0a 42 3b bd 1b e7 ed bc 72 72 07 be 41 19 f0 bc
       -0.045717277 -0.029040864 -0.13227251 -0.029308917
000220 58 f5 c4 bc d7 15 27 bd 2c 91 13 3d b6 34 62 bd
       -0.02404277 -0.040792312 0.03602712 -0.05522605
000230 f6 06 15 3e 0f 12 0b be 69 c6 a3 3c 35 cb dc bc
       0.14553437 -0.13581108 0.01999207 -0.026952365
000240 4b 53 18 3d 87 86 ea bd f7 03 28 be 72 5a 0d be
       0.03718881 -0.1145144 -0.16407762 -0.13804033
000250 f7 fa fe 3d 30 77 00 be bc f5 01 3e 3e 8e c4 bd
       0.124502115 -0.12545466 0.12691396 -0.09597443
000260 c5 2e d1 bd 7c 33 c5 3d 23 76 02 bc 9b 1f 72 bd
       -0.10213999 0.096289605 -0.007962736 -0.059112173
000270 f0 c7 e3 3b 8b 1d ba 3d e4 a0 b0 3d 35 c0 e6 bd
       0.0069513246 0.09087666 0.086244375 -0.11267129
000280 fd 4e 0b bc 87 45 97 bd 89 63 cd bd 51 a0 07 bd
       -0.008502719 -0.07386308 -0.100287504 -0.033111874
000290 40 04 25 3d 63 ad ba 3c b1 8f 89 bc a7 d6 76 3d
       0.040287256 0.022787755 -0.01679215 0.060263302
0002a0 e6 a1 a9 bd 58 2a 1d be 1e 99 21 3d b6 77 7c bd
       -0.08282833 -0.15348184 0.039452665 -0.061637603
0002b0 03 ed 2f bd f9 6c fe bd 98 ac 7d bd c3 cb d6 bd
       -0.04295064 -0.12423129 -0.061932176 -0.10488083
0002c0 27 6f e7 3d 86 d8 91 3c 1b 5b 97 3b 0a dd ef bd
       0.113004975 0.017803442 0.004619015 -0.11712082
0002d0 7e 50 cb 3d 70 0e 01 3e fa e1 4a 3d c5 4b 17 be
       0.09927462 0.12603164 0.049531914 -0.14774998
0002e0 4a 18 46 3c 83 6d fb bd 8d d8 08 be b3 6a ff bd
       0.012090752 -0.12276747 -0.13363858 -0.12471523
0002f0 20 87 22 3e a6 7a ef 3d 68 9f 67 bd 79 81 1a 3e
       0.15871859 0.11693315 -0.056548506 0.15088452
000300 24 26 bd bd 93 27 6a bd 17 3a c3 bd d5 dc b2 bc
       -0.0923579 -0.057166647 -0.09532564 -0.021833817
000310 dc 91 8c 3d 70 85 43 3c f3 60 e3 bd a7 3d 0c be
       0.06863758 0.011933669 -0.11102476 -0.13695394
000320 07 36 25 be e2 91 f7 ba d5 5d fe 3d e8 5a 62 bc
       -0.16133891 -0.0018888081 0.12420241 -0.013815619
000330 be ce f7 3c 6a 9b cd 3c cb 4f b8 3c 0f 44 f2 bd
       0.03024995 0.025098521 0.022498986 -0.118293874
000340 e2 07 10 be 65 65 df 3c ff 0c 8f bd fc 70 74 bd
       -0.14065507 0.027270028 -0.06984901 -0.059678063
000350 64 dc a7 bd 8b a4 ac bd 80 74 db 3d 49 a9 6f 3c
       -0.08196333 -0.084298216 0.1071558 0.014627763
000360 dd 72 8f bd fb 5f b4 bd 05 50 52 bc 63 45 d3 bd
       -0.0700433 -0.08807369 -0.012836461 -0.10315969
000370 00 7e c5 bd c7 e8 5c 3d c9 88 76 3d fd 5f 01 be
       -0.09643173 0.05393293 0.060189042 -0.12634273
000380 6e cf 04 be 93 94 43 3d eb b5 92 3d fb 4d e2 bd
       -0.12969753 0.047749113 0.07163604 -0.1105003
000390 a4 ea c0 3d 27 48 16 be 64 1f 12 3d bf fa 38 3c
       0.09419754 -0.14675961 0.035674468 0.011290251
0003a0 b0 c1 b0 3d 57 fc c2 3d 86 f8 9a bd 86 84 ad 3d
       0.08630693 0.09520786 -0.07566933 0.084725425
0003b0 7a 1d de bd a5 97 8e 3c ff d1 b4 bd c8 c7 89 3d
       -0.10845466 0.017406294 -0.08829116 0.067275584
0003c0 c0 7f a7 bd 7b ab ce 3d 0d 1a c8 3a e9 ec 4e 3d
       -0.08178663 0.10091301 0.0015266553 0.050518904
0003d0 83 48 d1 bd ba 6f 27 3d 0d d3 9a 3d 48 14 07 bd
       -0.10218909 0.040878035 0.07559786 -0.032978326
0003e0 7c 43 5d 3d 89 78 75 bb c2 ff ff bd 3f 76 08 3b
       0.054019436 -0.0037455878 -0.12499954 0.0020822433
0003f0 76 da fe bd 43 a5 ae 3c 61 e6 0f be a6 81 f1 3c
       -0.12444012 0.021319037 -0.14052726 0.029480767

bias_hh_l0 f4 [512]
000000 1c 18 df bc d3 af 12 3d 89 5e 13 3c c7 1b 46 bd
       -0.027233176 0.03581221 0.008994707 -0.048366334
000010 6f 0f 5d bd 0c 82 a2 bd e5 8b c5 bd 72 67 cb bd
       -0.053969797 -0.07934961 -0.096458234 -0.0993184
000020 42 c8 f0 bd ab 11 d2 bd 5f bb ca 3d f6 fa 2a bc
       -0.11756946 -0.10257276 0.098990194 -0.01043581
000030 a2 ce ce 3d 3c a0 03 be 8b f4 cf 3a 65 3b 9f bd
       0.10098006 -0.12854093 0.0015865726 -0.077750005
000040 c7 9a 10 3d f5 6b 22 bc e9 31 f4 bc e8 ef 15 be
       0.035303857 -0.009913434 -0.029808955 -0.14642298
000050 be da a9 3d df ee c2 bd d0 c1 77 3c e7 c7 9e bd
       0.08293675 -0.09518217 0.015121892 -0.07752972
000060 f5 8a 2b 3c f7 a7 85 3d 7c 92 b8 3b cf ec 19 be
       0.010470142 0.065261774 0.0056326967 -0.15031742
000070 0c 21 0e 3d 47 db ba 3b 7f e2 b8 3c 08 38 f8 bd
       0.034699485 0.0057024094 0.02256894 -0.12120062
000080 69 78 0f bd eb 71 86 bc 60 1d 8a 3c d9 e6 c1 bd
       -0.03502694 -0.016411742 0.01685971 -0.09467859
000090 8b 66 c7 3d 72 94 c7 bc 12 83 13 3e 1b 51 f9 3d
       0.097363554 -0.024362776 0.14405468 0.12173673
0000a0 e6 3c 76 bc d7 37 41 bd 97 66 ca 3d da f9 22 be
       -0.015029168 -0.047172394 0.09882849 -0.15915623
0000b0 7d 3f a7 bd 66 4b e4 bd 64 c3 cb bd 92 a3 b1 39
       -0.08166406 -0.111471936 -0.09949377 0.0003388194
0000c0 f4 d9 89 3d b8 ea 95 bc da 86 ff bc 52 b2 21 be
       0.067310244 -0.0183004 -0.031192232 -0.1579068
0000d0 77 48 ef 3d 2d da 06 bc 9a b5 13 3e b0 80 58 bd
       0.116837434 -0.008230728 0.14424744 -0.0528571
0000e0 bc 44 a6 bd 9a 4c 64 bc 62 91 ce ba 87 44 01 be
       -0.08118579 -0.013934279 -0.001575988 -0.12623797
0000f0 2f 4e 8e 3d 34 b4 9d bc 5d 85 f7 bd 6b f7 10 3e
       0.06948506 -0.019250967 -0.12085984 0.14156882
000100 17 c8 af bd d0 37 69 bd da 8f d8 bc 26 ff ee bd
       -0.08583086 -0.056937993 -0.026435781 -0.116697595
000110 99 04 53 3d d6 6a 03 3d dc 84 8f bd e6 78 72 bd
       0.051518057 0.03208431 -0.07007763 -0.05919733
000120 ce 15 e7 3c bf 47 a2 bd 9c 8d f6 3c c9 2f 22 3c
       0.02820864 -0.07923841 0.030096821 0.009899088
000130 6d 43 32 3d d2 61 af 3d 10 cc 04 3d da ad 29 3b
       0.043521333 0.085635796 0.03242117 0.0025890977
000140 bc d8 de bd b7 88 25 3d 96 0c 02 bd bd 04 02 be
       -0.108811826 0.040413585 -0.031750284 -0.1269712
000150 e5 fe 07 be 20 cd da bc d5 bb a3 3b e8 dd 32 bc
       -0.13280828 -0.02670914 0.0049967566 -0.010917164
000160 9c 98 fd bd 3f 2f 82 bd ea be fc 3d 1a ed 1b bd
       -0.123826236 -0.06356668 0.123411015 -0.038067915
000170 2b 5c c7 3b 18 e7 d4 3d 78 b0 52 3b 05 c4 5b b9
       0.0060839853 0.1039564 0.003214864 -0.0002095849
000180 f6 97 2e bd 54 69 f9 bb 98 b9 6d 3d 16 ca 67 bd
       -0.04262539 -0.007611433 0.058038324 -0.05658921
000190 a0 78 90 3d 93 34 a5 bd 68 c9 fe 3a b3 7d 46 bd
       0.070542574 -0.08066668 0.0019438686 -0.04845972
0001a0 c6 ee 2b 3d 4a b9 9d 3d a2 65 08 be 98 48 a0 3d
       0.04197576 0.07701357 -0.1332002 0.07826346
0001b0 8f 07 82 bc be 71 cd 3c 70 f4 9a bd 63 58 34 3d
       -0.015872745 0.02507865 -0.07566154 0.044029605
0001c0 fc a1 8f 3c 06 18 1d 3e 5f a0 ae bd bf 5d d2 3d
       0.017533295 0.15341195 -0.08526682 0.10271787
0001d0 28 d5 5c bd d1 34 66 3c c8 cc e6 3c e6 b2 4d 3a
       -0.05391422 0.014050678 0.02817382 0.00078467873
0001e0 61 b0 4f 3d 80 5c 89 bd 5a fc f4 bd 85 3d f2 bc
       0.050705317 -0.06707096 -0.11962195 -0.02957035
0001f0 34 e7 90 bd ce ff 83 bd 4f 7b 02 be 2d 04 cd 3d
       -0.070753485 -0.06445275 -0.12742351 0.10010562
000200 ca 11 bd bc 77 fc 12 3d 68 33 f6 3c 27 1a a9 bd
       -0.023079772 0.0358853 0.03005381 -0.08256941
000210 64 79 51 bc f3 3e 82 3b da 33 19 be d9 40 c0 3b
       -0.012785289 0.0039747893 -0.14961186 0.0058671054
000220 69 5b 2a bd ab 0b 5f 3c 8d 6d 8c bd f4 e3 c2 bd
       -0.04159108 0.013613622 -0.06856833 -0.09516135
000230 69 50 78 3d 30 a2 86 bc b6 8d 03 bd 57 f3 2f be
       0.06062356 -0.016434759 -0.032117568 -0.1718267
000240 14 a8 1a 3d 08 a0 be bc 85 41 ef bc 38 4f 6c bb
       0.037757948 -0.023269668 -0.029206047 -0.003605796
000250 0a 1c 8b 3d c4 f5 fc bc c6 4d b6 3d bd c4 12 be
       0.067924574 -0.030878909 0.08901553 -0.14332862
000260 d0 c6 22 be ac 08 ef 3d 0f 88 2d bd b4 88 11 be
       -0.15896153 0.11671576 -0.042366084 -0.14212304
000270 b3 d5 6c 3d 0f 6a b2 bc 1e 00 b5 3d a0 f3 d4 bd
       0.057820987 -0.021779088 0.08837913 -0.1039803
000280 f7 0e 89 bd 34 c3 c4 bd 22 e6 43 bd 44 e6 97 bd
       -0.066923074 -0.096075445 -0.047826894 -0.074169666
000290 eb 6e 26 3d 63 7b 0a bd 09 f7 2a 3d 2c ec 36 bc
       0.040633123 -0.033809077 0.041739497 -0.011164706
0002a0 a8 d4 b7 bd 81 2e fe bd cb cf c2 3b 17 17 1b be
       -0.08976108 -0.12411214 0.005945181 -0.15145527
0002b0 28 b3 c6 bc a7 df 12 bc b3 93 9e bd b9 de 2a bd
       -0.02425535 -0.008964456 -0.07743015 -0.04171631
0002c0 41 8e 66 3c 96 d7 00 be ba 72 7b bd f8 48 3d 3a
       0.014072002 -0.1258224 -0.06138871 0.0007220651
0002d0 ad be 96 bc 4e 7f 6c 3d 3c 2b 61 3d fe 09 d7 bc
       -0.018401468 0.057738595 0.054972872 -0.026249882
0002e0 7e 19 bd bc d3 2e 39 bd 01 68 1e be f1 a9 18 be
       -0.023083445 -0.04521067 -0.15469362 -0.14908578
0002f0 74 62 e9 3c ef c2 a1 3d 68 c6 0b bd 5a 22 bb 3d
       0.028489329 0.07898509 -0.03412476 0.091374114
000300 3e 0a 53 ba 25 46 0e bd d1 d2 07 be 90 59 8e bc
       -0.00080505374 -0.034734864 -0.13264014 -0.017376691
000310 aa 7a 64 3b bf d5 02 3e d7 bf 0a be 00 99 c5 ba
       0.0034863153 0.1277685 -0.13549744 -0.0015075505
000320 82 7a d6 bd f5 36 4e bd 06 85 b2 bc 42 c4 b1 bd
       -0.10472585 -0.05034538 -0.021791946 -0.08680011
000330 27 4f 85 3d bc 9a 9a 3d c7 49 f7 3d e1 6b 8c bd
       0.06509238 0.075490445 0.12074619 -0.06856514
000340 92 40 cf bd 77 05 df 3d 93 1c da bc 75 15 1b bd
       -0.10119738 0.10889714 -0.026624953 -0.03786226
000350 b0 df ba bd 4e 4b be bc fa 2a 1e 3e ba 8a c1 3d
       -0.09124696 -0.023229267 0.15446082 0.09450288
000360 d2 61 0e be 0a c1 3c bd bb fc c8 3c be a9 07 be
       -0.13904503 -0.046082534 0.024534574 -0.13248345
000370 e0 1a ff bd 73 ea ec 3d b1 80 ef 3d b2 06 ed 3b
       -0.12456298 0.11568155 0.11694468 0.007233464
000380 84 e8 2f be 86 c2 09 bb 8f 23 d9 3d 48 79 8a bd
       -0.17178541 -0.0021020486 0.106024854 -0.06761414
000390 d4 2c 28 3d 63 ba 54 bc 52 aa 2e bc d1 81 34 bb
       0.041058376 -0.012983891 -0.010660725 -0.0027543197
0003a0 64 f8 b1 3c 4d fc 1b 3e d9 6f 3b bd 59 c4 63 3d
       0.021724887 0.15232964 -0.045760963 0.055607174
0003b0 54 ca 67 bd 42 16 13 3e 9c 9b 02 be 73 72 da 3c
       -0.05658944 0.1436396 -0.12754673 0.026665902
0003c0 62 5b 0c be e1 a5 10 3d 93 ac 81 bd b6 49 9a 3d
       -0.13706735 0.035314444 -0.06331744 0.075335905
0003d0 1e ed a5 bd a7 ff 07 3d 9d 46 7a 3d e6 26 43 bd
       -0.08101867 0.033202793 0.0611025 -0.04764452
0003e0 e5 33 b3 3d af 44 88 bd 61 f1 21 3c d0 7e 45 bd
       0.087501325 -0.06653725 0.009884209 -0.04821664
0003f0 e6 71 c1 bc 5e 0d b9 bd 88 a3 0a be 09 a1 5c 3d
       -0.023613881 -0.09035753 -0.13538945 0.053864513

weight f4 [256, 128]
000000 23 74 35 3d eb 62 2b 3c 3c d5 13 3d af 99 79 3d
       0.04430021 0.010460596 0.036092028 0.06093758
000010 53 b7 95 bb 01 a0 18 bd de a9 91 3c f3 46 e2 bd
       -0.004568973 -0.037261967 0.017781194 -0.11048689
000020 ec 80 0e bd e8 6b 27 3c e2 72 24 3c 5d c2 84 3c
       -0.03479092 0.010218598 0.010037156 0.01620596
000030 06 f2 3a 3d 90 7d e9 bd c4 24 6b bc 41 f2 a5 bd
       0.045640968 -0.11400902 -0.014352027 -0.08102847
000040 57 44 52 b9 3d 01 6d bc 65 53 c5 bd 5e 16 5c 3d
       -0.00020052619 -0.014465627 -0.09635047 0.05373227
000050 8e b4 9a 3d 66 0c 23 bb 95 17 55 bd ff 10 24 bd
       0.07553969 -0.0024879216 -0.052024443 -0.04005527
000060 7c c2 d6 3d dd 90 04 bd bf 47 0a 3e 15 c6 be 3d
       0.10486314 -0.032364715 0.13503931 0.09315125
000070 a7 b2 ab bb c9 87 ba bc 96 30 ac 3c 58 67 ec bd
       -0.005239803 -0.022769826 0.021019261 -0.11543149
000080 23 e6 fa bc c7 84 88 3d 0c 5b d3 3c 5a b6 22 be
       -0.030627316 0.0666595 0.02580025 -0.15889874
000090 53 30 95 bd 5f fe 4c 3d 3d 83 01 bd 8a fc b1 3d
       -0.07284608 0.050047275 -0.0316193 0.08690746
0000a0 aa ad 95 bd d1 dc 26 bd b0 65 32 3c 9c c7 21 3d
       -0.073085144 -0.04073793 0.010888502 0.039497003
0000b0 e2 35 17 be dc 46 cd 3d e5 67 ca bd 21 f1 e6 3c
       -0.14766648 0.10023281 -0.098830976 0.028191151
0000c0 05 0d 1a bc 93 1a d9 3d 40 d5 2c 3e fb f6 a2 3d
       -0.009402518 0.10600772 0.16878223 0.07957264
0000d0 1d 00 f9 bc dd 8c 38 3d 4b 28 58 bd 6b d7 02 3d
       -0.030395562 0.045056213 -0.0527728 0.03194372
0000e0 0b 82 9b 3d b6 04 9f 3d 26 f1 a1 bd 58 d9 ac 3c
       0.07593163 0.077645704 -0.079073235 0.021099731
0000f0 66 dc 43 bd 68 41 81 3d dd 44 21 3d 2d 52 84 3d
       -0.04781761 0.063113034 0.039372314 0.06460986
000100 97 5b 07 3e cf 90 22 bc 0d 03 8a bd b0 87 19 bc
       0.13218533 -0.00992222 -0.06738863 -0.009370729
000110 b0 cc a7 bd a2 f4 cb bc ee c4 f9 bd 45 c0 01 3e
       -0.08193338 -0.024896923 -0.121957645 0.12671001
000120 86 1a 08 3e ae 5d 7a bc 30 31 4c 3d d2 78 8b bd
       0.13291368 -0.015281124 0.049851596 -0.06810154
000130 19 0a ab bd 07 ea 3a bc f5 18 11 3d d4 f5 01 3b
       -0.08351535 -0.0114083355 0.03542419 0.0019830363
000140 96 7b 92 bd 93 50 94 3c aa a4 3f 3c e0 b3 c7 3a
       -0.071524784 0.018104827 0.011696974 0.0015236102
000150 3f 8e 58 bd c9 3c 8b 3b ca 6f c4 bb d7 8e 76 bd
       -0.05287003 0.0042491895 -0.0059947716 -0.060194816
000160 de 11 02 bd ee e5 e2 bd cf 1d b3 bd ec f3 1f bc
       -0.03175532 -0.11079012 -0.0874592 -0.009762745
000170 58 eb 23 bd 56 b8 85 bd d1 be a9 bc b8 dc 2f 3e
       -0.040019363 -0.065293 -0.020720871 0.17174041
000180 68 96 c3 b9 7f cd 7f 3d 33 14 a5 3d 1c b2 b2 3c
       -0.0003730536 0.062451836 0.08060493 0.021813445
000190 70 2f 90 3d e3 05 2b 3c 4e cb a6 bd d9 3f f4 bd
       0.07040298 0.010438415 -0.08144246 -0.119262405
0001a0 11 98 ad bc f8 29 94 bd 3f 43 c5 3a 5e 97 c3 bc
       -0.021190675 -0.072345674 0.0015049948 -0.023875888
0001b0 f0 68 15 3e f4 4b 85 3d 35 82 37 39 fa ea 14 bd
       0.14590812 0.065086275 0.00017500746 -0.036356904
0001c0 24 26 f6 3d a6 00 91 3d 3c d5 8d 3d 5f cb b2 bd
       0.120189935 0.07080202 0.06925437 -0.08730196
0001d0 18 98 00 3e a6 2e fb bc ce 86 4e 3d b1 c3 a9 bd
       0.12558019 -0.030661892 0.05042153 -0.08289278
0001e0 fc 73 a5 bd b6 d7 e0 bd 0c a5 6e 3d cb 1d e5 bd
       -0.08078763 -0.109786436 0.05826287 -0.11187323
0001f0 1e a7 c0 bc 75 1e 1f bc db 1c c9 bd f5 9e 9d 3c
       -0.023517188 -0.009711851 -0.09819957 0.019240836
000200 a4 7e 5f 3c 40 9d 77 bd 41 53 c8 bb f7 a7 d0 3d
       0.013641033 -0.0604527 -0.0061134403 0.10188287
000210 02 34 f1 3c d8 44 13 bb de 04 b2 3c 28 59 d3 3d
       0.029443745 -0.0022471454 0.021730836 0.103197396
000220 10 8c 10 3d 48 e1 4d 3d 5f e7 7c 3d f1 a8 3b bd
       0.035289824 0.050263673 0.06174409 -0.045815412
000230 45 73 f8 3c 13 dd 79 3d 05 58 16 bc 76 1b 8f bd
       0.030328402 0.06100185 -0.009176259 -0.0698766
000240 00 62 55 bd 57 df 06 bd 23 0a e2 bc 56 38 6d bc
       -0.052095413 -0.032927837 -0.027592724 -0.014478764
000250 6f f0 a9 3d b8 2f 26 3c f4 3e 68 3d 43 c5 16 3d
       0.08297812 0.010143213 0.05670066 0.036809217
000260 45 23 f6 bb 59 68 8c bd a8 22 fe bd d3 da 1a 3c
       -0.0075115287 -0.0685584 -0.12408954 0.009451586
000270 db c1 5b bd 34 5f 46 3d e7 36 a7 bd a5 94 63 3d
       -0.05365167 0.048430637 -0.08164769 0.05556168
000280 ee 9a 06 3e dc 1f 27 3d 4d 07 bc 3d 0e 3b 88 3d
       0.13145038 0.040801868 0.0918108 0.06651889
000290 0c 94 ce 3c ae 2c b3 3d 98 6f 8d bd 63 86 80 3c
       0.025217079 0.08748756 -0.069060504 0.01568908
0002a0 ea d9 8b 3d 3f 13 2a 3d c6 4f 1a bd 5a 69 12 3d
       0.06828673 0.04152226 -0.037673734 0.035745002
0002b0 f8 71 c0 3d 5b b3 b1 bd 7c fd 33 3d 9d 3e 2f 3d
       0.09396738 -0.086767875 0.043942913 0.042784322
0002c0 62 40 47 bd 6b 9c 4a 3d ac b5 ee bd 1b f3 b5 3c
       -0.048645385 0.049465578 -0.11655745 0.022210648
0002d0 af 6d 14 bd 0f 2d 09 3d 9a 8d d9 ba 16 5a 14 3d
       -0.036237415 0.033490237 -0.0016597987 0.036218725
0002e0 8b bb 2a bd bb 15 6e 3d 1c 66 e5 3b d3 4c 89 3c
       -0.04168276 0.058126193 0.007000698 0.016760265
0002f0 c2 5b 9d 3b 12 83 5e 3d 0b c7 9a bd f6 63 b2 3d
       0.004802198 0.054324217 -0.07557496 0.08710472
000300 3f 6f 0b bc 25 9b 3b 3d d8 e3 9f bc ad ed cf bc
       -0.00851041 0.045802254 -0.019517824 -0.025381887
000310 34 c4 d0 bd 47 22 8d 3a 7d a8 b7 bd e0 15 9d 3b
       -0.10193673 0.0010767662 -0.089676835 0.0047938675
000320 97 68 ad bd 3d 81 ae 3d 3f cb c6 3d 5a dc a4 bd
       -0.084672146 0.08520744 0.09706735 -0.08049841
000330 a9 5e 00 bd 7b 47 c8 bd 5c 97 b3 3d 98 12 67 3d
       -0.031340275 -0.09779259 0.08769104 0.056414217
000340 27 b3 c7 3d 20 eb 69 3c 70 9a 4c 3b 47 ce 08 3d
       0.097509675 0.01427725 0.0031219982 0.033399846
000350 f4 0d 83 bd 2a 62 3c 3d 33 23 6d 3d a2 f5 2b 3c
       -0.06399146 0.045992054 0.057894897 0.010495575
000360 b2 19 99 3b ef c7 e8 3d 86 e0 1a bd a6 9c 2d bb
       0.0046722526 0.11366259 -0.03781178 -0.0026491075
000370 16 4a 31 bd e1 7a 66 3d d4 24 ed bc 46 b6 0c 3d
       -0.043283544 0.05626953 -0.028948225 0.034353517
000380 66 9a d7 bd b7 71 66 3d ef c6 a5 3c 38 18 72 bb
       -0.10527496 0.05626079 0.02023646 -0.0036940705
000390 c0 16 e5 3c 4c b8 97 bc a0 ae 31 3c d2 1f bb 3c
       0.02796495 -0.018520497 0.0108448565 0.022842322
0003a0 b4 a6 15 3d c6 11 c8 3d e0 51 ac bd a0 98 45 bd
       0.036535934 0.09769015 -0.08414054 -0.048241258
0003b0 42 80 28 3d ac 0c fc bc b3 a4 9b bc 1e ed de 3d
       0.04113794 -0.030767761 -0.018999433 0.1088507
0003c0 39 f2 06 3d 4d 29 64 bd aa 32 b7 3c da 74 6c bd
       0.032945845 -0.05570345 0.022363026 -0.057728626
0003d0 9a 5f 5f bd 7e dc b4 3b 46 4d 80 3d ab 64 64 bc
       -0.054534532 0.005519449 0.06264739 -0.013940017
0003e0 44 db 8c bd 55 2c 25 bd a0 f9 8e 3c 9e 0b e0 3c
       -0.06877759 -0.04032548 0.017453015 0.02734929
0003f0 37 78 f0 3d a3 fb 15 3d 0e 2e 42 bc c7 3a 46 bd
       0.11741679 0.036616933 -0.011851801 -0.0483959

bias f4 [256]
000000 8a 33 87 bd 0e a6 d1 3d 36 b4 4d bd 42 83 f7 3c
       -0.06601627 0.102367505 -0.05022069 0.030213956
000010 a4 04 8a bd b2 fd 24 3d 73 f9 bb 3d b1 d4 93 bc
       -0.067391664 0.040281005 0.09178438 -0.018045755
000020 bb 9b 87 bd 7e d8 af bd 12 aa 9f 3d 74 af 5d 3d
       -0.066215 -0.085862145 0.0779611 0.054122403
000030 33 bd 35 3d 2f 4b 87 bd 5c f8 62 3c 79 f5 04 3d
       0.044369888 -0.06606137 0.013853159 0.032460663
000040 20 7f 10 3d 34 c1 23 bd 43 2e ec 3c 4e d8 83 bd
       0.035277486 -0.039979175 0.028830653 -0.06437741
000050 ca 43 ab bd ba e6 71 3d 51 87 22 3b fb c5 ae bd
       -0.08362539 0.05905793 0.0024799893 -0.085338555
000060 27 72 9a bd a7 82 10 bd 47 b1 68 3d 80 54 7e 3d
       -0.07541304 -0.03528085 0.05680969 0.062092304
000070 35 d1 80 bd 57 20 a1 bd cf 0b 05 be 6c a8 1c bc
       -0.06289903 -0.078674965 -0.12992786 -0.009561639
000080 8e 7d 0a 3d 31 b1 96 bd bf 26 c5 3d aa f9 74 3c
       0.033811145 -0.07358015 0.09626531 0.014952103
000090 b6 20 8c bd 71 09 c3 bd b2 44 b3 bd a1 9f 84 bc
       -0.068421766 -0.09523285 -0.08753337 -0.016189398
0000a0 7c 6a 01 bd 84 7d 7b bd b0 7e 20 3c 9c 88 1d 3c
       -0.031595692 -0.061398998 0.00979583 0.00961509
0000b0 ee 3f 8b bd 79 b0 c5 3d 3f c2 85 bd da 80 b8 bc
       -0.06799303 0.096528 -0.0653119 -0.022522379
0000c0 e1 4d 8f bd 93 74 0f 3d 40 7d 1c bd 4d 1c 14 3d
       -0.06997276 0.035023283 -0.038205385 0.036159802
0000d0 1b 3c 50 bd 0c ed 83 3d 5c 2d 15 bd 4d e8 93 bc
       -0.05083857 0.064416975 -0.03642021 -0.018055106
0000e0 01 45 d6 bd 97 58 8a bd 2c 17 6b bd 84 09 fd bb
       -0.1046238 -0.067551784 -0.057395145 -0.0077220816
0000f0 f1 e8 1f bc c6 85 a8 bd 30 8c a7 3d 10 ab 3b 3c
       -0.009760127 -0.0822864 0.081810355 0.011454359
000100 53 9b 42 bc 83 e3 f4 3c 0a e6 89 bb 34 91 d0 3d
       -0.0118778525 0.029893642 -0.004208331 0.10183945
000110 2c 09 4e bd 5c 44 9e bd 43 f0 c9 3d e6 90 c8 bd
       -0.050301716 -0.07727882 0.098602794 -0.09793262
000120 d8 9b 96 3c b7 4b 5d 3d 9d 08 61 3d 43 d5 be bd
       0.018384859 0.054027285 0.054939855 -0.0931802
000130 66 19 4a b7 16 98 d9 bc 40 c4 13 bd 14 b7 92 bd
       -1.2046052e-05 -0.026561778 -0.03607583 -0.07163826
000140 62 fa 12 3c ad 8e 81 3d 6f 90 6c bc 80 12 a9 bd
       0.008970829 0.06326041 -0.0144387325 -0.08255482
000150 53 98 90 3d 1e e3 02 3d e9 ee 40 3d 6a 13 5a bd
       0.070603035 0.031954877 0.047102842 -0.05324117
000160 77 32 84 bd c0 e5 12 bc b2 d7 64 3d 81 93 86 bc
       -0.06454938 -0.0089659095 0.055869766 -0.016427757
000170 f6 18 c1 bd 3e c3 1a 3d 9b 27 e4 bc 44 84 4b 3d
       -0.09428589 0.037783854 -0.027850917 0.049686685
000180 7a d6 9f 3c 65 b7 da 3c 92 19 57 bc 56 cb 90 ba
       0.01951145 0.026698777 -0.013128655 -0.0011046927
000190 a2 30 2c bd b7 d8 9b 3d e9 2e 34 bc 83 95 95 bd
       -0.042038567 0.076096945 -0.010997512 -0.07303908
0001a0 fa af a4 3c 67 45 02 3d d4 43 db 3d 44 9f 9b bc
       0.020103443 0.03180447 0.107062966 -0.018996842
0001b0 e8 e6 bd 3d 5e 08 ad bd 1d 0e e7 bd 9f 5c c2 bc
       0.092725575 -0.084488615 -0.11281989 -0.023725806
0001c0 33 f4 62 3d 98 b3 dc bb 28 b5 5e bd bc 66 b5 3c
       0.055408668 -0.0067352764 -0.054371983 0.022143714
0001d0 c8 8f 7b 3d ec 67 22 3d 29 1d 70 3c 50 bc a2 bd
       0.061416417 0.03964989 0.01465539 -0.07946074
0001e0 75 fb 78 bc 00 9b a5 3c 30 3e c1 bc a1 02 b6 bd
       -0.015196671 0.020215511 -0.023589224 -0.0888722
0001f0 3f 15 14 3d cb 02 21 bc 4c ad 1d bd d9 a4 0f bd
       0.036153074 -0.009827326 -0.038495347 -0.03506932
000200 96 b3 15 bc 16 39 3c 3c 6a 04 3e 3b 33 61 e9 bd
       -0.009137055 0.01148822 0.002899433 -0.113954924
000210 17 27 88 3d cf 2f 12 3c b9 95 91 3d e4 9c 72 3a
       0.06648081 0.008922531 0.071086355 0.0009254946
000220 21 0c 97 3d cd 40 b1 bc bb 0d e2 3c a6 83 90 3d
       0.0737536 -0.021637345 0.027594438 0.0705636
000230 25 dd a5 bc 3b ba 81 bd c8 a0 87 bc bf a0 cb bd
       -0.020247051 -0.06334349 -0.016556159 -0.09942769
000240 de 78 e4 bc a5 95 95 3c 8c 7b 3b 3d 18 04 84 bd
       -0.027889665 0.018259833 0.04577212 -0.06446093
000250 ae 98 9f 3c 5c cf 86 3d 64 f6 9b bc 9f 89 85 3c
       0.019481983 0.065825194 -0.019038387 0.016300974
000260 24 39 83 bc 6f d6 8e 3c ce 78 54 bd ad 6b 7d bd
       -0.016018458 0.017436234 -0.05187302 -0.061870266
000270 50 50 f0 3c 4f 03 9c bc c7 fa da bc 5e 1f 65 bd
       0.029335171 -0.019044546 -0.026730908 -0.055938117
000280 e0 b6 ea bc 5f 28 d8 bd 5f bc 8d 3c d1 2a 30 3d
       -0.028651655 -0.10554575 0.017301736 0.043009583
000290 63 4d 46 3d 00 0b 46 3c 11 d2 b7 bc 92 ac 63 3d
       0.048413645 0.012087584 -0.022439035 0.055584498
0002a0 4a 39 7a 3b 57 64 67 bd 39 fb 64 bd 5e da 0f bd
       0.003818112 -0.056492176 -0.055903647 -0.03512036
0002b0 8b 69 3b 3c ec da 8e bc b1 33 92 3d b2 df 41 bd
       0.011438738 -0.017438374 0.071387656 -0.047332473
0002c0 cf 59 cc bd 54 b8 35 3d 96 0e a4 bb 80 66 43 3d
       -0.09978067 0.044365242 -0.0050066216 0.047705173
0002d0 f5 68 0b bc 60 52 25 3d 27 70 01 3d 9f 55 f9 bc
       -0.00850891 0.040361762 0.031601097 -0.030436335
0002e0 5d 41 2f bd 80 6a f7 bd 77 18 a1 3d 1f 8b 94 3c
       -0.042786945 -0.1208086 0.078659944 0.018132744
0002f0 fa 74 f5 3b 3e be b2 3d 4e 46 86 bc a1 69 d6 bd
       0.0074907513 0.08727692 -0.016390946 -0.10469366
000300 05 87 ec bb 3f af e0 3c 89 4e 8c 3d cc 97 7d bd
       -0.007218244 0.027427314 0.06850917 -0.061912343
000310 16 2d 44 bd 27 fd b2 bd 1a 77 aa 3d d6 bf 84 3d
       -0.04789456 -0.08739691 0.08323498 0.06481902
000320 dc 41 8e bd 25 48 e7 3d 61 c6 4f 3d 90 21 e2 bb
       -0.069461554 0.11293057 0.0507263 -0.0069009736
000330 02 cb a0 bd f1 f5 a3 3d 8d 6c a0 bd 44 be 89 3d
       -0.07851221 0.08005894 -0.078332044 0.067257434
000340 ee 90 c7 3b ad fc 00 3a 36 54 75 3d bd 9f 42 bd
       0.006090275 0.0004920464 0.059894763 -0.04751562
000350 ab a5 86 bd 49 ed 30 3d 8b 3a 0a bc 2e 43 bf bc
       -0.065745674 0.043195043 -0.008436809 -0.023347463
000360 72 68 5d bd ce 98 b0 bb b2 e1 b2 bd 62 07 ad bc
       -0.054054685 -0.0053893095 -0.08734454 -0.021121684
000370 73 8f a8 bc b0 26 8b 3c 09 1a 20 3c 70 77 f9 bc
       -0.020576214 0.016986221 0.009771832 -0.03045246
000380 d5 85 46 3d af ca d3 bd 64 6f 9d bd 58 8f 30 bc
       0.048467476 -0.10341393 -0.07687262 -0.010776363
000390 46 31 bb bd ca 4c b5 bd 27 06 b2 ba 59 40 98 3d
       -0.091402575 -0.08852537 -0.0013582156 0.07434148
0003a0 04 05 41 bc b8 89 bd bc 8e 2b 0b bc 12 de dc 3c
       -0.011780981 -0.023136958 -0.008494271 0.02696136
0003b0 02 f8 af 3b 11 5a 20 3d 97 7f 61 3d 08 21 fe 3c
       0.005370141 0.039148394 0.05505332 0.03102161
0003c0 34 68 06 3c 65 38 78 bd e6 9b 39 bc a8 83 c1 bc
       0.008203555 -0.060600657 -0.011328673 -0.023622349
0003d0 07 de 34 bd 74 1b 44 bd 27 50 ab 3c b6 0f b1 3d
       -0.044157054 -0.047877744 0.020912243 0.08645575
0003e0 dd e3 b7 bd 6d f0 72 3b 53 e5 ae bd d7 72 1a bd
       -0.08979008 0.0037069574 -0.08539834 -0.037707176
0003f0 01 a2 1e 3d 74 50 c1 3c 1a 86 c1 3b fe bd a7 3d
       0.038728718 0.023597933 0.0059058787 0.08190535
