models/recomendation_models/scripted_user_preference_model_v10_8_dim_really_good.pt (torch, 251160 bytes, 14 tensors)

hidden f4 [2, 1, 32]
000000 1f c1 17 3e fa 88 00 bc 7b b0 0d 3e b7 4d 40 3e
       0.14819764 -0.007845158 0.13836853 0.18779646
000010 de 66 7a 3e 19 dc b1 be 62 94 7d 3e 10 b0 d6 3e
       0.24453303 -0.34738234 0.24763635 0.419312
000020 a1 44 6e bd 2c a3 dc be 26 b5 36 bd cd 46 52 be
       -0.05817092 -0.4309324 -0.04460635 -0.20534821
000030 39 29 d7 3d ed ba c7 be f3 b9 77 3d 66 f0 4f be
       0.105059095 -0.390098 0.06048007 -0.20306548
000040 da f5 11 bc 49 45 86 3e c3 4b 2b 3d 3b a7 9f 3c
       -0.008908713 0.26224735 0.0418203 0.019488921
000050 13 26 8e 3e 01 c1 5b 3e e3 6d 8c 3e 71 05 12 3c
       0.27763423 0.21460344 0.27427587 0.00891243
000060 0e 95 ad 3e 25 88 b3 bd 35 f3 88 3e ee 95 c1 be
       0.33902782 -0.08766202 0.26748052 -0.378097
000070 4d e0 66 3e 6d 41 3e be f3 ac 38 3e b8 4f 9b be
       0.22546501 -0.18579645 0.18034725 -0.30334258
000080 28 4a 8e be 5f 92 8e be ba 32 50 be 90 a3 b7 be
       -0.27790952 -0.27846047 -0.2033185 -0.35866976
000090 96 37 38 3e ed 4a 6c 3e be 07 8f be cb e4 76 3e
       0.17989954 0.23075457 -0.27935594 0.24110715
0000a0 79 68 c1 3e ed d4 e7 bc c9 4f ac be 57 3e dc 3c
       0.3777502 -0.028299773 -0.3365462 0.026885195
0000b0 5d 3d 00 3c 65 6d c3 3e 9d 75 91 3e 6e 14 97 be
       0.00782713 0.381694 0.28410044 -0.29507774
0000c0 e3 ce c2 be d1 d5 e6 3e 33 8f 65 be 8e b6 69 be
       -0.38048467 0.45085004 -0.22417907 -0.22823545
0000d0 46 b1 74 be 8a 7e a8 bd 0d 38 8a 3e 4c 1e 79 3e
       -0.2389575 -0.082272604 0.26995888 0.24327964
0000e0 02 a8 7e 3e 7e 7d 31 3e 28 e1 ca be 55 34 c3 3e
       0.24868777 0.17333028 -0.39624906 0.38125864
0000f0 4a 8f 52 be 23 17 b4 be 66 14 bb 3e 76 e1 57 3e
       -0.20562473 -0.35173902 0.36539 0.210821

hidden f4 [2, 1, 32]
000000 1d be d2 3e c5 06 97 bc a7 bb 9e 3e 63 ca b4 3e
       0.4116067 -0.018435845 0.31002542 0.3531066
000010 de 1b f4 3e 36 61 30 bf 6a da 12 3f d8 91 3e 3f
       0.4767751 -0.6889833 0.57364523 0.7444129
000020 33 30 f1 bd c7 9f 74 bf 7d c8 b7 bd 32 d1 e1 be
       -0.117767714 -0.955563 -0.08973787 -0.44104916
000030 49 02 43 3e 19 24 34 bf 48 be f7 3d 5b 58 c7 be
       0.1904384 -0.7036758 0.1209684 -0.38934597
000040 a4 e6 c8 bc a5 57 06 3f 1b 18 90 3d 15 19 37 3d
       -0.02452404 0.52477485 0.07035848 0.044701654
000050 79 0e 3c 3f c6 f9 d6 3e 4b c4 00 3f 09 a6 e0 3c
       0.73459584 0.41987437 0.5029952 0.027422922
000060 be 45 3a 3f 3c a7 12 be e7 c0 f0 3e e1 79 49 bf
       0.7276267 -0.14321607 0.47022173 -0.787016
000070 35 5e c1 3e a6 9d 9a be 08 63 be 3e 2d d1 33 bf
       0.37767187 -0.301984 0.3718493 -0.7024105
000080 64 16 0d bf db f1 07 bf bd 23 bc be 19 ca 21 bf
       -0.5511229 -0.5310342 -0.36746016 -0.63199
000090 9a 3f a3 3e eb 94 cd 3e a3 f8 0e bf b5 6a cd 3e
       0.31884462 0.40152678 -0.5584814 0.40120474
0000a0 32 32 34 3f 11 a3 91 bd 2e 39 33 bf b4 0d 57 3d
       0.7038909 -0.071111806 -0.70009124 0.052503303
0000b0 34 d4 b9 3c 77 56 68 3f 77 d2 1d 3f 15 d6 0f bf
       0.022684194 0.90756935 0.6164927 -0.5618604
0000c0 3c bf 36 bf 26 a8 99 3f fe 84 d7 be c3 59 db be
       -0.7138555 1.200444 -0.42093652 -0.4284192
0000d0 f9 16 db be 37 6b 01 be f8 e2 17 3f 54 a1 dc 3e
       -0.42790964 -0.12638555 0.593307 0.43091834
0000e0 d4 f9 12 3f b3 23 9e 3e 27 04 52 bf 9f d7 34 3f
       0.5741246 0.3088661 -0.82037586 0.7064151
0000f0 95 d2 d3 be ff a6 2e bf bd 59 2c 3f 87 99 ce 3e
       -0.413716 -0.68223566 0.6732443 0.40351507

weight_ih_l0 f4 [128, 12]
000000 c2 40 32 3e 4f 07 30 3e bf 70 9a 3d a7 45 ef 3d
       0.17407516 0.17190288 0.07541036 0.11683207
000010 65 aa 1e 3e 68 88 6b 3d a9 f7 e4 bc 82 6c 0e 3e
       0.15494688 0.057503134 -0.027950125 0.1390858
000020 c4 fd 58 bb 56 f1 e7 bc 20 9c 10 3e 07 5d cf 3d
       -0.003311024 -0.02831332 0.14122057 0.101251654
000030 dc ea 8c bd ec 0f 2a 3e ef 66 8a 3d f2 b9 8a 3d
       -0.06880733 0.16607636 0.06757914 0.067737475
000040 b3 f1 f7 3c 61 97 74 b9 c7 6f 1f be 65 71 2c bc
       0.030266618 -0.00023326046 -0.15569983 -0.010525082
000050 0c 5e 08 be ff f6 22 3e 7d 71 bc 3d 75 c6 c0 bd
       -0.13317126 0.15914534 0.09201334 -0.09412853
000060 93 14 c5 bd 7c ae 92 3d ae 3d e9 bd 64 9c 2a 3e
       -0.09623065 0.071621865 -0.113887176 0.16661221
000070 71 a1 54 3d 5e 98 c3 3d 7b 9c 92 bb 4c 28 58 bc
       0.051911775 0.09550546 -0.0044742203 -0.013193201
000080 a2 75 12 be 26 4e 2e 3e c8 cb 12 3e 7b 64 b8 3d
       -0.14302686 0.17021999 0.14335549 0.0900354
000090 b2 06 43 3b 46 2a 1c 3e 36 57 32 3e d2 11 68 bd
       0.002975863 0.15250501 0.17416081 -0.05665762
0000a0 bd 7d 8d bd 2a 15 81 3d 4c ad c2 bd b0 a2 8c bd
       -0.06908748 0.06302865 -0.0950571 -0.06866968
0000b0 a8 e4 72 bd ce c9 0e be 41 12 8f bd dd 84 3f 3e
       -0.059300095 -0.1394417 -0.069859035 0.18703027
0000c0 b5 e0 21 3e 7c 61 0c bd 8f 22 22 be a2 7f 20 3c
       0.15808375 -0.034272656 -0.15833496 0.009796055
0000d0 c9 20 03 3e 1f 3a e0 3d 8b 22 95 bd 24 26 23 3d
       0.12805475 0.10948586 -0.07281979 0.039831296
0000e0 37 a2 b6 3c 9e a1 00 be fe c7 10 bd 55 55 3f 3e
       0.022294147 -0.12561652 -0.035346977 0.18684895
0000f0 52 83 1c bd 99 c3 e5 3d bb 15 07 3e c3 dc f3 3d
       -0.038211174 0.11218948 0.13191883 0.11907341
000100 f7 85 2f be cd c5 cb bd 32 99 58 bc e1 75 f1 3d
       -0.17140947 -0.09949837 -0.013220118 0.11790062
000110 8d 40 48 3d c1 18 20 be 53 b0 95 bd 57 f4 1d 3e
       0.048889685 -0.15634443 -0.07309022 0.1542524
000120 a6 ba d6 3b 3c 4b c2 3d 91 10 88 3d 4e 62 ae 3d
       0.006553012 0.09487006 0.06643785 0.08514844
000130 44 ac cc 3d 32 50 c1 bb 8c df 87 bb a0 2f 27 3e
       0.099937946 -0.0058994526 -0.004146522 0.16326761
000140 43 ee 89 bd cd 8c 7e bd 6a 4a 84 bd ba b3 32 bd
       -0.06734898 -0.062145997 -0.06459506 -0.04362843
000150 23 82 0a 3e 07 f8 84 3c fe 53 26 3e 1e ac 19 be
       0.13526206 0.01623155 0.16242978 -0.15007064
000160 ea c2 bc 3d 31 79 89 bd aa 1c 29 bd 6d 20 44 bb
       0.092168644 -0.067125686 -0.0412871 -0.0029926554
000170 dd d1 f6 3d 18 a8 86 3d 0b 79 f8 bd a9 cc 1f be
       0.12051747 0.0657503 -0.12132462 -0.15605415
000180 b6 9a 28 be 17 0d d4 bd be 2d fd bc 58 8f 3b be
       -0.16465268 -0.10354059 -0.0309056 -0.183164
000190 db ad 94 bd 70 55 24 3e 86 73 f6 bd 22 4d 13 3e
       -0.07259723 0.16048217 -0.12033753 0.14384893
0001a0 c2 68 8b 3d 4f cd 02 3e 4a 67 ba 3d 99 8a a6 3d
       0.0680709 0.12773632 0.09101732 0.08131904
0001b0 c3 4e df bd b9 28 a2 3c 05 9b 12 3e 34 c5 35 3d
       -0.109036945 0.019794809 0.14316948 0.04437752
0001c0 e8 d9 3c be e2 0d 11 be f1 bf f5 bd 0c e3 22 3e
       -0.184425 -0.14165452 -0.119995005 0.15906924
0001d0 de d8 92 bd 82 da 82 bd 59 61 db 3d c3 5b cf bc
       -0.071702704 -0.06389333 0.10711927 -0.02531231
0001e0 f3 81 02 3e 45 72 99 3d 18 31 05 3e b5 57 b5 bd
       0.12744884 0.07492498 0.13007009 -0.088546194
0001f0 d4 6c 7e 3c 9a 84 26 be 2b b3 2e 3e 99 70 f1 bc
       0.015528876 -0.16261521 0.17060535 -0.029472636
000200 45 8a 2f be e6 ed 8d 3d 12 29 f7 bd 7e 40 09 3e
       -0.1714259 0.06930141 -0.120683804 0.13403508
000210 50 0b a2 bd 33 57 1d be 2e 96 11 3e ab ea ff bd
       -0.07912314 -0.15365295 0.14217445 -0.12495931
000220 0a 90 35 be 5f ec 04 be df 6b 01 be b5 60 ab bd
       -0.17730728 -0.12980793 -0.12638806 -0.08368055
000230 78 56 27 3e 76 4a e7 bd a2 b6 2f 3e e2 40 9a bd
       0.16341579 -0.11293499 0.17159513 -0.07531907
000240 99 3a 9f 3d 1c 42 40 3e d3 7d 07 bd 24 71 ff bd
       0.077748485 0.18775219 -0.03307898 -0.12472752
000250 27 1c 15 3e 43 85 35 3d b0 03 f0 3d f1 f8 e8 3d
       0.1456152 0.04431654 0.11719453 0.11375607
000260 23 4a 98 bd 97 b7 3d 3d d8 3b a9 bd 78 68 ed bd
       -0.074360155 0.046317663 -0.082633674 -0.115921915
000270 e6 e3 21 3c 0b 84 42 3e b3 e5 0f bd d3 80 b5 bd
       0.009880995 0.18995683 -0.035131168 -0.08862462
000280 77 92 d4 3d 5e 09 89 3d 58 4d 39 be 93 f2 db 3d
       0.103794985 0.0669124 -0.1809591 0.10739627
000290 0b 0c ee bd 55 6a a8 3d 86 7f d2 3d 77 c1 03 3d
       -0.11623391 0.08223406 0.102782294 0.032166924
0002a0 dd d9 a1 bd 73 4e 38 bd 27 91 42 be 7f 6c 41 be
       -0.07902882 -0.04499669 -0.19000684 -0.18889044
0002b0 c3 1c 02 3e ba df 0f be 77 80 12 be 92 26 01 3e
       0.12706284 -0.14050189 -0.14306818 0.1261237
0002c0 e5 54 1c 3e c1 02 bd 3d 2d e3 04 3e e4 d8 b6 bd
       0.1526676 0.09229041 0.12977286 -0.08928087
0002d0 3f 37 a7 bd ab e7 00 be a0 fa ca 3c 57 c8 8d 3c
       -0.08164834 -0.12588374 0.02477771 0.017307444
0002e0 bd 3b e0 bd e0 20 1f 3e 48 5f 46 bb 03 f1 23 be
       -0.10948894 0.15539885 -0.0030269194 -0.16009907
0002f0 1d fc 13 3e bf 71 9a 3c 55 30 02 3c a3 32 94 bd
       0.14451642 0.018853066 0.007946094 -0.07236221
000300 97 cf 45 bc 86 2e e8 3c 90 6e 9a bd e9 63 10 3d
       -0.012073419 0.028342497 -0.075406194 0.03525153
000310 1d b7 2d 3e 1c 6f 15 3e 49 da 2d 3e ed d6 11 be
       0.16964383 0.14593166 0.169778 -0.14242144
000320 b6 90 d5 bd d3 61 d6 bd 2f d5 c2 3c eb 0b 9e 3d
       -0.10427992 -0.10467877 0.023783294 0.07717117
000330 88 02 b3 3d a3 b2 83 bc b7 2a 2f bd f6 6d 67 3d
       0.08740717 -0.016076392 -0.042765345 0.05650135
000340 c6 38 31 bd fe 2a 25 3e bd 43 22 be 0e 1c 9e 3d
       -0.043267034 0.16129681 -0.15846153 0.07720195
000350 65 10 36 3e 91 9b cc bd 02 99 0a be ee d7 11 3b
       0.17779692 -0.099906094 -0.1353493 0.0022253948
000360 c4 30 d9 3d 9b e0 cb 3b eb 2b 8d 3d 1e a4 13 bd
       0.106050044 0.0062218434 0.06893142 -0.036045186
000370 2b b0 09 bd 49 8a 05 bd 5c 27 21 be 8b 38 78 3c
       -0.033615272 -0.032602582 -0.1573767 0.0151502
000380 13 a2 d0 ba 1a 9c ca bc 59 b2 41 3c 34 0d fd 3d
       -0.0015917443 -0.024732638 0.011822307 0.12356034
000390 6a 3b aa 3d fe 27 01 bd 98 63 cb 3d 17 9e 89 bd
       0.083121136 -0.03153228 0.099311054 -0.06719606
0003a0 2c d8 d4 bd 88 7b 94 bd 99 44 ea bb a5 86 27 be
       -0.10392794 -0.07250124 -0.0071492908 -0.16359957
0003b0 85 2f 22 3e 48 71 c3 bb ae a6 49 3d 88 e4 d1 3d
       0.1583844 -0.005964432 0.049231224 0.10248667
0003c0 91 df ad 3d 38 85 36 bd 8f c7 09 be 6d 4c de bd
       0.084899075 -0.04456064 -0.13455032 -0.10854421
0003d0 9a 99 02 3c 37 a9 05 3d dd f8 06 be db 05 fb bc
       0.007971192 0.03263208 -0.13180871 -0.03064244
0003e0 18 e4 39 3c ae 73 33 bd 29 62 ea bd c1 00 21 3e
       0.011345886 -0.043811493 -0.11444504 0.15722944
0003f0 ee c7 97 3d 5d da 1d be fb 5a eb 3d 0f 5c 0c 3d
       0.074111804 -0.1541533 0.114919625 0.03426748

weight_hh_l0 f4 [128, 32]
000000 0e 8f d6 bd ed 71 e0 bd 3f f1 23 be 64 ff 48 bd
       -0.10476504 -0.109592296 -0.16009997 -0.049071684
000010 6a 5d f6 3d fc 39 f6 bd 38 81 13 be af 1a 4b bd
       0.12029536 -0.120227784 -0.14404762 -0.049585994
000020 23 ec 6b bd f7 0a c6 3c 92 78 29 3e 12 d8 38 bd
       -0.057598244 0.02417515 0.165499 -0.045127936
000030 c7 41 39 bd bf cc ab 3d a7 af ac 3d ec 71 9c bc
       -0.045228746 0.083886616 0.084319405 -0.019097291
000040 37 3f 3c 3e e4 d7 bb 3c 9d ca 26 bd e4 aa 01 3d
       0.1838349 0.022930093 -0.04072057 0.031657115
000050 ce 4d 84 bd 14 0e b7 bd f2 07 b8 bd bf 26 15 3e
       -0.064601526 -0.08938232 -0.089858904 0.14565562
000060 a7 a0 26 be a9 80 8d bb 58 3e 25 be d7 3c 21 3e
       -0.16272222 -0.004318316 -0.16137064 0.15745865
000070 1a 4a bd 3d f6 44 43 bd d0 85 32 3e c7 09 1b be
       0.092426494 -0.04767319 0.17433858 -0.15140449
000080 5d 7e e2 bd 0f 7e 84 bd 32 1b 8d 3d 17 0c e3 bd
       -0.11059258 -0.06469356 0.06889953 -0.1108629
000090 db 78 b8 bc 15 0c e7 3d 57 43 ab bd d1 f4 46 3d
       -0.022518566 0.11281601 -0.083624534 0.04857332
0000a0 5f 7a 33 3e dc 0a 06 be ef 12 e0 bd 0d 74 17 3e
       0.1752715 -0.1309008 -0.10941111 0.14790364
0000b0 82 7f 10 3e cf 50 1a be d7 9c bd 3c 08 9f af 3d
       0.1411114 -0.15069889 0.023146076 0.08575255
0000c0 ea 93 09 bd ed 8b 11 3e f7 ac 64 bc ee f8 c6 bd
       -0.033588327 0.14213534 -0.013957254 -0.09715448
0000d0 ef 30 d6 bd b4 f9 1c be cc 64 2c 3e 20 d8 04 3e
       -0.10458552 -0.15329629 0.16835326 0.1297307
0000e0 fa de af 3d 5c 54 e9 bd 96 3c 53 3d ef 9c a1 3d
       0.08587451 -0.113930434 0.05157145 0.07891261
0000f0 c8 55 58 bd 91 64 4f bd 8b 29 6e bd b8 6a 86 3b
       -0.052816182 -0.050633017 -0.058145087 0.0041020773
000100 5f b2 c8 3c 85 c4 f4 bd bd bf a9 bd 73 bb 0c 3e
       0.024499116 -0.119515456 -0.08288524 0.13743381
000110 90 80 4c bd 07 b4 a3 bd 63 d2 0b 3e 8c ff 0b be
       -0.049927294 -0.07993322 0.13654475 -0.13671702
000120 6f 1c 64 3d 65 ee 2b 3c 80 49 c8 bc 76 43 9f bd
       0.05569118 0.010493849 -0.02444911 -0.07776539
000130 f3 c8 f1 bd 9c 97 69 bd 58 17 86 3b 3e 2a aa 3d
       -0.11805906 -0.05702935 0.0040921383 0.08308838
000140 fd 17 aa bd 01 53 a5 bd e3 ae 96 3d a6 44 f6 bc
       -0.08305357 -0.08072472 0.07357576 -0.030062031
000150 0f 29 f2 bd 22 01 29 3e be 2d c8 bd f1 3e ff 3d
       -0.118242376 0.16504338 -0.0977435 0.12463177
000160 03 c6 9f 3c 0a b5 e2 3d f8 81 08 3e bb 2d 40 3d
       0.019503599 0.11069687 0.13330829 0.046918612
000170 50 4a 31 3e 7a 99 2b bd 96 b3 2d 3e 7d d2 23 bb
       0.17313504 -0.041894414 0.16963038 -0.0024997287
000180 c5 e1 5b 3d 16 83 55 3b ef 9d b9 3d 0c d6 2f 3e
       0.053682107 0.0032579354 0.090633266 0.17171496
000190 1e 19 08 3d e7 ef 09 bd 65 02 ce bd fb 2d 86 3d
       0.03322708 -0.033676054 -0.100590505 0.06551739
0001a0 6d e7 1b 3e 1e cc 9d bd 6e 78 91 3d fe b7 e4 bd
       0.15225 -0.07704948 0.07103048 -0.11167906
0001b0 90 44 df bd 74 5b b0 bd 5b 2c 19 be d8 bf b8 bb
       -0.10901749 -0.08611193 -0.14958327 -0.005638104
0001c0 d3 f5 e2 bd 1b 6f c5 bb 87 0e 18 be 49 94 2d be
       -0.110820435 -0.0060252077 -0.14849292 -0.16951098
0001d0 43 6e 3a 3e 05 6c 0a 3d 2c 9f b2 3d ed 3c 9d 3d
       0.18206124 0.03379442 0.08721766 0.07677636
0001e0 de 00 16 3e 1c b6 dd 3d 87 c4 2e 3e 91 16 09 3e
       0.14648768 0.1082575 0.17067157 0.13387515
0001f0 e8 29 97 3d 14 cd 4d 3c 32 21 4c bd 7d 71 0c 3e
       0.0738104 0.0125611015 -0.049836345 0.13715167
000200 a8 f2 f4 3d 70 91 13 be 18 f8 02 3e 17 22 08 be
       0.119603455 -0.14410949 0.12789953 -0.13294254
000210 6d 78 d3 3d 2e 6b da 3d 8a 19 09 3e e7 4f 27 bb
       0.10325704 0.10664974 0.13388649 -0.0025529803
000220 10 33 47 3c dc f9 bc bd 68 5e 9d 3d ea 6d 07 3e
       0.01215817 -0.092273444 0.07684022 0.13225523
000230 fd 69 47 bb d3 34 3f bd f1 49 35 3e 6b 68 82 bd
       -0.0030428164 -0.046681236 0.17703988 -0.063675724
000240 86 9c 8c 3d d7 ce 03 bd f7 c2 6c 3d 65 af ae bd
       0.06865792 -0.03217968 0.05780312 -0.085295476
000250 23 69 39 3a b0 84 5e bd 18 5b 0f be b2 4b 81 3d
       0.00070728565 -0.05432576 -0.13999593 0.06313266
000260 b5 f8 bf 3d d2 5e f2 bc 1e 6a a2 3b e7 0f 21 be
       0.09373609 -0.02958623 0.004956498 -0.15728723
000270 0d 8a 7a 3d be c6 53 bd 73 74 3e 3e b7 d9 3d be
       0.06116681 -0.051703207 0.1859911 -0.18540083
000280 fd 38 91 bd 65 94 26 3a 4b 4b 39 3e c5 0d ba bd
       -0.07090948 0.000635451 0.18095128 -0.090846576
000290 12 46 a0 bd 53 c9 ca bd 81 23 11 bc c9 08 26 be
       -0.07825865 -0.09901681 -0.008858562 -0.16214289
0002a0 58 da fd 3d 93 a5 a2 bd d9 0c 0f 3c 64 5c 19 3e
       0.123951614 -0.07941737 0.00873109 0.1497665
0002b0 c1 22 f2 bc d0 9a 19 be 8d aa fc bc b6 ba 23 b8
       -0.029557588 -0.15000463 -0.030843044 -3.9036117e-05
0002c0 3d 34 be 3d 06 9a 23 3e c3 15 93 bd a3 d7 d8 bd
       0.092873074 0.15976724 -0.07181885 -0.105880044
0002d0 ad 9c 7d 3d f3 8d b6 bd 02 a8 1c bd 2a 1d 18 be
       0.061916996 -0.089137934 -0.038246162 -0.14854875
0002e0 8b 2b 2b be d6 53 f2 3d 4d 92 14 3e 70 40 12 3e
       -0.16715829 0.11832397 0.14508934 0.14282393
0002f0 70 a3 08 3d ec 2a 82 bd 15 d7 18 bd 54 30 07 3e
       0.03335899 -0.06355843 -0.037314493 0.1320203
000300 e9 89 11 be 9b 72 b7 3d d4 09 86 3d 36 5e 61 bd
       -0.14212765 0.08957406 0.06544843 -0.055021487
000310 44 35 18 3e 2e 84 27 bd 33 f2 8c 3d 35 ef 2c 3e
       0.14864069 -0.04089754 0.06882133 0.16888125
000320 2a 38 db bd ac 99 3d be d2 f9 6b bd ea 50 eb 3d
       -0.10704072 -0.18515652 -0.057611294 0.114900425
000330 3a 23 c7 bc bc 41 f1 3d 7b 30 10 bd cf 3e 26 3d
       -0.02430879 0.11780116 -0.035202485 0.040587243
000340 9d 46 e8 3d c4 dc a8 3c 9a a4 85 bd ce 54 d4 bd
       0.113415934 0.020613082 -0.06525536 -0.10367738
000350 a1 e9 b5 3b f5 55 03 bd 77 6b 36 bd 2a 1a 0d be
       0.0055515324 -0.032064397 -0.04453608 -0.13779512
000360 e4 95 e5 bd fb 4e e5 bd 40 da 4e bc fd c0 b0 bd
       -0.1121023 -0.11196705 -0.012625277 -0.086305596
000370 f9 a8 0b 3e 98 4d 9f bd f0 2d 1f be 24 32 da 3d
       0.13638677 -0.07778472 -0.15544868 0.10654095
000380 ba 0b ab bc 95 b7 fa bd 38 7d 11 be 3b c4 f5 3c
       -0.020879615 -0.12242047 -0.14207923 0.030000797
000390 db fb 9c 3d 09 0f 16 bd 13 d9 cb bd 21 c9 5f 3c
       0.07665225 -0.036635432 -0.09953513 0.013658793
0003a0 e7 68 8c bc ca 6c 21 3d 50 20 28 bd 3a e9 00 bd
       -0.017139865 0.03941039 -0.04104644 -0.031472422
0003b0 a7 a5 c0 bd fb da 21 3d 5b e9 f0 3b 02 7f d8 3c
       -0.09406596 0.039515477 0.007352037 0.02642775
0003c0 d8 3f 6c 3c 61 8d 25 bd 66 48 a6 bd 86 08 db 3d
       0.014419518 -0.040418033 -0.08119278 0.10694985
0003d0 ed d2 61 3d 6f c7 51 bd e9 9b c7 bd d2 24 a9 3c
       0.055132795 -0.051215585 -0.097465344 0.02064744
0003e0 dd 3b 40 bd 19 72 87 bd 4a 4f 06 3e f1 4d 65 3d
       -0.04693209 -0.06613559 0.13116184 0.055982534
0003f0 b9 2a 59 bd 7e 9d b5 3d ed 38 04 be 2d 0d aa 3c
       -0.05301926 0.0886793 -0.1291234 0.020758236

bias_ih_l0 f4 [128]
000000 3d bb 20 be cb 86 93 3d 41 72 a0 bc 71 86 e7 bd
       -0.15696426 0.07203444 -0.01958573 -0.113049395
000010 a1 17 06 3e 10 f9 8b 3c f8 59 1d be 52 ea 23 3e
       0.13094951 0.017086536 -0.15366352 0.16007355
000020 ed b2 ed 3d 22 c1 30 bd ec 5a 8b bd 02 0e a6 bd
       0.11606393 -0.043152936 -0.06804451 -0.081081405
000030 cf 86 11 be 07 ae e3 3d 3a 68 d5 3d 97 d0 35 3e
       -0.14211582 0.111171775 0.1042027 0.17755352
000040 2b b1 f0 3d c7 07 59 bd 40 4c 10 be dd 06 38 be
       0.11752542 -0.052985933 -0.14091587 -0.17971368
000050 05 25 f3 3c b2 1a 9a bd 8a 78 87 3d 6b 49 2f be
       0.029680738 -0.07524623 0.06614788 -0.1711785
000060 c6 45 51 3d a5 a5 15 bd 8b 63 dc 3d b8 27 1f 3e
       0.05109193 -0.036534924 0.10761174 0.15542495
000070 4b 52 f7 bd e2 00 01 3e 16 d5 80 3d 1f b0 7b 3d
       -0.12076243 0.12597993 0.06290643 0.06144726
000080 54 f5 5c bd 85 40 00 be 93 41 20 3c a3 8d 0e 3d
       -0.0539449 -0.12524612 0.009781259 0.034803044
000090 3b b7 fe 3d 78 93 81 3d c9 f6 1b be e0 49 37 3e
       0.12437292 0.063269556 -0.1523086 0.17899275
0000a0 7b bb a8 3d 76 d6 60 3b ed 86 06 be d6 84 a7 bd
       0.08238884 0.0034307516 -0.13137408 -0.08179633
0000b0 b5 b1 3b 3e df da 21 bd b4 21 20 3d ff d4 9a 3c
       0.18329509 -0.039515372 0.03909464 0.018900393
0000c0 bd e3 20 be 56 04 fe bc bc 2b 84 bd 38 15 d1 3d
       -0.15711875 -0.031007927 -0.06453654 0.10209125
0000d0 1d 77 e6 3d c7 3b 2e bc d9 dc 87 3d c6 5a 06 bd
       0.11253188 -0.010634369 0.0663392 -0.032801412
0000e0 e5 70 80 bc f9 3d 58 3c 02 92 da 3c bc 4f 68 bd
       -0.015678832 0.013198369 0.02668095 -0.056716666
0000f0 1f d6 5a 3d 4f c4 1b 3d af f1 2a bc b3 0c ce 3c
       0.053426858 0.03802901 -0.010433598 0.02515254
000100 1d fb 6d bd a1 ff 9e 3d 61 a6 05 be 66 a4 0c 3e
       -0.05810081 0.07763601 -0.1305175 0.13734588
000110 c8 93 b3 3d eb 97 d4 bc c3 15 99 bd 24 bf 1b bd
       0.087684214 -0.025951346 -0.07474854 -0.038024083
000120 4d 0e ac bd 74 33 ca bd ee 78 64 3d e0 22 d0 bd
       -0.08401165 -0.09873095 0.05577939 -0.10162902
000130 47 63 34 3c 9a 1c 5e bd 13 ae 00 3e 62 fd 0d be
       0.011009998 -0.054226495 0.12566404 -0.13866189
000140 ee 7e 9d 3d 86 fe e0 3d f3 42 db 3d a2 9c 18 be
       0.076902255 0.109860465 0.10706129 -0.149035
000150 b1 45 43 3e 85 5d fd 3d 93 3d 20 be 46 1b ce bb
       0.19069554 0.12371353 -0.15648489 -0.0062898723
000160 db 69 0b 3e f3 d8 18 be 60 47 a0 3c f7 6a 22 be
       0.136146 -0.1492651 0.019565284 -0.15861116
000170 f1 c9 d0 bd e8 c9 07 3e 06 0e 88 bd be 4e 23 3e
       -0.10194767 0.13260615 -0.066433 0.15948007
000180 78 5e c6 bd 03 ec ee bd 0c 43 d3 3d 5b f6 83 3b
       -0.09685987 -0.116661094 0.103155226 0.0040271706
000190 ba 72 07 be 37 59 3b bd 5c b8 fe bd 8c 4c 8f 3d
       -0.13227358 -0.04573938 -0.124375075 0.06997022
0001a0 7b c3 a5 3d fc f5 a2 3c 9f ff 13 bd c0 d1 8a 3c
       0.080939256 0.019892685 -0.03613245 0.01694572
0001b0 79 0f ea 3d a4 ab 0f 3d 64 7c 77 bd ce 90 1e 3c
       0.114287324 0.0350758 -0.060421363 0.009678079
0001c0 dc d0 d7 3b b8 f5 1d be 85 eb 05 be 44 59 4c bc
       0.0065861773 -0.15425766 -0.13078125 -0.012472454
0001d0 70 58 73 3d c6 6b 03 bc 61 bf 9e 3c ff 4a 77 3a
       0.059410512 -0.008021301 0.019378366 0.00094334775
0001e0 8a 05 0e bd aa 83 34 3e 8f 8a 22 be 43 f5 b7 3d
       -0.03467325 0.17628351 -0.15873168 0.08982327
0001f0 55 10 11 be 34 eb 0a be cc 65 c9 3d f7 f2 0e be
       -0.14166386 -0.13566285 0.09833869 -0.13959871

bias_hh_l0 f4 [128]
000000 91 6b c9 bd 31 19 ac 3d 7b 4a 4e 3c 66 8d c2 bd
       -0.0983497 0.084032424 0.012591 -0.09499626
000010 55 b9 11 3e ce 6a 98 bd 00 76 10 be 53 0e 9b bb
       0.14230855 -0.074422464 -0.14107513 -0.004731932
000020 e0 29 15 3e 77 00 00 3e 4b a8 6d bd f1 e7 0c 3d
       0.14566755 0.12500177 -0.058021825 0.034400884
000030 a8 ef 9f bd 06 d1 5e 3d 17 30 c3 bd a0 5c 87 bd
       -0.07809383 0.05439856 -0.09530657 -0.06609464
000040 69 5c cd 3d 48 b9 e5 3d b3 94 7f bd 5d fa f7 3d
       0.100273915 0.1121698 -0.06239767 0.121083
000050 b9 0d cc 3d d3 a1 e1 bd bd 0a 32 3d 39 c5 cb bd
       0.09963555 -0.11017194 0.043467272 -0.099497266
000060 38 6f 39 3e 47 66 a3 ba 4b 66 f3 3c 14 71 0f 3d
       0.18108833 -0.0012466394 0.029711863 0.03501995
000070 de 4b a6 bd 82 94 7e 3d cc 90 78 bc 4c 11 0c 3e
       -0.08119939 0.062153347 -0.015171241 0.13678473
000080 c4 c6 08 3d 5e 02 0e 3e 50 6f 49 3d b3 4d df 3d
       0.033392683 0.1386809 0.04917842 0.10903492
000090 90 d3 09 be 0f cc 98 bd 68 8c d2 3d d0 e2 f4 bd
       -0.13459611 -0.07460796 0.102806866 -0.119573236
0000a0 1e 86 64 bc ed ab 07 3e c9 20 a9 3d ce 9f 92 bd
       -0.013947992 0.13249178 0.082582064 -0.071593866
0000b0 86 07 83 bd a0 b3 01 be 65 d2 d5 bd 8b f3 a0 3d
       -0.06397919 -0.12666178 -0.1044052 0.07858952
0000c0 37 6c 8e bd 64 b7 f9 3d 95 35 16 3c 08 a4 26 3d
       -0.06954234 0.12193182 0.009168048 0.040683776
0000d0 45 e0 e6 bd 14 50 00 be 18 a0 9f bd 41 bb 2f be
       -0.11273245 -0.12530547 -0.07794207 -0.17161275
0000e0 ca 9e b4 3d 87 0c 0d be 28 09 a6 3d 4e e3 28 3e
       0.08819349 -0.1377431 0.08107215 0.1649296
0000f0 fb bd 98 bd e9 e1 e4 bd 49 bf be 3d f3 1a 40 3e
       -0.07458111 -0.111759014 0.093138285 0.1876028
000100 b4 02 90 3d 97 05 ec 3d 73 66 b5 bd 02 0c 41 bc
       0.070317656 0.11524504 -0.08857431 -0.011782648
000110 8b 45 2d 3d 83 3c 60 bd a6 45 f8 bc fe 15 eb 3d
       0.04230265 -0.05474521 -0.030306648 0.11478804
000120 c7 1b 0d be d6 41 d4 bc 80 24 cb 3d da 0d 13 be
       -0.13780127 -0.0259103 0.09919071 -0.14360753
000130 4e 33 10 be f4 b0 e3 bd 6d 85 25 be a2 8d 57 3c
       -0.14082071 -0.111177355 -0.16164179 0.0131563265
000140 5f 2a 4e 3d be d1 37 3e bc a3 5c 3d 03 04 3d 3b
       0.050333377 0.17951104 0.053867087 0.0028841502
000150 14 02 aa bd 90 4a 4b bd 75 29 81 bc ad 25 fc 3d
       -0.083011776 -0.049631655 -0.015766839 0.123118736
000160 90 ce 85 3d 88 fd b1 3d 71 8d db 3d 7b 76 24 3e
       0.06533539 0.086909354 0.10720337 0.16060822
000170 c0 3c f1 bc c6 96 93 3d 48 b1 11 3d cf 63 18 bc
       -0.029447913 0.07206492 0.03556946 -0.00930114
000180 0b 86 1d 3c 87 2f dd bc ca 35 40 bc 6f af 05 3d
       0.009614478 -0.027000202 -0.011731574 0.03263801
000190 ad 74 74 3a db 08 26 3e 54 1f 9a 3c 6e 77 cb bc
       0.00093252474 0.16214316 0.018813767 -0.024837222
0001a0 fd cd bf bd c9 b7 04 3e fb c9 11 3e 7e 2d 1c 3d
       -0.09365461 0.12960733 0.14237206 0.038129322
0001b0 54 ba c5 3a 3d 0f 9a 3d bc 2e 8f 3d 3b 3c d3 bc
       0.0015085437 0.07522438 0.06991336 -0.025785556
0001c0 d9 b8 d7 bd 8d c0 ef bc 29 69 8f bd d1 66 dc bd
       -0.10533304 -0.02926662 -0.070024796 -0.10761798
0001d0 82 1f 12 be f4 d3 26 3e 60 04 04 bd df d6 ab bd
       -0.14269832 0.16291791 -0.032230735 -0.08390593
0001e0 e6 c5 b4 bd 19 79 04 3e 2d 29 0d 3e 6c 14 f6 bd
       -0.08826809 0.1293682 0.13785239 -0.12015614
0001f0 63 71 c3 3d 81 a6 e2 3d 84 b9 ce bd 4d 2d 98 3a
       0.09543111 0.11066914 -0.10093978 0.001161018

weight_ih_l1 f4 [128, 32]
000000 e9 5e 1c 3e f7 35 cf bd e3 03 dd 3b 6e 61 04 3e
       0.1527058 -0.10117715 0.006744848 0.12927791
000010 f7 9a 20 3e 23 9a 09 3d 35 78 f0 bd 62 19 25 3e
       0.15684114 0.03359426 -0.11741678 0.16122964
000020 2d 5d 91 bd 9b 37 3e bd 5f 94 d8 3d c6 84 01 3d
       -0.0709785 -0.04643975 0.105751745 0.031620763
000030 bb 7b 38 3e ee 05 b9 3d ae ad 18 bd 90 a4 ff bd
       0.1801595 0.09034334 -0.03727501 -0.1248256
000040 c4 4d 99 3d a1 34 d2 bd 60 e7 a6 3b d1 3b ff 3c
       0.07485536 -0.102639444 0.0050935 0.031156452
000050 6b 5e 0a 3d 7b 9c dd bd 38 08 c6 bd 05 12 00 be
       0.03378145 -0.10820862 -0.09669536 -0.12506874
000060 8e 5f f2 bd c6 19 10 3e 2d fd 9e bc d4 97 3c be
       -0.11834632 0.14072332 -0.019407833 -0.18417293
000070 ed bd b7 bd db 91 ab bd bf b6 25 bd db 8a 01 be
       -0.08971772 -0.08377429 -0.040457483 -0.12650625
000080 e8 1b 8f 3d bd a7 19 3e 73 a5 00 3d 2c 20 15 bc
       0.069877446 0.15005393 0.031407785 -0.009101909
000090 ad 73 0a bd ef 5a d6 3d bc 7d c2 3a ca 23 a4 3d
       -0.033801723 0.10466563 0.0014838497 0.08014639
0000a0 a9 09 bd bd 36 f5 28 bc 71 ed 22 3e f4 d7 82 bc
       -0.09230358 -0.010312369 0.15910889 -0.015972115
0000b0 00 90 82 3d 76 9c 43 be aa 84 04 be f1 00 38 be
       0.06375122 -0.19102654 -0.12941232 -0.17969109
0000c0 f0 00 b4 3d d6 c8 2d 3c ff e9 d4 bd ba c0 fd bd
       0.08789241 0.010606965 -0.10396194 -0.12390275
0000d0 eb db 92 3d 4c 3f ef bc f3 d9 c7 3d f9 73 00 be
       0.07170852 -0.029204987 0.097583674 -0.1254424
0000e0 6c b0 1c be e9 a5 0d 3e 7b 42 7d bb ec 5c 13 3e
       -0.15301675 0.13832821 -0.0038644362 0.14390916
0000f0 fd 27 44 3e 64 3a 20 be c7 ac 2e 3e 2a 0d 0d 3d
       0.1915588 -0.15647274 0.17058097 0.034436382
000100 09 cc 9d 3d fa 4d a8 bd 3b 88 d7 3c d9 0f 30 3e
       0.07704932 -0.08217998 0.026310077 0.17193545
000110 56 11 2f 3e c9 83 fe 3d 8c 85 2a 3d a0 c2 4b 3d
       0.17096457 0.1242748 0.041631266 0.049746156
000120 8e 44 de bd 36 7d c5 bd a8 ab ea 3b 59 c5 bb 38
       -0.108529195 -0.09643023 0.0071615763 8.953614e-05
000130 56 74 cc 3c 25 c8 c5 3d 95 68 32 3e ba 09 1f 3d
       0.024957817 0.09657315 0.17422707 0.038827635
000140 4a 81 98 3d cf a9 99 3d 5c 70 07 3e 6d f5 9c 3d
       0.07446535 0.075030915 0.13226455 0.07663999
000150 24 e0 1d 3e 36 ae 0d be 57 98 3c 3d 72 3c 85 3d
       0.15417534 -0.13835987 0.04604372 0.0650567
000160 6c 4b 5b 3d a8 36 6b 3d 89 af ef bd f7 aa e2 bd
       0.053538725 0.05742517 -0.117034025 -0.11067765
000170 1f 4a dc 3d 58 72 e5 3d ed 8f 99 ba 9b 80 b2 bc
       0.10756325 0.1120345 -0.0011715867 -0.02178984
000180 35 cc ee bd b5 d2 18 3e 96 32 26 3e 17 85 50 3d
       -0.11660043 0.14924128 0.16230235 0.050908174
000190 22 9a e8 bc e2 66 35 be e7 a2 78 3d 41 71 a7 bd
       -0.028393809 -0.17715028 0.06070223 -0.08175898
0001a0 f0 63 d7 bc bf 3c 29 be e7 cc c9 3c 37 37 dd bd
       -0.026292771 -0.16527079 0.024633838 -0.10801547
0001b0 55 65 02 3e 7a e5 1d be 68 e4 2b 3e f5 a5 39 3d
       0.12733968 -0.1541957 0.16786349 0.045324285
0001c0 b9 14 10 be 28 ee 5e bd bf 53 da bd 9b 95 23 be
       -0.14070405 -0.054426342 -0.106605045 -0.15975039
0001d0 fa 03 2d 3e 26 1e 11 3e af 55 dd bd 28 bb ec bc
       0.16896048 0.14171657 -0.108073585 -0.028897837
0001e0 05 56 1b bd eb 9e 3d bd 34 b0 3d 3e ec 6c 37 bd
       -0.03792383 -0.046294134 0.18524247 -0.04478161
0001f0 fb 2d 82 3c b8 ed ed bd 50 93 d8 3d 53 ba 1d be
       0.015891066 -0.11617607 0.10574973 -0.15403108
000200 50 62 c6 bd 6e b6 fc bc 62 50 02 be 1e 89 9e 3c
       -0.0968672 -0.030848708 -0.12725976 0.019352492
000210 c6 cf 0c 3e 4f 6d 5e 3c a9 34 60 ba 5d c1 14 3e
       0.13751134 0.013575866 -0.0008552769 0.14526887
000220 a6 db 02 3e 6e 34 3f be 8e de 17 be 4d fe 9b 3d
       0.12779102 -0.18672344 -0.14830992 0.076168634
000230 e4 13 0c 3e cf a6 05 bd 61 76 a1 3c 85 f9 cd 3b
       0.13679463 -0.032629784 0.019709768 0.0062858486
000240 e7 3a ff 3d 51 4b bd 3c cc 53 4b bb f9 da dd bd
       0.124624066 0.023107203 -0.0031025289 -0.10832781
000250 3a 77 18 be 85 d3 3b 3e ae fe 2e 3c 0f 65 af bd
       -0.14889231 0.18342407 0.010680838 -0.08564197
000260 a2 e1 16 be 05 18 16 bc 4c 0d 94 bd 54 42 de bd
       -0.1473451 -0.009161 -0.07229099 -0.10852495
000270 57 b3 94 3d be 0c 80 3d 29 f6 33 3e a2 60 95 3c
       0.07260769 0.062524304 0.17574371 0.018234555
000280 58 88 1f be 2c f2 3a bd ec e6 18 be 23 0e 0a 3e
       -0.15579355 -0.04564111 -0.1493184 0.13481955
000290 64 a3 95 3d 00 f8 91 3b de e8 ad bd cf 74 ec bb
       0.07306555 0.0044546127 -0.084916815 -0.007216073
0002a0 a8 9e 6e bd 4d c6 20 be b1 6b e8 bd 3f 76 1e be
       -0.058256775 -0.15700646 -0.113486655 -0.15474795
0002b0 f5 09 1c 3c 5a 23 fd ba d3 c8 63 bd f2 b0 3a be
       0.009523858 -0.0019312904 -0.055611443 -0.18231562
0002c0 db e9 f5 3d f2 7c 4c bd 60 46 42 3e dc 3a 4c 3d
       0.12007495 -0.049923845 0.18972158 0.04986082
0002d0 5a 3f ff bd 61 03 bb bd ed 1f 55 bd 2d 8f 8a 3d
       -0.12463255 -0.09131504 -0.0520324 0.0676559
0002e0 9b 17 02 3e 72 29 0e 3e 24 1c 7a 3a b9 86 35 be
       0.12704317 0.13882998 0.00095409364 -0.17727174
0002f0 23 3a ea bb c3 b2 a9 3d 5b 95 87 bc 56 44 ff 3b
       -0.0071480437 0.08286049 -0.01655071 0.0077901287
000300 bb 1f 65 3d b2 9d 56 bb 7a 6b 13 be 50 41 1c 3e
       0.055938464 -0.0032747802 -0.14396468 0.1525929
000310 a8 77 e1 ba ff 83 fd bd e6 57 f4 3b cd a7 04 be
       -0.0017201798 -0.12378692 0.0074567674 -0.12954636
000320 fd d8 5e 3d d5 53 96 bd 1f 7a 6b 3d 96 e7 f5 3d
       0.054406155 -0.073402084 0.05748951 0.12007062
000330 e0 be 45 3d ec a2 24 3e 93 3a 77 bc d8 e4 d7 3d
       0.048277736 0.16077775 -0.015089649 0.10541695
000340 42 45 db 3b 81 5e e7 bc 7e 1c f3 3c 31 e6 00 be
       0.006691606 -0.028243305 0.029676672 -0.12587811
000350 17 68 25 3e d5 1e 9f bd 50 a2 98 bd 82 ff b2 bd
       0.16152988 -0.077695526 -0.07452834 -0.087401405
000360 9a e9 c3 bd 40 d2 3a be 14 5c e6 3c b4 cc 0f 3d
       -0.0956604 -0.18244267 0.028120078 0.03510733
000370 20 0b 31 bc 13 a1 b6 3d 8e 19 24 be 04 d6 ec bc
       -0.010805875 0.08917441 -0.16025373 -0.028910644
000380 38 99 11 3e 69 f8 85 bc 7c 4e 0f 3c da 68 e6 3c
       0.14218605 -0.016353803 0.0087467395 0.028126169
000390 74 64 01 be 8f e0 5e bd f9 be aa 3d 21 19 02 bd
       -0.12635976 -0.054413375 0.083372064 -0.031762246
0003a0 7a fd 0c be f3 57 bc 3d 2f f0 1b be 9c d9 fa 3d
       -0.13768569 0.091964625 -0.15228342 0.12248537
0003b0 76 a4 1a be 8a 5a 38 bb 48 41 1d 3e 46 93 12 be
       -0.151018 -0.0028130137 0.15356934 -0.14313993
0003c0 fb 4d 05 3e cb 52 87 bb ef cc a0 3d 1b 37 c5 3d
       0.13018028 -0.0041297427 0.07851588 0.09629651
0003d0 dc 3b df 3d f7 c3 eb 3d 9f 91 0a be 00 cf 38 3e
       0.10900089 0.11511987 -0.13532113 0.18047714
0003e0 fb 4c cc 3d af f2 01 3e 37 98 06 be 52 1d bc bd
       0.0997562 0.12690233 -0.13144003 -0.0918528
0003f0 b3 43 e7 bd 3e ac 32 be b2 85 84 3d 5e 96 0b 3e
       -0.112922095 -0.17448518 0.06470813 0.1363158

weight_hh_l1 f4 [128, 32]
000000 ed 95 ab 3d e7 2b fe 3d 49 23 b4 bd d0 10 b6 3d
       0.083782054 0.124107175 -0.087957926 0.088899255
000010 39 88 6c bc 59 8f e9 3d 23 74 7e bd 61 2a 02 3c
       -0.014436775 0.114042945 -0.062122475 0.007944674
000020 9a cb 2c 3d d2 7d 2e 3e da 36 93 3b b2 7c f9 3d
       0.042186357 0.17040184 0.004492623 0.12181987
000030 d7 bc 22 3e 9d 85 48 bc e0 39 e6 bb f5 24 0e be
       0.15892349 -0.012238887 -0.007025942 -0.13881285
000040 ee 10 97 bd 92 6b 0d 3e b6 9e f7 bd a8 81 23 be
       -0.07376276 0.13810566 -0.120908186 -0.15967429
000050 a2 65 f0 3c b3 7e cf 3d a1 b8 1c be a8 b5 0f be
       0.029345337 0.10131588 -0.15304805 -0.1403414
000060 1b c6 8e bd 8d f0 a8 3d 63 7d 40 be db bd 0a bd
       -0.06971379 0.082490064 -0.18797831 -0.033872467
000070 77 df ae 3c 67 23 21 be 43 0b 9f bd cd 00 9e bd
       0.02134679 -0.15736161 -0.0776582 -0.077149965
000080 be 02 3c be 17 05 30 be 83 be 40 bd a6 49 e7 bd
       -0.18360421 -0.17189442 -0.047056686 -0.11293344
000090 24 91 fb bd c5 37 31 3e ee 16 d3 bd 00 a5 f1 bd
       -0.12283543 0.1730643 -0.10307108 -0.117990494
0000a0 29 3f ce bd b9 4e 18 be 5d 4b 68 bb 55 41 8c 3d
       -0.100706406 -0.1487378 -0.003544531 0.068483986
0000b0 d0 05 21 bd af 4f 58 bd d5 6a ca 3d 1b c4 da bd
       -0.039312184 -0.052810367 0.09883658 -0.106819354
0000c0 50 99 06 be ca c9 2f 3d 93 8e c2 bd d1 88 14 be
       -0.13144422 0.04291705 -0.0949985 -0.14505316
0000d0 62 8f 35 be ca d2 65 3d 06 77 e1 bd 36 06 4e bd
       -0.17730477 0.056109227 -0.1100903 -0.050298892
0000e0 f9 7a 90 bd 35 f0 f2 3c c6 9d 41 be 66 02 f8 3d
       -0.07054705 0.029655555 -0.18907842 0.121098325
0000f0 c9 af 2e 3c 2c 86 59 3d 3f ed be 3d 64 1a 11 be
       0.010662028 0.053106472 0.09322595 -0.14170223
000100 97 66 f9 3d 35 11 5c 3d 45 7c cf bd 48 90 96 3d
       0.121777706 0.053727347 -0.101311244 0.07351738
000110 e0 64 13 bd 67 65 52 bd db f5 3a be aa 5c fc 3d
       -0.035984874 -0.051366236 -0.18257849 0.12322362
000120 c4 db fb 3d f5 96 b7 3d f1 f5 12 bd 82 0c 1b 3e
       0.12297776 0.0896434 -0.03587908 0.1514149
000130 a1 be 58 bd a0 03 89 3d 6b 3b 85 3d 87 99 09 be
       -0.052916173 0.066901445 0.06505474 -0.13437472
000140 33 af f5 bd 20 b2 33 3e d8 62 68 bd 8d 7e a4 bd
       -0.11996307 0.17548418 -0.05673489 -0.0803195
000150 ce 17 e0 3d 98 cb 86 3c 61 35 a3 bb 32 c7 02 3e
       0.109420404 0.016454503 -0.0049807285 0.127713
000160 ba 01 c1 3d a4 da 95 3d 3b 55 4e 3c 84 c4 cc 3d
       0.094241574 0.07317093 0.012593563 0.0999842
000170 e8 89 cc 3d 10 9e 17 3e 3f fe 12 bd 71 b2 05 3e
       0.09987241 0.1480639 -0.035887 0.13056351
000180 09 c8 bd bc 60 eb d1 3c 04 8e 23 be b3 c2 04 be
       -0.023166673 0.02562493 -0.15972143 -0.12964897
000190 75 bc be 3d 89 4f e7 3d 93 4f e3 bd c1 83 fb bd
       0.09313289 0.11294467 -0.11099162 -0.122809894
0001a0 ff 52 b7 bd ee b1 c2 bc 60 d5 bf 3d f0 ea 99 bd
       -0.08951377 -0.023766484 0.0936687 -0.07515514
0001b0 bb 0e ec bc c1 fc 83 bd 99 5e 05 3e 88 af 17 be
       -0.028815618 -0.06444693 0.13024367 -0.14813054
0001c0 60 77 d0 3d b7 42 da 3d 08 78 2e be f6 65 cd bd
       0.10179019 0.10657256 -0.17037976 -0.10029213
0001d0 38 47 dc bc 90 94 bb 3d b8 77 ce bb 42 88 2f 3d
       -0.026889428 0.091591954 -0.0063008927 0.042854555
0001e0 7c 53 1f be 0f 28 de bd ee bd 81 3d 65 86 8d bd
       -0.1555919 -0.10847484 0.06335054 -0.06910399
0001f0 06 f4 05 3b 74 52 d2 3d 89 28 dd bd cd 35 17 be
       0.0020439639 0.10269633 -0.10798747 -0.14766617
000200 68 eb f1 bd 62 71 64 bc 27 d9 14 3e 3a 8b d4 3c
       -0.11812478 -0.013943048 0.14535962 0.025945295
000210 84 52 8f bd be 76 1c bb 41 85 cd 3d 5c 00 a5 3b
       -0.069981605 -0.0023874487 0.10035182 0.005035443
000220 54 b6 20 3e 6f 8f 95 3c 41 e5 20 3e 2b 58 96 bd
       0.15694553 0.018256871 0.15712453 -0.073410355
000230 ec 88 9b 3c f9 51 2b 3b 45 f6 d5 3d 11 c6 c4 3d
       0.018986188 0.0026141389 0.10447363 0.09608091
000240 03 c9 11 be e5 6f 14 3e aa 20 fe 3c cc 75 c5 bd
       -0.14236836 0.1449581 0.031021435 -0.096416086
000250 5e 0d a3 bc f4 19 27 3d 34 08 57 3d b6 3c 21 bd
       -0.019903835 0.040796235 0.052498057 -0.03936454
000260 43 d4 ef bd 24 4d 89 3a 66 e4 19 be fd 7a 8c bd
       -0.117104076 0.001047526 -0.15028533 -0.06859396
000270 4e 00 b3 bd b8 e9 d5 3d 02 a0 fe 3d 95 e5 db 3d
       -0.087402925 0.10444969 0.12432863 0.10737149
000280 99 e4 d8 3d 68 01 a9 bc 5b fd 0a 3e ed af 0e bd
       0.105904765 -0.020630553 0.1357321 -0.034835745
000290 89 b9 1a be 86 5d 3a 3b ff d4 07 be 4c 63 09 3d
       -0.15109839 0.0028437092 -0.13264845 0.033541963
0002a0 1d 19 bd bd 3a 54 07 3e 0a 8f 05 be 42 b0 3e 3d
       -0.092333056 0.13215724 -0.13042846 0.04655481
0002b0 8a df 11 3e 36 7b 07 be e7 9c 97 3d 94 f8 b1 bd
       0.1424543 -0.13230595 0.074029736 -0.08689991
0002c0 91 3c 04 3e c3 db da bc a4 05 00 bd c5 6b c2 bd
       0.12913729 -0.026716119 -0.03125538 -0.09493212
0002d0 fb 7e db 3c 63 38 aa 3d bd 0e 2e 3e 17 0a 02 bc
       0.026793947 0.08311536 0.1699781 -0.007936976
0002e0 6a 59 19 be cb 6a 23 bd 8e c5 50 3d 07 08 f6 bd
       -0.14975515 -0.039896768 0.050969653 -0.1201325
0002f0 be 8d 86 bd a7 b9 09 3e 2f 1e 3f 3d c1 01 0d 3e
       -0.06570004 0.13449727 0.046659645 0.137702
000300 0a c1 1d bd cb 65 8a bd 7a 1c f7 bd 82 3a 16 3c
       -0.038514175 -0.06757697 -0.12065978 0.009169223
000310 2b bf 1f 3e 5e 4b d7 bd 02 6b c3 3d 9e 19 11 bd
       0.15600269 -0.10512422 0.095418945 -0.03542482
000320 32 2b 3d 3d f7 04 8d 3d 27 c2 2a be 73 d4 75 3c
       0.046183772 0.068857126 -0.16675626 0.015004265
000330 4f 78 42 bd d3 48 1d 3e cf 3b ce 3d b4 90 9f 3d
       -0.047478016 0.15359811 0.10070001 0.07791272
000340 eb 57 0f bd 97 27 19 3e 29 48 0a 3e 02 68 1a 3e
       -0.034995954 0.14956509 0.1350409 0.15078738
000350 45 44 1e 3e a6 8f ea bd d5 d4 ae 3c cc 34 0c 3e
       0.1545573 -0.1145318 0.02134172 0.13692015
000360 96 e9 eb 3d 45 0e 09 be 63 bb 08 3e 3f 90 99 bd
       0.11519162 -0.1338435 0.13352732 -0.07498216
000370 bc 44 55 3c ac 8b 08 3e 02 dd 14 be d6 03 00 3e
       0.013016876 0.1333453 -0.14537433 0.12501463
000380 bb 6c 0f be cd 1b de bd ee 71 d1 3d b2 b4 31 bb
       -0.14006321 -0.10845146 0.102268085 -0.002711576
000390 00 90 1e be 98 7c 20 be 47 93 23 bd 0e 3b 19 3e
       -0.15484619 -0.15672529 -0.039935376 0.14963934
0003a0 fc 4c ce bd 04 8d 7f 3c f4 16 5c 3d f7 b7 9a 3c
       -0.10073277 0.015597586 0.053732827 0.01888655
0003b0 2d 19 ae bd 9c 32 1a 3d b3 92 24 3e cb e3 9e bc
       -0.08500896 0.03764592 0.16071586 -0.01939573
0003c0 28 6e 5e 3d 36 ae cb 3d 74 80 01 3e 5a 4a 7d 3c
       0.054304272 0.099453375 0.12646657 0.015459621
0003d0 64 d2 cf 3c d3 6e 31 bd df b1 b5 3d 3c 5d f9 bd
       0.025368877 -0.04331858 0.08871817 -0.12175986
0003e0 20 f0 20 3e 58 2b 47 3d 98 21 f6 bb a8 61 d6 3c
       0.157166 0.04862532 -0.007511329 0.026169613
0003f0 c1 a6 42 bd 4c 73 d6 3d cc 2d 5e 3c 7b f7 1a 3e
       -0.04752231 0.1047121 0.0135607235 0.15133469

bias_ih_l1 f4 [128]
000000 d4 45 3c 3e 3c 9d be bd e7 d0 6a 3d 8a c0 e7 3d
       0.18386012 -0.09307334 0.05732813 0.11316021
000010 01 ab 03 be fe cc 25 bd c3 2c 3a 3e 73 73 52 bd
       -0.12858202 -0.0404787 0.18181138 -0.051379632
000020 bf d9 95 3c d4 84 03 be a9 80 83 3d 24 8c 24 be
       0.018292306 -0.12843639 0.06421024 -0.16069084
000030 3f 9d 28 3e ed 06 af 3d 7a 22 01 3e 99 fb f6 3a
       0.16466235 0.08546243 0.12610808 0.0018843292
000040 e8 e5 21 3e a2 bb bb bd 4b 58 02 bc ea f7 0d be
       0.15810359 -0.091666475 -0.007955621 -0.13864103
000050 2a 27 8a 3d ca 6a 32 bd ec ca e6 3d 9b 77 17 3e
       0.06745751 -0.043558873 0.11269173 0.1479172
000060 d9 7e 22 be 07 9d 17 be 73 23 41 3e 68 39 0a be
       -0.15868701 -0.14805995 0.18861179 -0.13498461
000070 d3 6f 45 3e d8 a3 fb 3d 28 72 f3 3d b0 88 2b 3d
       0.19280939 0.1228711 0.11887008 0.041878402
000080 85 27 34 3e 50 10 2b 3d a5 60 85 3c 1e af 21 3b
       0.175932 0.041763604 0.016281435 0.0024671028
000090 e3 fd 13 bd 3e bc 19 be 35 07 fe bd 86 72 2a bd
       -0.036130797 -0.15013215 -0.124037184 -0.041613124
0000a0 15 da 0f 3e e3 2a 14 bd a0 3f bb 3d c6 1d 20 bd
       0.14048035 -0.036173712 0.09142995 -0.039090894
0000b0 59 60 99 bb 15 1b 29 3e 0e 64 1a bd 92 5d e9 bd
       -0.004680675 0.16514237 -0.037693076 -0.113948
0000c0 6f 2f 83 3d 25 0c d9 3d f3 f6 bd 3d 42 32 b1 bd
       0.064055316 0.105980195 0.092756175 -0.08652164
0000d0 70 79 33 3e db b6 24 be 53 f5 70 3d 1e ac 5f 3c
       0.17526793 -0.16085379 0.05882771 0.013651876
0000e0 bb 54 f0 3b 1b da 0b be 78 0d 10 be 58 ca da 3c
       0.0073343194 -0.1365742 -0.14067638 0.026707813
0000f0 ff 01 ed 3c 5a 0a 40 3d 99 55 51 3d 92 bf 16 be
       0.028931616 0.046884872 0.051107023 -0.14721516
000100 ca 71 b0 bc 7f b2 39 3c f2 ff da 3d cf 2a ab bd
       -0.021538634 0.011334061 0.10693349 -0.083577745
000110 b3 ef 27 3e de 0c 15 3e bd 77 e9 bd 8c 55 10 3e
       0.16400032 0.1455569 -0.113997914 0.14095134
000120 cd 3a 22 3e a3 bb 22 3e 41 fa 48 bd fb 4c d4 3d
       0.15842743 0.1589189 -0.049066786 0.10366245
000130 a9 8c cf 3d 44 f8 c7 3d 9d 48 f8 3c 86 8d b2 bd
       0.10134251 0.0976415 0.030308062 -0.087184
000140 d2 ca 0a be 0d 1e be 3d 4b 99 b2 3c e1 7c 9f bc
       -0.13553932 0.092830755 0.021801611 -0.019468727
000150 38 30 b5 bd 55 ac 11 bd 60 71 6c 3d f2 0e a7 3d
       -0.088470876 -0.03556474 0.05772531 0.081571475
000160 17 50 e6 bd 82 09 db ba 59 46 66 bd 0f e8 19 bc
       -0.11245745 -0.0016711208 -0.056219433 -0.009393706
000170 0d 6e 46 3c d3 b5 01 be d9 ff 36 3e 2d fe 30 3e
       0.012111199 -0.12667017 0.17871036 0.1728446
000180 21 08 3e bd 8c ed 19 3e ef 7b 35 3d 75 50 c1 3d
       -0.04639447 0.15032023 0.044307645 0.09439174
000190 e3 59 22 be 03 27 92 3d e9 47 04 3e 2b 56 00 3e
       -0.15854602 0.07136347 0.12918057 0.1253287
0001a0 7d 9a cb 3c 69 de 15 be 30 7c f4 3d 0a 52 69 3c
       0.02485394 -0.14635624 0.119377494 0.014240751
0001b0 23 a8 73 bd 19 7f e4 bd 67 9d 21 be 26 75 00 3d
       -0.05948652 -0.111570545 -0.157827 0.03136172
0001c0 69 ba 11 3e b9 80 06 be 8d 64 ec 3c 8f 19 2c bd
       0.14231266 -0.13135041 0.02885654 -0.042016562
0001d0 8d 38 ed 3d eb 8f 2e 3d 6a 35 1c 3c 33 fb e2 3d
       0.11583052 0.04261772 0.009534219 0.11083069
0001e0 87 1f be 3d f9 35 41 3e b5 54 31 bd 8b a2 f2 3d
       0.09283357 0.18868245 -0.043293674 0.11847409
0001f0 5e 27 af 3d d9 5d ba 3d e8 50 14 3e 01 50 13 be
       0.085524306 0.09099931 0.14483988 -0.14385988

bias_hh_l1 f4 [128]
000000 c0 98 e0 bc 7e e6 19 be 82 4d 8d bd 6c 76 06 be
       -0.027416587 -0.15029332 -0.06899549 -0.13131112
000010 ab db d9 bd f9 67 51 3d a6 ec 1c bd cb 2f 77 3d
       -0.106376015 0.051124547 -0.038311623 0.060348313
000020 91 83 0f be 72 72 80 3d 1a f6 00 be 5c 07 3b be
       -0.14015032 0.06271829 -0.1259388 -0.18264526
000030 db 3c 24 bc fd 8c 02 be 18 90 57 3c 4e 17 59 bd
       -0.010024275 -0.12749095 0.013156913 -0.05300074
000040 02 52 0f 3e 80 62 23 3e b6 3a 16 3e eb c5 ab bd
       0.13996127 0.15955544 0.14670834 -0.08387359
000050 1e 4f cc bc 5d 76 c8 bd be d2 3e bd 6c 8d ac bd
       -0.02494007 -0.09788201 -0.0465877 -0.084254116
000060 fe 29 8c bc 9a 4a bf 3c 15 52 09 3e 0e 0d 57 3c
       -0.017109867 0.023351002 0.13410218 0.013125671
000070 16 da ac 3d dc 9c e8 3d 9b 2d b6 bd cf a2 38 3e
       0.08440034 0.113580436 -0.08895417 0.18030857
000080 a8 49 41 3e ba 0b 9e 3d 61 4a 20 bd ec a8 30 3c
       0.18875754 0.077170804 -0.039133433 0.010782462
000090 00 5a a9 3d 56 d1 37 3e 90 8a 21 be a0 03 ea bc
       0.08269119 0.17950949 -0.15775514 -0.028566182
0000a0 70 af 1c be cc a9 86 bc 6c c3 3c bd 31 f9 06 be
       -0.15301299 -0.016438387 -0.046084806 -0.13180996
0000b0 dc 64 a9 bb 05 6b e7 bc 8d aa 98 bb a6 8c f7 3d
       -0.005169494 -0.028249273 -0.004659003 0.120873734
0000c0 61 b4 b3 bd 87 c6 7c 3d 67 db ea bc 0f 40 40 3e
       -0.08774639 0.061712768 -0.028669072 0.18774436
0000d0 65 4c 66 3d bc b4 9e bd 21 f9 89 bb c3 40 9d 3d
       0.0562252 -0.07749316 -0.0042106067 0.07678368
0000e0 8c 2f 7f bb 99 27 c5 3d 12 74 39 3e 07 1e 73 3d
       -0.0038938252 0.09626693 0.18110684 0.05935481
0000f0 c9 eb ac bd 6e 15 98 3d 9f 21 c2 bd 9c 71 27 3e
       -0.0844341 0.074259624 -0.09479069 0.16351932
000100 6e 52 25 3c 06 ef 33 bc 2c e4 35 be 0e d3 0e bd
       0.010090454 -0.010982281 -0.17762822 -0.034869246
000110 e1 5d e9 bd 83 0c 92 3d b0 35 94 bd e5 11 d6 3d
       -0.11394859 0.07131293 -0.072368026 0.10452632
000120 07 d8 c8 bd 98 5b 61 3d ae 4d f5 bd 0e 69 1c be
       -0.09806829 0.05501899 -0.11977707 -0.1527445
000130 b3 ee 8b bd 3d 23 45 3d 83 5f e5 3d 29 1b ef bd
       -0.06832638 0.04812931 0.11199858 -0.11675102
000140 ef c8 2c bd 6e c6 0e 3e 28 a3 3e be 3d 85 fe bc
       -0.042183813 0.13942882 -0.18616927 -0.031069392
000150 0d b7 21 be 42 67 03 3d c3 40 fe 3c 21 ac 2c 3c
       -0.15792485 0.032080896 0.03103674 0.010539086
000160 89 36 94 3d 17 6d 3a 3e b9 57 69 bd 4e 19 32 3e
       0.07236964 0.18205677 -0.056968424 0.17392465
000170 bd 8c b3 bd aa 90 39 be 0e 3b ca bd a3 a1 11 3e
       -0.08767078 -0.18121591 -0.09874545 0.14221816
000180 4c 73 af 3c 00 83 c3 bd 89 56 5b 3b c2 c8 a1 3a
       0.021417283 -0.09546471 0.0033468327 0.0012343156
000190 68 88 7c 3d b6 5a bd bb 04 df b4 bd 94 61 b2 3d
       0.061653525 -0.005778636 -0.08831599 0.08710018
0001a0 17 60 78 3d c3 29 00 be cf 70 8f bc c4 a7 b4 3c
       0.060638513 -0.12515931 -0.017509846 0.022052653
0001b0 3f 8f 17 be bc a0 1f 3d e2 5b 95 bd da d9 00 3e
       -0.14800738 0.038971648 -0.07292916 0.12583104
0001c0 59 5f aa 3a ed 5a ef bd ae 6d 08 3e 7d ee c8 bd
       0.0012998387 -0.116872646 0.1332309 -0.09811113
0001d0 35 75 a8 bc 1c be 15 3e 8a c8 e9 bd 4d 26 0b 3c
       -0.020563701 0.14623302 -0.11415203 0.008493018
0001e0 65 d7 04 3b 96 82 cc bd d2 de ed 3d a0 a0 9d 3d
       0.0020269987 -0.09985845 0.11614765 0.076966524
0001f0 07 31 20 be ca 1c b8 3c 97 34 2a 3e a0 8b 0f 3e
       -0.15643702 0.022474665 0.16621624 0.14018106
