models/recomendation_models/scripted_user_preference_model_v3_8_dim.pt (torch, 22457 bytes, 6 tensors)

weight_ih_l0 f4 [16, 12]
0	0x3e0b9bed	0.136337
1	0x3ecd4f64	0.40099633
2	0x3eb44e02	0.35215765
3	0xbef35211	-0.4752355
4	0xbe9419e5	-0.28926006
5	0xbe28c3b3	-0.16480903
6	0x3e5ed060	0.21759176
7	0xbeaf7fa5	-0.34277073
8	0xbea7239b	-0.32644352
9	0xbe9852f7	-0.29750797
10	0xbde6ee42	-0.11275913
11	0xbebb7d9c	-0.3661927
12	0xbd5e4c5a	-0.054272033
13	0x3ec905c3	0.39262208
14	0xbd50484b	-0.050850194
15	0xbef051c9	-0.46937397
16	0x3e8ad0db	0.2711247
17	0x3e97fcc5	0.29685035
18	0xbeb18d98	-0.3467834
19	0x3eceb95a	0.40375787
20	0xbe52f7b5	-0.20602305
21	0xbcfc7fa9	-0.030822592
22	0xbeb75f18	-0.35814738
23	0xbcb25c7d	-0.021772617
24	0x3d0d71c7	0.034532335
25	0x3eef2ab3	0.46712264
26	0x3ee153a2	0.4400912
27	0xbedec71f	-0.43511292
28	0x3ee6c16c	0.45069444
29	0xbc8591be	-0.016304847
30	0xbe1cf155	-0.15326436
31	0xbef040f8	-0.46924567
32	0xbef0f00a	-0.47058135
33	0xbeb09e55	-0.34495798
34	0xbe307546	-0.17232236
35	0x3ef17a2d	0.47163525
36	0xbef5b510	-0.47989702
37	0x3dde7076	0.10861294
38	0xbe840db2	-0.257917
39	0xbefa7547	-0.489176
40	0x3e35547c	0.1770801
41	0xbd438c9a	-0.04774151
42	0x3ed0bf35	0.4077088
43	0xbee5c985	-0.4488031
44	0xbe98bf92	-0.29833657
45	0xbef4722b	-0.47743353
46	0x3d3aa68a	0.04556898
47	0xbd1a3ba4	-0.037654534
48	0x3ee38e41	0.4444447
49	0x3e4a59bf	0.19760798
50	0xbee96697	-0.45586082
51	0x3de11313	0.10989966
52	0x3da68454	0.08130708
53	0x3de7c9eb	0.1131781
54	0xbe659755	-0.2242101
55	0x3ef720b8	0.4826715
56	0xbedd4eda	-0.4322422
57	0x3e7ec7b4	0.24880868
58	0x3ef63ecb	0.48094782
59	0x3db78ab3	0.08962002
60	0xbea3a746	-0.31963557
61	0x3e40ed6a	0.18840566
62	0xbdb576ce	-0.08860551
63	0xbdc8edb4	-0.09810963
64	0x3d6fddd2	0.058561154
65	0x3ed0ed26	0.4080593
66	0xbe3175b0	-0.1733005
67	0xbe1ecd5f	-0.1550803
68	0xbe3a530d	-0.18195744
69	0xbebe9d26	-0.3722927
70	0x3ed2467f	0.4106941
71	0x3eff2348	0.49831605
72	0xbeadc529	-0.33939484
73	0x3d4b93dc	0.049701557
74	0x3ed7bfa5	0.421384
75	0xbe508ecf	-0.20366977
76	0x3ec3cac0	0.38240623
77	0xbecda2b6	-0.401632
78	0x3eaad4b4	0.33365405
79	0x3e11af60	0.14227057
80	0x3e98418d	0.2973751
81	0x3e8c2dd1	0.27378705
82	0xbece6155	-0.40308633
83	0x3e86060b	0.26176485
84	0x3ef96ff7	0.48718235
85	0xbd3363b0	-0.04379624
86	0x3e0c9bcc	0.13731307
87	0xbe4c0b76	-0.19926247
88	0x3d4330f0	0.047654092
89	0xbedee7e2	-0.43536288
90	0x3eecdb3e	0.4626102
91	0x3ecb92b9	0.39760378
92	0xbec0872a	-0.37603122
93	0x3e8efdaf	0.2792792
94	0x3e8231ac	0.25428522
95	0x3e9f7e25	0.31150928
96	0x3ecc8452	0.39944702
97	0x3e131910	0.1436503
98	0xbee92226	-0.45533866
99	0x3e574c52	0.21025208
100	0xbea1cc36	-0.31601113
101	0xbd815209	-0.06314475
102	0x3eb5f235	0.35536352
103	0x3ee42074	0.4455601
104	0x3eb813e3	0.35952672
105	0xbd89b39c	-0.06723711
106	0xbeca374b	-0.3949531
107	0xbd1bad08	-0.038006812
108	0xbd96a985	-0.07356552
109	0x3dfd8334	0.12378541
110	0xbb359ee3	-0.0027713112
111	0xbea5f5ee	-0.32414192
112	0x3e505eda	0.20348683
113	0xbdb583b4	-0.08863011
114	0xbe9be4a4	-0.30447876
115	0xbea19737	-0.3156068
116	0xbee11275	-0.43959394
117	0xbe20a5e9	-0.1568829
118	0x3ef37e06	0.47557086
119	0xbe5a5ad6	-0.21323714
120	0x3e8b4ead	0.27208462
121	0xbe781e58	-0.24230325
122	0x3df4457e	0.11927317
123	0x3e9c0d1a	0.30478746
124	0x3b4488b6	0.0029988713
125	0xbe08dff3	-0.1336668
126	0xbd5d3886	-0.054008983
127	0xbc29a4da	-0.010354245
128	0x3cb3eff3	0.021965003
129	0x3e3b2725	0.18276651
130	0xbdeaa0cc	-0.11456451
131	0x3ed462f1	0.41481736
132	0xbe7deb82	-0.2479687
133	0x3e5833b1	0.21113469
134	0x3dc0e341	0.09418345
135	0x3e3bd7ec	0.18344086
136	0xbede16a6	-0.43376654
137	0x3ddc5da9	0.10760052
138	0xbe8ae4ab	-0.27127585
139	0xbee703f3	-0.451202
140	0x3ee0cbef	0.4390559
141	0xbe5d11c3	-0.21588807
142	0x3dcde68f	0.10053741
143	0xbde00205	-0.10937885
144	0xbd9695e5	-0.07352809
145	0x3d56fac0	0.052485228
146	0xbe35e56a	-0.17763296
147	0xbec9ed92	-0.39439064
148	0x3e72c0b7	0.23706327
149	0xbdbf23ef	-0.09333026
150	0xbde0b004	-0.10971072
151	0xbe16a5c1	-0.14711668
152	0x3e4a2cc3	0.19743638
153	0xbd5cbf09	-0.053893123
154	0xbed26363	-0.4109145
155	0xbe9791d5	-0.2960345
156	0xbef838de	-0.48480886
157	0xbd00a369	-0.03140584
158	0xbe51aa8a	-0.20475212
159	0x3ddecde9	0.10879118
160	0xbeba66b4	-0.3640648
161	0xbe3f6d02	-0.18693927
162	0x3e0cf73a	0.13766184
163	0x3eaa3883	0.3324624
164	0x3e8aa9fe	0.2708282
165	0xbea6b1d9	-0.32557562
166	0xbe923db0	-0.2856269
167	0xbd1fa58c	-0.038976237
168	0xbe807f47	-0.25097105
169	0xbd973c7f	-0.073845856
170	0x3ed221bd	0.41041365
171	0xbe189bd3	-0.14903192
172	0xbe27ca56	-0.16385779
173	0xbca0daab	-0.019635519
174	0x3e8893f9	0.26675394
175	0x3eaf6863	0.34259328
176	0xbdeefe32	-0.11669578
177	0x3e9f5c8b	0.31125292
178	0xbcd7a986	-0.026325952
179	0x3e4fb548	0.20283997
180	0xbe52f49d	-0.20601125
181	0x3e70b7bd	0.2350759
182	0xbe4fbd7d	-0.20287128
183	0x3d7b11c9	0.061296258
184	0xbef6a83d	-0.4817523
185	0x3dea5628	0.11442214
186	0x3d32726b	0.04356615
187	0xbec7ae57	-0.39000198
188	0xbee73007	-0.4515383
189	0xbdf9ca07	-0.12196737
190	0xbef9e1e1	-0.48805144
191	0x3d24f96b	0.040276926

weight_hh_l0 f4 [16, 4]
0	0x3eca4d20	0.39511967
1	0xbcb4980b	-0.022045156
2	0xbe9b73d6	-0.30361813
3	0xbec3238c	-0.38113058
4	0x3dc0b004	0.09408572
5	0x3df6562c	0.12028155
6	0x3cdf0a3a	0.027226556
7	0x3ecc010e	0.39844555
8	0xbd0c43ed	-0.034244467
9	0x3eed9549	0.46402958
10	0xbe94678c	-0.2898525
11	0x3e9ed894	0.3102461
12	0x3ec57132	0.38562924
13	0xbe81d10f	-0.25354812
14	0xbe19be18	-0.15013921
15	0x3e677ff4	0.22607404
16	0x3e9dfb9d	0.30856028
17	0x3e3037c5	0.17208774
18	0xbd4ed9e0	-0.05050075
19	0x3e456383	0.19276242
20	0x3d0673e1	0.032825354
21	0x3ecda10d	0.40161934
22	0x3ebea71d	0.37236872
23	0xbe6a20ad	-0.22864027
24	0x3e8ad142	0.27112776
25	0xbe595914	-0.21225387
26	0x3d2c469a	0.04205952
27	0x3e95eb38	0.2928102
28	0xbe231587	-0.15926181
29	0xbd313b5b	-0.043269496
30	0x3ea68b70	0.32528257
31	0x3ef01184	0.46888363
32	0xbe8cb784	-0.2748376
33	0xbeddfe52	-0.43358094
34	0x3d747079	0.059677575
35	0xbe22c6e9	-0.1589619
36	0xbea43260	-0.32069683
37	0x3e9e1401	0.30874637
38	0xbe2677c8	-0.1625663
39	0xbe8c3b8c	-0.2738918
40	0x3e4326f0	0.19057822
41	0x3eb9e416	0.36306828
42	0xbee19916	-0.44062108
43	0xbe1be9f6	-0.15225968
44	0xbe890841	-0.2676411
45	0xbe03ec84	-0.12883192
46	0x3debcb0b	0.11513337
47	0xbe33ba24	-0.17551476
48	0xbe8ad9fa	-0.27119428
49	0x3e93ac0a	0.28842193
50	0x3e9ae20d	0.30250588
51	0x3ed835a8	0.42228436
52	0x3a8d504d	0.0010781378
53	0x3e5ee44d	0.21766777
54	0x3ea08e8d	0.31358758
55	0x3d334116	0.043763243
56	0xbee0d173	-0.43909797
57	0x3c4910b4	0.012272049
58	0x3ecb45f3	0.39701805
59	0xbe291c8c	-0.16514796
60	0xbd45633f	-0.04819035
61	0xbe4ca4a6	-0.19984683
62	0xbe8c2f3e	-0.27379793
63	0xbeb2c41e	-0.3491525

bias_ih_l0 f4 [16]
0	0xbe3f2ec0	-0.18670177
1	0xbe2d624a	-0.16932026
2	0x3e88697c	0.26642978
3	0xbe5ab383	-0.21357541
4	0xbee8b10e	-0.45447582
5	0xbe6ae726	-0.22939739
6	0xbcf8e70e	-0.030383613
7	0xbd4889a1	-0.04895938
8	0xbbe55cb9	-0.006999579
9	0xbd95b0c6	-0.073091075
10	0x3da771f0	0.08176029
11	0xbe745c89	-0.23863424
12	0x3eb39ff5	0.35082975
13	0x3ef7bcb8	0.48386168
14	0x3ea86380	0.32888412
15	0xbe081898	-0.13290632

bias_hh_l0 f4 [16]
0	0xbce1268d	-0.027484203
1	0xbd3876c0	-0.045035124
2	0xbd7aeab7	-0.061258998
3	0x3c802cb2	0.015646312
4	0x3e84c28a	0.25929672
5	0x3ec22b0e	0.37923473
6	0xbddd33d7	-0.10800903
7	0xbe62a6aa	-0.2213389
8	0x3d9895ab	0.07450422
9	0xbef3aeec	-0.47594392
10	0x3e4d41fc	0.20044702
11	0xbde766d0	-0.11298907
12	0x3ee9cb27	0.45662805
13	0x3d5ffd33	0.05468483
14	0xbe3b16f1	-0.1827047
15	0x3e920d3a	0.28525716

weight f4 [8, 4]
0	0xbcad9b1f	-0.021192132
1	0xbdc0eb85	-0.09419922
2	0xbeafa803	-0.3430787
3	0xbe651c96	-0.22374186
4	0xbef18ee3	-0.47179326
5	0xbefb2ce8	-0.49057698
6	0xbcc4abec	-0.02400776
7	0x3eb0438c	0.34426534
8	0xbe6b5284	-0.22980696
9	0x3c2bc258	0.010483347
10	0xbe8274dd	-0.25479785
11	0xbed4b016	-0.41540593
12	0xbece1d9d	-0.40256968
13	0xbe0e2a54	-0.13883334
14	0x3ed3856f	0.4131274
15	0x3e5f28d1	0.21792914
16	0x3e89db29	0.26925018
17	0x3eadba4e	0.33931202
18	0xbef9c3bd	-0.4878215
19	0x3ec23e29	0.3793805
20	0xbe9ecae6	-0.31014174
21	0xbd370c05	-0.044689197
22	0xbebe8921	-0.37213996
23	0xbe34eac3	-0.1766768
24	0x3ea6562d	0.32487622
25	0x3efaf760	0.49016857
26	0xbe9fe77d	-0.312313
27	0xbede28e7	-0.4339058
28	0x3ec92cdc	0.39292037
29	0x3babc63f	0.0052421386
30	0xbce89b8c	-0.028394483
31	0x3b2fe152	0.0026837182

bias f4 [8]
0	0xbdab9e78	-0.08379835
1	0xbd7ec7d0	-0.062202275
2	0xbe93bada	-0.28853494
3	0x3dccd6c7	0.10001903
4	0xbee310dc	-0.443488
5	0x3d810621	0.06299997
6	0xbe647c68	-0.22313082
7	0xbe40079c	-0.18752903
