models/recomendation_models/scripted_user_preference_model_v28_32_dim_wide.pt (torch, 178434 bytes, 10 tensors)

hidden f4 [1, 1, 64]
-0.49582732 0.66702783 -0.5765017 0.28235626 -0.6799382 0.11645027 -0.46536145 0.44491023
0.0666293 -0.36047694 -0.25904575 0.4900024 -0.29504868 -0.42849365 -0.4451749 0.010938094
-0.16724885 0.4239159 -0.64397264 0.4430303 -0.07956453 0.40168715 -0.28462735 -0.5252394
-0.10646584 -0.35403687 -0.14384961 0.28597018 -0.67888886 0.5849132 -0.44911277 0.48732838
0.3260276 -0.06362642 0.4201682 0.4222771 -0.32038647 0.65765405 0.15634288 0.54472053
0.3828534 -0.036781874 0.42069784 0.39362463 -0.54460007 0.21794893 -0.24955687 0.3196186
0.4061469 -0.44226754 0.46804482 -0.02419417 -0.6667081 0.41323394 0.68869656 -0.58392113
0.21339439 -0.4837596 -0.379595 -0.6327963 0.5063426 0.6684325 0.04647303 -0.31455126
00000000: 14dd fdbe 56c2 2a3f 9e95 13bf 0091 903e
00000010: 6e10 2ebf 7b7d ee3d db43 eebe 46cb e33e
00000020: f174 883d 6f90 b8be a5a1 84be 98e1 fa3e
00000030: 9f10 97be 8563 dbbe f7ed e3be b135 333c
00000040: 4843 2bbe 810b d93e 64db 24bf ded4 e23e
00000050: baf2 a2bd f0a9 cd3e adba 91be 1776 06bf
00000060: c30a dabd 5244 b5be 504d 13be af6a 923e
00000070: a9cb 2dbf dfbc 153f 1cf2 e5be 1b83 f93e
00000080: 17ed a63e 924e 82bd 4920 d73e b434 d83e
00000090: b209 a4be 045c 283f 5918 203e ce72 0b3f
000000a0: 5c05 c43e 97a8 16bd b565 d73e 2b89 c93e
000000b0: e96a 0bbf 012e 5f3e d68b 7fbe 0da5 a33e
000000c0: 7df2 cf3e e470 e2be 92a3 ef3e da32 c6bc
000000d0: 62ad 2abf 6693 d33e 6b4e 303f db7b 15bf
000000e0: 0f84 5a3e 57af f7be 475a c2be f0fe 21bf
000000f0: ab9f 013f 641e 2b3f 815a 3e3d dd0c a1be

hidden f4 [1, 1, 64]
-1.1503118 1.4949296 -1.2864703 0.6605951 -1.9048727 0.23896834 -1.1710032 1.0756638
0.112537324 -0.67757595 -0.534081 2.0384476 -0.66353756 -0.9562256 -0.8462379 0.01840985
-0.30353922 0.68161273 -1.5829288 1.0658016 -0.18762125 0.82204485 -0.5483299 -1.7854695
-0.3816228 -0.8631747 -0.3369863 0.7955927 -2.350391 1.4224378 -0.89362544 0.9225972
0.6301921 -0.19609345 0.7506052 0.7400466 -0.71727145 2.117684 0.40067473 1.8885562
0.55339015 -0.08999308 0.79974765 0.7852356 -1.3278371 0.4917384 -0.53318936 0.63546294
0.8307015 -0.7507189 0.7995054 -0.09793778 -1.5991621 0.88492393 2.4414146 -1.4648199
0.49419427 -0.90355873 -0.8746161 -2.544658 0.9642639 2.0203676 0.13003665 -0.65000826
00000000: 6b3d 93bf da59 bf3f 0fab a4bf c31c 293f
00000010: ded2 f3bf 1eb4 743e 6fe3 95bf 5aaf 893f
00000020: f879 e63d 9e75 2dbf 88b9 08bf ed75 0240
00000030: 99dd 29bf 33cb 74bf 0ca3 58bf 41d0 963c
00000040: 7e69 9bbe 2c7e 2e3f 699d cabf 306c 883f
00000050: c91f 40be 8871 523f 595f 0cbf 448a e4bf
00000060: 1064 c3be 04f9 5cbf 7889 acbe f7ab 4b3f
00000070: ce6c 16c0 7112 b63f a3c4 64bf 552f 6c3f
00000080: 4554 213f b9cc 48be aa27 403f b273 3d3f
00000090: 1a9f 37bf 2288 0740 3d25 cd3e 36bc f13f
000000a0: faaa 0d3f 4b4e b8bd 43bc 4c3f 3305 493f
000000b0: 91f6 a9bf 23c5 fb3e 197f 08bf b3ad 223f
000000c0: daa8 543f 1d2f 40bf 63ac 4c3f 9a93 c8bd
000000d0: 58b1 ccbf 608a 623f 2340 1c40 387f bbbf
000000e0: 0807 fd3e a04f 67bf d7e6 5fbf addb 22c0
000000f0: 00da 763f b44d 0140 5428 053e f166 26bf

weight_ih_l0 f4 [256, 36]
0.11001912 -0.055359963 0.09070623 0.046571974 0.11246397 0.07284376 -0.06322898 -0.09993246
-0.0256821 -0.040787704 -0.104367435 -0.08337455 -0.015324253 -0.08350598 0.03892497 -0.079595506
-0.017344318 -0.040989913 -0.013458425 -0.024835354 -0.12729524 -0.003680589 0.017467752 0.020484515
-0.028332852 -0.035201233 0.10836231 -0.03764995 -0.08047262 0.03810077 0.093845256 0.01406214
-0.058423325 -0.085558206 0.091946036 -0.031825572 -0.012604751 -0.016029442 -0.02890009 -0.12795873
-0.035683066 0.03227826 -0.02503974 -0.036850195 0.13341746 -0.033865105 -0.12810297 -0.12589774
0.12622051 0.01417392 -0.050680738 -0.09636094 0.06293084 0.077512704 -0.03568048 -0.10483589
0.084706046 0.055913933 0.0773364 0.091962606 -0.06587764 0.04929003 0.09720197 0.055258334
0.109641105 0.13010599 -0.013128575 0.11046525 0.02816062 0.031407297 -0.06367633 0.07820701
-0.028068628 0.04316082 0.026868 -0.10662497 -0.054616675 0.032230943 0.081383705 -0.005418137
-0.03753752 0.020373832 0.04887406 -0.041532997 0.11593669 -0.10004275 0.06951155 0.011224674
-0.019293642 0.0880408 0.05025982 0.077925295 -0.097809985 -0.0065009743 -0.041513707 0.062645555
0.11094584 -0.07687223 -0.08664015 -0.019783886 0.118482806 0.012852697 -0.03216145 -0.110586435
-0.08160417 0.095496185 -0.070127085 -0.083896965 -0.031720962 0.04167753 0.063412875 0.022830028
-0.027073773 -0.081077084 0.12397014 0.09335203 -0.034042582 -0.07957905 -0.018499363 -0.04876086
0.12421136 0.0023197273 0.044716224 0.0013494126 0.04503437 0.08456512 -0.10813805 0.09734489
0.060829386 -0.06543461 -0.05827428 -0.050219283 0.037092235 -0.09113457 0.12591769 0.07441637
-0.011678266 -0.010252289 0.014777527 0.047643937 0.010971011 -0.03665941 0.09891272 0.046515714
0.06694223 0.01986093 -0.10809545 -0.13529976 0.07141839 0.0009867768 0.09229738 0.04771369
0.09473932 -0.07066429 0.048640426 -0.002037176 0.036730863 -0.024438959 0.1370729 0.1302751
-0.08160891 -0.13719796 0.03961166 0.008468762 0.10999164 -0.11254965 0.08863226 0.1212307
-0.047335785 0.084085196 0.076611534 0.067251936 0.06445758 0.034525614 -0.048290957 -0.05424512
0.071800075 0.100584455 0.055977967 0.039940547 0.033412483 0.016552031 0.07428753 -0.07262739
-0.01370437 -0.031958394 -0.057801574 -0.02890192 -0.05706318 0.045582216 0.04535538 -0.037720267
0.05898496 -0.06561296 0.09963123 -0.09765056 -0.033754803 -0.07409631 0.016338235 -0.118166946
0.06211099 0.022918677 0.030339248 -0.083251104 -0.092594884 -0.11774371 0.05258455 -0.09132042
-0.023047427 -0.09312882 0.054816525 0.07814998 0.087190926 0.1166433 -0.02761262 -0.090557314
0.07474136 0.1247021 -0.0647791 -0.1028917 0.07639852 0.073588766 -0.09759494 0.07936737
0.13538851 -0.094674096 0.030283537 0.081434466 -0.044076648 0.12475907 0.048009917 -0.07057067
0.035304986 -0.032091223 -0.039129615 0.064009406 -0.059629943 0.07634297 -0.03359811 0.09068681
-0.097340554 0.051095583 0.04813098 -0.121703744 0.13461186 0.0071874447 0.079979435 0.0031139841
-0.026013225 0.11552993 0.0977171 0.08578299 -0.042648803 0.12734205 0.09168973 0.025448909
00000000: b451 e13d 21c1 62bd 30c4 b93d 41c2 3e3d
00000010: 8353 e63d 1c2f 953d 327e 81bd 64a9 ccbd
00000020: 4463 d2bc 0211 27bd 98be d5bd 47c0 aabd
00000030: 9312 7bbc 2f05 abbd ca6f 1f3d f802 a3bd
00000040: ac15 8ebc 0ae5 27bd ba80 5cbc 8373 cbbc
00000050: af59 02be 0936 71bb 8818 8f3c 24cf a73c
00000060: 4c1a e8bc 2b2f 10bd 0fed dd3d d536 1abd
00000070: d4ce a4bd 8e0f 1c3d f131 c03d e464 663c
00000080: 4c4d 6fbd 2439 afbd 344e bc3d 885b 02bd
00000090: 2884 4ebc 2d50 83bc e2bf ecbc 9d07 03be
000000a0: 6828 12bd 3536 043d 2420 cdbc 3bf0 16bd
000000b0: 969e 083e 23b6 0abd 6d2d 03be 56eb 00be
000000c0: f33f 013e bb39 683c 9b96 4fbd e258 c5bd
000000d0: e2e1 803d fbbe 9e3d b225 12bd 33b4 d6bd
000000e0: 5d7a ad3d 0206 653d 8c62 9e3d e456 bc3d
000000f0: dbea 86bd 58e4 493d d411 c73d 9056 623d
00000100: 848b e03d 813a 053e 3c19 57bc 9b3b e23d
00000110: 1ab1 e63c f0a4 003d bc68 82bd ff2a a03d
00000120: 2ef0 e5bc 66c9 303d 481a dc3c 315e dabd
00000130: bcb5 5fbd 9804 043d 80ac a63d a18a b1bb
00000140: f1c0 19bd 06e7 a63c 2b30 483d 811e 2abd
00000150: 3770 ed3d 37e3 ccbd 125c 8e3d b2e7 373c
00000160: b30d 9ebc bc4e b43d 3edd 4d3d 4c97 9f3d
00000170: 9a50 c8bd 2006 d5bb 470a 2abd 504c 803d
00000180: 9337 e33d 306f 9dbd 6470 b1bd d111 a2bc
00000190: 1da7 f23d 1e94 523c b9bb 03bd 247b e2bd
000001a0: 1620 a7bd 8193 c33d ca9e 8fbd 2cd2 abbd
000001b0: d7ed 01bd 0fb6 2a3d 9cde 813d 0a06 bb3c
000001c0: d1c9 ddbc be0b a6bd 0fe4 fd3d 592f bf3d
000001d0: 3c70 0bbd 57fa a2bd fa8b 97bc 78b9 47bd
000001e0: 8762 fe3d 9106 183b 5c28 373d c6de b03a
000001f0: f675 383d 7a30 ad3d 7b77 ddbd c25c c73d
00000200: 3c28 793d 9502 86bd 03b1 6ebd bcb2 4dbd
00000210: 07ee 173d c3a4 babd 91f0 003e 9c67 983d
00000220: 3356 3fbc 37f9 27bc 711d 723c 4a26 433d
00000230: c1bf 333c 2d28 16bd c192 ca3d 4387 3e3d
00000240: 0219 893d 64b3 a23c 2661 ddbd 058c 0abe
00000250: ce43 923d bc56 813a 6906 bd3d 6e6f 433d
00000260: b006 c23d 70b8 90bd 2f3b 473d 2482 05bb
00000270: 1a73 163d 3634 c8bc d75c 0c3e d666 053e
00000280: 9222 a7bd 9f7d 0cbe d63f 223d 90c0 0a3c
00000290: 4c43 e13d 6e80 e6bd d584 b53d cd47 f83d
000002a0: 2be3 41bd dc34 ac3d 82e6 9c3d 62bb 893d
000002b0: 5602 843d bb6a 0d3d bdcc 45bd 2230 5ebd
000002c0: eb0b 933d 39ff cd3d 2749 653d b398 233d
000002d0: 87db 083d 2098 873c 0f24 983d abbd 94bd
000002e0: 4b88 60bc cee6 02bd 58c1 6cbd b8c3 ecbc
000002f0: 15bb 69bd 6bb4 3a3d 90c6 393d 9180 1abd
00000300: 379a 713d 1660 86bd 750b cc3d 04fd c7bd
00000310: 7a42 0abd cebf 97bd c3d7 853c 8301 f2bd
00000320: 1868 7e3d f3bf bb3c 048a f83c 8e7f aabd
00000330: 63a2 bdbd 9d23 f1bd e662 573d 3306 bbbd
00000340: f5cd bcbc 53ba bebd 4b87 603d 190d a03d
00000350: 2891 b23d afe2 ee3d dc33 e2bc 1d76 b9bd
00000360: 0012 993d d163 ff3d e8aa 84bd e2b8 d2bd
00000370: d476 9c3d b5b5 963d dbdf c7bd 5c8b a23d
00000380: 49a3 0a3e 7ee4 c1bd 2e15 f83c 1dc7 a63d
00000390: b789 34bd af81 ff3d 0ca6 443d 5b87 90bd
000003a0: f69b 103d 1672 03bd 6046 20bd 5d17 833d
000003b0: 873e 74bd b459 9c3d 2c9e 09bd 02ba b93d
000003c0: 7c5a c7bd 9a49 513d fe24 453d d03f f9bd
000003d0: b1d7 093e a884 eb3b 42cc a33d fc13 4c3b
000003e0: b019 d5bc f59a ec3d e71f c83d feae af3d
000003f0: 83b0 2ebd f465 023e d3c7 bb3d 3b7a d03c

weight_hh_l0 f4 [256, 64]
-0.12270016 0.10875075 0.09949969 0.14048688 0.043947544 0.11938362 -0.013880394 -0.09371425
0.05060258 -0.12845272 -0.028730236 0.10672774 -0.073074624 0.032990653 -0.13900852 -0.02378319
-0.12596664 -0.087742835 0.089499354 0.114691064 -0.061414313 -0.05168844 -0.118258104 0.026500668
0.047262847 -0.06962513 -0.07687755 0.09214712 0.063126855 -0.10372093 -0.044057548 -0.0060887854
-0.083110526 -0.05723351 -0.012591747 0.053765193 0.070514806 0.028255133 0.100068025 0.09507241
-0.07739024 0.0023428479 -0.062940486 -0.1073645 0.0030531967 -0.041321922 -0.026805818 -0.06368283
-0.07133706 0.041361347 0.10558161 0.033860806 0.0047945264 0.0367967 -0.05230528 0.08280688
0.066901244 -0.11076488 0.049308453 0.014888002 -0.012424818 0.05312129 -0.11183767 0.022391194
0.0046402235 -0.045126747 0.10376354 0.10561536 -0.07863405 -0.08631345 -0.030781232 0.08296404
0.044566184 -0.083752096 0.04621443 0.12413981 -0.024040224 0.061921194 0.008967817 0.0882989
-0.078768805 0.06356498 -0.12139588 -0.067301735 -0.0072151967 0.08992052 0.07428433 0.09857034
0.08643634 -0.119868465 -0.08702006 0.1418698 0.07876379 0.11001769 -0.02418784 0.041209597
0.008196988 0.052688863 -0.093494475 0.027773075 0.0043962365 0.053596884 0.08502656 0.11445186
0.07645212 0.12132107 0.0797761 -0.085971124 -0.13300955 -0.009289061 -0.017038016 0.032742184
0.046150047 -0.029486604 0.10112194 0.05660741 -0.016364729 -0.06889554 -0.014344348 -0.081371695
-0.0812162 0.00089988764 -0.03375409 0.09603565 0.06941727 -0.09996523 -0.04375445 -0.13528068
-0.087131955 0.12075436 -0.13487008 -0.07190525 0.060050607 0.084655724 -0.051726185 0.047283664
0.10731041 0.0074845916 -0.1125419 -0.022414034 -0.08413949 0.09744369 0.07751762 0.05236195
-0.050398678 0.06363624 -0.07968213 0.08995627 -0.050297063 0.019368386 -0.031478953 0.09302159
0.10439376 -0.03210172 -0.05845331 -0.06222525 -0.11868554 0.13621569 -0.016653856 0.12582122
-0.029491382 -0.07631732 0.09005481 -0.046012472 -0.022134079 0.019176131 0.012226713 -0.058868162
-0.09866341 0.08722146 0.12840343 -0.09076269 -0.084216364 -0.091042496 0.07810713 0.06885191
-0.018582027 -0.08583563 0.09225994 0.022971744 0.045712274 -0.035218447 0.1086816 0.026642876
-0.09724326 0.016809504 -0.039080814 -0.09626751 -0.10962885 -0.07230113 0.09478732 -0.09443042
-0.029547147 0.006046921 -0.045526717 0.027080296 -0.11259707 0.08097653 0.037166677 -0.049137075
0.097116545 0.05586737 0.011319223 0.0136611145 0.036620285 -0.087514885 -0.05194719 0.0661525
0.089067824 -0.08024159 0.045121595 -0.08792455 0.10127236 -0.023293834 -0.014703816 0.028763866
0.004682322 0.090090536 0.10931166 -0.051631436 0.00021897588 0.10126049 0.0571142 0.11374065
-0.08348454 0.114680514 -0.05405735 0.135581 0.045077875 0.065508336 -0.07631614 -0.08809201
-0.07024489 0.08185889 -0.10072559 -0.05917563 0.046915926 -0.07368395 0.11215857 -0.04141724
-0.10273655 -0.11383567 -0.06468541 0.11302846 -0.0653097 0.01672335 0.09142309 -0.052081246
0.08754083 -0.009457026 0.0013548216 -0.050415903 0.11193178 -0.0017076008 -0.001002115 -0.07509888
00000000: 394a fbbd b7b8 de3d 7ec6 cb3d cbdb 0f3e
00000010: 5702 343d 667f f43d 986a 63bc 42ed bfbd
00000020: a744 4f3d 1c89 03be ac5b ebbc 1394 da3d
00000030: 26a8 95bd 3521 073d 4058 0ebe f7d4 c2bc
00000040: 66fd 00be 84b2 b3bd 704b b73d 26e3 ea3d
00000050: 938d 7bbd 42b7 53bd 4e31 f2bd ee17 d93c
00000060: b096 413d 9f97 8ebd fa71 9dbd a1b7 bc3d
00000070: a748 813d a46b d4bd b075 34bd 6f84 c7bb
00000080: da35 aabd af6d 6abd 9d4d 4ebc e438 5c3d
00000090: 116a 903d 4f77 e73c 77f0 cc3d 53b5 c23d
000000a0: c67e 9ebd 778a 193b f1e6 80bd ebe1 dbbd
000000b0: 2418 483b 2d41 29bd e097 dbbc 256c 82bd
000000c0: 2a19 92bd 846a 293d 2c3b d83d a1b1 0a3d
000000d0: 671b 9d3b 23b8 163d 103e 56bd a796 a93d
000000e0: 8503 893d b3d8 e2bd a9f7 493d ceec 733c
000000f0: 7791 4bbc b695 593d 260b e5bd bd6d b73c
00000100: 040d 983b d3d6 38bd fb81 d43d de4c d83d
00000110: e40a a1bd 1bc5 b0bd ec28 fcbc 0de9 a93d
00000120: 088b 363d 3886 abbd 584b 3d3d 033d fe3d
00000130: 01f0 c4bc 14a1 7d3d c0ed 123c 0ed6 b43d
00000140: 8a51 a1bd 5b2e 823d 679e f8bd 7ed5 89bd
00000150: 756d ecbb 4028 b83d 6222 983d 3fdf c93d
00000160: 8905 b13d 997d f5bd 9337 b2bd 5146 113e
00000170: e94e a13d f450 e13d 9425 c6bc 65cb 283d
00000180: a94c 063c 47d0 573d 087a bfbd 5c84 e33c
00000190: 4e0e 903b 6888 5b3d 6822 ae3d bd65 ea3d
000001a0: ee92 9c3d 2e77 f83d a761 a33d a111 b0bd
000001b0: a833 08be 2531 18bc 4f93 8bbc ab1c 063d
000001c0: d507 3d3d e48d f1bc 0519 cf3d 2cdd 673d
000001d0: 530f 86bc 1b19 8dbd 8e04 6bbc 34a6 a6bd
000001e0: ae54 a6bd 70e6 6b3a bb41 0abd 57ae c43d
000001f0: a42a 8e3d 92ba ccbd de37 33bd 0587 0abe
00000200: 3d72 b2bd 104e f73d 621b 0abe 0f43 93bd
00000210: a0f7 753d fb5f ad3d d6de 53bd 84ac 413d
00000220: 8fc5 db3d 4e41 f53b 5e7c e6bd a39d b7bc
00000230: 5351 acbd 8f90 c73d 8fc1 9e3d 7c79 563d
00000240: d86e 4ebd b853 823d 6230 a3bd fe3a b83d
00000250: 4b04 4ebd 73aa 9e3c 13f0 00bd 1a82 be3d
00000260: 65cc d53d 187d 03bd bd6c 6fbd e7df 7ebd
00000270: 6811 f3bd 207c 0b3e ab6d 88bc 47d7 003e
00000280: e997 f1bc 414c 9cbd a86e b83d 9377 3cbd
00000290: 8752 b5bc 4317 9d3c 8d52 483c be1f 71bd
000002a0: 0b10 cabd 2aa1 b23d 307c 033e cae1 b9bd
000002b0: a179 acbd 7d74 babd a2f6 9f3d 3b02 8d3d
000002c0: 5639 98bc 97ca afbd c8f2 bc3d 3d2f bc3c
000002d0: cb3c 3b3d 3841 10bd 7594 de3d 2942 da3c
000002e0: 7927 c7bd 16b4 893c 3413 20bd e627 c5bd
000002f0: 1785 e0bd 9d12 94bd db1f c23d bc64 c1bd
00000300: dc0c f2bc 4025 c63b 397a 3abd 7fd7 dd3c
00000310: 4b99 e6bd 06d7 a53d 163c 183d f543 49bd
00000320: 0ae5 c63d 2fd5 643d 4374 393c ded2 5f3c
00000330: 27ff 153d 013b b3bd 94c6 54bd f67a 873d
00000340: 3169 b63d b455 a4bd 6cd1 383d c911 b4bd
00000350: e267 cf3d b6d2 bebc 46e8 70bc 33a2 eb3c
00000360: 2a6e 993b 6381 b83d cbde df3d 7c7b 53bd
00000370: e49c 6539 a961 cf3d 94f0 693d dcf0 e83d
00000380: f1f9 aabd 9edd ea3d 3d6b 5dbd bfd5 0a3e
00000390: 94a3 383d 3c29 863d a34b 9cbd 9569 b4bd
000003a0: 8edc 8fbd a2a5 a73d 3849 cebd 2562 72bd
000003b0: ea2a 403d 9ce7 96bd 64b3 e53d 20a5 29bd
000003c0: 8a67 d2bd ad22 e9bd c979 84bd 777b e73d
000003d0: 18c1 85bd 68ff 883c 073c bb3d 2553 55bd
000003e0: 9b48 b33d a4f1 1abc 4594 b13a e880 4ebd
000003f0: 7d3c e53d 93d1 dfba 6659 83ba 71cd 99bd

bias_ih_l0 f4 [256]
0.06878489 -0.011039148 0.07889493 -0.07869041 0.051164575 0.018478278 -0.100495175 0.09032237
0.0054241335 -0.118487455 -0.11497102 0.015941612 0.07528887 -0.100226775 -0.03274012 0.10089295
-0.11639924 -0.07226313 0.1299508 0.012912377 -0.062496386 -0.08961076 -0.0208634 -0.10709637
-0.10649343 0.12051419 0.08658678 0.07180205 0.017984135 -0.09096033 -0.037354335 -0.015097987
-0.0061776517 0.018850826 -0.021022733 -0.045714676 0.016397113 -0.10009315 -0.011605633 -0.052212965
-0.028826054 0.10136132 0.030446194 0.015002949 -0.004816636 -0.102865845 -0.05136995 0.08184625
-0.08936318 -0.0048969476 -0.09197149 0.08066475 -0.027499069 -0.10543842 0.112562165 -0.109966464
-0.110584006 0.004925897 0.10587238 0.1261316 0.067676544 -0.046934087 -0.015924366 0.03168828
-0.09040323 -0.06683324 0.13426849 0.095296055 -0.02585515 0.048381913 0.0006819329 0.022455765
-0.068605594 -0.1091589 0.09557258 -0.03507242 0.11870255 -0.028660582 -0.10057327 -0.044391934
-0.062185224 0.041858748 0.040844742 0.10977357 0.049804658 0.015759818 -0.022935327 0.02019578
0.05255868 0.065431796 -0.049095135 0.11928795 -0.10420581 0.012404487 0.1344585 -0.05365577
-0.01764051 0.113244474 -0.09559204 0.0583128 -0.09254285 0.10597514 -0.09967822 -0.06796909
0.12710825 -0.11028621 0.115930445 0.015098186 0.03864308 -0.058147185 -0.087612785 -0.03968594
0.13344596 0.03967481 -0.0033666894 0.049169306 -0.043626435 -0.0950399 0.09879729 0.12939022
-0.12657942 0.13503261 0.07564032 -0.016755534 0.12144062 -0.06865822 -0.11818225 0.023671096
0.020509426 -0.019513216 -0.02712529 0.11325709 -0.120748155 -0.044998623 -0.056194697 -0.04843541
0.09225564 -0.047617096 -0.115222014 0.09607813 0.051701542 0.076468274 0.0045756795 -0.11214392
0.062023733 -0.10190248 -0.035723265 0.023982972 -0.038376085 0.12030489 -0.11825154 -0.104197875
-0.08748268 -0.083871335 -0.030857641 -0.04357433 0.019051936 0.05439127 -0.13517539 -0.005635906
0.088420555 -0.011712855 -0.026613917 0.0416099 0.05444074 -0.04192444 0.02575872 0.12306886
0.12300949 0.014179471 0.05607028 0.07280944 -0.09009456 0.08265973 0.023958871 0.11723437
-0.038898945 0.09227786 -0.054761097 0.10148435 -0.05576071 0.12315517 0.019781359 -0.12077763
0.07614899 0.046935987 0.034889646 -0.033396415 0.12354246 0.03486971 0.037364926 -0.06385141
-0.063086316 -0.026446674 0.08505424 -0.10520389 0.1381176 0.041003507 -0.04937113 0.08812538
0.0320748 0.09692601 -0.033825204 -0.03309756 0.013026022 0.08618679 0.05852643 0.029000195
-0.01750587 -0.010400711 -0.023631185 0.12937072 -0.09281522 -0.018088005 0.09508432 -0.094638556
4.6973102e-05 -0.07214152 0.09347804 0.11670972 -0.0003366795 -0.07522604 -0.10435597 0.004788246
-0.039003253 0.022397242 -0.0679907 -0.1063552 0.015164665 0.13524391 -0.092939615 -0.04681215
0.12737113 -0.112767294 0.11887091 0.02171866 0.014734251 0.035087094 -0.10994218 0.11237697
0.09239059 0.13303787 -0.07993005 -0.07938383 0.11611376 0.07269502 0.027038291 0.005435019
0.03542969 0.09818052 -0.10281878 -0.099033125 0.06949286 -0.07427357 0.011559336 -0.10691562
00000000: 18df 8c3d 8bdd 34bc aa93 a13d 7028 a1bd
00000010: f291 513d c25f 973c 6ad0 cdbd effa b83d
00000020: eebc b13b 8da9 f2bd ed75 ebbd fc97 823c
00000030: 0d31 9a3d b243 cdbd 811a 06bd f7a0 ce3d
00000040: ba62 eebd b1fe 93bd d311 053e 6f8e 533c
00000050: 36fc 7fbd d985 b7bd b9e9 aabc 5755 dbbd
00000060: 3a19 dabd 25d0 f63d 6954 b13d f40c 933d
00000070: 7753 933c 6949 babd dc00 19bd 8c5d 77bc
00000080: e66d cabb 0c6d 9a3c de37 acbc 503f 3bbd
00000090: 3d53 863c a3fd ccbd 8e25 3ebc 43dd 55bd
000000a0: 9e24 ecbc 8696 cf3d 4c6a f93c eece 753c
000000b0: dfd4 9dbb 54ab d2bd 4c69 52bd 029f a73d
000000c0: 0b04 b7bd 9376 a0bb 8c5b bcbd 8f33 a53d
000000d0: ba45 e1bc 19f0 d7bd fe86 e63d 1936 e1bd
000000e0: de79 e2bd 6b69 a13b 9ed3 d83d a428 013e
000000f0: 009a 8a3d f53d 40bd d173 82bc 92cb 013d
00000100: 5425 b9bd dedf 88bd ae7d 093e 942a c33d
00000110: 2ece d3bc 1d2c 463d bec3 323a 27f5 b73c
00000120: 1781 8cbd b48e dfbd 8fbb c33d 19a8 0fbd
00000130: 531a f33d 99c9 eabc 5cf9 cdbd 51d4 35bd
00000140: efb5 7ebd 1474 2b3d d14c 273d f7d0 e03d
00000150: f8ff 4b3d bc1a 813c dee2 bbbc 9f71 a53c
00000160: c547 573d 1b01 863d fb17 49bd 3e4d f43d
00000170: db69 d5bd 303c 4b3c 7daf 093e 27c6 5bbd
00000180: d582 90bc b8ec e73d c2c5 c3bd 67d9 6e3d
00000190: 1b87 bdbd 7f09 d93d 1824 ccbd 6133 8bbd
000001a0: aa28 023e bddd e1bd f16c ed3d 625e 773c
000001b0: 3548 1e3d be2b 6ebd 556e b3bd b98d 22bd
000001c0: 0fa6 083e 0e82 223d ada3 5cbb c165 493d
000001d0: a2b1 32bd 47a4 c2bd 3c56 ca3d df7e 043e
000001e0: 099e 01be fd45 0a3e 50e9 9a3d e742 89bc
000001f0: dcb5 f83d ae9c 8cbd 8909 f2bd e3e9 c13c
00000200: 6203 a83c 2eda 9fbc db35 debc 55f3 e73d
00000210: cf4a f7bd 7a50 38bd 692c 66bd 3564 46bd
00000220: 86f0 bc3d 250a 43bd 85f9 ebbd 9cc4 c43d
00000230: ffc4 533d 669b 9c3d 95ef 953b b6ab e5bd
00000240: 990c 7e3d 3fb2 d0bd 8f52 12bd f077 c43c
00000250: 3e30 1dbd 6962 f63d dd2d f2bd b265 d5bd
00000260: 1f2a b3bd bcc4 abbd 2ac9 fcbc ff7a 32bd
00000270: ce12 9c3c 61c9 5e3d 6b6b 0abe 68ad b8bb
00000280: d615 b53d 46e7 3fbc 6e05 dabc 246f 2a3d
00000290: 41fd 5e3d f6b8 2bbd f303 d33c 870b fc3d
000002a0: 66ec fb3d 0351 683c f3a9 653d 1e1d 953d
000002b0: 7f83 b8bd 8149 a93d 6545 c43c 9318 f03d
000002c0: 8054 1fbd 2dfc bc3d 2c4d 60bd 07d7 cf3d
000002d0: 5865 64bd c738 fc3d 840c a23c 435a f7bd
000002e0: 00f4 9b3d f33f 403d 72e8 0e3d aeca 08bd
000002f0: d403 fd3d 8bd3 0e3d f70b 193d 87c4 82bd
00000300: 6633 81bd b2a6 d8bc eb30 ae3d 2375 d7bd
00000310: b36e 0d3e 4bf3 273d 6239 4abd 147b b43d
00000320: de60 033d 2581 c63d 4c8c 0abd 4f91 07bd
00000330: 196b 553c b382 b03d 69b9 6f3d d191 ed3c
00000340: 7868 8fbc be67 2abc 3096 c1bc c279 043e
00000350: e815 bebd 4c2d 94bc 91bb c23d dcd1 c1bd
00000360: fc04 4538 efbe 93bd 6a71 bf3d 8105 ef3d
00000370: 5c84 b0b9 1c10 9abd 95b8 d5bd b8e6 9c3b
00000380: e0c1 1fbd 6c7a b73c b53e 8bbd c1d0 d9bd
00000390: 3775 783c 617d 0a3e 2057 bebd 19be 3fbd
000003a0: 946d 023e 8af2 e6bd 9772 f33d 55eb b13c
000003b0: ee67 713c 7cb7 0f3d 5e29 e1bd e625 e63d
000003c0: 4737 bd3d 143b 083e 5eb2 a3bd fd93 a2bd
000003d0: 0dcd ed3d 20e1 943d 687f dd3c 3e18 b23b
000003e0: b91e 113d de12 c93d a792 d2bd e1d1 cabd
000003f0: 4652 8e3d be1c 98bd 5f63 3d3c 94f6 dabd

bias_hh_l0 f4 [256]
-0.028675217 0.029000755 0.1147479 -0.03841359 0.022015775 -0.062244453 -0.09943108 -0.057643477
-0.08287515 -0.09573933 0.12613122 -0.097747274 0.07462437 -0.08991213 -0.0701117 -0.07722867
-0.08778099 -0.017420163 -0.097966045 -0.003182335 0.06729401 0.07397586 -0.115891725 -0.028749114
0.051182825 0.008221682 -0.058603432 -0.032459185 -0.09521029 -0.07082745 -0.09947268 0.020554628
0.069022715 0.0747322 0.054378897 0.016139315 -0.060949076 0.013534786 -0.020258205 0.10678279
-0.028557401 -0.04940979 -0.040155914 0.009713496 0.053199925 0.01487349 -0.0950175 -0.06521948
0.12516259 -0.030295962 0.064671524 0.02866513 0.11699356 -0.05010676 0.067373455 0.018081006
-0.099194005 0.06924797 0.023769282 -0.062742405 -0.020084966 0.13449399 -0.124328464 -0.07358336
0.055963654 -0.016296415 0.045889538 0.0067717177 0.13122971 -0.008018788 0.070197284 -0.002569551
-0.019788159 -0.06534144 0.11038072 -0.046870254 0.011223716 -0.08804653 -0.0470063 -0.09874358
-0.10965244 -0.049762167 -0.06247214 0.08379764 -0.13002527 0.01894875 -0.05453764 0.025045235
0.0378982 -0.011723202 -0.008936784 0.034516536 0.10294286 0.093185745 -0.023112142 -0.046495184
-0.0115135135 -0.022818184 0.02477251 0.101890124 0.0820434 -0.045641832 -0.113132 0.039706673
0.022232188 -0.002909447 0.012701162 0.12645993 0.120423734 -0.057185113 0.11173264 -0.043775726
0.053164806 0.07329893 -0.037612073 0.004362444 -0.011055363 0.0942762 -0.10642843 -0.07886168
0.0959196 0.062712826 -0.08050535 0.035068404 0.044315048 0.08499335 0.08850602 0.051975247
0.017419998 0.027301628 -0.12175279 0.07212217 -0.051449418 -0.029568639 0.107896656 0.05241528
0.12180802 -0.0701206 0.014978234 0.06796144 0.0922882 0.045503672 -0.1348109 0.07335606
-0.108143814 -0.08136126 -0.13593884 -0.05962136 0.074064545 -0.091995396 -0.1273207 -0.08218524
-0.063651614 0.07661013 -0.11446782 0.06850283 -0.11929465 0.0856333 -0.032422427 -0.023539072
0.12925018 0.011080389 0.06170272 -0.01670751 0.043807123 0.0007629414 0.09178607 0.11481873
0.06847721 -0.058044128 0.07005909 0.13168938 -0.07733507 0.09645253 -0.020868905 -0.009655258
0.025896875 0.006643738 0.12951319 0.04261131 0.04657072 -0.011789975 -0.08247316 0.03589699
-0.07621327 -0.12695241 0.09424811 -0.06262591 -0.029029697 0.07893786 -0.037819795 -0.09172082
-0.014495259 0.111190714 -0.0573291 -0.09291155 -0.06694556 0.028902374 0.055268664 -0.0242394
-0.056815635 -0.11982211 0.023183953 0.0031495898 0.038914796 0.019625695 -0.01914735 -0.034928672
-0.07565228 -0.103601985 0.03836472 -0.10805973 -0.057048645 0.07660307 -0.09941063 -0.022028988
-0.07782092 0.07901608 0.043031838 0.08004261 0.029528324 0.116486594 0.021918856 -0.014486081
0.013792996 -0.0003403624 0.014224677 0.060796365 0.07927294 0.10451466 -0.02865841 0.046235632
0.054412674 0.017108725 0.020406226 0.0881996 -0.01341162 -0.0046872594 -0.0027936602 -0.082016826
0.061456773 0.0027414418 -0.036288742 -0.04413412 0.07382503 0.10337518 0.06887363 0.12436435
-0.016381685 -0.03764901 0.12677349 -0.040100057 0.021848876 0.091883644 -0.07078449 -0.050009158
00000000: 4ae8 eabc fe92 ed3c f200 eb3d 9257 1dbd
00000010: 6d5a b43c 0af4 7ebd 86a2 cbbd 911b 6cbd
00000020: 72ba a9bd fb12 c4bd 8b28 013e b92f c8bd
00000030: a9d4 983d da23 b8bd b996 8fbd 112a 9ebd
00000040: 85c6 b3bd bbb4 8ebc 6ca2 c8bd b98e 50bb
00000050: 71d1 893d a880 973d a458 edbd 4383 ebbc
00000060: 15a5 513d 3cb4 063c 270a 70bd ecf3 04bd
00000070: 9dfd c2bd fb0d 91bd 55b8 cbbd 2e62 a83c
00000080: c85b 8d3d 320d 993d 68bc 5e3d 9936 843c
00000090: bda5 79bd 02c1 5d3c 89f4 a5bc efb0 da3d
000000a0: 36f1 e9bc ec61 4abd 877a 24bd 5b25 1f3c
000000b0: 2ae8 593d f0af 733c 8998 c2bd ca91 85bd
000000c0: 9f2a 003e 3d2f f8bc 8172 843d 22d3 ea3c
000000d0: 529a ef3d bf3c 4dbd 18fb 893d 9e1e 943c
000000e0: 3a26 cbbd e1d1 8d3d ccb7 c23c 177f 80bd
000000f0: 3a89 a4bc cbb8 093e ec9f febd dfb2 96bd
00000100: 253a 653d 0f80 85bc abf6 3b3d 49e5 dd3b
00000110: 1561 063e 3c61 03bc 98c3 8f3d ea65 28bb
00000120: c71a a2bc bcd1 85bd 490f e23d 06fb 3fbd
00000130: ade3 373c bd51 b4bd ae89 40bd 133a cabd
00000140: 7591 e0bd 6ad3 4bbd c9e2 7fbd 199e ab3d
00000150: 5825 05be 693a 9b3c dc62 5fbd aa2b cd3c
00000160: 253b 1b3d ac12 40bc 976b 12bc 3661 0d3d
00000170: b5d3 d23d 2bd8 be3d ad55 bdbc bc71 3ebd
00000180: 2da3 3cbc 33ed babc b8ef ca3c c5ab d03d
00000190: 5f06 a83d eef2 3abd c0b1 e7bd 77a3 223d
000001a0: 4720 b63c 6cac 3ebb 8918 503c b67e 013e
000001b0: b8a0 f63d f03a 6abd 15d4 e43d 2d4e 33bd
000001c0: 57c3 593d c01d 963d 1e0f 1abd d5f2 8e3b
000001d0: 8e21 35bc e113 c13d 26f7 d9bd 3c82 a1bd
000001e0: 7f71 c43d 956f 803d fddf a4bd e3a3 0f3d
000001f0: b283 353d fe10 ae3d a542 b53d ffe3 543d
00000200: 62b4 8e3c aaa7 df3c 8759 f9bd cab4 933d
00000210: a0bc 52bd ee39 f2bc ecf8 dc3d 68b1 563d
00000220: 7c76 f93d 649b 8fbd 4467 753c 5e2f 8b3d
00000230: 9901 bd3d 0f62 3a3d de0b 0abe b43b 963d
00000240: 817a ddbd bba0 a6bd 8d33 0bbe 8735 74bd
00000250: 27af 973d 1568 bcbd 5c60 02be bc50 a8bd
00000260: c75b 82bd c6e5 9c3d 1b6e eabd 364b 8c3d
00000270: c150 f4bd 8360 af3d 61cd 04bd 03d5 c0bc
00000280: 295a 043e 858a 353c febb 7c3d 30de 88bc
00000290: 196f 333d 2100 483a 56fa bb3d 1526 eb3d
000002a0: c83d 8c3d aebf 6dbd 247b 8f3d 95d9 063e
000002b0: d961 9ebd e788 c53d 44f5 aabc 1631 1ebc
000002c0: af25 d43c b7b3 d93b 1b9f 043e 3289 2e3d
000002d0: f0c0 3e3d bd2a 41bc b0e7 a8bd b908 133d
000002e0: b415 9cbd d0ff 01be 2705 c13d 0342 80bd
000002f0: b0cf edbc 2caa a13d eee8 1abd 20d8 bbbd
00000300: 867d 6dbc f5b7 e33d ebd1 6abd 6948 bebd
00000310: c11a 89bd acc4 ec3c 6561 623d b591 c6bc
00000320: 83b7 68bd 4b65 f5bd 46ec bd3c 5969 4e3b
00000330: 1f65 1f3d 11c6 a03c e7da 9cbc 5e11 0fbd
00000340: 95ef 9abd 472d d4bd 5324 1d3d 6b4e ddbd
00000350: d7ab 69bd 12e2 9c3d cd97 cbbd 2376 b4bc
00000360: 9360 9fbd 2fd3 a13d 2742 303d 61ed a33d
00000370: 62e5 f13c 8690 ee3d 2c8f b33c 0757 6dbc
00000380: 05fc 613c ab72 b2b9 9f0e 693c 9c05 793d
00000390: da59 a23d c80b d63d 0bc5 eabc 9361 3d3d
000003a0: d3df 5e3d 9927 8c3c f52a a73c fea1 b43d
000003b0: 69bc 5bbc 9597 99bb d715 37bb 70f8 a7bd
000003c0: 19ba 7b3d c3a9 333b 81a3 14bd fbc5 34bd
000003d0: 9431 973d 5eb6 d33d 9e0d 8d3d bdb2 fe3d
000003e0: e232 86bc d935 1abd e9d0 013e f53f 24bd
000003f0: 6afc b23c 7e2d bc3d 75f7 90bd 67d6 4cbd

weight f4 [128, 64]
-0.086253315 0.053434633 0.060038548 -0.052621573 -0.08213469 -0.008216443 -0.07724239 -0.0799556
-0.017822148 -0.09443211 -0.10977845 0.025594302 -0.07390569 -0.05050478 -0.07065987 0.06930055
-0.03537152 0.117693074 -0.09393898 -0.014487713 -0.07261762 -0.11189733 0.103472486 -0.12963428
-0.07468771 0.07165622 -0.076307945 -0.09307012 -0.010691167 -0.1057367 -0.038793284 0.09713249
0.11776327 -0.0611934 -0.112805925 -0.095230296 0.10901682 -0.036563963 -0.094971955 0.09317679
0.00611946 -0.07888375 -0.0015797445 0.039057855 0.041638687 0.0695895 0.0047796858 0.08914128
-0.053844143 -0.108861245 0.123945646 0.038548112 0.048227414 -0.094602644 0.038009766 0.11655566
-0.0051354812 0.022348445 -0.081681326 0.007446743 0.021496093 0.08898211 -0.04200977 0.09753937
0.077603616 -0.103420556 -0.008364214 0.04226704 0.106536455 -0.050372966 -0.002491584 -0.123745054
-0.066080645 -0.034361724 0.12653576 0.07527665 0.046094164 0.10467953 -0.049642127 0.060421746
0.13012055 -0.04224905 0.08056283 0.01913071 0.033924047 -0.0051097316 -0.08820802 0.025120612
-0.04341331 -0.08715406 -0.011921311 0.028829847 -0.04462265 -0.10934787 0.08994749 -0.040169418
0.076033935 0.0625765 -0.07517124 -0.08052096 0.099998616 -0.06644475 -0.10359667 0.10599774
-0.0014730475 -0.08705639 -0.015678847 0.03956927 -0.039400034 0.049710453 0.018772997 0.08225558
0.10574487 0.0740541 0.107282445 -0.11264826 -0.114928775 0.05836113 0.061738934 -0.057524484
-0.075274095 0.09845252 -0.03597289 0.059090324 0.06875695 -0.051362462 0.012711086 -0.11769348
-0.034712106 -0.020334074 0.100505106 0.0661304 0.071500264 0.11527971 -0.13048522 0.0618615
-0.1036552 0.04281545 0.06925936 0.055747166 0.086487755 -0.0985661 -0.13365614 -0.03186001
-0.1094132 0.12980841 0.07261961 0.059787948 0.10016167 0.12126761 -0.11339805 -0.03089311
-0.047826126 0.04987779 -0.120968066 0.021723492 0.029717866 -0.09021008 0.088254854 0.055393837
-0.060003422 -0.008538964 -0.020636423 -0.08838324 0.103138044 0.114392444 -0.025866112 0.013753975
0.12271139 -0.06127193 0.10143323 0.09906838 -0.085156225 0.06913593 0.092924125 -0.04359307
-0.003034715 -0.047311608 -0.05606104 0.093038514 -0.10896266 -0.057913274 -0.07494049 0.072608925
0.10414926 0.06789572 -0.06532606 -0.022110954 0.09145051 0.02040518 0.09032896 -0.07628333
-0.119422965 0.06861476 -0.1140793 -0.042671207 0.036826007 -0.107350886 0.05319283 0.112565964
-0.00070173905 -0.11157274 0.026471533 0.09347348 0.07132345 0.009972817 -0.077387 -0.011162762
0.07768217 0.09783469 -0.01959074 0.06575995 -0.061659 0.1327452 0.016790748 -0.007752107
-0.09369221 0.0330476 -0.08261932 0.0294111 0.04149727 -0.08744534 0.063506864 -0.03566869
-0.047941726 -0.118330896 -0.09654383 -0.040879287 -0.049217563 0.08087431 -0.0073428736 0.0037634543
0.0644042 0.10442424 0.05358131 0.02886248 0.03964598 0.012167737 -0.020046502 0.005388919
0.103001215 0.008832938 0.09183284 -0.065323204 -0.01011072 -0.08376525 -0.010057452 -0.010483567
0.07614443 -0.023255946 -0.04355326 -0.045948837 -0.07825249 -0.03912882 -0.0719782 -0.034944072
00000000: 94a5 b0bd 46de 5a3d fbea 753d b889 57bd
00000010: 3b36 a8bd 429e 06bc 4231 9ebd c3bf a3bd
00000020: c1ff 91bc 9f65 c1bd 86d3 e0bd 24ab d13c
00000030: de5b 97bd 1ade 4ebd 1fb6 90bd 72ed 8d3d
00000040: bae1 10bd 1109 f13d 1463 c0bd df5d 6dbc
00000050: 8cb8 94bd 6d2a e5bd 62e9 d33d d9be 04be
00000060: dff5 98bd 7fc0 923d 5747 9cbd 8c9b bebd
00000070: 012a 2fbc 7c8c d8bd b5e5 1ebd 66ed c63d
00000080: df2d f13d eea5 7abd cb06 e7bd 1a08 c3bd
00000090: 3644 df3d 18c4 15bd a880 c2bd 79d3 be3d
000000a0: c085 c83b ce8d a1bd 6e0f cfba 21fb 1f3d
000000b0: 548d 2a3d f184 8e3d e99e 9c3b b48f b63d
000000c0: ad8b 5cbd a5f2 debd 37d7 fd3d a0e4 1d3d
000000d0: 1c8a 453d 08bf c1bd 21b0 1b3d bcb4 ee3d
000000e0: 8a47 a8bb 1614 b73c 8a48 a7bd cf03 f43b
000000f0: 9318 b03c 413c b63d 7012 2cbd b9c2 c73d
00000100: a5ee 9e3d 28ce d3bd 0e0a 09bc 3420 2d3d
00000110: c92f da3d e253 4ebd d849 23bb 0c6e fdbd
00000120: 4a55 87bd e1be 0cbd 9792 013e a52a 9a3d
00000130: 3ccd 3c3d 3962 d63d 8b55 4bbd cb7c 773d
00000140: 523e 053e 570d 2dbd 20fe a43d 02b8 9c3c
00000150: f1f3 0a3d 896f a7bb 68a6 b4bd bec9 cd3c
00000160: 28d2 31bd d47d b2bd 9a51 43bc 922c ec3c
00000170: 3dc6 36bd c7f1 dfbd 6436 b83d b088 24bd
00000180: aeb7 9b3d 1c28 803d 61f3 99bd 2ce8 a4bd
00000190: 13cc cc3d 2f14 88bd 7e2a d4bd 5815 d93d
000001a0: 4613 c1ba 9f4a b2bd ed70 80bc 6313 223d
000001b0: ee61 21bd 309d 4b3d d4c9 993c 9d75 a83d
000001c0: c490 d83d ada9 973d e6b6 db3d 22b4 e6bd
000001d0: c75f ebbd 150c 6f3d f7e1 7c3d cb9e 6bbd
000001e0: 4e29 9abd 7aa1 c93d 4f58 13bd b208 723d
000001f0: 72d0 8c3d 7261 52bd 2942 503c 4709 f1bd
00000200: 482e 0ebd a593 a6bc 9fd5 cd3d 606f 873d
00000210: bb6e 923d c517 ec3d eb9d 05be 7c62 7d3d
00000220: 2d49 d4bd 415f 2f3d dad7 8d3d 2457 643d
00000230: 7e20 b13d 06dd c9bd 28dd 08be a47f 02bd
00000240: 0714 e0bd 7fec 043e 97b9 943d 35e4 743d
00000250: 9021 cd3d 275b f83d 3d3d e8bd 8c13 fdbc
00000260: 54e5 43bd a74c 4c3d 1bbe f7bd 77f5 b13c
00000270: e272 f33c 10c0 b8bd f6be b43d a6e4 623d
00000280: 26c6 75bd 03e7 0bbc b70d a9bc 4602 b5bd
00000290: 0a3a d33d 9646 ea3d 2be5 d3bc 5a58 613c
000002a0: 1c50 fb3d 46f8 7abd 3abc cf3d 5de4 ca3d
000002b0: 6366 aebd 2397 8d3d 014f be3d a68e 32bd
000002c0: 12e2 46bb d1c9 41bd 43a0 65bd fa8a be3d
000002d0: d127 dfbd 7836 6dbd 667a 99bd fdb3 943d
000002e0: 354c d53d e90c 8b3d abc9 85bd 0822 b5bc
000002f0: 684a bb3d c428 a73c 64fe b83d 6f3a 9cbd
00000300: 0794 f4bd e585 8c3d 68a2 e9bd 01c8 2ebd
00000310: ded6 163d c8da dbbd bae0 593d fc88 e63d
00000320: e9f4 37ba 4080 e4bd d4da d83c 066f bf3d
00000330: 0712 923d 0765 233c 137d 9ebd 04e4 36bc
00000340: d417 9f3d 8e5d c83d c27c a0bc 27ad 863d
00000350: 268e 7cbd 5cee 073e c08c 893c 6305 febb
00000360: b4e1 bfbd ec5c 073d 5134 a9bd 8cef f03c
00000370: 0bf9 293d 8b16 b3bd e30f 823d 5519 12bd
00000380: 8b5e 44bd 7857 f2bd c6b8 c5bd 0a71 27bd
00000390: 5b98 49bd 6ea1 a53d 7d9c f0bb 49a4 763b
000003a0: 59e6 833d 60dc d53d 1378 5b3d 0271 ec3c
000003b0: d363 223d 305b 473c 9038 a4bc 8795 b03b
000003c0: 4df2 d23d 07b8 103c db12 bc3d 2cc8 85bd
000003d0: 6fa7 25bc 1e8d abbd 03c8 24bc 44c3 2bbc
000003e0: 9cf1 9b3d 4183 bebc e764 32bd d934 3cbd
000003f0: d742 a0bd 8b45 20bd 4e69 93bd 8421 0fbd

bias f4 [128]
0.094640054 -0.09064541 -0.002454118 -0.011478878 -0.07355957 -0.075852446 0.11407578 -0.0065332595
0.06895472 -0.1028826 0.07361518 -0.053056266 0.13014193 0.034854844 0.08118309 -0.1340367
-0.058699623 0.08976043 -0.07559409 -0.07045605 -0.05808958 0.089995794 0.018079957 0.07212693
-0.01885537 -0.060099393 -0.06838713 0.056714 0.063480645 0.0629041 0.06224388 -0.097075075
0.10324344 -0.09062617 0.0705112 -0.045493983 -0.117750145 0.021354822 0.0067327977 -0.030786721
-0.108266376 0.044859532 -0.07722062 -0.0075957607 -0.078315616 -0.024175841 -0.11323424 -0.019600332
0.11130528 0.040735643 -0.12653263 0.049823888 0.013500275 -0.010213246 -0.01316263 0.027249442
-0.051562108 -0.07239001 0.08262115 -0.025834806 0.030774035 -0.13340695 -0.033415854 0.0019961349
-0.13054146 -0.08758034 0.034196276 0.06661634 -0.015953654 0.03131325 -0.12594235 0.017431565
-0.01982452 -0.0043508895 0.052040342 0.07899015 0.08975862 0.13202244 -0.12788075 0.041432597
0.062605366 0.09350426 -0.019698309 -0.011246162 -0.10839396 -0.105641514 -0.105298266 -0.050975643
-0.02012398 0.060357656 0.056253325 -0.06558758 0.10282736 -0.11957981 -0.056203205 -0.08350567
0.039126743 -0.061690822 0.034275495 -0.12468747 0.014703362 0.07962758 0.05468169 0.03150992
-0.025585424 0.08646602 0.04630045 0.099532865 0.035668124 0.11017605 0.11634744 -0.11662123
-0.05461173 0.07193848 -0.07290057 0.051743828 -0.010344379 -0.0731029 0.050279558 0.13470408
0.07149852 -0.124787815 0.08994206 -0.090054534 -0.102117926 0.012203365 0.07089911 0.06863554
00000000: a5d2 c13d 4da4 b9bd 45d5 20bb e711 3cbc
00000010: 66a6 96bd 8758 9bbd 90a0 e93d f414 d6bb
00000020: 2238 8d3d 1db4 d2bd 8ec3 963d 8751 59bd
00000030: ed43 053e f4c3 0e3d 5243 a63d eb40 09be
00000040: 046f 70bd 51d4 b73d 13d1 9abd 434b 90bd
00000050: 57ef 6dbd b74f b83d 6b1c 943c 49b7 933d
00000060: 9476 9abc c82a 76bd 8d0e 8cbd f04c 683d
00000070: 2402 823d ddd3 803d 70f3 7e3d 4ccf c6bd
00000080: 4c71 d33d 379a b9bd 2d68 903d e657 3abd
00000090: fd26 f1bd 4ff0 ae3c cd9e dc3b 6f34 fcbc
000000a0: c3ba ddbd a1be 373d d825 9ebd dce5 f8bb
000000b0: f063 a0bd 6a0c c6bc 5ae7 e7bd e090 a0bc
000000c0: 06f4 e33d 6bda 263d c591 01be 2214 4c3d
000000d0: 4230 5d3c 7555 27bc 12a8 57bc 393a df3c
000000e0: ca32 53bd 3741 94bd 4735 a93d 84a3 d3bc
000000f0: d419 fc3c d59b 08be 10df 08bd 96d1 023b
00000100: a9ac 05be 525d b3bd 6511 0c3d 266e 883d
00000110: 3db1 82bc 5342 003d 08f7 00be a4cc 8e3c
00000120: 0867 a2bc e891 8ebb 4128 553d 96c5 a13d
00000130: 5ed3 b73d e430 073e 2cf3 02be 3ab5 293d
00000140: 3e37 803d 297f bf3d 595e a1bc d241 38bc
00000150: a7fd ddbd 945a d8bd 9ea6 d7bd d6cb 50bd
00000160: 0bdb a4bc 9739 773d e369 663d c852 86bd
00000170: 2797 d23d 42e6 f4bd 5535 66bd 0505 abbd
00000180: 5d43 203d 84af 7cbd 7664 0c3d 255c ffbd
00000190: 5fe6 703c c913 a33d e8f9 5f3d 8c10 013d
000001a0: 8698 d1bc 1915 b13d 8aa5 3d3d e3d7 cb3d
000001b0: bd18 123d fba3 e13d 9147 ee3d 1dd7 eebd
000001c0: 8db0 5fbd 7b54 933d e54c 95bd 56f1 533d
000001d0: 787b 29bc f9b6 95bd f0f1 4d3d deef 093e
000001e0: d16d 923d c190 ffbd 8b33 b83d 836e b8bd
000001f0: 3423 d1bd 9ff0 473c 8d33 913d ca90 8c3d

weight f4 [32, 128]
0.021933118 0.016115997 0.048274897 0.016128814 -0.066215865 0.074487135 -0.019700848 0.06731824
0.07734887 -0.014031211 -0.08098868 -0.06300773 -0.00637813 -0.061355695 -0.05487309 -0.045647193
0.059095975 -0.01603369 -0.03727341 0.03904095 0.012347805 -0.017682306 -0.034612395 0.004213666
-0.014433335 0.04987892 -0.07438173 0.08075799 -0.05311039 0.08695296 -0.031320453 -0.0859554
-0.026937056 -0.0667622 0.045204468 -0.08118028 0.035438143 -0.071617365 -0.03580088 0.0306686
-0.025865132 0.007695503 -0.082103916 0.05224321 -0.0030990802 -0.06005151 0.02772913 0.011431816
0.0063149855 0.078418046 0.058409616 0.078776285 0.04747122 0.016929379 -0.03682562 0.06495549
0.07576015 0.017252743 -0.02222566 0.08533304 0.021516 -0.0016580188 -0.015634853 0.04286729
-0.020401014 -0.011052309 0.0071925456 -0.025182942 -0.057354998 0.047837175 -0.08242965 -0.023167845
-0.08444637 0.03631068 0.058009513 -0.0128269745 0.06777293 -0.06368413 -0.03154741 -0.069959484
0.020784521 -0.04468738 0.012881502 0.02712956 0.015790576 -0.002011243 0.008948673 0.066856734
-0.047861412 0.08752523 -0.07202506 0.03214663 -0.011778774 0.025225965 -0.055088755 -0.047107354
0.031676408 0.0773829 0.034421835 0.07891866 0.0627663 0.03708682 0.016839664 0.06636929
0.062317807 -0.008352147 0.039389804 -0.03138036 -0.002334027 0.08474905 0.07036099 0.045681395
-0.0072492575 -0.006112138 0.00996043 -0.015221389 -0.035684116 0.05826868 0.08569958 0.0058456487
-0.015485433 -0.018971726 -0.05199462 -0.04896422 -0.070684694 -0.016865527 0.036496364 0.013102271
0.028459787 -0.05082172 0.040935397 -0.06555076 0.03468287 -0.052666906 -0.062185787 -0.103437155
-0.061961062 0.019186392 0.026313972 -0.050495204 0.0925797 -0.024359912 -0.04751563 0.06286683
-0.08358831 -0.047024835 -0.07301753 -0.042797238 -0.043383326 0.09690868 -0.0633412 -0.04337673
0.041891597 -0.044379376 -0.073236376 -0.055868797 0.059210647 -0.0046424353 0.061854858 0.025625559
0.022219379 0.023695866 -0.06244486 -0.0055728 -0.016691782 -0.036775265 0.022764424 0.008370937
0.07102447 -0.025303325 -0.036050294 -0.06091468 -0.05338442 -0.05749559 0.03127265 -0.08716708
-0.049417112 -0.09394803 -0.048364524 0.047094595 -0.03044554 -0.06875446 -0.07830888 0.01624146
-0.024902614 -0.023978494 0.054594148 -0.029305143 -0.040444523 -0.09535215 -0.014541755 0.044396788
-0.091718994 0.0077393563 -0.038806457 0.0150485 -0.04076853 0.035736453 0.06546017 -0.06613976
-0.05723622 0.08798234 -0.01776828 0.0016492289 0.0023795033 -0.006489224 -0.027996471 0.021281136
0.1020668 0.07767277 -0.02675774 0.082023494 0.0028361343 -0.005448986 0.08115145 -0.042814206
-0.055629045 0.090511434 0.0016131917 0.0650454 0.03158831 -0.013256199 0.03586896 0.04491316
-0.05826771 0.02658926 -0.0053390176 0.07412917 -0.069166765 0.065277055 0.085014924 0.03800926
0.10006508 -0.07119531 0.04102441 -0.044296365 0.038353965 -0.025966022 0.04127788 -0.005044988
-0.0055694818 -0.012377806 0.042473886 0.096833624 -0.030402593 0.00063438615 0.0022371474 0.026629958
-0.006064875 0.043702394 -0.060166445 0.010804637 -0.025299508 0.06637215 0.03395668 -0.030071685
00000000: 15ad b33c b205 843c e6bb 453d 9320 843c
00000010: 2f9c 87bd b68c 983d ac63 a1bc 25de 893d
00000020: 1669 9e3d 2ae3 65bc 65dd a5bd 320a 81bd
00000030: a2ff d0bb 1c50 7bbd 9bc2 60bd 8df8 3abd
00000040: 9f0e 723d 1659 83bc 01ac 18bd 67e9 1f3d
00000050: 734e 4a3c 7cda 90bc bac5 0dbd cb12 8a3b
00000060: cb79 6cbc d74d 4c3d 7355 98bd 7264 a53d
00000070: 488a 59bd 6514 b23d e049 00bd 6209 b0bd
00000080: 1aab dcbc 9fba 88bd 5228 393d d941 a6bd
00000090: 9627 113d 20ac 92bd f2a3 12bd b73c fb3c
000000a0: 1de3 d3bc 8f2a fc3b 1926 a8bd fafc 553d
000000b0: f019 4bbb 92f8 75bd 3328 e33c 834c 3b3c
000000c0: f0ed ce3b a499 a03d ec3e 6f3d 7655 a13d
000000d0: 2f71 423d 7baf 8a3c 76d6 16bd 6207 853d
000000e0: 2328 9b3d a055 8d3c 9612 b6bc 17c3 ae3d
000000f0: 5342 b03c e151 d9ba aa14 80bc 9d95 2f3d
00000100: 0720 a7bc be14 35bc 72af eb3b 754c cebc
00000110: 13ed 6abd eaf0 433d e0d0 a8bd 7eca bdbc
00000120: 38f2 acbd 82ba 143d 629b 6d3d 3b28 52bc
00000130: 89cc 8a3d d36c 82bd db37 01bd eb46 8fbd
00000140: 4d44 aa3c 1d0a 37bd ef0c 533c d03e de3c
00000150: 3d5b 813c 0fcf 03bb 749d 123c 2fec 883d
00000160: 540a 44bd 6e40 b33d e081 93bd 2fac 033d
00000170: c2fb 40bc afa6 ce3c bfa4 61bd a4f3 40bd
00000180: 1fbf 013d ed7a 9e3d e9fd 0c3d 1ba0 a13d
00000190: 9e8b 803d 59e8 173d 56f3 893c 9fec 873d
000001a0: f540 7f3d 72d7 08bc 3457 213d b188 00bd
000001b0: 7af6 18bb e990 ad3d 6c19 903d 6a1c 3b3d
000001c0: 2e8b edbb 5448 c8bb 1231 233c 2263 79bc
000001d0: 8229 12bd 24ab 6e3d 4383 af3d db8c bf3b
000001e0: 9db6 7dbc 986a 9bbc 50f8 54bd b58e 48bd
000001f0: 23c3 90bd 9329 8abc 367d 153d e8aa 563c
00000200: 8024 e93c 702a 50bd e0ab 273d 7a3f 86bd
00000210: a00f 0e3d 41b9 57bd 86b6 7ebd dcd6 d3bd
00000220: e2ca 7dbd c82c 9d3c 6690 d73c 0fd4 4ebd
00000230: 6d9a bd3d 708e c7bc c09f 42bd 53c0 803d
00000240: 5930 abbd 1d9d 40bd 378a 95bd 284c 2fbd
00000250: b7b2 31bd 0f78 c63d 08b9 81bd ccab 31bd
00000260: 8696 2b3d 26c7 35bd f4fc 95bd aed6 64bd
00000270: dd86 723d 921f 98bb 855b 7d3d b1ec d13c
00000280: 6a05 b63c d51d c23c 2ec6 7fbd 099c b6bb
00000290: 34bd 88bc a9a1 16bd 757c ba3c 4126 093c
000002a0: 4775 913d eb48 cfbc 79a9 13bd ac81 79bd
000002b0: 9fa9 5abd 7f80 6bbd c017 003d a784 b2bd
000002c0: 9969 4abd d367 c0bd e119 46bd 43e6 403d
000002d0: ed68 f9bc 23cf 8cbd 6860 a0bd cf0c 853c
000002e0: 9100 ccbc 8c6e c4bc 1d9e 5f3d 5711 f0bc
000002f0: 28a9 25bd fd47 c3bd 8b40 6ebc 68d9 353d
00000300: 2bd7 bbbd 6d9a fd3b 85f3 1ebd fc8d 763c
00000310: e7fc 26bd 6360 123d fb0f 863d 4874 87bd
00000320: 8770 6abd 1630 b43d c98e 91bc f02a d83a
00000330: 71f1 1b3b 8ea3 d4bb db58 e5bc c755 ae3c
00000340: 6608 d13d e712 9f3d 0c33 dbbc effb a73d
00000350: 70de 393b 688d b2bb bb32 a63d f35d 2fbd
00000360: 48db 63bd 0f5e b93d bb71 d33a 8636 853d
00000370: be62 013d 8730 59bc 55eb 123d ddf6 373d
00000380: 1faa 6ebd b8d1 d93c edf2 aebb 09d1 973d
00000390: 4ea7 8dbd faaf 853d 4e1c ae3d 99af 1b3d
000003a0: ecee cc3d d9ce 91bd 3609 283d 1b70 35bd
000003b0: 0c19 1d3d b2b6 d4bc ff12 293d 6d50 a5bb
000003c0: 3380 b6bb 48cc 4abc 19f9 2d3d b550 c63d
000003d0: dc0e f9bc ef4c 263a 1b9d 123b 1227 da3c
000003e0: dcbb c6bb 4801 333d 1771 76bd ef05 313c
000003f0: ea40 cfbc 1fee 873d 2916 0b3d e558 f6bc

bias f4 [32]
0.050028156 0.09318934 0.011480063 0.06208816 -0.018975066 0.038150672 0.04905447 0.08204798
-0.08842394 0.02381779 -0.04291522 -0.071145445 -0.07775992 -0.021671932 0.08097291 0.050592005
0.02135488 0.04317893 0.081068575 0.032064985 0.04021108 0.050334144 0.0018811091 -0.06589533
-0.06642153 0.0813346 0.03520377 0.04817127 -0.019969841 -0.0038629854 -0.005126326 -0.021716634
00000000: 53ea 4c3d 0dda be3d e016 3c3c 2850 7e3d
00000010: 9971 9bbc e143 1c3d 57ed 483d c508 a83d
00000020: 9c17 b5bd 871d c33c dfc7 2fbd b4b4 91bd
00000030: 9840 9fbd 5689 b1bc 20d5 a53d 9039 4f3d
00000040: 6ef0 ae3c 64dc 303d 4807 a63d 9356 033d
00000050: 60b4 243d 2d2b 4e3d 8c8f f63a 21f4 86bd
00000060: 0308 88bd c192 a63d d431 103d 3d4f 453d
00000070: cb97 a3bc 242a 7dbb bdfa a7bb 15e7 b1bc
