models/recomendation_models/scripted_user_preference_model_v4_16_dim.pt (torch, 37688 bytes, 10 tensors)

hidden f4 [1, 1, 12]
0	0x00000000	0.0
1	0x00000000	0.0
2	0x00000000	0.0
3	0x00000000	0.0
4	0x00000000	0.0
5	0x00000000	0.0
6	0x00000000	0.0
7	0x00000000	0.0
8	0x00000000	0.0
9	0x00000000	0.0
10	0x00000000	0.0
11	0x00000000	0.0

hidden f4 [1, 1, 12]
0	0x00000000	0.0
1	0x00000000	0.0
2	0x00000000	0.0
3	0x00000000	0.0
4	0x00000000	0.0
5	0x00000000	0.0
6	0x00000000	0.0
7	0x00000000	0.0
8	0x00000000	0.0
9	0x00000000	0.0
10	0x00000000	0.0
11	0x00000000	0.0

weight_ih_l0 f4 [48, 20]
0	0x3dbd3041	0.09237719
1	0x3bf3bedc	0.0074385237
2	0x3d99581a	0.07487507
3	0xbcd39103	-0.025825983
4	0xbe211d74	-0.15733892
5	0x3e70937a	0.23493758
6	0x3d96bbbf	0.073600285
7	0xbe7d4d8c	-0.24736613
8	0x3da5ba9a	0.08092232
9	0xbd0fa1da	-0.035066463
10	0xbe1fdaec	-0.15610856
11	0x3de44ce1	0.11147476
12	0xbd012354	-0.031527832
13	0x3e5684b5	0.20949061
14	0x3e812efb	0.25231156
15	0xbe73a338	-0.23792732
16	0x3e4e4e10	0.20146966
17	0x3cfae3c3	0.030626183
18	0x3e111bb1	0.1417072
19	0xbe70d0e0	-0.2351718
20	0xbe874610	-0.2642064
21	0xbd3f0f62	-0.04664553
22	0xbe51de67	-0.20494996
23	0xbdd85ac8	-0.1056419
24	0xbe3315bc	-0.1748876
25	0xbd1b251d	-0.03787719
26	0x3cbfc0eb	0.02340742
27	0x3e803304	0.25038922
28	0xbe32d3a0	-0.17463541
29	0xbe8e58f2	-0.27802235
30	0x3df64133	0.120241545
31	0xbe7f727f	-0.2494602
32	0xbe0eb3c4	-0.13935763
33	0xbd0f4b3f	-0.03498387
34	0xbe41532d	-0.18879385
35	0x3c3906d3	0.011293131
36	0xbe5aba2e	-0.21360084
37	0xbd14da4f	-0.036341008
38	0x3e84fcda	0.2597416
39	0x3e51c6cb	0.2048599
40	0xbdb961ec	-0.0905188
41	0xbe3c9f85	-0.18420227
42	0x3dae7a3c	0.08519408
43	0xbe8732b0	-0.2640586
44	0xbd259001	-0.040420536
45	0xbd961e54	-0.073300034
46	0x3e23e846	0.16006574
47	0xbd8c30f5	-0.06845275
48	0x3e8b9285	0.27260223
49	0xbc45abbd	-0.012064871
50	0x3d89f6ca	0.067365244
51	0xbd873c8a	-0.06603344
52	0x3e8cdfde	0.27514547
53	0x3dccf9b9	0.10008568
54	0x3c8ce234	0.017197706
55	0x3dd2cb98	0.10292739
56	0xbd31590e	-0.04329782
57	0xbd08d266	-0.033403777
58	0x3e52b90c	0.20578402
59	0xbe658bd9	-0.22416629
60	0x3db661c6	0.089053676
61	0xbd99381d	-0.07481406
62	0xbe2dbf84	-0.16967589
63	0x3bdf6729	0.0068177176
64	0x3e0d81d8	0.13819063
65	0x3e775407	0.24153148
66	0xbe8bbb97	-0.27291557
67	0xbdd5b8ff	-0.10435676
68	0xbe23bdab	-0.15990321
69	0xbe1276dc	-0.14303154
70	0x3b106cef	0.0022037586
71	0xbe263581	-0.16231348
72	0x3e83dee7	0.25755998
73	0xbd17635c	-0.03695999
74	0xbe2f677f	-0.17129324
75	0xbda7f1ab	-0.082003914
76	0x3d68c85d	0.056831706
77	0xbd363667	-0.044485476
78	0x3d8d9eba	0.0691504
79	0x3df77525	0.120828904
80	0x3e5bd77d	0.21468921
81	0x3e41ff9b	0.18945162
82	0x3b29f1a7	0.002593139
83	0x3e705ca5	0.23472841
84	0x3e0ad037	0.1355599
85	0x3e895bb4	0.26827776
86	0x3e08f46d	0.13374491
87	0x3d2908d6	0.041268192
88	0xbe8929cf	-0.2678971
89	0x3dd9bc51	0.10631622
90	0x3e91ccd2	0.28476578
91	0xbe49b9ef	-0.19699834
92	0x3e828614	0.25492918
93	0x3c1d8bf5	0.009615888
94	0xbd76d0be	-0.060257666
95	0x3e1470f3	0.14496212
96	0x3e0aa61f	0.13539933
97	0x3e8a5a63	0.27022085
98	0x3e11f2cf	0.1425278
99	0x3c669a10	0.014074817
100	0x3e2625e6	0.16225395
101	0x3c5a4567	0.013322211
102	0x3ddf2a37	0.10896724
103	0x3e2e2d14	0.17009383
104	0xbe6574ae	-0.22407791
105	0x3dc550b3	0.09634533
106	0x3dc18d23	0.09450748
107	0x3da309ee	0.07960878
108	0xbde931df	-0.11386465
109	0x3e5e31cb	0.21698682
110	0xbe6f6fc8	-0.23382485
111	0xbd2c2c2f	-0.042034324
112	0x3e4a8841	0.19778539
113	0x3e57d8ee	0.21078846
114	0xbda643e7	-0.0811842
115	0xbe64357c	-0.22286028
116	0x3d597569	0.053090487
117	0xbd8b726f	-0.06808936
118	0x3df9b1d7	0.121921234
119	0x3d96ca81	0.07362843
120	0x3dee676d	0.11640821
121	0x3e02c50b	0.12770478
122	0xbe745332	-0.23859861
123	0xbdf51a31	-0.11967886
124	0xbe4934cd	-0.19649048
125	0x3e0787c4	0.13235384
126	0xbd4c1a58	-0.04982981
127	0xbe63de63	-0.22252803
128	0x3e85a417	0.26101753
129	0xbd0199f0	-0.031640947
130	0x3d814f43	0.06313946
131	0xbe815259	-0.2525814
132	0x3ca746a5	0.020419428
133	0xbc3dbb09	-0.011580237
134	0xbd974c3f	-0.0738759
135	0xbd740792	-0.059577532
136	0xbd55c854	-0.052193
137	0x3e8b277f	0.2717857
138	0xbcda6adb	-0.02666228
139	0xbdf54595	-0.11976162
140	0xbe848cda	-0.2588871
141	0xbc2e82c9	-0.010651299
142	0x3dc20fd1	0.09475673
143	0x3e93a225	0.28834644
144	0xbde59c48	-0.11211449
145	0xbd0ea813	-0.034828257
146	0x3e850176	0.25977677
147	0xbe86c663	-0.26323232
148	0x3dfa0c11	0.12209333
149	0xbcb5aaa5	-0.022176096
150	0x3e8fa94a	0.28058845
151	0x3e6dfc07	0.23240672
152	0xbe0553fe	-0.13020322
153	0x3e6a46c6	0.2287856
154	0xbe600974	-0.21878606
155	0xbdc40bfa	-0.09572597
156	0xbd5ddb51	-0.054164235
157	0xbdbd17ea	-0.09233077
158	0x3c8dc0a1	0.017303767
159	0x3e4264f3	0.18983822
160	0xbe0249d5	-0.12723477
161	0xbe37a427	-0.17933713
162	0xbd952b8d	-0.07283697
163	0xbd654aa9	-0.055979405
164	0xbe7d9664	-0.247644
165	0x3e4a3507	0.19746791
166	0xbe837646	-0.25676173
167	0xbe3e1044	-0.18560892
168	0xbdc48d93	-0.09597316
169	0xbe5ee9de	-0.21768901
170	0x3e8bbdb8	0.2729318
171	0xbc9ad801	-0.018901827
172	0xbe0b66c9	-0.13613428
173	0x3e90b63e	0.2826404
174	0x3e7b72cf	0.24555515
175	0x3e87cd05	0.26523605
176	0xbe36acf5	-0.17839415
177	0x3d35fecb	0.044432443
178	0xbcdcce20	-0.026953757
179	0xbe52a6ac	-0.20571393
180	0xbe706259	-0.23475017
181	0x3e58802e	0.21142647
182	0xbd2d1111	-0.042252604
183	0x3dd8c147	0.1058374
184	0xbe3d0e27	-0.1846243
185	0xbe48f93e	-0.19626328
186	0x3e883d32	0.26609188
187	0xbe2f98c3	-0.17148118
188	0x3e7a4fca	0.244445
189	0x3d625de9	0.05526534
190	0xbb8d9407	-0.0043206248
191	0xbe0cba8a	-0.13743034
192	0xbe693ab9	-0.22776307
193	0xbe573d1a	-0.21019402
194	0xbdf9888f	-0.121842496
195	0xbe4dae00	-0.20085907
196	0x3e652710	0.22378182
197	0x3e86ef48	0.26354432
198	0x3dbee47f	0.09320926
199	0x3db2ea51	0.087360986
200	0xbe56fea6	-0.20995578
201	0x3e83e8c1	0.25763515
202	0x3d315b9e	0.043300264
203	0x3ddc8197	0.10766905
204	0xbe613ea2	-0.21996549
205	0xbe209316	-0.15681109
206	0x3d4f2c43	0.05057932
207	0x3c1a7b7b	0.009428854
208	0x3e7a3640	0.24434757
209	0xbe104352	-0.1408818
210	0xbe8fdf6e	-0.2810015
211	0xbe147f80	-0.14501762
212	0x3e40296b	0.187658
213	0xbe6841fe	-0.22681424
214	0xbd1288dd	-0.035775054
215	0xbdb64cc6	-0.08901362
216	0x3e872eaa	0.2640279
217	0x3e2b557b	0.16731827
218	0xbdf1cdf1	-0.11806858
219	0xbe80c92c	-0.25153482
220	0xbd7bf4e3	-0.06151284
221	0xbd576f50	-0.05259639
222	0x3e2bc620	0.16774797
223	0xbe8cc066	-0.27490538
224	0x3ca37c1f	0.019956646
225	0x3e3143c4	0.17311007
226	0xbe63c5c9	-0.22243418
227	0x3c78b60b	0.015180121
228	0x3e0f0e62	0.1397033
229	0xbe41688c	-0.18887538
230	0x3e25f4f3	0.16206722
231	0x3e1be611	0.15224482
232	0x3da8efe2	0.08248879
233	0x3d2b52bd	0.041826952
234	0xbd091ce9	-0.033474836
235	0x3c704f20	0.014667302
236	0x3d01839a	0.031619646
237	0x3e6ff1af	0.23432039
238	0x3d112c1c	0.035442457
239	0xbdaebcf4	-0.08532134
240	0xbe308838	-0.17239463
241	0xbe5ceeb1	-0.21575429
242	0xbbcde4e7	-0.006283391
243	0x3e79000b	0.24316423
244	0x3cafb4c8	0.021448508
245	0x3db01247	0.08597236
246	0xbc008e44	-0.007846419
247	0xbd31d75a	-0.043418266
248	0x3de120a8	0.10992557
249	0x3d36038f	0.044436987
250	0x3dff92cb	0.124791704
251	0x3e71e906	0.23624048
252	0xbe4a7a71	-0.1977327
253	0xba8ad35f	-0.0010591558
254	0x3e412a72	0.18863848
255	0x3e326ff8	0.17425525

weight_hh_l0 f4 [48, 12]
0	0xbe119a44	-0.14219004
1	0x3e60dcdf	0.21959256
2	0x3e73359d	0.2375092
3	0xbcfb55ca	-0.030680556
4	0x3e3ff9c0	0.18747616
5	0xbe3b84c5	-0.18312366
6	0xbc6eb457	-0.014569364
7	0xbe0fc665	-0.14040525
8	0xbe6e59c4	-0.2327643
9	0xbe8ee9b4	-0.27912676
10	0x3e118a2a	0.14212862
11	0xbe7d204e	-0.24719355
12	0x3c988e92	0.01862267
13	0x3e8f8160	0.28028393
14	0xbe5bd3aa	-0.21467462
15	0x3e176578	0.14784801
16	0xbe59f40d	-0.21284504
17	0x3d0b5845	0.034019727
18	0xbe1a5179	-0.15070142
19	0x3d5a0940	0.053231478
20	0xbd2b53ee	-0.04182809
21	0x3dc37c12	0.09545149
22	0x3c5e6130	0.013572976
23	0xbd12aad2	-0.03580744
24	0xbe54ab90	-0.20768571
25	0xbdb554ed	-0.08854089
26	0xbe61efff	-0.22064207
27	0x3de3ff4c	0.111326784
28	0xbe3ca590	-0.18422532
29	0x3d2bce82	0.041944988
30	0x3e85726b	0.26063856
31	0x3dffc971	0.12489594
32	0xbd16eb6a	-0.036845602
33	0x3e6d7f7c	0.23193163
34	0x3dde5797	0.1085655
35	0xbe0e0699	-0.13869704
36	0x3e1158a8	0.14193976
37	0x3df8ef2f	0.12154996
38	0x3e4ea26d	0.20179148
39	0xbe4018e4	-0.18759495
40	0x3cc6410f	0.024200944
41	0x3e274364	0.16334301
42	0xbdf4dff8	-0.11956781
43	0xbda42524	-0.080148965
44	0xbe37dce5	-0.17955358
45	0xbe7d5029	-0.2473761
46	0xbd0e5db4	-0.03475733
47	0x3e92e35f	0.28689095
48	0xbe8ee36f	-0.27907893
49	0xbd6140b3	-0.054993343
50	0x3bbd0b3b	0.005769161
51	0x3e63712e	0.22211143
52	0xbe62b620	-0.22139788
53	0x3e59c579	0.21266736
54	0xbd5e2721	-0.054236535
55	0xbe8861d1	-0.26637128
56	0x3e3e6ee3	0.18596987
57	0x3c1bd7a0	0.009511858
58	0x3e3b14ed	0.18269701
59	0x3e914e08	0.28379846
60	0x3e866317	0.26247475
61	0x3e8351aa	0.25648242
62	0xbe21b098	-0.15790021
63	0x3e01012a	0.125981
64	0x3d9c9474	0.07645503
65	0x3e8eb921	0.27875617
66	0x3db62e07	0.08895498
67	0x3d55fafe	0.052241318
68	0x3e8ddd57	0.2770793
69	0x3e1a5fce	0.15075609
70	0xbcd487c2	-0.02594364
71	0xbe105ea3	-0.14098601
72	0x3e9030d7	0.28162262
73	0xbe1308e7	-0.14358865
74	0xbe1e51ae	-0.15460846
75	0x3e7dbf95	0.24780114
76	0x3e11d904	0.14242941
77	0x3c9ac1eb	0.018891295
78	0xbe2c2d8b	-0.16814248
79	0xbcd7b87e	-0.02633309
80	0xbe7d0bdb	-0.24711554
81	0xbe13382e	-0.143769
82	0x3da540ed	0.08069024
83	0x3e55c996	0.2087768
84	0x3d602b48	0.054728776
85	0xbe41c399	-0.18922271
86	0x3d9fd679	0.07804579
87	0x3e826c3d	0.25473204
88	0xbe5ab564	-0.21358258
89	0x3e1a2e10	0.15056634
90	0xbd780e77	-0.06056067
91	0x3e7251ae	0.23663971
92	0x3d22cfac	0.039748833
93	0xb9a0fd92	-0.00030706503
94	0x3e8b2772	0.27178532
95	0x3ca1fc8b	0.019773742
96	0x3ce2e6b4	0.027697898
97	0x3d49880e	0.049202017
98	0xbd81df3d	-0.063414074
99	0xbde8787d	-0.11351106
100	0x3e3b9e6d	0.18322153
101	0x3e2628cb	0.16226499
102	0xbe367841	-0.1781931
103	0xbdeebd33	-0.11657181
104	0xbdef70ae	-0.11691414
105	0xbd1b7256	-0.037950836
106	0xbddcb433	-0.10776558
107	0x3ccfaf89	0.025352256
108	0xbcacfa7a	-0.02111553
109	0x3d2ef77c	0.04271649
110	0x3e4a1fb1	0.19738652
111	0xbdc29f78	-0.095030725
112	0x3d1e036f	0.038577493
113	0xbd61be05	-0.055112857
114	0xbe361e73	-0.17785053
115	0x3e3c6598	0.1839813
116	0x3e417fe3	0.18896441
117	0x3d9c8993	0.07643428
118	0xbe811c21	-0.25216773
119	0x3deb7bb8	0.11498207
120	0x3e181e59	0.14855327
121	0xbe11abd7	-0.14225708
122	0x3dd2fa3c	0.10301635
123	0xbe091154	-0.13385516
124	0x3dc8eff1	0.0981139
125	0x3e841158	0.25794482
126	0x3e516364	0.20448071
127	0x3d761282	0.060076244
128	0xbcd901b9	-0.02649008
129	0x3e653192	0.22382191
130	0xbe16b7b2	-0.14718512
131	0xba965753	-0.0011470116
132	0x3e6ca895	0.23111184
133	0x3e8fc961	0.28083327
134	0xbca71097	-0.020393653
135	0x3d9ce143	0.07660153
136	0xbd9a3106	-0.07528882
137	0xbe7c7927	-0.24655591
138	0x3d60acef	0.054852422
139	0x3d4ba225	0.04971518
140	0xbe56422e	-0.20923683
141	0xbe801d2c	-0.25022256
142	0x3e466cdd	0.19377466
143	0xbe2c6af3	-0.16837673
144	0xbdc48fd9	-0.09597749
145	0xbdfd246d	-0.12360463
146	0x3e88b34b	0.2669929
147	0x3e422282	0.18958476
148	0xbe54f1df	-0.20795391
149	0x3d87afb3	0.06625309
150	0x3e4fd9e4	0.20297962
151	0xbe90c4cf	-0.28275153
152	0x3d610c85	0.05494358
153	0x3e80e93c	0.25177944
154	0x3e8c5690	0.27409792
155	0xbe57dbb1	-0.210799
156	0x3e4203cf	0.18946765
157	0x3e4862d8	0.19568956
158	0x3de19a7e	0.11015795
159	0x3e47d6c8	0.19515526
160	0x3d96e9f4	0.07368842
161	0xbe5ca8c1	-0.2154875
162	0x3e84f7d1	0.2597032
163	0xbdc99069	-0.09841997
164	0xbe64beea	-0.22338453
165	0x3e26109c	0.16217273
166	0xbdfb19c3	-0.12260773
167	0x3bff3c2c	0.0077891555
168	0x3e1a0852	0.15042236
169	0xbe71a501	-0.235981
170	0xbe557c72	-0.20848253
171	0x3d52d167	0.051469233
172	0x3e2e4dbe	0.17021844
173	0xbe2c5167	-0.16827928
174	0xbcf2e32e	-0.029649343
175	0x3e67a99c	0.22623295
176	0xbdc1b82b	-0.094589554
177	0x3e83cc0c	0.25741613
178	0xbd9d124c	-0.076695055
179	0xbe6020ef	-0.21887563
180	0x3e55f106	0.20892724
181	0xbe57556e	-0.21028683
182	0xbdff42bd	-0.12463901
183	0xbe0b10b5	-0.13580592
184	0x3d4e9ee2	0.05044449
185	0x3e8b12e2	0.27162844
186	0xbe8848ab	-0.2661794
187	0xbe68bac4	-0.22727495
188	0x3e623a77	0.22092615
189	0xbe770403	-0.24122624
190	0xbe8df5c5	-0.2772657
191	0x3dd102a8	0.10205585
192	0x3e6856b4	0.22689325
193	0xbbed9d0c	-0.0072513875
194	0xbdbe9d5b	-0.09307357
195	0x3dfdc185	0.123904265
196	0x3e1921c4	0.14954287
197	0x3e8bbbf6	0.2729184
198	0xbdf54424	-0.119758874
199	0xbbb9d515	-0.0056711533
200	0x3e69585e	0.22787616
201	0x3e243aa1	0.1603799
202	0xbe811817	-0.25213692
203	0xbce1fce1	-0.027586402
204	0x3df7e8d9	0.12104959
205	0xbdf493f5	-0.11942283
206	0x3e50719b	0.20355837
207	0x3ca5b666	0.020228576
208	0x3da9d4ee	0.08292566
209	0xbd2676e9	-0.040640745
210	0x3d172ff9	0.036910985
211	0x3da514de	0.08060621
212	0x3e4b84db	0.19874899
213	0x3e520d01	0.20512773
214	0x3e015121	0.12628604
215	0x3e37cd88	0.17949498
216	0x3e2dd5c1	0.16976072
217	0xbddf0ec1	-0.10891486
218	0x3e91cbba	0.28475744
219	0xbe3f52f3	-0.18683986
220	0x3e6b84ee	0.22999927
221	0x3d41e2e9	0.04733554
222	0xbe26f685	-0.16304977
223	0xbe30e279	-0.17273892
224	0xbd965f23	-0.07342365
225	0xbe2014b1	-0.15632893
226	0xbd6682ae	-0.05627697
227	0x3d5b2aa5	0.053507466
228	0xbe19c20b	-0.15015428
229	0x3d44e382	0.04806853
230	0x3e832001	0.25610355
231	0x3e190280	0.1494236
232	0x3e47b058	0.19500864
233	0xbe39140f	-0.18074058
234	0xbe7503ed	-0.23927279
235	0xbe784234	-0.24244004
236	0x3e91bf4c	0.2846626
237	0x3e54c0a9	0.20776619
238	0x3e5ed3c6	0.21760473
239	0xba083a44	-0.00051966705
240	0xbe8981e8	-0.26856923
241	0xbe2c389d	-0.16818471
242	0xbe5147ec	-0.20437592
243	0xbe5a71ce	-0.21332476
244	0xbe6af295	-0.229441
245	0xbe0f72a5	-0.14008577
246	0xbe6ecda0	-0.23320627
247	0xbe8da289	-0.27663067
248	0x3db2b7ac	0.08726439
249	0x3e44200a	0.19152847
250	0x3e6007d9	0.21877994
251	0x3e65a2f5	0.22425444
252	0xbbff669b	-0.007794214
253	0x3e6d4c13	0.23173551
254	0x3e6fa76a	0.23403707
255	0x3d5186f1	0.05115408

bias_ih_l0 f4 [48]
0	0xbe807ac0	-0.2509365
1	0x3e330aa1	0.17484523
2	0x3e335264	0.17511898
3	0xbd4ac4c5	-0.04950406
4	0x3e852d73	0.26011238
5	0xbe6d8a51	-0.23197295
6	0x3ce3d6f4	0.027812459
7	0x3e53dac9	0.20688929
8	0xbe63d5db	-0.22249548
9	0xbe3b1f4b	-0.18273656
10	0x3e742668	0.23842776
11	0xbe8346f3	-0.25640067
12	0xbc19e9b4	-0.009394098
13	0x3de737ca	0.11289938
14	0x3e6815b8	0.22664535
15	0x3c8c8488	0.01715304
16	0x3dae2de1	0.085048445
17	0x3e8ffeab	0.28123984
18	0x3d475c6e	0.048672132
19	0xbc34a655	-0.011025985
20	0x3e5e5883	0.21713452
21	0x3e728bf4	0.236862
22	0xbd13e8a7	-0.036110546
23	0xbe421fd0	-0.18957448
24	0x3c5c9fb9	0.013465815
25	0xbe713500	-0.23555374
26	0x3e7a31fa	0.24433127
27	0x3c09b931	0.0084059695
28	0x3e06bebf	0.13158701
29	0x3e83ec9b	0.25766453
30	0xbdc05c27	-0.09392577
31	0xbc2a869c	-0.01040807
32	0xbb17f265	-0.002318525
33	0xbd6a37b3	-0.057182025
34	0x3e9303bc	0.28713787
35	0xbd2a1691	-0.041525427
36	0xbe5ea044	-0.21740824
37	0xbdac8d44	-0.08425382
38	0x3e9388f4	0.28815424
39	0x3e933f3f	0.2875919
40	0x3e2a0a10	0.16605401
41	0x3e5cedca	0.21575084
42	0x3e88d034	0.26721346
43	0x3d96aac0	0.07356787
44	0x3dba4aa6	0.09096269
45	0xbdc8022a	-0.09766038
46	0x3c129980	0.00894773
47	0xbe5c1dcd	-0.21495743

bias_hh_l0 f4 [48]
0	0xbe320dc0	-0.17388058
1	0xbe2d2b4f	-0.16911052
2	0x3da12057	0.078674965
3	0x3cb366d8	0.021899626
4	0x3e483931	0.19553067
5	0xbe655a69	-0.2239777
6	0x3dd3e5dd	0.10346577
7	0xbe0a0e2c	-0.13481969
8	0x3c0438bf	0.00807017
9	0x3db62182	0.0889311
10	0x3dccd39a	0.10001297
11	0xbe163539	-0.1466874
12	0xbd695d48	-0.056973726
13	0x3e06b50f	0.13155006
14	0xbe4aa0d2	-0.1978791
15	0x3c05306e	0.008129222
16	0xbdf34fd0	-0.118804574
17	0x3e80eac5	0.25179115
18	0x3d3dcc89	0.046337638
19	0x3e769974	0.24081975
20	0x3e2c823e	0.16846558
21	0xbe74f997	-0.23923336
22	0x3e660a1b	0.22464792
23	0xbe71c639	-0.23610772
24	0x3e4aafbb	0.19793598
25	0x3e54e88d	0.20791836
26	0x3d8a6301	0.06757165
27	0x3e51ff89	0.20507635
28	0x3cac9334	0.021066286
29	0xbd1b1ab0	-0.037867248
30	0xbdb5c2b2	-0.08875026
31	0x3d9ab04f	0.075531594
32	0x3e205c80	0.15660286
33	0x3e71600f	0.235718
34	0xbda55df0	-0.08074558
35	0xbd2681ce	-0.040651135
36	0xbdd39136	-0.10330431
37	0x3d0deff9	0.034652684
38	0x3d9643d6	0.073371574
39	0x3e6af715	0.22945817
40	0xbd0f53c3	-0.03499199
41	0x3e814dca	0.2525466
42	0xbdbab6b8	-0.09116882
43	0xbda62d5a	-0.08114119
44	0x3da6978c	0.08134374
45	0x3e025a67	0.12729798
46	0xbdbcfd93	-0.09228053
47	0xbe5aad4a	-0.21355167

weight f4 [64, 12]
0	0x3e501efe	0.20324323
1	0x3e11ad2a	0.14226213
2	0xbdebd638	-0.11515468
3	0x3e5f42ba	0.21802798
4	0xbdc7649e	-0.09735988
5	0xbdf619c7	-0.120166354
6	0xbddc9e07	-0.10772329
7	0x3e90173f	0.28142735
8	0xbcbba0f2	-0.022903893
9	0xbe2bb532	-0.1676834
10	0x3e4e3090	0.20135713
11	0x3d5fdff0	0.054656923
12	0xbe1a2ec7	-0.15056907
13	0xbe57a6d6	-0.21059737
14	0x3d6444a7	0.055729534
15	0x3e8f1cf1	0.27951768
16	0x3df540c9	0.119752474
17	0xbe82399f	-0.25434586
18	0xbd651eed	-0.055937696
19	0xbdde21fd	-0.108463265
20	0xbe88156d	-0.26578847
21	0x3e2095d2	0.15682152
22	0xbe7f5aca	-0.24936977
23	0x3e752ffa	0.23944083
24	0xbe0e016b	-0.13867728
25	0xbe64230a	-0.22278991
26	0x3d7df4ff	0.062001225
27	0xbde883f2	-0.113532916
28	0x3dfb50c6	0.12271266
29	0xbd4504c7	-0.04810026
30	0xbd4708c9	-0.048592363
31	0xbe834d91	-0.25645116
32	0x3ca17920	0.019711077
33	0x3e8e3040	0.27771187
34	0x3bdf922d	0.0068228454
35	0x3e420038	0.18945396
36	0x3d0e90c3	0.034806024
37	0x3e328b4e	0.17435953
38	0xbe1bc921	-0.15213443
39	0x3c904653	0.017611658
40	0xbe8f6e47	-0.28013822
41	0xbe69ff99	-0.22851409
42	0x3dc1261e	0.094310984
43	0x3e2e7ed6	0.17040572
44	0x3dade841	0.084915645
45	0xbe8b7083	-0.27234277
46	0x3e232edd	0.15935846
47	0xbe4b279f	-0.19839333
48	0x3e6c553f	0.23079394
49	0xbda4baff	-0.08043479
50	0xbe8766fb	-0.26445755
51	0xbdca2a46	-0.09871344
52	0xbe42ddbc	-0.19029897
53	0x3cca7a25	0.024716446
54	0x3dbcfdb3	0.09228077
55	0x3e8a03b8	0.26955962
56	0x3c7a8616	0.015290758
57	0xbdb3b6fc	-0.08775136
58	0x3e33c055	0.17553838
59	0x3be4c86e	0.006981901
60	0xbde8c2dc	-0.113652915
61	0xbe3ad9ec	-0.18247193
62	0xbe69fa9c	-0.22849506
63	0x3c03dd62	0.008048387
64	0x3e1ed7ea	0.15512052
65	0x3e5d0692	0.21584538
66	0x3e7a340f	0.24433921
67	0x3e37e9a0	0.17960215
68	0xbd4362e2	-0.047701724
69	0xbe8c5e18	-0.27415538
70	0x3db4cb56	0.08827846
71	0x3de4d244	0.111729175
72	0xbe6211e3	-0.22077136
73	0x3e8c3b16	0.2738883
74	0xbe6f59b9	-0.2337407
75	0xbda7c781	-0.08192349
76	0xbe86f9f9	-0.2636259
77	0x3c7682b1	0.015045808
78	0xbb930fdb	-0.004487974
79	0xbe18b43c	-0.14912504
80	0xbe321801	-0.1739197
81	0x3de44335	0.11145631
82	0x3e8a41e8	0.27003407
83	0x3e633dfe	0.22191617
84	0x3e8f2681	0.27959064
85	0x3d6763bd	0.056491602
86	0x3e079ffc	0.13244623
87	0x3b67afc5	0.003535257
88	0xbd5d178f	-0.053977545
89	0x3e0f7f25	0.14013346
90	0x3da40c6c	0.08010182
91	0xbdf1e959	-0.11812086
92	0xbe827239	-0.2547777
93	0xbe83991a	-0.25702745
94	0x3d6222cd	0.05520897
95	0xbd13decd	-0.03610115
96	0xbb839004	-0.0040149707
97	0x3dfe5470	0.12418449
98	0xbe30c3f0	-0.17262244
99	0x3e358f91	0.17730547
100	0xbe89ab87	-0.26888677
101	0x3e823cdb	0.25437054
102	0x3d168203	0.036745083
103	0x3e40743d	0.18794341
104	0x3de10c44	0.109886676
105	0x3e4c259e	0.19936225
106	0xbdd7b41b	-0.10532399
107	0x3de2c644	0.110729724
108	0x3e49c6ae	0.19704697
109	0x3e81f0af	0.2537894
110	0xbe85cd69	-0.26133278
111	0xbe82507f	-0.2545204
112	0xbd9626b8	-0.07331604
113	0x3db106a8	0.08643848
114	0x3e8366c1	0.25664333
115	0xbe30a2e9	-0.17249645
116	0xbd1451cd	-0.036210824
117	0x3e2ae2a9	0.16688026
118	0x3d1b2f4a	0.037886895
119	0x3e11a784	0.14224058
120	0xbe8897a6	-0.266782
121	0xbe6e5129	-0.23273148
122	0xbd95bff8	-0.07312006
123	0xbd163284	-0.03666927
124	0x3d83e704	0.06440547
125	0x3dd246ee	0.10267435
126	0x3dcac3cb	0.09900626
127	0x3d9ab3b4	0.07553807
128	0x3e0717f5	0.13192733
129	0x3de063bc	0.10956523
130	0x3c82f13f	0.015984176
131	0x3e63aa8d	0.22233029
132	0xbdfada13	-0.122486256
133	0xbe48da54	-0.19614536
134	0xbd836e2b	-0.06417497
135	0x3e7f9ec6	0.24962911
136	0xbe38f4b8	-0.18062103
137	0x3dca263b	0.09870573
138	0x3e89f17f	0.2694206
139	0x3d9db76c	0.077010006
140	0xbe36746e	-0.17817852
141	0xbe3a757f	-0.18208884
142	0x3e0d7ed7	0.13817917
143	0xbe939fe1	-0.28832915
144	0x3dbe9f57	0.093077354
145	0xbdd52147	-0.10406738
146	0xbcc37189	-0.023857849
147	0xbd89c3bb	-0.06726786
148	0xbdcb1a6a	-0.099171475
149	0x3e4919aa	0.19638696
150	0xbd63b201	-0.05558968
151	0x3e32ac8c	0.17448634
152	0x3e539287	0.20661364
153	0xbd16358c	-0.03667216
154	0xbe01495d	-0.12625642
155	0x3e0f86ce	0.14016268
156	0xbd852519	-0.065012164
157	0xbdafe232	-0.08588065
158	0x3e9241b0	0.2856574
159	0x3e2bc2c3	0.16773514
160	0x3d827f9d	0.063719966
161	0x3daf605d	0.08563302
162	0x3e8d42fe	0.27590173
163	0xbdf64821	-0.12025476
164	0x3e8d6c3e	0.27621645
165	0x3d6d31e0	0.057908893
166	0x3de09003	0.10964968
167	0x3e586ea7	0.2113596
168	0xbe75548f	-0.23958038
169	0xbdec81c4	-0.11548188
170	0xbe0a72f7	-0.13520418
171	0xbd20a92b	-0.03922383
172	0x3e1b8079	0.15185727
173	0x3d2b70de	0.041855685
174	0xbe8dd42f	-0.27700946
175	0xbe2a8fa6	-0.1665636
176	0xba1f82d4	-0.00060848636
177	0x3d4ca439	0.049961302
178	0xbcd8fb60	-0.026487052
179	0x3e3421ea	0.17591062
180	0x3dfa48cc	0.12220916
181	0x3cff095e	0.031132396
182	0x3e0d28b7	0.13785063
183	0x3e694ed5	0.22783978
184	0x3e4ecfdc	0.2019648
185	0x3e1700ad	0.14746352
186	0xbded6f21	-0.11593462
187	0x3dc048d9	0.093888946
188	0xbe7690dd	-0.24078698
189	0x3bf0a6bd	0.0073440955
190	0xbe2a37ba	-0.1662282
191	0xbe76bf45	-0.24096401
192	0xbd60d40c	-0.054889724
193	0xbdaaca24	-0.083393365
194	0x3e7d3d45	0.24730404
195	0xbe21eb73	-0.15812473
196	0xbd3eaed2	-0.04655344
197	0xbd1d7bdd	-0.038448203
198	0x3e85b0f2	0.2611156
199	0x3e1a599c	0.15073246
200	0xbc715c9a	-0.014731551
201	0x3c55ea40	0.013056338
202	0xbdbcedc5	-0.092250384
203	0x3db68bd5	0.089133896
204	0x3e0dec46	0.13859662
205	0x3e42d5d0	0.19026875
206	0x3e8d1bb0	0.27560186
207	0xbe50d04b	-0.20391957
208	0x3d26ab1f	0.040690538
209	0xbe1e82fb	-0.15479653
210	0xbd209058	-0.039200157
211	0xbdd87245	-0.1056867
212	0xbe899608	-0.26872277
213	0xbe22fa5a	-0.15915814
214	0xbe858a7c	-0.26082218
215	0x3e2d3acc	0.1691696
216	0xbde6fa03	-0.11278155
217	0xbe0a0aaa	-0.1348063
218	0xbd3dbb9c	-0.046321496
219	0x3e189541	0.14900686
220	0x3e91b2b6	0.28456658
221	0xbd3f1f1d	-0.04666053
222	0x3e16faad	0.14744063
223	0xbe18489a	-0.14871445
224	0x3d12a388	0.035800487
225	0x3e2c7aad	0.16843672
226	0xbe9138e9	-0.28363732
227	0x3e5c5cab	0.21519725
228	0x3e564c0a	0.20927444
229	0x3e6a43c1	0.22877409
230	0xbe1577f6	-0.14596543
231	0x3e0f0849	0.13968004
232	0x3e1ce747	0.153226
233	0x3de098e3	0.10966661
234	0x3d85ea48	0.06538826
235	0xbe635d19	-0.22203483
236	0xbd5b9ad5	-0.053614456
237	0x3e6de980	0.23233604
238	0xbdbaa398	-0.09113234
239	0x3e32cba9	0.17460503
240	0xbd865f5c	-0.06561157
241	0x3e0d8591	0.13820483
242	0x3e2c2e0f	0.16814445
243	0x3e7e2163	0.24817424
244	0x3e2aebe6	0.1669155
245	0xbe1eb0b3	-0.15497093
246	0xbe740335	-0.23829348
247	0xbe1cedac	-0.1532504
248	0xbdcf7460	-0.10129619
249	0x3e57115e	0.21002719
250	0x3db97806	0.09056096
251	0x3e6e7b28	0.23289168
252	0x3e68c5d1	0.22731711
253	0xbe54bd25	-0.20775278
254	0xbe163bdf	-0.14671277
255	0xbdb22207	-0.086978965

bias f4 [64]
0	0xbdde4412	-0.10852827
1	0x3c007e88	0.007842667
2	0x3e82535e	0.2545423
3	0xbd93854b	-0.07203158
4	0xbd863e40	-0.06554842
5	0x3d4fa6bb	0.050696116
6	0xbe225597	-0.15852962
7	0xbddd7ddc	-0.108150214
8	0xbe0b68f1	-0.1361425
9	0xbe8e9a31	-0.27852014
10	0xbd525c21	-0.051357392
11	0x3e062749	0.13100924
12	0xbe861401	-0.26187137
13	0x3db5c570	0.08875549
14	0x3dd1f3eb	0.10251602
15	0xbdaf97ae	-0.085738525
16	0x3e6a13f1	0.2285917
17	0xbcbcf672	-0.023066733
18	0x3cbf8ee7	0.02338357
19	0xbe8695f3	-0.26286277
20	0xbcb627dc	-0.022235803
21	0xbdb11cd9	-0.086480804
22	0x3def5b80	0.11687374
23	0x3e4efc67	0.20213471
24	0xbca8dd9b	-0.020613482
25	0xbc6b1e10	-0.014350429
26	0xbdcacbf3	-0.099021815
27	0x3dc361d6	0.09540145
28	0x3e80fdd5	0.25193658
29	0xbc69da2c	-0.014273208
30	0xbdb7753e	-0.08957909
31	0x3d6f5730	0.058432758
32	0xbb08cf39	-0.0020875467
33	0x3e842633	0.25810394
34	0x3cbba6b8	0.022906646
35	0xbdede000	-0.1161499
36	0xbe70eb29	-0.23527206
37	0x3d92b883	0.07164099
38	0x3dd974f1	0.10618008
39	0x3e5431c4	0.20722109
40	0xbe2b6c75	-0.16740592
41	0xbe319724	-0.17342812
42	0x3cc32db2	0.0238255
43	0x3e8d4e1f	0.27598664
44	0xbe032000	-0.12805176
45	0xbdfa5ea1	-0.1222508
46	0xbc81f053	-0.015861666
47	0x3e257618	0.1615833
48	0xbad86cd7	-0.0016511929
49	0x3e422481	0.18959238
50	0xbe1c78ec	-0.15280503
51	0x3e58329c	0.21113056
52	0x3e93527c	0.28773868
53	0x3cecdf75	0.028915146
54	0xbe052d56	-0.13005576
55	0xbe8d7a69	-0.27632454
56	0xbe16c6e5	-0.1472431
57	0xbe741f4a	-0.23840061
58	0x3d06e065	0.032928843
59	0xbe22aab2	-0.15885428
60	0x3c9103fc	0.017702095
61	0xbe4015a9	-0.18758263
62	0x3dc76f84	0.09738067
63	0xbe79e751	-0.24404646

weight f4 [16, 64]
0	0xbdfd53fc	-0.123695344
1	0xbdfbd982	-0.12297346
2	0x3ca818f0	0.020519704
3	0x3db19244	0.08670476
4	0x3deb417e	0.11487101
5	0x3d0f999c	0.035058603
6	0x3dbe6100	0.09295845
7	0xbdc9e668	-0.098584
8	0x3dcdc2d0	0.10046923
9	0x3b648800	0.0034871101
10	0x3d855074	0.06509486
11	0x3c340970	0.010988578
12	0xbd2d342c	-0.042286083
13	0xbcb03330	-0.021508783
14	0xbdbbc71a	-0.09168835
15	0x3cc97cd8	0.024595663
16	0x3dca00be	0.09863423
17	0x3d7a0444	0.061039224
18	0x3d73ac50	0.059490502
19	0x3ccf0120	0.025269091
20	0x3d7ba0e8	0.06143275
21	0x3de89352	0.11356224
22	0x3ca77940	0.020443559
23	0xbda04628	-0.07825881
24	0xbd891d80	-0.0669508
25	0x3d745b8c	0.05965762
26	0x3d08d874	0.03340955
27	0xbcfc5470	-0.030801982
28	0xbd2b3030	-0.041794002
29	0xbd7967f4	-0.060890153
30	0xbbb13c60	-0.0054088086
31	0xbdb96cfa	-0.09053989
32	0xb8446000	-4.681945e-05
33	0x3cc805b0	0.024416775
34	0x3dcf015a	0.1010768
35	0x3d33a208	0.043855697
36	0xbcd4a518	-0.02595763
37	0xbd5e0a2c	-0.05420892
38	0x3dc4f834	0.096176535
39	0x3dfb7aa2	0.1227925
40	0xbdcb594e	-0.09929143
41	0xbdab4740	-0.08363199
42	0x3c3be660	0.0114685
43	0xbd9ca810	-0.07649243
44	0x3dd4b4c8	0.10386044
45	0xbcc41830	-0.023937315
46	0x3df8cc46	0.12148337
47	0xbda34988	-0.07973009
48	0x3dd5b536	0.10434954
49	0x3d36253c	0.044469103
50	0xbcc3ae18	-0.023886725
51	0xbd906fe4	-0.070525914
52	0xbd9f9f74	-0.07794085
53	0x3df5c3d2	0.120002404
54	0xbd7c4208	-0.06158641
55	0x3d817a0e	0.06322108
56	0xbd89e992	-0.06734003
57	0xbc2a8c70	-0.0104094595
58	0x3c020f30	0.007938191
59	0xbce3a1d0	-0.02778712
60	0xbdb43f24	-0.088011056
61	0xbd708ad0	-0.058726132
62	0xbdd4d3ee	-0.10391985
63	0x3c375800	0.011190414
64	0x3dd58c2a	0.10427125
65	0x3dfad3ba	0.12247415
66	0x3d9cb8a8	0.07652408
67	0xbd837244	-0.06418279
68	0xbda5039c	-0.08057329
69	0x3dadb422	0.08481623
70	0x3d5e799c	0.054315194
71	0x3d30360c	0.043020293
72	0xbb8101c0	-0.003936976
73	0xbb14fec0	-0.002273485
74	0xbdf43ed8	-0.11926049
75	0xbd77a574	-0.060460523
76	0x3cfa6e58	0.030570194
77	0xbd8f837c	-0.070075005
78	0x3c370d50	0.011172608
79	0x3dc76242	0.09735538
80	0xbdaf1500	-0.08548927
81	0x3de16ba4	0.11006859
82	0xbdd832d6	-0.10556571
83	0x3dc9626a	0.09833224
84	0x3d0cb4d8	0.034352154
85	0xbc27d5c0	-0.010243833
86	0xbcd47090	-0.02593258
87	0xbcd790f0	-0.026314229
88	0x3bc6cea0	0.006067112
89	0x3d81e22a	0.063419655
90	0x3dc08fe2	0.094024435
91	0x3dd34426	0.10315733
92	0x3daa3996	0.08311765
93	0xbc1717c0	-0.009221971
94	0x3b3a4900	0.002842486
95	0x3dbd1284	0.09232047
96	0xbdeac94c	-0.114641756
97	0x3db3519c	0.087558
98	0xbd447d8c	-0.047971293
99	0x3de9e10a	0.11419876
100	0x3cd44ab8	0.025914535
101	0x3db46352	0.08808006
102	0x3da723ca	0.08161123
103	0xbdaa4cfe	-0.08315466
104	0xbdb53f46	-0.08849959
105	0xbd764174	-0.060121015
106	0xbcdb48c0	-0.026768088
107	0x3dab917a	0.08377357
108	0x3d89a362	0.06720616
109	0xbdeba65a	-0.115063384
110	0x3d9dfedc	0.07714626
111	0xbd0a1184	-0.03370811
112	0xbd55a244	-0.0521567
113	0xbd5dfae0	-0.05419433
114	0xbce72cc0	-0.02821958
115	0x3df6e358	0.12055081
116	0x3dd10fb8	0.10208076
117	0x3dbc0ce4	0.09182146
118	0x3df3293c	0.11873099
119	0x3dff7468	0.124733746
120	0x3dcbc1ce	0.09949075
121	0x3d6a37a4	0.05718197
122	0x3d998556	0.07496135
123	0x3d9f0302	0.077642456
124	0xbd8b5fa6	-0.06805353
125	0xbb90b7c0	-0.004416436
126	0x3cabd4c0	0.02097547
127	0xbd4db3dc	-0.050220355
128	0xbc8f2598	-0.01747398
129	0xbdce3774	-0.100691706
130	0xbd081708	-0.03322509
131	0x3dd270b2	0.10275401
132	0x3d579d98	0.052640527
133	0xbd8eeca8	-0.06978732
134	0x3ddf8e00	0.10915756
135	0xbcdc9ba0	-0.026929677
136	0xbd867ee6	-0.06567173
137	0xbcc5aed0	-0.024131209
138	0xbd6701b8	-0.056398124
139	0xbd0c1a08	-0.034204513
140	0x3dcbf2a8	0.099583924
141	0xbdfccc50	-0.12343657
142	0x3d42c420	0.04755032
143	0xbdcd9834	-0.10038796
144	0xbcc7ad88	-0.024374738
145	0x3d8823b2	0.06647433
146	0x3ce2af98	0.02767162
147	0xbd42f4d0	-0.047596753
148	0xbdc1f69a	-0.09470864
149	0xbdde4b56	-0.10854213
150	0xbd985738	-0.07438511
151	0xbc04e220	-0.008110553
152	0xbda9a89e	-0.08284114
153	0x3dce847c	0.10083863
154	0x3dc5e886	0.09663491
155	0xbde21a8c	-0.1104022
156	0x3dcdf5d0	0.10056651
157	0xbde9f3b4	-0.11423436
158	0xbd71b9d0	-0.059015095
159	0x3d2ba51c	0.041905507
160	0x3da8116a	0.082064465
161	0xbdf36692	-0.11884798
162	0xbdd65e5e	-0.10467218
163	0x3da533aa	0.08066495
164	0x3de9c5f8	0.11414713
165	0x3da63888	0.08116251
166	0x3dae8550	0.08521521
167	0xbd38e1ac	-0.045137092
168	0xbdeec7f2	-0.1165923
169	0xbdad0c74	-0.08449641
170	0x3dc64778	0.096816
171	0xbbe835c0	-0.0070864856
172	0xbde4a27c	-0.11163804
173	0x3de73008	0.11288458
174	0x3d2f2568	0.042760283
175	0x3da7c61a	0.08192082
176	0x3de22f40	0.110441685
177	0x3d4c3c40	0.049862146
178	0x3db07cba	0.0861754
179	0xbdd3889a	-0.10328789
180	0xbd80cb42	-0.06288768
181	0x3d2c0f78	0.04200694
182	0x3dac81a2	0.08423163
183	0x3daf4512	0.08558096
184	0xbdd96b4a	-0.10616167
185	0xbda03df2	-0.07824315
186	0xbdfcc364	-0.12341955
187	0xbd1f808c	-0.03894095
188	0x3b6d55c0	0.003621444
189	0x3c59a780	0.013284564
190	0x3cec4800	0.028842926
191	0x3cdcc6d8	0.026950285
192	0x3c909a38	0.017651662
193	0x3db9af66	0.09066658
194	0x3d9d77a4	0.07688835
195	0x3d2d3da8	0.042295128
196	0xbd960ed2	-0.073270455
197	0xbdc2252e	-0.09479748
198	0x3d62c2d8	0.0553616
199	0x3c22a4f0	0.0099270195
200	0x3dd7fc80	0.105462074
201	0x3d6904e0	0.056889415
202	0x3df70162	0.120608106
203	0x3c957418	0.018243834
204	0xbda755aa	-0.08170636
205	0xbd146928	-0.036233097
206	0xbd6947e8	-0.05695334
207	0xbdcef1dc	-0.10104725
208	0xbd9113bc	-0.07083842
209	0xbb63b880	-0.0034747422
210	0x3d9a17e8	0.07524091
211	0x3dd3ac5a	0.10335608
212	0xbdcd599a	-0.10026856
213	0xbd8e9f6a	-0.069639996
214	0xbdcf148c	-0.10111341
215	0x3da2c430	0.07947576
216	0x3d1cf810	0.03832251
217	0x3be019e0	0.006839022
218	0xbc575b30	-0.013144299
219	0xbdb7aed2	-0.08968891
220	0x3dae0a34	0.0849804
221	0xbd85582c	-0.06510958
222	0xbc9165e0	-0.017748773
223	0x3db50c86	0.08840279
224	0x3df308a6	0.11866884
225	0xbd01f93c	-0.03173183
226	0x3dab41de	0.083621725
227	0xbd928fc4	-0.07156327
228	0xbca83018	-0.020530745
229	0xbdce8d10	-0.10085499
230	0x3d1f61e8	0.03891173
231	0x3de05988	0.10954577
232	0x3d40c5f4	0.047063783
233	0xbdeaded0	-0.11468279
234	0x3d41b3a4	0.04729046
235	0x3dcacee0	0.099027395
236	0xbc9e4c10	-0.019323379
237	0x3d97d9e0	0.07414603
238	0xbd944f8a	-0.07241733
239	0xbdb5ccf2	-0.08876981
240	0xbd06d390	-0.032916605
241	0x3d96a898	0.073563755
242	0xbc229d70	-0.009925231
243	0x3d85dc1c	0.06536123
244	0x3d669198	0.056291193
245	0x3c7623f0	0.015023217
246	0xbdbce0fe	-0.09222601
247	0x3d3cb10c	0.046067283
248	0x3dc548e2	0.09633042
249	0xbc75e790	-0.015008822
250	0xbdedb9b6	-0.11607687
251	0xbdc66060	-0.09686351
252	0xbd814338	-0.06311649
253	0xbd6f6414	-0.05844505
254	0xbd94a3ec	-0.07257828
255	0xbd6e50d0	-0.058182538

bias f4 [16]
0	0x3a910a80	0.0011065751
1	0xbd331118	-0.043717474
2	0x3dcd67ac	0.100295395
3	0x3d99d8c6	0.075120494
4	0xbc31dad0	-0.010855392
5	0xbdb3a8c0	-0.08772421
6	0xbbeddac0	-0.007258743
7	0xbd6fb2e4	-0.058520213
8	0x3d1d66d4	0.038428143
9	0xbd9d3b72	-0.07677354
10	0xbde618b8	-0.112351835
11	0x3d90aabe	0.070638165
12	0x3b2d6340	0.0026456863
13	0xbc9aa2c8	-0.018876448
14	0x3d227170	0.039658964
15	0x3d0a82e0	0.03381622
