models/recomendation_models/scripted_user_preference_model_v2_8_dim.pt (torch, 50431 bytes, 14 tensors)

weight_ih_l0 f4 [64, 12]
00000000: 1b89 49bd 3ade 1e3e 0611 553e c771 f1bd
00000010: 77f9 76be 3ac5 e8bd b870 273e 352c 4c3e
00000020: 5af1 8e3e dace 4f3e 9013 803e 2665 523e
00000030: a854 d03d 9500 673e 2928 84bd 6414 033e
00000040: 19f7 84be f43c 1fbe 76a0 8c3c 3da8 01be
00000050: caec f13d 643a 15be ac28 e13d 7021 e7bd
00000060: 039a 3a3d 5321 e7bd f5a1 7a3e e500 8b3d
00000070: 949c 223e cfdf 87be 4708 7dbb b88b 3f3e
00000080: 680c e93c afec 813e a1a5 773e 76d4 c4bd
00000090: ef06 823d 6125 5abe 3730 96bb 35ba e03d
000000a0: d79a 373e 571a 1a3e e77f 203e bb6d 763d
000000b0: 3e91 1dbe 4c58 5f3e fc7d eabc 1ca8 ad3c
000000c0: 7748 013d 3c96 8bbd a345 013e 86eb 1c3e
000000d0: 0194 2ebe 2838 4bbe 3865 27be 09fc 813c
000000e0: 7af8 12be cd89 b03d e266 393d 9b35 5c3d
000000f0: 548d 0e3e caad 2dbe 4700 4a3e bd54 153e
00000100: a5fd 02be 2bca 17be 4880 4abb d68c 643e
00000110: 1407 2e3e f5b5 c6bc fea0 b6bd 4c38 20bd
00000120: 5d23 933e b8f2 a2bc 8bfc d13d 0adb 9bbd
00000130: 4529 b13d 31ca 92be 5222 e1bd babc 6abc
00000140: 41ef 6a3e 1d6f 13be 4775 5c3d 72f6 3abe
00000150: 2787 023e 2ffd 52bd 5e67 963e 9b6f 42be
00000160: 68a0 18bd f9b2 46bd 6730 13be 2ab3 233e
00000170: 538f 753c c53f 2e3e ef47 663e 506d 42be
00000180: 685b 163c 4dce 363e ade3 f7bd 09cf 8d3e
00000190: 8477 543e f9ea 12be ff34 373e a376 103e
000001a0: d180 4a3e 7991 0e3e b0cd 60bd 3047 f63c
000001b0: ac81 0a3e c30d 40be affc 7b3b 1843 213e
000001c0: 595f a4bc 0076 943d ff2a 85be 8979 cb3d
000001d0: a66e 9dbc 610d 55be 6055 8d3e 6b9e 3b3d
000001e0: 1b3f fabc f545 92bc ded3 58be 49ca c2bd
000001f0: 887a a63d 1458 62be 9132 9abd 406c 613e
00000200: ca8d 1abe 74f8 8dbd f684 6c3e f31b 4ebe
00000210: 7217 643e 9680 93bd 8fa7 ddbc 2805 b53d
00000220: db56 81be 4776 89be f6e0 483e 1e1f 39be
00000230: c24c 08be 76cb e8bd 2411 02be dd19 9cbc
00000240: e4bd dabd 33a6 d53b 930d 0bbe 5863 033e
00000250: bfb8 a2bd a399 48be a682 83bd cdd2 1a3e
00000260: 71d7 03be 75fa 21be 0a8d 6e3e b0e9 e7bd
00000270: 173b 0fbe 38d2 edbd 7f5b 1c3e c943 233e
00000280: 1621 8c3d abca a7bd ef08 a6bc 73eb 4d3e
00000290: b935 9dbd 3f5d 56be 9a3d 4fbe 165f b43d
000002a0: dbfc 83be 93c6 ae3d 2d26 013d 2b42 283e
000002b0: 8b6d 55bd e163 323e e3b7 b2bd ee78 a23d
000002c0: d6fa e3bd c697 6b3e ddda 80be 8608 7cbe
000002d0: 3c14 233e 3336 ad3d 8184 cebd 58d1 ec3d
000002e0: feac 293e 0400 743d 1f0b 0dbc 3d06 b0bd
000002f0: 1607 ee3d 4878 113e b727 83bd 04cb fb3d
00000300: 76be 473e a2e8 833e bbdb f33d b751 8e3e
00000310: 060b 103e f769 09bd b09f 57be ef53 4ebe
00000320: 76a7 7e3d 4717 39be c545 423e 23e6 bebd
00000330: 2021 cf3c af6e 03bd 18f4 973e 7f35 05be
00000340: f8a3 343e 84c6 0abe df55 95be a25f 583e
00000350: bd50 523e d9f5 4c3e 9d5e 44be 421d 95bd
00000360: 18a3 acbd 6d21 4f3e d224 a73d 2613 37be
00000370: f3c0 37be 42c7 553d ba7c 8ebd d329 6e3e
00000380: f2c0 a33c 9c7e abbd 818c d23d 5b25 d83c
00000390: 3211 92bb 4651 cfbc 20e1 f23c 21c8 743e
000003a0: a39e bebd 590a 5e3e ae7d a73d 7910 653e
000003b0: b3c0 403e 7e43 5f3e 6fdd 163e b1db 3dbe
000003c0: 70cc fd3d a494 303e d00e 1c3e 1840 1d3e
000003d0: db03 313d 9c9c 4fbe 3aff 3a3e 6fb2 5d3e
000003e0: 44ad 3abe 8c4f 51be 2678 0a3e f8e8 1ebe
000003f0: 5996 4f3e 9a89 033e a689 1e3e 2e43 c03d
-0.04920302 0.1551446 0.20807275 -0.117892794 -0.24118601 -0.11365743 0.16351593 0.19938739
0.27918512 0.20293751 0.25014925 0.20546398 0.10172397 0.22558816 -0.064529724 0.12800747
-0.2596977 -0.15550596 0.017166357 -0.12661834 0.11812742 -0.14573056 0.10994086 -0.112856746
0.045557033 -0.11285653 0.24475844 0.0678728 0.15880042 -0.2653794 -0.003860967 0.18705642
0.028448299 0.25375888 0.24184276 -0.09610836 0.06348979 -0.21303321 -0.0045833844 0.10973016
0.1793016 0.1504911 0.15673791 0.06016324 -0.15387437 0.21811026 -0.028624527 0.021198325
0.03156325 -0.06815764 0.1262422 0.1532422 -0.17048647 -0.1984564 -0.16347206 0.01586725
-0.14352599 0.086200334 0.045264132 0.05376206 0.139211 -0.16960827 0.19726668 0.14583106
-0.1279207 -0.14823215 -0.0030899215 0.2231935 0.16994888 -0.024256686 -0.089174256 -0.03911619
0.28737918 -0.019891128 0.10253247 -0.07610138 0.0865045 -0.28669885 -0.10992874 -0.0143272225
0.2294283 -0.14397855 0.053822782 -0.18258074 0.12746869 -0.051510986 0.29375738 -0.18987887
-0.03726235 -0.048510525 -0.14373933 0.15986314 0.014987784 0.17016514 0.22488378 -0.18987012
0.009177066 0.17852135 -0.121039726 0.27697018 0.20748717 -0.14347447 0.1789131 0.14107756
0.19775702 0.13922681 -0.05488366 0.030063242 0.13526028 -0.1875525 0.0038450172 0.1574825
-0.020064997 0.07249069 -0.26009366 0.0993529 -0.0192178 -0.20805885 0.27604198 0.045805376
-0.03054767 -0.017855624 -0.21174571 -0.09511239 0.0812884 -0.22103912 -0.07529176 0.2201395
-0.1509315 -0.06932154 0.23097596 -0.2012785 0.22274569 -0.0720226 -0.027057437 0.08838874
-0.25261578 -0.2684805 0.19617066 -0.18078277 -0.13310531 -0.11366932 -0.12701851 -0.019055301
-0.1068075 0.0065200566 -0.13579397 0.12830865 -0.07945394 -0.19589858 -0.064214036 0.15119477
-0.12875153 -0.15818198 0.2329599 -0.11323869 -0.13987385 -0.11612362 0.15269278 0.15943827
0.06842248 -0.08192953 -0.020267932 0.20109348 -0.076762624 -0.20934008 -0.20238343 0.08807199
-0.2577885 0.08533969 0.031530548 0.16431491 -0.05210642 0.17420913 -0.0872648 0.07933222
-0.111318275 0.23007116 -0.2516698 -0.24612626 0.15925688 0.08457603 -0.10083867 0.11563367
0.16569898 0.059570327 -0.0086086085 -0.0859494 0.11622445 0.1420604 -0.064040594 0.122945815
0.19506249 0.25763422 0.11907145 0.27796718 0.14066705 -0.03354832 -0.2105701 -0.20149206
0.062171422 -0.18075286 0.18971927 -0.09321239 0.02528435 -0.032087978 0.29678416 -0.13008688
0.17640674 -0.1355229 -0.29167077 0.21130231 0.20538612 0.20015658 -0.19176717 -0.07280971
-0.08429545 0.20227595 0.0816132 -0.17878398 -0.17944698 0.05219198 -0.069573835 0.23258142
0.019989464 -0.08373758 0.10280705 0.026385 -0.0044576162 -0.025307309 0.029648364 0.23904468
-0.09307601 0.21683635 0.081782684 0.22369565 0.18823509 0.2180309 0.14732908 -0.18540837
0.12392509 0.17244202 0.15240026 0.15356481 0.043216567 -0.20274585 0.18261424 0.21650098
-0.18230158 -0.20440501 0.13522395 -0.15518558 0.20272197 0.1284546 0.15482196 0.093878135

weight_hh_l0 f4 [64, 16]
00000000: de6a 70be be85 903e 1085 563e c00d c23d
00000010: 71cd 9abd d061 0f3e f2b2 e53d 74a0 573e
00000020: 29d5 44be 7242 6b3d cbbf d33c de00 f63d
00000030: 6ecc 8c3d 10f3 6a3e 83c1 b23d c794 66be
00000040: a1c1 46be 0829 3abe a686 11be c561 b13d
00000050: 5e60 923d 526a eebb c816 3abd 1910 2a3e
00000060: 2b31 c7bd e3ae 4fbe cd2f f8bd 6ebd 4e3d
00000070: a1a5 863e db85 dabd 6750 21be 36fa 22be
00000080: 8e32 83bd 93a8 99bc 8d20 a9bd 8e62 813e
00000090: be42 28be 3478 4fbe 375b 6e3d b21c 483e
000000a0: 6d73 5abe 2b4f 0dbe b2a3 01be d489 143d
000000b0: df14 3cbe 3093 2fbe 4b8c 03be 2d31 da3c
000000c0: d1c9 a73d 6ee4 103e 2c27 143c 9832 4a3e
000000d0: 1e28 8bbd 8504 59bd 6d52 12be ecb5 de3b
000000e0: 67f0 1ebd 7030 64be a3db 743b 4740 7e3c
000000f0: b4f8 32be c1e7 cc3d 7f27 48be ccc6 28be
00000100: 9895 b73d d53c f63d 38cc a03d ea77 5dbe
00000110: 9372 50be 9863 a6bd 1b96 073e 89b5 66be
00000120: 0a4e 18be 0883 cebc ad3c 413e 0944 5c3e
00000130: 2778 22be b1bc 5cbe 16d1 c13b 9960 093e
00000140: 8217 80bd 7fc0 683e 7e79 d63b 6721 24be
00000150: 6f96 5ebe 86a1 553e 82b6 8abd 3b0d 2b3e
00000160: ca2a 1d3e b9d0 683e d622 793c e09c 16be
00000170: d72d 2a3e 3c49 d43d 2278 ba3d 4f95 aebc
00000180: 37de 80be 7e07 5f3e 6900 9c3d b0ae 773e
00000190: ca8c 253e 16f8 6b3e e20c 59be 01fa 87bd
000001a0: 87c6 bfbd dccc 853d d0a9 803e b9f6 f53b
000001b0: d4eb c1bd e7e1 72bb 9378 303e 0f09 143e
000001c0: 7637 1bbe 86ac 863c 6599 6dbd 75be b9bd
000001d0: e97e f8bd 8a32 433e 5b4c 563d 62d4 5dbe
000001e0: 8c3d 30bd e842 553e d715 20be 1f28 86be
000001f0: 365c 4e3d a933 51be eb76 0dbe 1f4c 1fbd
00000200: 6467 2f3e 07c0 2d3d 2dac ab3c 695b 013e
00000210: f61a 2f3e 4246 51be 60f5 3e3e 90c7 4c3c
00000220: 0d40 04be 7df5 3abe a5b8 9ebd ca66 433e
00000230: 3a3d 423e 8fc8 ea3c e1e3 5abe 9993 3abe
00000240: e1fa 7cbd 1b96 89bd 539d 153e 2425 88bd
00000250: db8f 46bc 4a7e 8c3d 4a19 67be 6287 85be
00000260: bf13 e5bd 5668 d0bd 7e8d 573e 3780 663d
00000270: c20c 843e f893 45be 761a 14be ed93 65be
00000280: 7053 9abd bb24 243e ceab 863d 8df9 cd3d
00000290: dcee 823d 9d71 483b 23d0 43be da4d 4b3d
000002a0: 2a5e 1fbe 30e7 21be 9031 7f3e 6a42 0abe
000002b0: 57d1 f13d 15ce 2e3e 8b80 c5bc 0773 b53d
000002c0: 7641 4c3e 8ffb 633e 38ce 7c3e eb16 653d
000002d0: c9fd 56bd abbf 9ebd 3b7c a7bd 8ed1 e93d
000002e0: e37c 11be ebec 4e3c cfbe b6bd 035a 34bd
000002f0: 45ec f73d 611d 233d f0b7 2ebe bbfb babd
00000300: 4a03 bc3d 00c4 983d 26d2 60be 75dc 923c
00000310: c431 01be fe34 87bc 6d7a 81bc 6a00 0b3e
00000320: e7f0 5bbe 1f45 82be d3a3 2f3d 5dae 4fbe
00000330: 30bc 2fbd f53d 6fbd 9457 86bd 0ba4 5c3e
00000340: 226f 4fbd d734 5a3e 6ffb 1e3d e257 5c3e
00000350: aab9 f03d 1af4 33be 2f2a eb3d 8a3e 893d
00000360: 1ef8 723e 0a6c 403e 48f6 823d 5843 0cbe
00000370: b1c2 9d3d 680f 683e 380a 1b3e f540 8bbd
00000380: ffbd 263e 2f08 413d b6b6 d93d 5bc7 393d
00000390: f246 a0bc df93 a63b 823a bf3d 08f2 413e
000003a0: 8295 373d 78d7 0d3c fd67 81bd 9ced 3a3b
000003b0: cfcb 393d 316d 6e3e f690 2f3e 1d5e 75be
000003c0: d909 8cbe 6c10 bebd 1c55 893e 6498 28bd
000003d0: a4c9 60be 9635 3b3e a55f d6bd 429f 01be
000003e0: eb8c 9f3d 6e85 35be 2228 283e 617b 83bd
000003f0: 8503 623e 5265 2abe 98dd 823c d4e4 483e
-0.23478267 0.28227037 0.20949197 0.09475279 -0.07558716 0.14002156 0.11215772 0.21057302
-0.19221939 0.057436414 0.02584829 0.12011884 0.06874929 0.22944283 0.08728316 -0.22517692
-0.19409801 -0.18179715 -0.1421152 0.08661226 0.07147287 -0.007275858 -0.045431882 0.16607703
-0.09726175 -0.20281558 -0.12118492 0.050473623 0.2629824 -0.10670062 -0.15753327 -0.1591576
-0.06406127 -0.01875714 -0.08258162 0.25270504 -0.1643171 -0.20260698 0.058192458 0.19542196
-0.21333094 -0.13799731 -0.12660101 0.036264256 -0.18367337 -0.17145991 -0.12846486 0.026634777
0.0819279 0.14149639 0.009042542 0.19745862 -0.06794761 -0.052982826 -0.14289255 0.006796589
-0.038803484 -0.22284102 0.003736236 0.015518255 -0.17477685 0.10005141 -0.19546317 -0.16482085
0.089640796 0.120233215 0.07851452 -0.21627775 -0.20356207 -0.08124465 0.13240854 -0.22530188
-0.1487352 -0.025208965 0.18870802 0.21510328 -0.15866147 -0.21556355 0.0059148176 0.13415755
-0.06254484 0.22729681 0.0065452447 -0.16028367 -0.21737073 0.20862398 -0.06773092 0.16704266
0.15348354 0.22735871 0.015206059 -0.1470828 0.16619049 0.10365531 0.09104945 -0.02131143
-0.25169536 0.21780202 0.07617266 0.24187732 0.16166988 0.23043856 -0.2119632 -0.06639481
-0.09364038 0.065332144 0.25129557 0.0075062183 -0.09468809 -0.0037060918 0.17233495 0.1445658
-0.15157875 0.016439687 -0.058007617 -0.0906953 -0.12133581 0.19062248 0.052318912 -0.21663049
-0.043027446 0.20826304 -0.15633331 -0.26202485 0.050380908 -0.20429863 -0.13814895 -0.038890954
0.17129284 0.04241946 0.020956123 0.12632526 0.17100129 -0.20436957 0.1864829 0.012498751
-0.12915058 -0.18257709 -0.07750062 0.1908218 0.18968669 0.028660087 -0.21375991 -0.18220367
-0.061762694 -0.067180835 0.14610796 -0.06647709 -0.012119259 0.06860025 -0.22568241 -0.2607985
-0.11185407 -0.101761505 0.21050069 0.05627462 0.25790983 -0.19294727 -0.14463219 -0.2241971
-0.07535446 0.16029637 0.06575738 0.10057364 0.06393215 0.0030585297 -0.19122367 0.049634792
-0.15563264 -0.15810847 0.2492125 -0.13501897 0.118075065 0.17070802 -0.024109146 0.0885983
0.19946846 0.2226393 0.24688041 0.05593006 -0.052488122 -0.077514015 -0.08177992 0.114169225
-0.14207797 0.012629728 -0.089231126 -0.044031154 0.12105612 0.03982294 -0.17062354 -0.09130045
0.09180315 0.07459259 -0.21955165 0.017927388 -0.1261664 -0.01650476 -0.015805447 0.13574377
-0.21478616 -0.2544336 0.042880844 -0.20281358 -0.04290408 -0.058408696 -0.06559673 0.21546952
-0.050643094 0.2130922 0.038814005 0.215179 0.117541626 -0.17573586 0.11482655 0.067013815
0.23727462 0.18791214 0.06394631 -0.13697565 0.0770315 0.22662127 0.15140617 -0.06799499
0.16283415 0.047126945 0.106305525 0.045356136 -0.01956508 0.0050835456 0.09337331 0.18939984
0.044820316 0.008657329 -0.06318662 0.0028522974 0.045360383 0.2328384 0.17145142 -0.23961683
-0.27351263 -0.09280476 0.26822746 -0.041160956 -0.2195192 0.1828216 -0.104674615 -0.12658408
0.0779055 -0.1772668 0.1642156 -0.06420017 0.22071655 -0.16640213 0.015974805 0.19618541

bias_ih_l0 f4 [64]
00000000: f505 ccbd fa51 0bbe bcaf 20bd 0fe2 5cbe
00000010: 6dba 1dbd 6635 ebbd 34cc 753e 0cad db3d
00000020: 26dc f4bd 8277 29be 7b90 ed3d fbcb 3dbe
00000030: 45f1 4abd b9ea d9bd c37c be3d 509b 743e
00000040: 72b5 cbbd 1b7b 893e 88c5 fd3d 7e47 623e
00000050: 2660 3abe f110 b23d 8a3e 0bbe 6229 393e
00000060: c048 2ebe 67f9 2fbe 3208 7c3e 2e35 55be
00000070: 4175 803d 9b27 223e 2fe9 903c 2cac e73d
00000080: 03b3 35be 2f60 a63d e410 5d3e 477f 9dbd
00000090: 0032 213e 0bd1 533e b994 c23d 92f8 4abe
000000a0: 5124 3ebe e3ab 81be a7d3 87bd 9bed 87bd
000000b0: 38f2 1abe a595 733e 2f4d 373e a2f3 18be
000000c0: 4b4d 1fbd 1891 473c 86ee 41be 3b96 b83d
000000d0: 6729 863e f585 013e cf51 9d3e 20d2 28be
000000e0: 3c91 1fbe 4dcb 4bbe 79a5 993d 5cc3 373e
000000f0: 6e21 00be 3d21 12be 8d3c da3d 7c23 d3bd
-0.09962074 -0.1360549 -0.039230093 -0.2157061 -0.038507868 -0.11484794 0.24003679 0.107263654
-0.119560525 -0.16549495 0.11599823 -0.18534844 -0.0495465 -0.10640473 0.0930114 0.23887372
-0.09946717 0.26851735 0.12391192 0.22097585 -0.1820074 0.086946376 -0.13598076 0.18082193
-0.1701994 -0.17184983 0.24612501 -0.20821068 0.062723644 0.15835421 0.017689316 0.11312136
-0.17744069 0.08123814 0.21588475 -0.07690292 0.1574173 0.20685212 0.09501023 -0.19821385
-0.18568541 -0.25326452 -0.06632166 -0.066371165 -0.15131462 0.23787554 0.17900537 -0.14936689
-0.03889207 0.012180589 -0.18938646 0.09013029 0.26203462 0.12648757 0.30726478 -0.16486406
-0.15582746 -0.19901772 0.075022645 0.17945617 -0.12512752 -0.14270492 0.106560804 -0.103095025

bias_hh_l0 f4 [64]
00000000: 963b f53b 77c7 64bd ef53 853e b5ac 2b3e
00000010: 863e 443e 7093 203e 0127 0e3e 9156 1ebe
00000020: 87e0 bdbd 25a7 0b3c 730a fabb 8077 883d
00000030: f5fd 823e 36bf 37be 3801 80bd 833c 3e3d
00000040: 4220 f4bd 19da 943e e5d2 18be 26fd 0b3e
00000050: 42ec 313e 071f 943e 4720 ffbd 513c d03d
00000060: 2e17 c13d dfbe f43d 29dd 24bd 5c1d 4d3e
00000070: 1542 453e 71b5 12be 2a41 79be b38f 09bd
00000080: ce91 f23d bba1 92bd b81b fcbc ddce ae3d
00000090: e763 1a3d 0169 743e 8f40 0fbe 16c8 4b3e
000000a0: 1ed4 c1bd 7790 76be 257d fe3c 46d4 c3bd
000000b0: 08f0 24bd 4f03 463e db40 07bd 58a9 9cbc
000000c0: 5290 e5bd e50f 5f3e 92a0 35be a5a8 adbd
000000d0: 6340 953e 45ec 4c3e f50d 3ebd 5031 36be
000000e0: 826f 663e 77bc 43bd 6fea 15be 2edb d03d
000000f0: 5ad7 b43d 04eb 79be 5d66 533e 4e12 9b3d
0.00748391 -0.055854287 0.260406 0.16765101 0.19164476 0.15681243 0.13882066 -0.1546271
-0.09271341 0.008523737 -0.00763064 0.06663418 0.2558438 -0.17944035 -0.062502325 0.046444427
-0.11920215 0.29072645 -0.149242 0.13670787 0.17375281 0.28929922 -0.12457328 0.101677544
0.09428249 0.11950468 -0.040249977 0.20030731 0.1926349 -0.14327027 -0.24341264 -0.033584308
0.11844216 -0.07159754 -0.030774936 0.0853555 0.03769293 0.23868181 -0.13989471 0.19900545
-0.09464286 -0.24078546 0.031065533 -0.09561972 -0.040267974 0.193372 -0.033020835 -0.019123718
-0.112091675 0.21783407 -0.17737034 -0.08479432 0.29150686 0.20012005 -0.04640003 -0.17792249
0.22503474 -0.047787156 -0.1464021 0.10198055 0.088301376 -0.24406058 0.20644517 0.07571851

weight_ih_l1 f4 [64, 16]
00000000: 98bf 2fbe 24fc 803d 7329 ff3d ddf8 c3bd
00000010: 22d7 4ebe 520d b4bd 0ad2 82be 1d03 143e
00000020: 5949 a5bd 6b13 69be c465 4ebe be18 d23d
00000030: d7a5 5ebd 5903 1cbe e20d 05be f29e f73d
00000040: b96f b9bd c083 153c bda8 45bd 69cc a8bd
00000050: afa7 3f3d 13ae a7bd ddf9 15be 24da f1bd
00000060: b6af 1cbd 852e 5bbe 87cc 303d ebaa 8d3d
00000070: 5f36 0abe d09d dcbb 6b7f fd3d 2d1a 33be
00000080: 36e5 0e3e 0a35 573d dbf5 3fbe 4bfa 30bd
00000090: f718 e7bd 2faa 01be 4239 e93d c449 27bd
000000a0: 643e 713d 378a eebd 9384 3abd 1be5 45be
000000b0: 9ce0 353e 3341 a7bd d712 1f3e 769f 5ebc
000000c0: 4b20 3d3e f7fa b0bd 1247 173e 7b0f a73d
000000d0: 110f 4abe 6975 e2bd 073d 6e3d 2c65 19be
000000e0: 0e3a 94bc 3a86 2d3e c5c5 e0bc 1f55 373e
000000f0: e67a 43be b724 433e a8ee 37be 4839 423e
00000100: f2f5 16be d363 8bbc bf5b e8bd 27e3 0bbe
00000110: 8507 4a3e b572 71bd feac 32bd 1991 c43d
00000120: 9bd0 74be 8a8d e83d da9d 16be ed7d 3f3d
00000130: 2036 ef3d d329 933e ce19 133e 9764 b33d
00000140: 5b4b 1dbe d4db 18be c105 4ebe 4387 0b3e
00000150: 68e9 813e 73b8 923d 545b 6fbe f844 53be
00000160: 0aaf 443b 7d25 56be caae bb3d 4e9c 67be
00000170: 2bbc afbd e8f4 133e f49c 173e 7e0f abbd
00000180: 4472 bebb 5f55 6d3c 7145 0b3e a4f1 c33d
00000190: 3490 a0bd 8ede 7a3d 9ab7 64be b1ad 3abe
000001a0: 23d1 06be d980 9bbc 6ed3 143d 08f3 39be
000001b0: 6982 023e 9679 2bbe bc39 4bbe f906 883e
000001c0: 72a0 5a3d 48e6 2d3e 59ff 3d3e 5cfd 91bd
000001d0: 19e6 7b3e acc9 473d 0f98 253e 1dc0 a1bb
000001e0: 9405 5c3e fc23 45be 0ee0 273e 4625 25be
000001f0: f55f 743e 6037 093e 26b9 22be 8270 5abe
00000200: b506 3dbe 1356 e93c d130 97bc 534b a53d
00000210: 0ebb a03c bb67 ddbd 8b7a 3f3e fc71 bfbc
00000220: f5ae 76be 83d4 52be 7e25 c03b 78c4 1b3e
00000230: b18f a8bd 63d2 893e 3d3d f9bc 2797 e83d
00000240: 494b 493e 97c2 2f3e f3da 6e3e adaf 51be
00000250: 0b65 f43d 0b1f 643e 12bd 46bd f063 22be
00000260: bd8b 67bd 29e1 cbbd f0a5 55be b752 a5bd
00000270: dcbf 2a3e 3542 82bd ffef f43d c18c d83c
00000280: d10d 9f3d 1542 4cbe d98a acbd de16 703e
00000290: b060 65bd 65fd 4ebe 5fc0 13bd 554e 89be
000002a0: 7ebe 4dbe 6040 7bbd 3d31 4f3d b0d2 35be
000002b0: 0919 163e 85f3 b13d d334 77bc 8b40 18be
000002c0: 495c 933d cf5a 2bbe bc90 ebbd 389f 273e
000002d0: 6fdb 99bc 6d72 6bbc 389b ea3d 2b74 7abe
000002e0: a2e8 4e3c 1050 41bd e99b 4f3c 92fb eebc
000002f0: a099 ac3d 8297 893e 91c6 05bd b8f3 a9bd
00000300: 5858 a4bb 1b40 cabc e1f8 dc3d d65f 613e
00000310: 0112 813d 1ad2 413e 4308 123b dcb5 103e
00000320: 7aaf 45be fc11 62be c77d 303e 124e f53d
00000330: c8fe 393e 2b3c a23d 41dc 85be 0a88 0b3e
00000340: ccb1 ab3c 55d9 b83d 47c3 f23d 4757 43be
00000350: 21de c63d e4d6 b63d c579 3fbe 12e1 b1bd
00000360: 1ec3 043e 7196 44bc 6ebf 30be 475e 5fbe
00000370: 10a9 17be d8ab 0c3d 06ff 22be 6473 953d
00000380: 11a0 86be efc0 ed3d c52d b4ba e1b6 5f3c
00000390: b1ae 383e 590d 1abd 1e6a 72be 8109 593d
000003a0: 9b9c 143e 4ca9 c3bc e10c 68bd 373b 6cbe
000003b0: 63a7 a8bd fc01 523e 9521 d23d f2bb f3ba
000003c0: 8cb7 43be 854b 1cbe 9a1a 843d e025 fbbd
000003d0: d7b1 9a3d 16c1 1ebe 3d67 ccbd a785 77be
000003e0: 06c8 a93c 978e 85be e776 6e3e dded 7ebe
000003f0: 794e c13d 3f6a 813e 4e37 c53d b05a bd3b
-0.17162931 0.06298092 0.12459078 -0.09568951 -0.20199254 -0.08791603 -0.25550872 0.14454313
-0.080706306 -0.22761314 -0.20156008 0.102586254 -0.054357376 -0.15235652 -0.12993577 0.12090863
-0.090545125 0.00912565 -0.048256624 -0.08242113 0.046790775 -0.08187499 -0.14646097 -0.11809185
-0.03825351 -0.21404465 0.043163802 0.06917366 -0.13497303 -0.00673268 0.12377819 -0.17490454
0.13954625 0.052540816 -0.1874613 -0.043207448 -0.112840585 -0.12662576 0.11387874 -0.040841833
0.05889739 -0.11647456 -0.04553659 -0.19325678 0.17761463 -0.08166733 0.1553453 -0.013587823
0.1846935 -0.08641618 0.14773205 0.081572495 -0.1973231 -0.110575505 0.05816367 -0.1498
-0.018094089 0.16945735 -0.027438054 0.17903565 -0.19089851 0.19056974 -0.17962134 0.18967164
-0.14742258 -0.017015373 -0.11345624 -0.1366087 0.19729431 -0.058947284 -0.04362201 0.09597988
-0.23907702 0.113551214 -0.14708653 0.04675095 0.116802454 0.28742847 0.14365312 0.0875942
-0.15360777 -0.14927608 -0.20119382 0.13625817 0.25373387 0.07164087 -0.23374683 -0.20631778
0.0030011558 -0.20912738 0.09164198 -0.2261822 -0.08580812 0.14448893 0.14805967 -0.08352564
-0.0058119614 0.014485686 0.13600709 0.09567574 -0.078400046 0.0612474 -0.22335663 -0.1823032
-0.13165717 -0.018982338 0.036334448 -0.18159115 0.1274506 -0.167456 -0.19846243 0.2656782
0.05337567 0.16982377 0.18554439 -0.071284026 0.24599494 0.048776314 0.16171287 -0.0049362318
0.21486503 -0.19252008 0.16394064 -0.161275 0.2386473 0.1340003 -0.15890941 -0.21331981
-0.1845959 0.028483426 -0.018455895 0.080710076 0.019620445 -0.10810801 0.1869909 -0.023369782
-0.24090178 -0.2058888 0.0058638444 0.15211666 -0.08230532 0.26918325 -0.030424709 0.11356955
0.19657625 0.17164074 0.2332571 -0.20477171 0.11933335 0.22277467 -0.048520155 -0.15858436
-0.05652975 -0.09955055 -0.20864081 -0.08072417 0.16674751 -0.06360284 0.11959838 0.026434304
0.07766307 -0.19947083 -0.084249206 0.23446223 -0.05600041 -0.2021385 -0.03607213 -0.26817575
-0.20092198 -0.06134069 0.050584067 -0.17756152 0.14657988 0.08689026 -0.015088278 -0.14868371
0.07195336 -0.1673386 -0.11502215 0.16369331 -0.018781392 -0.014370543 0.11455387 -0.24458377
0.012628706 -0.047195494 0.012671449 -0.029172692 0.08427739 0.26873404 -0.03266007 -0.08298439
-0.005015414 -0.024688771 0.107896574 0.22009215 0.06302262 0.18927804 0.0022282756 0.14131874
-0.1930522 -0.22077173 0.1723548 0.11977781 0.18163598 0.079216324 -0.26144603 0.13626114
0.020958804 0.09025828 0.118536524 -0.19076262 0.097103365 0.08927706 -0.18698795 -0.08685507
0.12965056 -0.011998759 -0.17260525 -0.21813308 -0.14810586 0.03434357 -0.15917596 0.072974
-0.26293996 0.11609065 -0.001374655 0.013654442 0.1803539 -0.037610386 -0.23673293 0.05298758
0.14512865 -0.023884438 -0.056652907 -0.23069464 -0.082350515 0.2050857 0.102603115 -0.0018595441
-0.19112986 -0.15263183 0.06450386 -0.122630835 0.075534515 -0.15503344 -0.09980629 -0.24172078
0.020725261 -0.2608535 0.23287545 -0.24895425 0.094387956 0.25276372 0.09629689 0.005778633

weight_hh_l1 f4 [64, 16]
00000000: c490 893e dcac 3abe 46e9 583e 3d2c e43d
00000010: a19b 803e 6181 50bd f6ba 163e 7263 9cbd
00000020: fd1f 133d b1c7 8c3e f173 783d 92d6 a6bc
00000030: 169a cb3d 3aa9 d8bd 192a 02be fba1 82be
00000040: 840a 03be 8ba0 12be 84b3 04be aa3e 1cbe
00000050: 5f60 49be 8ef0 433e 7963 933e e19a 223e
00000060: 0c85 973e d437 4e3c ca18 dd3d 4a24 c8bd
00000070: 026e 07bd 9474 b9bd d018 fbbc 5e0d 6abd
00000080: 8e50 d83d 9053 44be 0540 9e3c aeb1 61bd
00000090: a533 0bbe fc07 93bc 3672 5c3e f880 2f3e
000000a0: 32c3 e83c 6f65 aebd 6aab 11be 6d59 183d
000000b0: 40b4 113e a1bd 483e c806 fbbd 6920 73bd
000000c0: 4e60 823e 414f 503e fbdb b2bd 4774 7fbd
000000d0: d365 48be c48d 63be 536f 803e 8121 b03c
000000e0: 8667 833e 8552 04be 58a7 033d 401d 52be
000000f0: b97e 7a3c 9535 883e a088 553e f009 90be
00000100: 18a1 a03e 639c db3c ee27 43be 68ce 36be
00000110: 24ee f33d 21ee 1fbe 175b 2dbe 9815 a6bd
00000120: 0e63 653d 3c39 373c 4cca 3d3e b998 a53d
00000130: b7ca 09be f264 6ebd 757a 2cbe 866d 9c3c
00000140: f5d0 293e f913 6abe 067b c2bc 64e4 adbd
00000150: 6763 63be 3087 55be 30d3 35be 26c9 06bd
00000160: ed22 523e 5775 0fbd 88c9 433d 7625 a1bd
00000170: 7e7f cd3c 6edc cd3d e86a 22bd 47f0 33be
00000180: dec5 503e ec03 f43d 9fce 8bbc d265 5b3e
00000190: 4b35 14be 8d86 993d 2ef4 cebd c865 213d
000001a0: 0320 0dbe e86e debd a780 03bd 94b0 5a3e
000001b0: ab52 413d 9eaa 853e 5219 543e 74ca 3abc
000001c0: 82a0 bbbd 3398 163e ff49 37be f726 30be
000001d0: dbcc 67be 8e56 4539 9600 423e e776 cdbd
000001e0: 73d9 79be 02f9 8abc 7c19 e8bc 1b02 59be
000001f0: b0bb 58be 22e3 5ebd 10c1 353e 0e8b 69be
00000200: c95d 513e 2104 94be 5a39 083e 8972 8d3d
00000210: 52c3 30be 0fec b63c c0ad 8c3e b70b 7f3d
00000220: fbaa 383e 712d 093e cef3 90be 85c7 2dbe
00000230: 5b24 54be a886 cbbd 80f7 c53d 443d d2bd
00000240: 9b48 d73d 8e92 4fbe 6add d83c 9357 603d
00000250: c3cb 803e 7fc9 86be 019e 543e d00f cb3d
00000260: 70d2 af3d ac59 543d c366 53be 2a85 503e
00000270: ca35 3ebe 440d 563e 3fcc 303e 4f37 553e
00000280: d39b 4f3d 31ba b73c 6a1f 14be bfd7 28be
00000290: a267 46bd 56ee 983d 13e3 3fbe 3c81 773d
000002a0: a307 90bc cba0 8d3e a9e3 7abe b88d f33d
000002b0: 04dc a9bd 9839 96bd a3e1 6d3e b0c5 2abe
000002c0: d589 103d b4f2 9fbd 0b3d 12be a59e c4bd
000002d0: 8081 f4bd 2f7e 5dbe c480 773e 28a3 d73c
000002e0: dcb8 0d3e c004 473c 0c10 533d 71e8 11be
000002f0: 7bd4 dabd f9ff 063e def3 733e ce4e c0bd
00000300: 847c 8cbc afae 77be 15c3 f2bd c167 343e
00000310: c498 c63d 39bf 1fbe 09a2 0f3e 3351 643e
00000320: 26b3 723e a345 643d 1f8f b8bd 7498 003e
00000330: 20e6 3d3d c083 853e 3fb3 153e b3f5 6d3d
00000340: 3798 73bd 3e6a 3ebe 3a73 3f3e d852 ca3c
00000350: b51c 463e 9d0f b03d d04d 2ebd 8656 f6bd
00000360: 2c70 143e e805 ccbd c101 99bd bfe6 d4bd
00000370: 1fc5 48be bd8d 5a3e 9d9a a13d dd10 353d
00000380: 44a7 433d c866 4ebe 75dd babc 881b f73c
00000390: f96d 2ebe 61bd 7cbd 652f 43bc 58ba 4a3e
000003a0: abed 0e3e 3b7e b73d 9814 fabd 1fca c53c
000003b0: 760c 3fbe c8e8 363d 6486 06be a2ce 02bc
000003c0: 9305 873d 4df3 3d3e 6378 3cbe a521 3f3e
000003d0: 9694 6b3d 2762 7dbd de1d 13bd 5b72 9a3d
000003e0: faef 63bd 382c 653e d73d f93d c3f3 43bd
000003f0: 435d ac3d 81cd 5c3e e260 03be 826e 0c39
0.2686826 -0.18230003 0.21182737 0.1114125 0.25118735 -0.050904635 0.14719757 -0.07636155
0.03591918 0.27496102 0.060657445 -0.020365987 0.09941499 -0.105791524 -0.12711371 -0.25514206
-0.1279698 -0.14319055 -0.12959105 -0.1525828 -0.19665669 0.19134733 0.2878683 0.15879394
0.29593694 0.012586553 0.10795744 -0.097725466 -0.033063896 -0.09055439 -0.03065148 -0.057141654
0.105622396 -0.19172502 0.019317636 -0.05510109 -0.1359392 -0.017948143 0.21527943 0.17139041
0.028413389 -0.08515441 -0.14225546 0.037194658 0.14228916 0.19603588 -0.12257153 -0.05935708
0.254641 0.20342733 -0.08733364 -0.06236675 -0.19570093 -0.22222048 0.25084934 0.02150035
0.2566492 -0.12922104 0.032142013 -0.2051897 0.015289002 0.2660338 0.208529 -0.28132582
0.31372905 0.02680797 -0.190582 -0.17852175 0.11910656 -0.15618183 -0.1692928 -0.081095874
0.05600267 0.011183079 0.18534201 0.0808577 -0.13456236 -0.058201738 -0.16843589 0.019095194
0.16583617 -0.22859181 -0.023740303 -0.08490828 -0.22205888 -0.20852351 -0.17756343 -0.032906674
0.20521136 -0.035024013 0.047799617 -0.07868473 0.025085207 0.10051809 -0.039652735 -0.17572127
0.2038798 0.119148105 -0.017066298 0.2142556 -0.14473455 0.07496367 -0.10105167 0.039403707
-0.13781743 -0.108609974 -0.032105114 0.21356422 0.04719798 0.26106733 0.20712784 -0.011400808
-0.09161474 0.14706497 -0.17899321 -0.17202364 -0.2263674 0.00018819628 0.18945536 -0.100324444
-0.24399357 -0.01696444 -0.028332464 -0.2119221 -0.21165347 -0.05441583 0.17749429 -0.22806951
0.20445932 -0.289094 0.13303128 0.069066115 -0.17262009 0.022329358 0.2747631 0.06226703
0.18033974 0.13396241 -0.28311008 -0.16970642 -0.20716994 -0.09937793 0.096663475 -0.10265592
0.10511895 -0.2027075 0.026472766 0.054771017 0.25155458 -0.26325604 0.20763399 0.09915125
0.0858506 0.05184333 -0.20644669 0.20363298 -0.18575206 0.20903498 0.17265414 0.2082188
0.050685715 0.02242765 -0.14465109 -0.1648855 -0.048438676 0.07467334 -0.18738966 0.060425982
-0.017581766 0.27661738 -0.24500908 0.11892265 -0.08293918 -0.07335204 0.23230605 -0.16676974
0.035287697 -0.07809964 -0.14281099 -0.096005715 -0.11938763 -0.21630166 0.24170214 0.026322916
0.1384005 0.012147129 0.051528975 -0.14248826 -0.10685059 0.13183583 0.23823497 -0.09390031
-0.017149217 -0.2418773 -0.11853615 0.17617704 0.096971065 -0.1560029 0.14026655 0.222966
0.23701152 0.055730473 -0.09011673 0.12558156 0.046362042 0.2607708 0.14619158 0.058095645
-0.059471335 -0.18595216 0.18696299 0.024697706 0.19346888 0.08596728 -0.042554677 -0.12028222
0.14495915 -0.09962064 -0.07471038 -0.10395574 -0.19606446 0.21343131 0.07890818 0.044205535
0.04776694 -0.20156395 -0.022810677 0.030164495 -0.17034139 -0.061704043 -0.011913155 0.19797647
0.1395785 0.089596234 -0.12210959 0.02414423 -0.18657097 0.04465559 -0.13137203 -0.007983835
0.0659286 0.18549843 -0.18405299 0.18665178 0.05751475 -0.061861183 -0.035917155 0.07541343
-0.05564878 0.2238015 0.12169998 -0.04783989 0.08416226 0.21562769 -0.12829927 0.00013392608

bias_ih_l1 f4 [64]
00000000: 97bc 833d 8c28 af3d dc80 a63d 78d3 7a3e
00000010: fa10 863d f90e 413e 26c8 bfbc 3697 f9bd
00000020: 8a54 35bd 74f1 863e 88b0 6e3e 43c6 acbd
00000030: f8a8 16be 70ba 0bbd 13f3 7b3e 6aef 293d
00000040: 4b9f d63c 0f0c 3ebd bc5f 29bd 6227 813e
00000050: 3a1d 383e 7edf 40be fdea 0cbd 47df a9ba
00000060: 893a b93d 06ea 853e 0881 ea3d 352f 873e
00000070: 5c26 f03d e88c f33b 21d4 cdbd 881b 4cbd
00000080: 3776 56bc f0c8 813b c216 313d 51b8 afbd
00000090: 7a59 8ebd 5521 09be aa74 b6bd bcf8 2c3d
000000a0: 5ff6 813c 2c58 873e 1070 3ebe cd23 c73d
000000b0: abb1 3c3e b43c 4c3e fc6d 4b3e fe93 b2bc
000000c0: 1301 11bc fe0f 2abe f50e 453e fb4e be3d
000000d0: f949 09bd 32d6 523e 6f8e 693e 354b 0cbd
000000e0: ec30 793e 42bf a33c 4806 43be 15da 4f3e
000000f0: a9fe 683e a2cd ffbb 5b0f 013e 7673 653e
0.06432455 0.085526556 0.08130047 0.24494731 0.06546207 0.18853368 -0.023410868 -0.12187044
-0.044270076 0.2635609 0.23309529 -0.08436253 -0.14712894 -0.034113348 0.24604444 0.04148809
0.026199004 -0.04639822 -0.041351065 0.2522536 0.17979899 -0.18835256 -0.03440379 -0.0012960219
0.09044368 0.26155108 0.11450392 0.26403204 0.117260665 0.007432569 -0.10050226 -0.049830943
-0.013089708 0.003960721 0.043234594 -0.085800774 -0.0695066 -0.13391621 -0.08908971 0.0422294
0.01586455 0.26434457 -0.18597436 0.09723625 0.1842715 0.19945031 0.19866174 -0.021799084
-0.008850354 -0.16607663 0.19243987 0.09292408 -0.03351781 0.20589522 0.2280824 -0.03425141
0.24335068 0.01998866 -0.19045365 0.20298035 0.22753395 -0.0078064958 0.12603514 0.22407326

bias_hh_l1 f4 [64]
00000000: a288 bc3c 3719 673e 5bb4 3c3e dd02 8b3d
00000010: 9588 a6bd cfe6 13be af73 bfbd 0578 02bd
00000020: fff8 5a3c 7a45 813e c996 76bd 765c c7bc
00000030: a649 243d 1990 2b3e 4c1e 823e 820c 583d
00000040: cb4c 14be e74e 11be 2b4c 273e 35b6 02be
00000050: 8caf 3abe b861 f63d f86f 193e 22bd 5e3e
00000060: 0790 01be ef15 603e d37e 803e 0579 2f3b
00000070: cc81 ed3d 2313 96bd 5db1 923d 1899 1e3e
00000080: 2c02 5d3e 3653 223e 3a1e e1bd cf2c 02bd
00000090: ca36 993b 46f4 c6bd 7e12 213e b538 6dbd
000000a0: 1b3e 9ebc 79a3 c63c 9ca2 16be 959a ba3d
000000b0: 1577 553e 39ea 94bd c611 56bd 033f 333e
000000c0: 16cd 9abd 432d 0d3e c377 d7bc 50a8 503d
000000d0: ded0 383d 394d 833e 7608 403d e849 44be
000000e0: 7793 85bb 75bb 5e3e 560e c0bd 3d5e 51bd
000000f0: a38a 01be 23e5 a73d 7af7 213e 4aa0 2cbe
0.02301437 0.22568212 0.18428175 0.067876555 -0.0813152 -0.14443515 -0.09348237 -0.03185274
0.013365029 0.2524832 -0.060202394 -0.024336081 0.0401093 0.16754188 0.2541374 0.052746303
-0.14482419 -0.14190255 0.1633765 -0.12764819 -0.18231028 0.12030357 0.14984119 0.21751836
-0.12652598 0.21883367 0.2509676 0.0026775014 0.115970224 -0.07327869 0.071627356 0.15488088
0.2158286 0.15852055 -0.109920934 -0.031781014 0.004675721 -0.0971456 0.1572971 -0.05791541
-0.019316724 0.024247872 -0.14710468 0.091115154 0.20846207 -0.07271237 -0.052263044 0.17504506
-0.07558648 0.13786797 -0.026302224 0.050941765 0.045121066 0.25644854 0.04688307 -0.19168818
-0.004076417 0.21751197 -0.09377734 -0.051115263 -0.12650542 0.08198001 0.15817061 -0.1685802

weight_ih_l2 f4 [64, 16]
00000000: 49dd d3bd b324 f6bc 501e bb3d 3f77 323e
00000010: e2e6 1c3e 64ce f83d 6687 1d3c d7c5 493d
00000020: c7cd 2ebb da9e 953d 0f22 3fbe 270e 87be
00000030: 9cd5 63be cf6e 3b3e f37d 8c3d dbd0 f9bd
00000040: 4598 29bd e7ba 8d3b e6d3 2d3e f868 7d3d
00000050: 72e5 5e3e fe99 573e 1a81 3f3e c457 033d
00000060: a1d4 32be d488 293e b60d 12be 5a09 4f3e
00000070: 6c41 b13d 5d19 21be 7778 653e 335e 66be
00000080: df25 8e3e f475 893c 21a8 433e 1caa 5abe
00000090: ebf4 cfbd d473 1cbe 8b16 833e 9a83 313e
000000a0: 5f4a 9f3e f7a0 93bd b632 453d af27 333e
000000b0: d211 7ebe d09a 3f3e 307f 993e 2ab5 cbbd
000000c0: a3b5 863d e2a3 67be 87eb 82bd 595c afbc
000000d0: be50 123e 7743 aa3c 8e82 7c3d 3b84 67bc
000000e0: 11f9 1cbe bb5b 093e 0f18 7cbe a002 443e
000000f0: 3c23 3ebe 68da 353e ac2c 2bbc 1f21 83be
00000100: e090 7e3d 66e5 053e 81ed 303d e4e1 29be
00000110: 581b 8e3e 1383 ab3c 2914 8f3e 10bf 13be
00000120: 06cb 3fbe 8f15 923e 272b 63be 0d40 503d
00000130: 52cf b6bd 4177 bfbb bcb7 103e 93fa 9b3d
00000140: 16ca 1a3e 3e0a d23d 5756 5ebe 51fc 17be
00000150: ef8f 26be 7f55 ecbc ba60 883e 2c2d 6dbe
00000160: 3a90 f5bb 1dab 853e 5a4c fcbb 76d9 cfbd
00000170: 9a60 513e f2e8 283d 6ca4 26be ef1a 2a3e
00000180: 7db9 473e 208a 0ebe 7190 2a3e b620 763e
00000190: 1340 783e 3923 3b3c c950 123e 1c47 27be
000001a0: f0b2 f43d 8ef1 e43d 2a50 1fbd 7813 1bbe
000001b0: 179f 21bd 221a 073d ef80 c4bd 8fcb 92bd
000001c0: e379 6c3e 0061 7bbe 682e b73c f012 69bb
000001d0: 1a90 f23d 2c5f d0bd 9917 fcbd f56b 273e
000001e0: 48b8 403e bf29 1d3e 248d 9f3d 2434 c03c
000001f0: f0f7 e4bd 9ffd f6bd 7c14 653e 38a1 3cbe
00000200: 6727 1fbe a90a 53be b880 febd 41a9 3bbe
00000210: 0c63 31bd 86f5 8cbd 838c 4cbe e521 38be
00000220: 4a06 1d3e eef4 003d df24 5ebe 8fd7 27be
00000230: c2be eabc 59fe 15be b4f2 26be 5333 fdbd
00000240: ce0d 3b3e 5a6c 353e 81d0 5cbd 4f9f a83d
00000250: b44b b9bd 2797 cfbb 572a 06bd 9cc0 c43c
00000260: 6ae5 3abd 1995 e23d aa49 26be 8ae0 4ebe
00000270: 38cd 433e 32ec 4bbe 2e7e 7c3e 97b6 883d
00000280: 36a6 30be 001c 1c3d 8a13 6fbe a685 25be
00000290: 6dea 8d3e 34ac 0dbe a4fd 7a3e b4a5 1c3e
000002a0: dcdf 8dbd baf5 20be 4bcf 48be 7044 babd
000002b0: b02d 8dbe 46c5 33bd df36 913c ff32 71be
000002c0: 076c 80bd e580 4fbe 4997 1f3e 8fcb 653e
000002d0: f472 343e 02b8 383b 5055 883e 1f6c f43c
000002e0: 8e97 adbd c027 863e 14e1 033e 6e8d 623d
000002f0: 5ad9 91bd f318 2abe 7f5c 493d f0ce 303e
00000300: deb8 773e 2b89 81be 21cf 61be 8af9 3dbe
00000310: 57b3 883d d021 c4bc 20ca 30be cba3 c43d
00000320: 6e0d 37be a3ed 96ba e69a 64be 0290 af3d
00000330: d554 62be 2445 e33d 4fb0 3cbe abc3 1ebd
00000340: addb 303d 5587 7a3d 4e71 e9bc a2cd f5bd
00000350: 4fc9 123e d0e3 043c a293 4ebe 1b09 7abc
00000360: dc8c e9bd 32ef 893e f109 58be 2b4d 223e
00000370: d5dc 88be d37d 213e d04b dc3d a8b1 fb3d
00000380: 778d 88be 2275 28be eb2a f23d d722 94bd
00000390: 0677 033d 43a1 4a3e 10b8 c0bd 7645 b73d
000003a0: e18d 68bd 5500 e539 cdba e2bc 6762 8ebd
000003b0: ebee bb3d 9485 30ba 9d62 3fbd bf41 c3bd
000003c0: 2303 edbc 15fc 373e 621f 3f3d 3eda 953d
000003d0: ea95 8d3e 5172 823d 22d7 d3bd 360d d03d
000003e0: 58ab 833e 4bb7 7d3c 70ac cf3d f54c 80be
000003f0: 5d99 0e3d 766d 8a3e 47ab bd3d a02a 4fbd
-0.10344941 -0.030046796 0.09136641 0.17428301 0.1532245 0.12148741 0.009614801 0.04926094
-0.0026672946 0.07305689 -0.18665336 -0.26377985 -0.22249454 0.18303989 0.068599604 -0.12198039
-0.04140498 0.004325259 0.16975364 0.061867684 0.21767214 0.21054837 0.18701592 0.03206612
-0.17463924 0.16556102 -0.14263043 0.20218411 0.08655056 -0.15732332 0.22409235 -0.22496872
0.27763268 0.016779877 0.19107105 -0.21353954 -0.10154136 -0.1527856 0.25603136 0.17335358
0.31111428 -0.07208436 0.048144065 0.17495607 -0.24811485 0.187114 0.2997985 -0.09946664
0.06577613 -0.2262111 -0.063925795 -0.02140634 0.14288613 0.020784123 0.061647944 -0.014130647
-0.15329386 0.13413899 -0.24618553 0.19141626 -0.18568128 0.17759097 -0.010447662 -0.25611207
0.062149882 0.1307579 0.04319525 -0.16590077 0.27755237 0.020936524 0.27945068 -0.14428353
-0.18729791 0.28532073 -0.2218443 0.050842334 -0.08926262 -0.0058430736 0.14132589 0.076161526
0.15116152 0.1025586 -0.21712624 -0.14842345 -0.16265844 -0.028849361 0.26636297 -0.23161763
-0.007494 0.26107112 -0.0076995315 -0.10148899 0.20447007 0.04123778 -0.1627366 0.16611837
0.19504352 -0.13919878 0.16656663 0.24035916 0.24243192 0.011421972 0.1428863 -0.1633572
0.11948192 0.111788854 -0.03889481 -0.15144145 -0.03945836 0.032983907 -0.09594905 -0.07167732
0.23093371 -0.24548721 0.022360995 -0.0035564266 0.118438914 -0.101744026 -0.123091884 0.16349776
0.18820298 0.15347956 0.07790592 0.023462363 -0.11180103 -0.12060093 0.22371095 -0.18420875
-0.15542375 -0.20609535 -0.12426895 -0.18326284 -0.04330735 -0.068827674 -0.19975476 -0.1798168
0.1533443 0.031483583 -0.21693753 -0.16390823 -0.028655414 -0.14647807 -0.16303521 -0.12363305
0.18266985 0.17717114 -0.053909782 0.08233511 -0.09047642 -0.0063351574 -0.032755222 0.024017625
-0.045628943 0.11063594 -0.16239038 -0.20202842 0.19121253 -0.1991432 0.24657509 0.06675451
-0.17250904 0.03811264 -0.23347297 -0.16164264 0.27717915 -0.13835222 0.24510819 0.15297586
-0.069274634 -0.15718737 -0.19610326 -0.09095085 -0.2757392 -0.043889306 0.01772636 -0.2355461
-0.062706046 -0.20264013 0.15585054 0.22440933 0.17621976 0.002818585 0.26627588 0.029836712
-0.084761724 0.26202202 0.12878829 0.05531066 -0.07121535 -0.1661108 0.049160477 0.1726644
0.24191615 -0.25299963 -0.2205167 -0.18552223 0.06674831 -0.023941904 -0.17264605 0.096015535
-0.17876217 -0.0011514913 -0.22324714 0.08572389 -0.22102673 0.11097172 -0.18426631 -0.038760822
0.04317825 0.06116422 -0.02849641 -0.12002112 0.14334606 0.008110955 -0.20173505 -0.01526096
-0.1140382 0.26940304 -0.21097542 0.1584975 -0.2673098 0.15770654 0.107566476 0.122897446
-0.2667043 -0.16450933 0.11824592 -0.07233208 0.03209593 0.19788079 -0.09410107 0.089487955
-0.05677593 0.0004367853 -0.027676964 -0.069523625 0.09176429 -0.0006733772 -0.046724904 -0.095340244
-0.02893216 0.17967255 0.04666079 0.07317017 0.27653438 0.063694604 -0.10343768 0.1015877
0.25716662 0.015485595 0.10140312 -0.25058714 0.034814227 0.27036637 0.09261184 -0.05057776

weight_hh_l2 f4 [64, 16]
00000000: a356 713e 62cf 82be 8a46 fc3d 8a22 ecbd
00000010: 26cf 433e 81e6 1ebd 49f6 6f3e 1339 563e
00000020: dc45 373e 494d 573d 7d85 07be d06a bd3c
00000030: 50d4 0a3e 1ecb 52be b945 933d e6be 7b3e
00000040: e0c7 4e3e 9b77 52be 4973 d63d 23f7 8d3e
00000050: 2aa6 8d3d 8328 82be a632 3cbd 73ea 09be
00000060: 45fa 143e 4b34 773d 42ba 983c 0471 853e
00000070: 94f7 64be cfa5 0cbe 54fe 253e f82e 6e3d
00000080: c825 1f3e e42d 573c 7cbb 093e da83 a03d
00000090: b541 2d3e 9ee2 213e a6c7 f2bd 86a3 95bd
000000a0: 994d 063e fa55 d73d d2b0 a83d a298 133e
000000b0: a76d 0ebe 0917 09be 0f06 2ebe fda9 8f3e
000000c0: 3de1 f43c 0814 f93c f613 213d a3bc 4b3e
000000d0: 90e4 773d 0d3f 6cbd 9121 6abc 5a67 14bd
000000e0: bb67 393e cf02 08be 8398 36be 6f85 bf3d
000000f0: 4864 b4bd e1dc 133e 4e8d 12be 49f7 a43d
00000100: 46b7 493e b727 463e 3344 713e 8637 c3bd
00000110: 18f9 87be 1e49 67be a5d1 093e f138 a03d
00000120: 8e02 56be a75c 38be 3741 513e 9c41 43be
00000130: a2c9 27be b996 6ebe d7e3 333e a836 c53d
00000140: 3244 9b3d 0fe0 6abd d3bd 1a3c 8434 323e
00000150: 3ce6 01be 20b3 75be 673e 52be 8a81 393d
00000160: 62e6 0a3d 6117 8abe 0f91 02be b0a0 473c
00000170: f891 313e 8eda 85bd 2e2c 15bd 8818 07be
00000180: b235 983e 25f2 193b 8218 0dbe bf25 0cbe
00000190: 56eb 8fbe 9c71 943d 30ed 0bbe 50f1 f6bd
000001a0: c2a2 51be 60ce 3fbd e232 6e3e b741 3abc
000001b0: 7d4f e4bd 676e a03d 7c33 aebd 70a5 893d
000001c0: e2dd 1d3b a71a e2bd 9034 29be e3ab 303e
000001d0: 9c5f 45be 7831 74bd 7f5d 9abd 2d2d 8a3e
000001e0: 6822 043d 6006 343e 167b cd3d c6fc 823d
000001f0: 06a4 92bd 200d 17bd 697a 06be af76 9e3d
00000200: a239 84bd ae81 34be 10be 3dbe 7430 4bbe
00000210: e744 13be f0de 0fbd 9ee7 d63d 56ab a23d
00000220: 6609 3cbd 64fc 83be ea7b 3cbe 25e5 053d
00000230: f9f4 c6bd 39da 503e 66d8 1c3e abb4 d83d
00000240: 6f17 6abe 1072 203e db7b 793e 6f14 173e
00000250: a4b4 3fbd c8a2 3fbe c645 773d 9f66 5cbe
00000260: 1ce6 44be d784 51be fdac 5dbe 7a0f 743e
00000270: 7f71 48be fad9 81be 6404 74be 8ff4 3abe
00000280: 1111 833c 6fed 1dbd f402 ebbd c2b1 54be
00000290: f28b d6bd b99e 3a3c ba97 843c 44b6 e73c
000002a0: bacb 5abe 1a13 37bd 96f9 c039 d66a c73b
000002b0: 93ae 973d 1ae3 7f3d d95a 013e 394b 3f3d
000002c0: 2cd2 1c3e 965f a73d 3e54 dd3b d9a7 27be
000002d0: 58dc 003b 5bdb 29be 80b8 dcbc 85eb a9bd
000002e0: a620 383e f904 3dbe f013 00ba ff60 3cbd
000002f0: 64c1 cbbd e39d 273e a4ff 8abd e044 ec3d
00000300: c375 753c 8c1e 4abe 1c6b 3a3d 3875 d53d
00000310: 12e5 383e 86ed 003e 8bb9 fb3c 1d1b 2fbe
00000320: 7fe6 09bd ae64 633e 6809 85be ab65 013e
00000330: 6ed6 fdbd 5213 473e ca09 44be 4807 f83c
00000340: b750 363e f2b6 e6bd f502 ae3d c386 723e
00000350: 1a19 06be 16a6 8fbe aa40 f13c 9414 5a3e
00000360: 5d8c 5bbe 72ff 72be 1e7e 62be 6709 3cbe
00000370: 92d2 2cbe 4ed1 cd3d 2568 14be 5d25 4b3e
00000380: 4655 2b3e 0fd0 733e fd01 3abe 67be 38bd
00000390: eda5 073e 622e ffbc 5c33 e7bd 80d7 0bbd
000003a0: ddf3 cbbd 4d47 47be d395 4abe 0000 6b3c
000003b0: c3cb 263e c282 173d c422 19be b53d 3a3e
000003c0: 6924 583e fd24 043d 5311 64bd 7d5d ee3c
000003d0: d07b 87be 0266 54be 088b 9b3c 6e9d f23c
000003e0: e6df ed3d b508 0fbe ad6c 28be 5269 2a3e
000003f0: 07d1 81be a52e 51be 51f5 c23d 40c1 38be
0.23568206 -0.25548846 0.12318142 -0.11530025 0.1912199 -0.038794044 0.23433794 0.2092021
0.17897743 0.05256394 -0.13234515 0.023122221 0.13557553 -0.20585296 0.07191033 0.2458454
0.20193434 -0.20553438 0.10471208 0.27727613 0.06916459 -0.25421533 -0.04594674 -0.13468342
0.14548595 0.060352605 0.018643502 0.26062787 -0.22360069 -0.13735126 0.162103 0.05815026
0.15541756 0.0131335 0.13450426 0.07837649 0.16919596 0.15809104 -0.11854486 -0.0730658
0.13115539 0.105144456 0.08236851 0.14413694 -0.13909017 -0.13387693 -0.16994499 0.28059378
0.029892558 0.03040506 0.039325677 0.19896178 0.06052071 -0.057677317 -0.014290229 -0.036231376
0.18105976 -0.13282321 -0.17831616 0.09351622 -0.0880819 0.14439727 -0.14311716 0.080549784
0.1969882 0.19351088 0.23561172 -0.09532075 -0.2655723 -0.22586486 0.1345888 0.07823361
-0.20899412 -0.18004094 0.20435034 -0.19067997 -0.1638551 -0.23299684 0.17567383 0.096295655
0.075813666 -0.057342585 0.009444672 0.17402846 -0.12685484 -0.23994112 -0.20531617 0.045289554
0.033911116 -0.26970962 -0.12750648 0.012184307 0.17340839 -0.065358266 -0.036419086 -0.13192952
0.29728466 0.0023490277 -0.1377888 -0.13686274 -0.28109235 0.07248232 -0.13664699 -0.120577455
-0.20472243 -0.046827674 0.23261598 -0.011368207 -0.11147974 0.078335576 -0.085059136 0.06721008
0.0024088551 -0.1104024 -0.16523957 0.1725307 -0.19274753 -0.05961749 -0.07537364 0.2698759
0.032259375 0.17580557 0.100332424 0.06395869 -0.07160191 -0.03687775 -0.13132633 0.07737481
-0.06456305 -0.17627594 -0.18529534 -0.19842702 -0.14381753 -0.03512472 0.10493396 0.07942836
-0.0459074 -0.25778496 -0.18406644 0.032689232 -0.097146936 0.20395745 0.15316924 0.10581335
-0.22860502 0.15668511 0.24363653 0.14753889 -0.04680313 -0.1871444 0.060369276 -0.21523522
-0.19228405 -0.2046083 -0.21648021 0.23834029 -0.19574545 -0.25361615 -0.238298 -0.18257354
0.015999349 -0.038556512 -0.11475173 -0.20770934 -0.10475911 0.0113903815 0.01618563 0.028285153
-0.21366778 -0.04469595 0.0003680705 0.006085734 0.07406344 0.06247244 0.12632312 0.046702597
0.15314549 0.081725284 0.006754427 -0.16372623 0.0019662585 -0.16587584 -0.026943445 -0.08296875
0.17981204 -0.18458928 -0.00048857834 -0.04599094 -0.09948996 0.16368823 -0.06787041 0.11536574
0.01498169 -0.19738215 0.045512304 0.10422748 0.18056133 0.12590608 0.030728122 -0.17100187
-0.033667084 0.22206375 -0.2598374 0.1263644 -0.12394415 0.19440964 -0.19144359 0.03027691
0.17804228 -0.11265363 0.08496658 0.2368422 -0.13095513 -0.280564 0.02944978 0.21296912
-0.21440263 -0.23730257 -0.22118422 -0.18362962 -0.16877201 0.10049687 -0.14492853 0.19838472
0.16731748 0.23809837 -0.18164821 -0.045103457 0.1324689 -0.031150047 -0.11289093 -0.034141064
-0.099586226 -0.19460793 -0.19783716 0.014343262 0.16288666 0.036989935 -0.14954668 0.18187602
0.2110764 0.032261837 -0.055680584 0.029097313 -0.2646165 -0.20742038 0.018987194 0.029616084
0.11614971 -0.13968165 -0.16447707 0.16641739 -0.25354788 -0.2042795 0.09519447 -0.18042469

bias_ih_l2 f4 [64]
00000000: f672 753d a859 21bd 7b79 49bd b90d 4bbe
00000010: d9c6 cc3d b720 063d fc15 42be 2444 fbbd
00000020: 697e 2a3e 22a7 473d f143 96bd 2f1e 023e
00000030: 4aa0 68bd 938e e23b 1347 293e 6e49 653a
00000040: ee8f 51bd 90dc ecbd 3511 bcbc 3f19 b9bd
00000050: 6a1b ac3c 0ac9 693e f49f 703e fe7c b83d
00000060: 6227 34bd 2a0d 853d eb72 5c3e ff2a 843d
00000070: 8a21 b2bb 2cfd 8b3e 27f9 23be 17c0 873e
00000080: f3f8 353e d5f2 c43d a051 323e 4686 833e
00000090: 56e8 153e 8924 933d 4965 8b3e cb2f 123e
000000a0: 5783 213e a9eb 75be 153a 443e acab 3ebe
000000b0: 259a 3e3d dd6c 7b3d e23a 06be 4b19 853e
000000c0: bf60 2f3d 2c76 d43d 95bb 8f3e 32e5 623d
000000d0: 2942 563d 0543 3ebe 381f a23e 4f4a 413e
000000e0: b7ca 7a3e 3136 d13d 970e 1e3e 2e5b 133e
000000f0: aad8 1c3e 1763 303e a290 14be bf39 02be
0.05992409 -0.039392143 -0.04918812 -0.19829454 0.09998865 0.032746043 -0.18953699 -0.12268856
0.16649784 0.048743375 -0.073371775 0.12706827 -0.05679349 0.006913969 0.16531019 0.00087465986
-0.051162653 -0.115655065 -0.022957424 -0.090380184 0.021009166 0.22830597 0.23498517 0.09008215
-0.04398287 0.064966515 0.21528213 0.06453513 -0.005436127 0.27341592 -0.16013013 0.2651374
0.17770748 0.09616629 0.1741395 0.2568838 0.1463941 0.07184703 0.27225712 0.14276044
0.15772758 -0.24015678 0.19162782 -0.18620175 0.046533722 0.061383117 -0.131084 0.2599586
0.042816874 0.10374102 0.280728 0.05539436 0.05230919 -0.18580253 0.31664443 0.18876003
0.24491392 0.10215414 0.15435253 0.14390251 0.15317026 0.172253 -0.14508298 -0.12717341

bias_hh_l2 f4 [64]
00000000: e9cf 4b3e 48ce cd3d abe2 ce3d 9ee0 8ebd
00000010: a586 5ebc 2903 1a3e e17e 3c3d db2c 0ebe
00000020: 03fc aa3d 7dff 703b e721 e73d 44b8 933e
00000030: 550e 92bc c4c3 5e3e adfe c23d c859 073d
00000040: 7103 6b3e 97dd 02be 7516 0f3e 2ef1 25be
00000050: fd2e 013e f28e 473e f8b3 353e 9ec6 6a3e
00000060: 7239 4b3e 5dc3 24bd e9e7 26be e19d 01be
00000070: 18a1 b13d 1f6d 533e 75b7 543e aad9 d2bd
00000080: 90e5 7d3d 2fdd fdbd d443 823e d5d6 f23a
00000090: 8204 e6bd ab6f efbd b086 783d 6bfe 5c3e
000000a0: ce44 b0bd 0518 0b3e 6b37 2a3e 2305 023e
000000b0: 83d3 49bd d065 62be 90ce e6bd 263e dc3d
000000c0: 3c0f 12be 826e 233e 4611 503e a02b 8d3e
000000d0: 6fae 5cbc 0f6b d6bc 97c5 f63d c93e 9fbd
000000e0: 9f08 373e 735a 573e dd80 6fbd 6dc8 90bc
000000f0: 2b52 b4ba 76f1 033e 4008 9abd e4fb 77bc
0.1990353 0.10049111 0.10101827 -0.06976436 -0.013581906 0.15040268 0.04601944 -0.13884299
0.08348849 0.0036773377 0.11285763 0.2885152 -0.0178291 0.21754366 0.09521232 0.033044606
0.22950532 -0.12779842 0.1397341 -0.16205284 0.12615581 0.19488123 0.17744434 0.22927329
0.19846132 -0.040225375 -0.16299404 -0.12657882 0.08673304 0.20647095 0.20773108 -0.102954224
0.061986506 -0.12395703 0.25442374 0.001852716 -0.112313285 -0.11691221 0.060675323 0.21581428
-0.086068735 0.13583381 0.16622703 0.12697272 -0.04927398 -0.22109151 -0.112698674 0.107540414
-0.14263624 0.15960124 0.2031909 0.27572346 -0.013469323 -0.026174096 0.12049406 -0.07775647
0.17874382 0.21030597 -0.058472503 -0.017673695 -0.0013757398 0.12885079 -0.07521105 -0.015135739

weight f4 [8, 16]
00000000: 8953 23be f741 46be 5d48 6abc 8023 8b3e
00000010: 25bf 133e 6143 6fbe 4214 81bc 243b c5bd
00000020: 9cae 43bc 44bc 4b3e 3f71 4e3d d301 693e
00000030: 559e 9b3d c818 543e dfe6 6ebd d58d 893e
00000040: f225 2b3e 4138 0fbe 98cf 093e e79c 51bd
00000050: dbd8 d2bd 8216 78be 4844 a53e 2847 243e
00000060: 866e a5bd a6e7 b3bd 96d8 33bd b057 a43e
00000070: 3ce4 d6bd 98e8 c1bd 6de4 95bd aadd c7bc
00000080: cde2 d03d c1f6 ccbc 1963 6d3d 968d 0bbd
00000090: f395 c7bd f20c 13be d44b b43d 23b7 713d
000000a0: a330 11bd e659 7b3e 4a6e f9bc 531e a2bd
000000b0: 1598 03be 7aa9 6cbe 23ce 453e bf7f 8e3e
000000c0: c06e 06be ddc5 003e e944 cdbd ac15 ebbd
000000d0: 9b52 44be ce59 6d3e e2c1 99be 0334 af3d
000000e0: 275f 18be f243 b43d 4ef0 4e3e 3672 c33b
000000f0: f9d7 31be 0626 553e 1079 3e3e 7e16 10be
00000100: 88b9 f4bd fb44 1bbd 5052 48be ece0 18be
00000110: dee7 3d3d 1253 653e d5ee 15be 65aa ffbd
00000120: ef01 14bd fd55 8ebc 10b8 de3d fca7 55be
00000130: 44f8 b43d 80bb 04bc c27a ea3d b14a 79be
00000140: 397c 8ebe 6a09 563e 8cc1 7abe f36a e8bd
00000150: d7e4 163e 1072 77be 06a4 743c dc97 0a3e
00000160: e729 653e 5aae a33d e957 dabc a6cd 02be
00000170: ff37 8a3c dca7 0d3e 5cd7 e7bd e679 25be
00000180: f2d4 223e 6c0a d6bd 1bd6 963d 67cd 1c3c
00000190: bb18 3dbe 632e 5dbd 5d2b cfbd 1f4c 233e
000001a0: af59 0d3d 7871 16be 558d 503e 9d2e 083e
000001b0: 176f a63d 8a57 2abe b010 413e 1a51 ebbd
000001c0: 1a4e ac3d 4112 493e 7ad3 4e3d 08d8 103e
000001d0: 7395 14be 2604 c7bb e47b 3f3e 7ea5 6bbd
000001e0: 602f b1bc c741 393d 18c5 833e a083 b4bc
000001f0: 7a89 6c3e c02f 76bd b064 193e d4ee 403e
-0.15949835 -0.19361101 -0.014299479 0.27175522 0.14428385 -0.23365547 -0.01575673 -0.09630421
-0.011943486 0.19896036 0.05040097 0.22754602 0.07598559 0.20712578 -0.058325645 0.26866022
0.16713694 -0.13986303 0.13458097 -0.051175024 -0.10295268 -0.24227336 0.32278657 0.16042769
-0.08077721 -0.08784418 -0.043907724 0.3209815 -0.10492751 -0.09468192 -0.073189594 -0.02439769
0.10199509 -0.025020005 0.057955835 -0.034070574 -0.097453974 -0.14360407 0.088035256 0.059012543
-0.035446774 0.24546012 -0.030448098 -0.0791594 -0.12850983 -0.23111525 0.19316916 0.27831838
-0.13128185 0.12575479 -0.10022909 -0.11478743 -0.19172136 0.23178789 -0.30030733 0.08554842
-0.14880048 0.08802022 0.20208856 0.0059645427 -0.17367543 0.20815286 0.18600869 -0.1407108
-0.1194945 -0.03790758 -0.1956265 -0.14929551 0.046363704 0.2239497 -0.14641888 -0.12483672
-0.036134657 -0.017374987 0.10874951 -0.20864862 0.088364154 -0.008101344 0.114491954 -0.24344899
-0.2782915 0.20902029 -0.24487895 -0.11348524 0.14735733 -0.24164605 0.014931684 0.13534492
0.22379266 0.07992239 -0.026653247 -0.12773761 0.016872404 0.13833565 -0.113203734 -0.16159782
0.15901545 -0.104512066 0.07365056 0.009570456 -0.18466465 -0.053999316 -0.10115693 0.15947007
0.034509357 -0.14691722 0.20366414 0.13299032 0.081266575 -0.16634956 0.18854022 -0.11490078
0.08413334 0.1963587 0.05049465 0.1414491 -0.14510135 -0.0060734926 0.18699604 -0.057530873
-0.021629035 0.045228746 0.25736308 -0.02203542 0.23099318 -0.06010413 0.14979815 0.18841106

bias f4 [8]
00000000: e441 b0bc d51c 85bd 3ccd 623e 2e73 863d
00000010: c859 713d fc43 bfbd f08b 803d 1d5c 173e
-0.021515794 -0.0649964 0.22148603 0.065649375 0.058923513 -0.09339139 0.06276691 0.14781232
