models/recomendation_models/scripted_user_preference_model_v6_8_dim.pt (torch, 46553 bytes, 14 tensors)

hidden f4 [2, 1, 12]
000000 23 43 a5 3e a2 e4 55 3e f4 5e ac 3e 5d d5 6c be
       0.32277784 0.20887998 0.33666193 -0.23128267
000010 f8 39 ac be a0 3b 62 be a0 40 a7 be 74 83 b6 be
       -0.33637977 -0.22093058 -0.32666492 -0.35647166
000020 9b 53 de 3c 1a 0d 32 3e b4 21 ba bc f2 30 a1 be
       0.027139476 0.1738781 -0.022721149 -0.31482655
000030 42 3d 80 bd cd 30 11 be 74 3c 2d be ec 80 01 3e
       -0.06261684 -0.14178772 -0.16917592 0.12646836
000040 d9 5f 5c 3e c7 da 24 3e 97 0a 09 3e 09 6c 2b 3c
       0.21520938 0.16099082 0.13382946 0.010462769
000050 da ac 01 3e a3 e6 98 bb 67 02 93 bd 51 c1 54 3e
       0.12663594 -0.004666166 -0.071781926 0.2077687

hidden f4 [2, 1, 12]
000000 03 be 35 3f 16 b9 ff 3e 56 ab 26 3f 15 3f de be
       0.7099306 0.49945897 0.6510519 -0.43407503
000010 2e 98 18 bf fc 8d aa be 83 3a 70 bf e9 7c 1e bf
       -0.5960721 -0.3331145 -0.9383928 -0.6190935
000020 cc ac c5 3d 97 99 86 3e 24 8e 36 bd b0 24 0c bf
       0.09652099 0.26289055 -0.04456915 -0.5474348
000030 ba ce 0d be 80 c3 7a be 64 bd 93 be 72 61 60 3e
       -0.13848391 -0.2448864 -0.2885543 0.21912172
000040 cc ed f0 3e 2e f9 85 3e b2 cf 97 3e f9 57 03 3d
       0.47056425 0.26166672 0.29650646 0.03206632
000050 06 d4 5d 3e d8 34 01 bc dc 39 66 be 18 6c b9 3e
       0.21662912 -0.007886134 -0.22483009 0.3621528

weight_ih_l0 f4 [48, 12]
000000 7f 24 43 3e 8a da ad 3a 48 10 a2 3d 65 83 6c be
       0.19056891 0.0013263982 0.07913262 -0.23096998
000010 b4 7f 90 be 97 66 86 bd 1e bc 52 3e 59 36 23 3e
       -0.2822243 -0.06562536 0.20579574 0.159387
000020 73 c4 b7 bc 79 34 bf 3d 26 9c 85 3e 5c ff f7 3d
       -0.022432541 0.0933618 0.26095694 0.12109253
000030 f0 c5 29 3e 84 56 d4 3c 35 4a 92 bd 9d 32 60 3e
       0.16579413 0.02592016 -0.0714306 0.21894307
000040 22 6f 93 be e4 57 81 3d 5d 8b 2a 3e a7 95 90 3e
       -0.28795725 0.06315592 0.16654725 0.28239176
000050 94 ab 69 be 57 e3 c5 3d cf ae ea 3c 4b 3e 5f 3e
       -0.22819358 0.09662502 0.028647808 0.21801107
000060 65 ab 49 be b0 0c ec bd 4a 98 86 3d 41 21 12 be
       -0.19694288 -0.115258574 0.065720156 -0.14270498
000070 cb 45 c6 bd 36 ba 09 bd db 1e 36 3e 71 1b 61 bd
       -0.09681281 -0.03362485 0.17785208 -0.05495781
000080 2c 4a 01 3d 5c 1f 7f 3e d1 ec c1 bd 19 71 49 3c
       0.031564876 0.24914306 -0.09468997 0.012295031
000090 46 40 60 3e 45 34 12 be ab 66 a5 3d a1 2e fd 3b
       0.21899518 -0.14277752 0.08076223 0.007726506
0000a0 8b 08 9a bd 9a f3 1b bd 95 8b 63 3c 46 d1 3d 3e
       -0.07521161 -0.038074113 0.013888259 0.18536863
0000b0 f9 60 d8 bd 74 10 f0 bd 78 79 ba 3c 55 c5 54 3d
       -0.10565371 -0.11721888 0.022762999 0.051946003
0000c0 f6 c2 a9 3b b3 c1 78 be d0 0d 1c 3e 07 e4 35 be
       0.005180712 -0.2429264 0.15239644 -0.17762767
0000d0 70 ca b3 3d c2 64 50 3e c6 de 20 bd 6e 83 6f be
       0.08778846 0.20350936 -0.039274953 -0.2338998
0000e0 47 90 b1 3d 51 bf f6 bc 59 4b 73 be 5f 47 ce 3d
       0.08670097 -0.030120524 -0.23759212 0.10072207
0000f0 12 11 53 3d 85 4b 00 be 55 bf 16 be e5 f0 5c 3a
       0.05152995 -0.12528808 -0.14721425 0.000842823
000100 a5 25 7c be 70 8f 06 be 93 e4 02 3e 8e 77 5d be
       -0.24623735 -0.13140655 0.12782507 -0.21627638
000110 70 22 4d bd 3e 1b d9 3d 17 f4 66 be 46 31 45 3e
       -0.05008167 0.10600899 -0.2255405 0.19257078
000120 e3 b5 8e bd f7 01 37 be e0 5f 1c be 4e b0 4c 3e
       -0.06968286 -0.17871843 -0.15270948 0.1998913
000130 f5 64 88 3d 32 ab 4e be 9d 71 b1 bd e3 35 c1 bd
       0.06659881 -0.20182493 -0.08664248 -0.09434106
000140 4b ec 30 3e 9d 3c 80 3e 60 30 99 3d f2 d7 06 be
       0.17277639 0.25046244 0.0747993 -0.13168314
000150 8e fb 4f 3e b0 28 07 3e 7b 37 23 3e 53 d5 9e bd
       0.20310804 0.13199115 0.15939133 -0.07755532
000160 d2 12 66 be f5 3f 71 bd 77 18 59 be b6 ee 5e 3e
       -0.22468117 -0.058898885 -0.21200739 0.21770748
000170 be 79 aa bd a2 f9 06 be 59 18 25 3e 5d 5a 8e 3e
       -0.08324002 -0.13181165 0.16122569 0.27803317
000180 62 47 99 3d f3 ba 33 3e 29 09 23 be 50 bf 64 be
       0.07484318 0.17551784 -0.15921463 -0.22338605
000190 fd f8 a6 bd 99 fa 44 3e c0 fa 41 be b1 2d fc bd
       -0.081529595 0.1923622 -0.1894331 -0.123134024
0001a0 bd 40 69 3e 8e 44 f5 bc 0d fc 78 bd 9c 52 b4 bd
       0.22778602 -0.029939916 -0.06078725 -0.08804819
0001b0 c0 c2 db 3d 90 5b f0 bd 32 c7 84 be 09 36 25 3e
       0.10730505 -0.11736214 -0.25933224 0.16133894
0001c0 9b 28 4e 3e 1c ad 73 be 80 80 18 be 3e e9 6b 3e
       0.20132677 -0.23796505 -0.14892769 0.23038194
0001d0 a6 1c fa bd 30 fa 48 be a7 e3 0a 3e 02 33 06 3e
       -0.122124955 -0.19626689 0.13563405 0.13105395
0001e0 f3 6b 82 be 6c 40 94 be 70 5e 6f be 25 3e 0e be
       -0.25472984 -0.289554 -0.23375869 -0.13890894
0001f0 28 e4 19 be b7 dc c6 bd f0 55 b6 bc 7a 9c 45 be
       -0.15028441 -0.09710067 -0.022257775 -0.19297972
000200 e4 e5 19 3e 8a 84 bf bd 5b b2 f2 bd 7f f9 26 be
       0.15029103 -0.09351452 -0.11850425 -0.16306113
000210 d0 73 3c be 65 6c e7 bd d7 39 49 3e 92 0d 1d 3e
       -0.18403554 -0.112999715 0.1965097 0.15337208
000220 c5 28 65 3d d5 c8 54 be 09 39 c8 3c 34 a1 3b bc
       0.055947084 -0.20779736 0.024441259 -0.011452008
000230 b8 26 25 3d da 7c 31 be 50 43 1b be 6b a9 58 3e
       0.04032013 -0.17332783 -0.15162396 0.21158378
000240 53 6b 5f be 2b e9 48 be b6 1a d8 bd eb b5 05 3e
       -0.21818285 -0.19620197 -0.1055197 0.13057677
000250 68 21 24 be cb 87 3b be f2 5f 96 bd f8 5c 69 3d
       -0.16028368 -0.1831352 -0.07342519 0.056973428
000260 39 8f e2 bd 6b 6d 41 3e 3c 05 84 3e 70 35 d0 bd
       -0.11062474 0.18889396 0.25785244 -0.101664424
000270 2c a0 9c 3e 97 8b 5d 3e e2 f4 a7 bd 76 3c 1a 3e
       0.3059095 0.2163528 -0.082010046 0.15062127
000280 7b fa fc 3d d0 81 58 be db 98 17 3d a8 70 7b 3e
       0.12352463 -0.2114327 0.03701101 0.24554694
000290 36 6b 1e be 9b 5f 9c 3d 35 14 28 be d6 cb ec bd
       -0.15470585 0.07635423 -0.16413958 -0.11562316
0002a0 72 07 d4 3d 2b 18 3c 3e fc e9 fe 3d d2 64 0f 3d
       0.103529826 0.18368594 0.12446973 0.03500826
0002b0 9f d1 51 be e4 7e 8a be d1 5a 84 3d b9 34 85 3e
       -0.2049012 -0.27049935 0.06462634 0.26016787
0002c0 13 58 f6 bd f8 32 68 3e fc 90 73 be 7f 80 c4 3d
       -0.120285176 0.22675693 -0.23785776 0.09594821
0002d0 90 a9 6c 3d f0 0a e4 3d bb c5 25 3e 4e ba 61 be
       0.057778895 0.11134899 0.1618871 -0.22043726
0002e0 15 58 5f be 5a a4 08 3e 6e 99 16 be 00 b3 7a be
       -0.21810944 0.13343945 -0.14706966 -0.24482346
0002f0 e6 85 18 bc d7 f3 0f be 56 1e 8a 3e 41 8a 07 bd
       -0.009309268 -0.14057861 0.2697627 -0.033090834
000300 0f b5 97 3d 9f 2b eb bc e5 40 3d 3c dc 90 0c 3e
       0.07407581 -0.028707324 0.011551117 0.13727134
000310 60 99 71 bc fe 6f 87 be 4f 57 0a bd 0a 90 a7 bc
       -0.01474604 -0.2645263 -0.03377467 -0.020454425
000320 6d 12 59 3e 1e 43 01 3e a3 0f 52 be 3a b1 87 be
       0.21198435 0.1262326 -0.20513777 -0.265024
000330 cd 81 36 3e 87 89 08 3e 5a 0b 5d 3e b9 5e 29 be
       0.17822953 0.13333713 0.21586362 -0.1654004
000340 bf 55 55 3e 2d b2 df bd ec 6c 94 bd d0 3f 0b bd
       0.20833491 -0.10922656 -0.07247338 -0.033996403
000350 c0 95 23 3e 43 36 a1 bd 25 1a 56 3e 13 b3 05 be
       0.15975094 -0.07871678 0.20908411 -0.13056593
000360 a1 df 18 3e 92 ac 09 be 6a 86 76 be 65 a0 7e 3e
       0.14929058 -0.13444737 -0.24074712 0.24865873
000370 6a 7d 5b 3e c9 a8 6f be fd 9e 76 3e 71 a1 4c be
       0.2143456 -0.2340423 0.24084087 -0.1998346
000380 5c 25 32 be 2e c1 5e 3e b9 c2 8c 3e 84 a6 c1 3c
       -0.17397064 0.2175338 0.27492312 0.023638971
000390 33 ce ab 3d 46 7d b1 bc e6 2e 20 3d e2 ec 13 3e
       0.08388939 -0.02166618 0.039107226 0.14445832
0003a0 66 e3 47 3e 07 99 60 3e 8d 82 50 be 1e 0c 10 be
       0.1952034 0.21933375 -0.20362301 -0.14067122
0003b0 62 85 ed bc b4 39 29 be 82 d7 6a be 1a 4c 98 3e
       -0.028994266 -0.16525918 -0.22933772 0.2974556
0003c0 c1 e0 1d be 48 3c 60 3c b3 2e 67 3e 18 72 34 3e
       -0.15417768 0.013686247 0.22576408 0.17621648
0003d0 98 bb 82 3e 8d a6 21 bd 17 95 91 bd 67 88 52 bd
       0.25533748 -0.039465476 -0.07108515 -0.051399615
0003e0 e7 50 4f be ca 1e b2 bd 3c 69 34 3c d7 82 6a 3e
       -0.20245706 -0.08697279 0.011011418 0.22901474
0003f0 b9 26 7a be a1 00 03 3e bb c7 24 3e 11 8f 7a be
       -0.24428834 0.12793209 0.16091816 -0.24468638

weight_hh_l0 f4 [48, 12]
000000 49 4a 69 3b e6 e2 3f be 26 ad da bd 95 d6 aa bd
       0.0035597256 -0.18738899 -0.10677557 -0.083417095
000010 9c 7e e7 bc 8c 79 6a 3e 65 f4 91 3c b3 2b 9b bc
       -0.028258614 0.22897929 0.017816732 -0.018941736
000020 c4 bb 6f be 4f e7 88 bd ee 5f 46 3d 1f ad 52 3e
       -0.2341147 -0.066847436 0.04843133 0.20573853
000030 34 a9 42 3d 10 b6 66 3e 9b 00 7f 3e df 22 08 be
       0.047524646 0.22530389 0.24902575 -0.13294552
000040 e6 8e 21 bd 49 86 20 bd 7d bb 87 3d 87 69 9e bd
       -0.03944292 -0.039190564 0.066275574 -0.077349715
000050 e2 57 46 3e 32 f1 74 3e 2e 48 68 be aa c8 f1 3d
       0.19369462 0.23920134 -0.22683784 0.11805852
000060 8d 1f 8f 3e ed f6 5e be 44 c7 18 be f4 a3 3b 3e
       0.2795376 -0.21773882 -0.14919764 0.18324262
000070 5e 3b 7b 3e 77 fb 20 3e e1 6d ab 3d 00 ea bb 3d
       0.24534366 0.15720926 0.08370567 0.09175491
000080 99 48 9f bc 1a dc b3 bd 09 c2 9a 3e 16 d8 dc bd
       -0.019443797 -0.087822154 0.30226162 -0.107834026
000090 c0 9b 2b 3e ef 4d 3b be bb 06 f5 3b ae ce e5 3d
       0.16758633 -0.18291448 0.007477609 0.11221062
0000a0 41 cc e1 3d 0f b2 a8 bd 15 42 b5 bd f8 d9 2e bd
       0.110252865 -0.08237087 -0.08850495 -0.04268834
0000b0 9c c5 66 3d 37 84 95 3e 73 e2 87 be 38 a8 bd 3d
       0.0563408 0.29202434 -0.26539955 0.09260601
0000c0 7a c3 1b be 9c 46 d4 3d 8f a1 0b 3e 3a ee 31 3e
       -0.15211287 0.1036503 0.13635848 0.17376032
0000d0 df 50 c2 bd e3 53 4c be bd 88 29 b8 62 24 2d be
       -0.09488081 -0.19953875 -4.0420087e-05 -0.1690841
0000e0 b6 2f 9d b9 f0 55 98 3c 6d 19 4a bc 03 22 3d be
       -0.0002998092 0.018595666 -0.012335164 -0.18470006
0000f0 a0 c6 ce 3b 9a 70 5a 3e c4 33 9c 3e 0d dc 14 bc
       0.006310299 0.21332017 0.30508244 -0.009085667
000100 02 ec 7f 3c 04 c0 25 3e 02 eb 66 3d 15 38 72 be
       0.0156202335 0.1618653 0.056376465 -0.23654206
000110 ea d9 b9 3d 51 98 04 be 1e bb 96 3e 5b 01 b8 bc
       0.09074767 -0.12948729 0.29439634 -0.022461584
000120 8f c3 3d be 3a 93 69 3e a7 46 f6 bd a5 36 fe 3c
       -0.18531631 0.22810069 -0.120251946 0.031031916
000130 df b4 90 bc 07 3a 60 be fd fa 87 be 0f b5 81 bc
       -0.017664371 -0.21897136 -0.26558676 -0.015833406
000140 6b 6e af bc 74 43 f7 3d 8a 13 05 be 63 f8 62 3e
       -0.021414956 0.120734125 -0.12995735 0.22165065
000150 4e a3 3e bc 49 ac 49 3e 32 a4 03 3e d4 9d 58 be
       -0.011635615 0.19694628 0.12855604 -0.21153957
000160 11 b7 bc bd 17 18 8e bc 55 ee 99 be ae f5 8f be
       -0.09214605 -0.017345471 -0.30064645 -0.28117126
000170 70 4e 7e be 82 08 9d 3e 6d cc 28 3e 8c 89 00 bd
       -0.24834609 0.30670553 0.16484232 -0.031381175
000180 25 8a 04 be 7d f8 af bd f4 bf 21 be 37 77 9f 3e
       -0.12943323 -0.08592317 -0.1579588 0.3114564
000190 27 0b 31 3e 57 a6 fe bc d2 4d 9f 3e 6e 55 5d be
       0.1728941 -0.031085176 0.3111406 -0.2161462
0001a0 d7 cf 83 3d 12 ec c5 3b 11 4f b3 3d 21 9a 95 3e
       0.06436127 0.0060401047 0.08755315 0.29219154
0001b0 fc 05 5a 3e 4d 32 cf bd a1 0b 97 3e df 64 12 be
       0.21291345 -0.10117016 0.2950106 -0.14296292
0001c0 6a 3a 64 3e a7 6b 8c 3e 2b 8f b0 3d b3 25 33 3e
       0.22287908 0.27425882 0.08621057 0.1749485
0001d0 c1 51 fe bd 19 d6 dd 3b 59 94 a7 bd 4c 54 f3 3d
       -0.12417937 0.006769907 -0.08182592 0.11881313
0001e0 3f 5e 13 3e c4 b4 87 be 84 1f f1 bd 00 3a 5e 3e
       0.14391421 -0.265051 -0.11773589 0.21701813
0001f0 f6 c8 1e bd 92 9e 1e be 31 f3 4f bd 73 d8 17 bd
       -0.03876587 -0.15490177 -0.050769035 -0.037071656
000200 e2 4a bc 3b 07 e5 2b 3e 67 fd d3 3d c1 f7 69 be
       0.0057462314 0.16786586 0.10351067 -0.22848417
000210 e2 36 a6 bc d1 4d 63 3e ad 67 40 be 78 4d 64 be
       -0.020289842 0.22197653 -0.18789549 -0.22295177
000220 19 c3 ff bd 48 fc a2 be d5 32 95 be 7c 07 39 bc
       -0.12488384 -0.318331 -0.29140344 -0.011293288
000230 a8 76 ec bd 89 04 60 be dc 62 5e 3e 46 d9 72 3e
       -0.115460694 -0.2187673 0.217174 0.23715696
000240 db aa 41 bc 99 78 19 3e d3 cf fd 3d ee 60 91 be
       -0.01182052 0.1498741 0.12393155 -0.28394264
000250 9c f3 6c be 63 cf 7e 3e 00 c3 d4 3d 25 d8 79 be
       -0.23139805 0.24883799 0.10388756 -0.24398859
000260 3b 08 86 3e 9d 7f 4e 3e 73 07 0c 3d c6 7c b7 bb
       0.26178154 0.20165868 0.03418679 -0.005599591
000270 f2 48 39 3d 61 1d 23 3d 87 97 6b bd d8 9b 91 be
       0.04523558 0.03982294 -0.057517555 -0.28439212
000280 b8 8d 79 be 40 67 ba 3d b8 69 4f be 77 b8 02 3e
       -0.24370468 0.091017246 -0.20255172 0.1276568
000290 ab 6c 5b 3e 70 02 9d 3c 26 22 1a be 10 69 97 bc
       0.21428172 0.019166201 -0.15052089 -0.018482715
0002a0 09 8f 33 bd 71 16 df bd 28 c6 1c be 54 22 00 be
       -0.04383758 -0.10892952 -0.15309966 -0.12513095
0002b0 19 97 8d be 37 c5 97 be e4 83 75 be 94 da 62 3d
       -0.2765434 -0.2964265 -0.23976094 0.055384234
0002c0 5e b7 92 3e 15 01 9e 3d 9f 2f d8 3c 5c f1 15 3e
       0.28655523 0.0771505 0.026389895 0.14642853
0002d0 b4 fb 6e be e0 25 9d bd 08 48 53 be fb 7e 68 3e
       -0.23338205 -0.0767324 -0.20632946 0.22704689
0002e0 bc cb 97 be ff a0 d0 3c 72 48 04 be 2d b5 e5 bd
       -0.29647624 0.025467394 -0.1291826 -0.11216197
0002f0 dc 65 11 3c a5 74 30 3e bf 3d c5 bd 78 92 a6 3c
       0.008874383 0.17231996 -0.09630918 0.020333514
000300 36 d5 1a bd fa d1 a4 3d cc e3 b3 bd a3 47 29 3e
       -0.03780099 0.08047862 -0.08783683 0.16531233
000310 41 48 ff bd 6f 65 32 3e 00 17 b4 bd f9 52 f8 bd
       -0.12464953 0.17421506 -0.087934494 -0.12125201
000320 56 2a 3c 3e 38 47 d7 bd 74 26 5a 3e 0b 0d 6a 3d
       0.18375525 -0.10511631 0.21303731 0.057141345
000330 95 4b 2a 3d c7 9d a0 3e 87 c4 a9 3d 0d 71 fc bd
       0.041575987 0.31370375 0.08289438 -0.1232625
000340 aa fc 81 be 58 f2 1c bc c6 f4 56 be e9 d3 be bd
       -0.2538808 -0.009579264 -0.20991811 -0.093177624
000350 47 ba 09 3d b9 e4 fa 3d 9f 0b 09 be ec 40 71 be
       0.033624914 0.12250657 -0.1338334 -0.23559922
000360 9e bc 81 3c 90 4e 21 3d f6 96 5e 3e a6 23 a1 bd
       0.01583701 0.039381564 0.21737275 -0.078681275
000370 cf 3c 2e be 61 f2 bb 3d 33 16 85 be 5a 72 13 3e
       -0.17015384 0.091770895 -0.259935 0.1439909
000380 ab c1 3c 3e 05 22 84 3e 60 1a a2 bd a7 e3 77 be
       0.18433253 0.25807205 -0.07915187 -0.24207936
000390 79 2c 19 be 6d d4 3a 3d 34 64 f0 bd 79 c3 1a 3d
       -0.14958371 0.04561274 -0.11737862 0.037784074
0003a0 ab b2 4d 3e 83 04 9f 3c 10 5a 5a be 64 e1 48 3e
       0.20087688 0.019411331 -0.21323419 0.1961723
0003b0 18 83 85 be 50 f6 a5 3e 9c b7 e9 3c d1 e7 7c bd
       -0.2607658 0.32414484 0.028529935 -0.061744515
0003c0 60 46 80 be 3f 5f 97 3d f7 f7 8e be c8 b6 4f 3e
       -0.25053692 0.073912136 -0.27923557 0.2028457
0003d0 a5 34 e9 bd e9 28 bc 3d b2 cd 52 3e 40 f8 e6 3d
       -0.11386994 0.091874905 0.20586279 0.11277819
0003e0 d1 4e 79 3e 3e 2e 89 3e 05 58 0a 3e d7 80 3f 3e
       0.24346472 0.26793092 0.1351014 0.18701492
0003f0 8c e1 24 3e 7f 5b d7 3d b7 6f 89 3e 8d 7c 84 be
       0.16101664 0.10515498 0.26843044 -0.25876275

bias_ih_l0 f4 [48]
000000 46 f4 58 3d 65 f8 0d bd f0 58 58 3e 9c 42 f2 bb
       0.052967332 -0.034660716 0.21127677 -0.0073931944
000010 f3 64 49 3e 99 e5 29 be 6e 37 95 3e 33 70 48 bd
       0.19667415 -0.16591491 0.29143852 -0.048935127
000020 e3 e9 b6 bc 26 ea 85 be f2 de 13 be 17 95 7a 3d
       -0.022328323 -0.26155204 -0.14440516 0.06117734
000030 5e d5 89 3e 4d 09 73 3e 0e 37 e1 3d 5b 9a 42 bd
       0.269206 0.23734017 0.10996829 -0.047510486
000040 1e 17 32 be d5 3e 01 3e 88 3a 29 3e a5 f7 1b be
       -0.17391631 0.12621625 0.16526234 -0.15231188
000050 a2 60 51 3e 61 f5 8e be 9c aa 7a bd d4 a5 69 be
       0.20447019 -0.27921584 -0.061197862 -0.22817165
000060 6c ff 62 3e b4 16 25 3e 33 10 6c bd 80 8f dd 3d
       0.22167748 0.16121942 -0.057632636 0.10818386
000070 87 3c 9c be 9f 22 5e be d0 dd 38 be b2 3a 7f 3e
       -0.3051493 -0.21692894 -0.18053365 0.24924734
000080 b0 d3 4d 3e c3 bb c9 3d 4c a3 3d be bf 20 3a 3e
       0.20100284 0.09850266 -0.18519324 0.18176554
000090 bf dc fa 3d 38 18 5e 3d 83 4b 7b 3c 04 2c b0 bb
       0.12249135 0.054222316 0.015337828 -0.005376341
0000a0 a7 d3 eb 3d 88 45 55 3e ab ea 4a 3d 14 dd 86 3d
       0.11514979 0.20827305 0.049540203 0.06585136
0000b0 03 43 58 3e 38 4b c1 3c 7f dc 7e be 08 e3 e3 3d
       0.21119313 0.023595437 -0.248888 0.11127287

bias_hh_l0 f4 [48]
000000 be 9d 10 be 04 71 3d 3e d6 fd 0f 3e 18 02 8b 3e
       -0.14122674 0.18500143 0.14061674 0.27150035
000010 3a f0 7d 3e 77 7b 01 be b1 88 8d 3e 99 44 c3 3d
       0.2479867 -0.12644754 0.2764335 0.09534568
000020 86 2b 88 be 94 a5 aa bd 25 aa 6b bd 02 7b 7c be
       -0.26595706 -0.08332363 -0.05753531 -0.24656299
000030 2a 9e 50 be 06 d5 a1 3e 75 83 a7 bd dc a9 6b be
       -0.20372835 0.31607836 -0.0817937 -0.23014015
000040 0a f9 7a bd df 4a 13 bd a1 a4 1a 3d a1 e1 79 3e
       -0.06127266 -0.035960075 0.03775466 0.24402477
000050 62 84 c2 3d 46 3e 60 be 71 d9 9a be 11 9e 92 3d
       0.09497906 -0.21898755 -0.3024402 0.07159055
000060 90 d4 25 3e 4a e2 77 be 40 be 3f 3e 85 80 f4 bd
       0.16194367 -0.24207416 0.18724918 -0.11938576
000070 2e 3e 5e 3e df 04 94 bd 12 3a 3e 3e 8c 68 7d be
       0.21703407 -0.072274916 0.1857684 -0.24746913
000080 79 e5 a1 bc 62 0d 87 3d bb 55 3f 3e 8b 26 46 be
       -0.019762741 0.065943494 0.18685047 -0.1935064
000090 94 1b 69 be d9 d5 71 bd 0d 29 54 3d e9 f0 81 3e
       -0.22764426 -0.05904183 0.05179696 0.25379112
0000a0 22 d7 96 3d 96 c4 0e 3e 48 e0 d5 3d 67 a1 ca bd
       0.07365252 0.13942179 0.10443169 -0.09894066
0000b0 26 7a 88 be eb 22 1d 3e 79 d3 a9 bd 5a fd 3b be
       -0.26655692 0.15345351 -0.08292288 -0.18358365

weight_ih_l1 f4 [48, 12]
000000 aa 5b 17 be 3b 4c cd bd 72 30 e5 bc 59 17 59 be
       -0.14781061 -0.100243054 -0.027977202 -0.21200313
000010 ee b9 28 3e 80 b8 bd bc d1 5d d7 ba 53 2f 94 be
       0.16477177 -0.023159266 -0.0016431158 -0.28942356
000020 af 9e 63 be b9 ca 76 3e 38 68 2c be 39 9d fc bc
       -0.22228502 0.2410077 -0.16836631 -0.030836688
000030 f0 d7 43 3d ea 01 06 3d ff 8f 3a 3d 44 f5 0b be
       0.047813356 0.03271667 0.04554748 -0.1366778
000040 4c 5f 6a 3d 8e 8d 80 bd 09 37 fa bd 81 a9 94 be
       0.05721979 -0.062769994 -0.122175284 -0.2903557
000050 38 92 5b 3e 01 fa 8e 3d ef c1 b8 bd 5b 81 5a 3d
       0.21442497 0.06981278 -0.09021365 0.05334602
000060 7c b5 49 be 43 b5 de bd 20 df cc 3c c7 33 50 3e
       -0.19698137 -0.10874417 0.025008738 0.20332251
000070 28 c6 97 be 81 02 fb 3d ac b9 5c be 78 94 21 3e
       -0.2964337 0.12256337 -0.21555203 0.15779293
000080 2f 85 1a be ba a9 2b be d7 41 50 3e 96 9a 7c 3e
       -0.15089868 -0.16763964 0.20337616 0.24668345
000090 8e 47 17 be db c6 6f 3e ec d3 84 be 97 87 0f be
       -0.1477339 0.23415701 -0.25942934 -0.14016567
0000a0 5d 03 3d 3e 4a fb 91 bd c8 c4 9d 3e e3 1f f9 bd
       0.18458314 -0.07128008 0.30814195 -0.12164285
0000b0 61 5d 8d be 54 9d 7d 3e 5e d4 f1 bb 42 4e dd 3d
       -0.27610305 0.24767047 -0.0073800525 0.10805942
0000c0 d3 f4 5a bd ca c9 a3 3e bc 2c 26 3c 7c 04 2f 3d
       -0.05345614 0.3198989 0.010142501 0.042728886
0000d0 3c 72 8e 3d ca 01 1f bd f1 e4 6d 3d 40 a7 01 3e
       0.06955382 -0.038820066 0.058079664 0.12661457
0000e0 b6 48 1f 3d 0e 9f 50 3d cd 51 a7 3d d6 20 41 be
       0.038887702 0.050932936 0.08169899 -0.18860182
0000f0 91 62 62 3e ae 40 8f 3e 35 94 62 3e ee 8c 7b 3e
       0.22107913 0.27979034 0.22126849 0.24565479
000100 95 e7 23 be 3c f0 6b be 9d d2 23 3e 35 30 8a be
       -0.1600631 -0.23040861 0.15998311 -0.26989904
000110 82 70 c6 3d e9 34 83 3e a7 40 62 3e 99 f3 e2 3d
       0.09689428 0.25626305 0.22094975 0.11081619
000120 a8 69 d9 3d f0 1b 80 be a2 b9 06 be 28 b7 8a be
       0.106158555 -0.25021315 -0.13156751 -0.27092862
000130 6f 04 15 be eb 04 2e be fd ae 0f be 77 a0 ed bd
       -0.14552473 -0.16994064 -0.14031596 -0.11602872
000140 01 81 d9 bc 30 17 5d 3e 19 2a 3f bd 83 80 38 3e
       -0.026550772 0.21590877 -0.046671007 0.18017773
000150 51 a2 4c be b8 0f 0f 3d 7b 07 88 be cd 48 5a be
       -0.19983794 0.0349271 -0.26568207 -0.21316834
000160 05 75 7c 3e 10 c9 93 3e 65 ae c6 3d ee 47 41 3e
       0.24654014 0.28864336 0.09701232 0.18875095
000170 a1 0d 66 be ea 92 19 3e c2 db 72 3e 33 2c 03 be
       -0.22466137 0.1499745 0.23716643 -0.1280983
000180 90 e0 27 be 4d 63 f7 bd e6 ca 12 3d 3d 61 29 be
       -0.16394258 -0.12079487 0.03583803 -0.16541
000190 3b cd 98 be db c9 91 be d7 3a e6 3d 11 75 0b 3e
       -0.29844078 -0.28474316 0.112416916 0.13618876
0001a0 46 a5 83 3e 16 de 9f 3d 19 a5 e3 bd b2 92 b4 3d
       0.2571203 0.078060314 -0.11115474 0.088170424
0001b0 88 5e 4b 3d db 05 85 3e 37 f0 72 be 16 63 7a 3e
       0.0496507 0.2598103 -0.23724447 0.24451861
0001c0 a2 2f 49 3d fd 15 0c be 24 da 35 be 33 26 80 be
       0.04911769 -0.13680263 -0.17758995 -0.25029144
0001d0 e5 88 01 be a3 26 f6 bb 01 ca 41 3e ac 0b a3 bb
       -0.12649877 -0.00751193 0.18924715 -0.0049757566
0001e0 95 8f 79 3e 79 b0 8f be c4 d7 4f 3e 9d 46 7d 3e
       0.24371178 -0.28064325 0.20297152 0.24733968
0001f0 e2 28 4a 3d fa 63 e6 3d 31 26 2d be 1f 8f 92 3e
       0.049355395 0.11249538 -0.169091 0.28624818
000200 6b 2a 3b bd e8 e1 10 3e 8e 37 26 3d 49 de 66 be
       -0.04569475 0.14148676 0.040580325 -0.22545733
000210 d4 2c e9 bc 5c d7 eb bd f4 77 73 3e 36 44 a3 be
       -0.028463759 -0.11515686 0.23776227 -0.31887978
000220 40 85 77 3e 7a 51 16 3e a7 24 66 3e d7 31 3b bd
       0.24171925 0.14679518 0.2247492 -0.045701828
000230 14 01 31 be f4 bc 3c 3d 5a 1a 55 3d ce 31 3f be
       -0.17285568 0.046078637 0.052027084 -0.18671343
000240 09 a7 0f be 1d c0 f9 bd 31 ab 52 be e2 5e 1a 3e
       -0.14028563 -0.12194846 -0.20573117 0.15075257
000250 69 a2 5a bd e8 e1 20 3e b1 30 48 be df 0e 86 be
       -0.053377543 0.15711176 -0.19549824 -0.2618322
000260 17 7e dc 3d 07 e0 05 3e f6 61 1e be fc 2a 80 bd
       0.10766237 0.13073741 -0.15467057 -0.062581986
000270 45 ee f6 3d cc d3 09 be 4f 76 0c 3d 01 74 64 be
       0.12057165 -0.134597 0.034292515 -0.22309877
000280 c2 26 8c 3d 6e 63 db 3d 73 3e ba bd 50 47 b7 3d
       0.0684333 0.10712324 -0.090939425 0.08949149
000290 46 cb d2 3d 2d b3 74 be b3 25 97 bd 30 48 6b be
       0.102926776 -0.23896475 -0.073802374 -0.22976756
0002a0 d0 50 66 be 1c e6 95 3e 77 d1 46 be 15 d5 ff 3d
       -0.22491765 0.29277122 -0.19415842 0.12491814
0002b0 fb 17 89 be 4a 22 82 3e 46 cc 01 3e 41 d2 c7 bd
       -0.26776108 0.25416785 0.1267558 -0.097568996
0002c0 bb b4 ef bd a2 6f fd 3c 76 21 a5 bd 27 8a 6b 3e
       -0.117043935 0.03093702 -0.08063023 0.2300192
0002d0 ae f7 46 be 7e 13 47 be 02 74 69 be d0 eb 19 3e
       -0.1943042 -0.1944103 -0.2279816 0.15031362
0002e0 1c 2e 98 3e 54 dc 09 3d 6f b1 94 bc 8a a0 3a be
       0.2972268 0.033657387 -0.018151013 -0.18225303
0002f0 56 38 ed 3d 42 40 35 3c 77 4d c4 3d 44 4b 24 3d
       0.11583011 0.011062684 0.09585088 0.04011084
000300 c8 3f e6 bd 69 5f 4b 3e 0b b4 07 be 23 8e 10 bd
       -0.11242634 0.19860615 -0.13252275 -0.035291802
000310 ec eb 8d be ae 99 6f be 42 9e 4d bd 58 fc c5 bb
       -0.27719057 -0.23398468 -0.050199755 -0.0060420446
000320 ba cc 32 be 21 2a 82 be c4 54 8d 3e e4 73 2f be
       -0.1746091 -0.25422767 0.27603734 -0.17134053
000330 9c e4 79 be c6 eb c9 3d 96 ae 1c be ab 59 ec 3d
       -0.24403614 0.09859423 -0.15300974 0.1154054
000340 64 f8 0f 3d cd 07 4f bd a2 f0 59 be 83 3b 53 3d
       0.035148993 -0.05054455 -0.212832 0.051570427
000350 3c d2 d9 bd 52 7b 28 3e f4 d1 10 3e 15 f1 3f 3d
       -0.10635802 0.16453293 0.14142591 0.046860773
000360 7e c5 cc 3c 4c e8 52 3e a8 94 a1 3e e1 fc 03 bd
       0.024996515 0.20596427 0.31558728 -0.032223586
000370 fd fb 9c bc 55 eb 36 be c6 f4 53 be da ff 89 bd
       -0.019163126 -0.1786321 -0.20698842 -0.06738253
000380 73 e5 9d 3e 05 ce 68 be 09 3a 93 3e 9d 92 2c 3e
       0.30839118 -0.2273484 0.28755215 0.16852804
000390 ae 15 27 3e 8f ba 7f be b5 2e 8a be 9b 0c 1b 3e
       0.16316864 -0.2497351 -0.2698876 0.15141527
0003a0 76 3a 22 be 95 b2 d8 bd bf 94 9f bd 4b 1b f0 3d
       -0.15842614 -0.10580937 -0.07792043 0.11723956
0003b0 5c 12 1a 3e 7e d8 4b be b2 4f 0f 3e 0f 6a 92 3e
       0.15046066 -0.19906804 0.13995245 0.2859654
0003c0 e1 9b f7 3d 2d 5e 34 be 1d e4 e2 bc 3c fe bd 3d
       0.120902784 -0.1761405 -0.027696664 0.09277007
0003d0 db 25 df 3d 64 4d 53 3e 07 b6 3d bc 45 72 48 be
       0.10895892 0.20634991 -0.011579043 -0.1957484
0003e0 20 74 ed bd e7 ca 92 3e 11 b6 f2 bd 85 77 ef bd
       -0.11594415 0.28670427 -0.11851133 -0.116927184
0003f0 d4 a0 48 be cf 17 8a 3e a2 e2 ce bd 2d 7c 13 3e
       -0.19592601 0.2697129 -0.101018205 0.14402838

weight_hh_l1 f4 [48, 12]
000000 ed f1 67 be 1b 9a 92 bd 10 c8 87 3e e2 49 12 3e
       -0.22650881 -0.071582995 0.26519823 0.14285997
000010 79 7e 28 3d df 3a 42 3e 6b 34 51 3e 85 2e a8 3d
       0.04113624 0.1896777 0.20430152 0.08211998
000020 6d 14 9f bd 9b aa 42 be fe fc 66 be c9 d2 95 3e
       -0.07767568 -0.19010393 -0.22557446 0.2926238
000030 64 bb e1 ba 83 9c 5c be 8d 16 c4 bb 36 5d 97 3e
       -0.0017221984 -0.2154408 -0.0059841336 0.29563302
000040 11 78 00 be f5 cb 6f bc 2e 61 8d 3e f3 81 8d 3e
       -0.12545802 -0.0146360295 0.27613205 0.27638206
000050 f6 df 82 3e 04 d0 3e 3e c8 65 cf bd 0b dd 5e 3e
       0.25561494 0.18634039 -0.10126835 0.21764009
000060 2d ab 84 3e c1 cb 40 3e b6 12 24 3e 57 e3 8b bd
       0.25911847 0.18827726 0.16022763 -0.06830471
000070 e6 7d 57 bc 24 4d 26 3d c7 53 64 3e c4 09 7e 3e
       -0.013152575 0.04060091 0.22297584 0.24808413
000080 b0 94 99 bb fc c8 79 be 1e ab cf bd f8 7e 59 3e
       -0.0046869144 -0.24393076 -0.1014006 0.21239841
000090 6a f4 97 3e 25 aa 74 be f8 f4 1e 3d 89 82 8d be
       0.2967866 -0.2389303 0.03880784 -0.27638653
0000a0 31 90 36 bc 02 7a e6 bc 30 9d 6f be 2c 2e 8e be
       -0.011142776 -0.02813435 -0.23399806 -0.277696
0000b0 4c 19 53 3e 8b bc 56 3e 2d fa 45 be 3f e1 fe 3d
       0.20615119 0.20970361 -0.19333716 0.12445306
0000c0 32 c2 6b be af 85 12 3e 5f 53 1e be 93 b5 e0 bd
       -0.23023298 0.14308809 -0.15461491 -0.109721325
0000d0 0d b0 b5 3d 7a e3 6f 3e ea 2c 97 3d f5 6e 17 3e
       0.0887147 0.23426619 0.073816136 0.1478842
0000e0 70 c7 7c 3e 6f d2 54 bc f1 5c 2f 3e d4 84 4d be
       0.24685454 -0.012989624 0.17125298 -0.20070201
0000f0 10 5f 1e 3e 6b 9b d4 bc ad 0a 81 3e aa 3d 42 3d
       0.15465951 -0.025953015 0.25203457 0.04742209
000100 0a e1 ca bd 68 4d 37 be d6 a2 24 be e0 6f 49 be
       -0.09906204 -0.17900622 -0.16077742 -0.19671583
000110 51 f4 f8 bd 44 64 89 3e e2 26 1c be b5 4f 04 be
       -0.12155975 0.2683431 -0.15249208 -0.12921031
000120 94 44 8d be 91 38 7f 3e 45 1a 65 be 2c 9b 30 be
       -0.27591383 0.24923922 -0.22373302 -0.17246693
000130 66 bf bb 3d 83 df 9c 3e 62 92 6e be 57 93 0d 3e
       0.09167366 0.30639276 -0.23298028 0.13825737
000140 ce 9e 49 3c f7 68 67 bc 2c 2c 5b 3e 7f fa 0b be
       0.012305928 -0.014124147 0.21403569 -0.13669775
000150 96 0d 20 be be de 61 3e e6 a2 77 be 3f b9 96 3d
       -0.15630183 0.22057626 -0.24183235 0.07359552
000160 be 2f 5b 3d 0a a4 04 3e 1b dd 03 3e 27 24 9e be
       0.053512327 0.12953201 0.12877314 -0.30886957
000170 4e 11 59 3d 6a f7 fb 3c bb 4d 9b b9 c9 32 8b 3d
       0.05299502 0.030757625 -0.00029621818 0.06796796
000180 75 92 08 3e 19 88 a0 bd 1c c9 0c be 7e 54 1c 3e
       0.13337119 -0.078384586 -0.13748592 0.15266606
000190 9a 1a 87 3d 9a 35 e4 3d 56 9c bb 3d cc 72 7d be
       0.06596871 0.11143036 0.09160678 -0.24750823
0001a0 98 a9 a4 3d 2f 50 6a 3e ba 60 66 be e6 79 38 be
       0.0804016 0.2288215 -0.22497836 -0.1801525
0001b0 79 b7 3b be 25 ea 84 be 9b 45 15 be 66 a9 94 3d
       -0.18331708 -0.25959888 -0.14577334 0.07258873
0001c0 82 1b 8a be 18 12 6e 3e 1a 44 07 be 0f c3 6c be
       -0.26974112 0.2324909 -0.13209572 -0.23121284
0001d0 fb 92 6c be c9 8f f0 3d 54 63 3d be 18 77 c9 3d
       -0.23102944 0.11746175 -0.18494922 0.098371685
0001e0 4c ee c6 3d b9 86 96 3e 54 61 03 3e 97 a3 9c be
       0.0971342 0.2939966 0.12830096 -0.3059356
0001f0 6d 48 3d be 7f 9e 37 3e 36 3b a9 3d 8f fe 0a be
       -0.1848466 0.17931555 0.08263247 -0.13573669
000200 84 d3 1b 3e aa 27 2c 3e 98 45 c3 bc 9e 6b 7b 3e
       0.15217406 0.16812006 -0.023836896 0.24552771
000210 52 b7 1e be 66 75 4c 3e 53 de 3f 3d 9c 10 52 3e
       -0.15499619 0.19966659 0.046842884 0.20514148
000220 b1 5a 8c 3c b5 7e 49 3e b6 7d c9 3d 99 a6 04 bd
       0.017133089 0.19677241 0.098384306 -0.032385442
000230 99 ca 95 3e 7e 90 fd bd 73 6e 25 3d c5 aa a0 3e
       0.29256132 -0.12381075 0.040388536 0.31380287
000240 10 e3 54 be 93 da db 3c 9d a5 60 be c7 e1 cc 3d
       -0.20789742 0.026837623 -0.21938176 0.10004001
000250 28 cc 2c be 91 9f 1c be 49 02 8a 3e 53 63 44 be
       -0.16874754 -0.15295245 0.26954868 -0.19178514
000260 69 94 44 be 81 65 62 3e 8f a3 3e 3d 67 76 4a 3e
       -0.19197239 0.22109033 0.0465427 0.1977173
000270 5a 97 84 be 45 59 20 be a0 bb 40 3e b8 8a 10 bd
       -0.25896722 -0.15659054 0.18821573 -0.035288543
000280 27 41 54 3e 53 41 15 bc 3a 97 9b bd 9c 85 92 3e
       0.20727979 -0.009109813 -0.075972036 0.2861756
000290 65 db 60 be d4 d9 13 be 5b 3b a3 3d f3 8e 8e 3e
       -0.21958692 -0.14438564 0.079703055 0.27843437
0002a0 df b2 97 be 24 70 44 bb 11 3f ce 3d c2 ed 68 bc
       -0.29628655 -0.0029974068 0.10070623 -0.014216842
0002b0 6a 47 94 3b 07 8b 2a be fa 43 5e be fc 0b c1 bd
       0.004525115 -0.16654597 -0.21705619 -0.09426114
0002c0 34 ee 71 3e a1 06 19 3d df aa 85 be 51 b9 80 be
       0.23626024 0.037359837 -0.26106927 -0.25141385
0002d0 94 74 80 be d0 e6 64 be cc 2a 88 be 4c 3e 8b be
       -0.25088942 -0.22353673 -0.2659515 -0.27195966
0002e0 63 b8 75 3e c1 c0 94 3d 68 47 16 3d de c4 aa bd
       0.23996119 0.072633274 0.036689192 -0.08338331
0002f0 80 8a 21 be 1d 0d 72 be 61 59 68 be 03 ba 66 be
       -0.1577549 -0.23637815 -0.22690345 -0.22531895
000300 40 64 3a 3e 68 cf 18 be e0 3b 05 bb 78 19 4e be
       0.18202305 -0.14922869 -0.0020329878 -0.20126903
000310 a9 54 82 bd 67 ee 9c bd de 58 ce bd 66 20 7d be
       -0.06363804 -0.07662659 -0.10075544 -0.2471939
000320 0e 3e 5a 3d 61 84 74 3d 0f 2a 08 3e 88 55 10 3e
       0.053281836 0.05969656 0.13297294 0.14095128
000330 45 43 70 3e 99 34 b8 3d 5f 78 14 3e 2f 72 85 3e
       0.23463161 0.08994407 0.14499043 0.26063678
000340 2b 41 96 bd 0d a4 23 3e 65 dd c3 3d a8 ef 21 3e
       -0.073366486 0.15980549 0.09563712 0.15814078
000350 42 96 55 bd d5 f0 d3 3d 7f c3 5a bd b4 da 8a 3e
       -0.05214525 0.103486694 -0.053409096 0.27119982
000360 1d 1a 80 3e 7f 85 36 3e 70 24 ce 3d 42 ba f1 bd
       0.25019923 0.17824362 0.10065544 -0.11803104
000370 c6 42 de bd 71 7d 1b be a5 db 25 3e 75 41 10 3c
       -0.1085258 -0.15184571 0.16197069 0.008804669
000380 34 81 8a 3d f9 d4 8b 3e 23 e8 59 3c 70 eb 39 3d
       0.06762925 0.27310923 0.013299975 0.045390546
000390 66 d5 ac 3d b6 80 e5 3d 2b 22 15 3e 82 d7 9e be
       0.0843914 0.1120619 0.14563815 -0.31023794
0003a0 f9 79 9e bd 11 67 19 bc 10 9e 08 bd 6d d3 cc 3d
       -0.07738108 -0.009362952 -0.033353865 0.10001264
0003b0 13 e0 0d 3e e7 b9 ae bd 38 2a 34 3e 36 c9 2d 3e
       0.13855009 -0.08531552 0.1759423 0.16971287
0003c0 3b 39 16 3e 48 87 0c be f3 c4 90 be 33 1a e6 bc
       0.14670269 -0.1372348 -0.2827526 -0.028088665
0003d0 30 01 8f 3e e9 57 9c 3e 8e 2c 86 bc f1 fd f8 3b
       0.27930593 0.3053582 -0.016378667 0.0075986315
0003e0 85 10 9c 3e 2a 8b 2a be 6f b4 2c bd 35 60 78 be
       0.30481353 -0.1665465 -0.042164262 -0.2425545
0003f0 d0 bc 19 be 20 0b 61 be 84 f8 6d be a0 07 80 3e
       -0.15013433 -0.219769 -0.23239332 0.25005817

bias_ih_l1 f4 [48]
000000 eb 91 87 be 10 9c c2 3d 47 d3 bb 3b 84 28 6a be
       -0.26478514 0.09502423 0.0057319733 -0.22867018
000010 95 ef 48 3e 90 78 6d bc 98 30 2e be 14 14 86 be
       0.19622643 -0.014494076 -0.17010725 -0.26187193
000020 dd 5c 5f 3e 72 95 51 3e b2 8e 1a 3d f9 4e 63 3e
       0.21812768 0.20467165 0.03773374 0.22198094
000030 64 92 51 3e a6 7f 77 bd e7 29 0b bc e8 32 72 bd
       0.20466 -0.06042447 -0.008493877 -0.05913058
000040 2a 04 28 3e a3 9e 8e 3d 85 49 0e be e1 0d 4e 3e
       0.16407838 0.06963851 -0.13895233 0.20122482
000050 08 31 8f 3e ab 23 09 be d5 fc 66 be da 13 2c bd
       0.27967095 -0.13392513 -0.22557385 -0.04201112
000060 96 35 84 be a5 54 a0 bd 54 78 33 be 8b 0a df 3d
       -0.25822133 -0.07828645 -0.1752637 0.10890683
000070 07 a0 fc 3d 80 c6 30 3e cd 4b 17 3d f1 c0 4f 3d
       0.1233521 0.17263222 0.036937524 0.050721113
000080 16 86 6c be fe 3d 95 be a9 1f 21 3e 0a ce 88 3d
       -0.23098025 -0.2914886 0.15734734 0.06679924
000090 20 b9 8b bd 23 c0 16 bc ac 46 1a 3e ab 88 37 3e
       -0.06822419 -0.009201082 0.15066022 0.17923228
0000a0 da ea 98 bd b7 68 7a 3d af b9 34 be 47 02 92 bd
       -0.074666694 0.06113502 -0.17648958 -0.071293406
0000b0 50 2c cc 3d b5 46 3a 3e 5b 1b 86 be 84 8e 9a 3c
       0.099693894 0.18191035 -0.26192746 0.018866785

bias_hh_l1 f4 [48]
000000 8f 4e ea bd ba 5e 4b 3e 58 e6 09 3e 6f e9 d5 bc
       -0.11440765 0.19860354 0.13466775 -0.026112286
000010 fa e9 4f 3e 15 42 03 3e 58 1e 49 bd de 79 66 3e
       0.20304099 0.12818177 -0.049101204 0.22507426
000020 42 4c 16 3e 0d bc 38 be b6 66 84 be cc 56 8c 3e
       0.14677528 -0.18040486 -0.25859612 0.2740997
000030 1b d8 44 3e e5 07 27 3e 46 a8 80 be a9 58 ce 3d
       0.19223063 0.16311605 -0.25128382 0.10075504
000040 e6 8c 03 3e b8 a6 5c 3d 5e 38 a1 3d 2d 6a 22 be
       0.12846717 0.053869933 0.07872079 -0.15860815
000050 6d 70 79 be c2 d7 b0 bd c9 00 8e 3c 19 c2 72 be
       -0.24359293 -0.086349025 0.017334359 -0.23706855
000060 cf e9 61 3d f9 e3 40 bc 73 c6 28 be d5 71 19 3e
       0.055154618 -0.011773103 -0.16481952 0.1498483
000070 43 eb 80 3e ae d5 a2 bd 5c 73 90 3e 1a 45 2b 3e
       0.2517949 -0.079509124 0.28213012 0.16725579
000080 be bc 68 3e cc 4c 37 3e 74 dc 50 be d8 05 6d 3e
       0.2272825 0.1790039 -0.20396596 0.2314676
000090 90 45 60 be 51 18 57 3e 3f e9 de bd 3a 7c 7a 3e
       -0.21901536 0.2100537 -0.10884332 0.24461451
0000a0 e7 ca 41 be 06 c7 f2 3d 39 a4 bc bd 54 c7 13 be
       -0.18925057 0.11854367 -0.092110105 -0.14431506
0000b0 5b 39 9d 3e b5 b0 8e 3c 3c 07 75 be 38 98 a0 3e
       0.3070782 0.017418245 -0.23928541 0.31366134

weight f4 [128, 12]
000000 ca 4b ba 3d bb 4e 61 3e 25 24 31 bd 1e 0c b0 3c
       0.09096487 0.2200269 -0.04324736 0.021490153
000010 50 0a 08 be 58 a8 a1 3d 42 3e af 3d 94 d9 90 bd
       -0.13285184 0.07893437 0.085567966 -0.0707275
000020 e5 53 3f bd 65 ff 24 be 86 71 30 3e 79 37 d1 bd
       -0.046710867 -0.1611305 0.17230806 -0.10215659
000030 ce c7 d6 bd 97 a3 5c 3c 97 39 2a bd ae e3 84 be
       -0.104873285 0.013466737 -0.04155883 -0.25954956
000040 70 2e 6a bc b3 e9 74 bd 1c 35 24 be 09 62 ce bd
       -0.014293298 -0.059793185 -0.16035885 -0.100772925
000050 d8 f1 67 3e a7 06 cc bd 52 f0 c9 3d e4 79 03 be
       0.2265085 -0.09962206 0.098602906 -0.12839466
000060 6d e4 e6 bd 23 47 43 be 4a 2b 66 bd f0 aa b8 3a
       -0.112740375 -0.19070105 -0.056193627 0.0014089029
000070 1e b5 00 3d 1f 30 03 3e fc 2b ee 3d e6 24 90 be
       0.031422727 0.12811325 0.11629483 -0.2815315
000080 8d e0 cc 3d f4 28 0a 3d 59 30 1c be 3f c2 1c 3e
       0.10003767 0.033730462 -0.15252818 0.15308474
000090 d1 d8 4e be 46 71 9d 3d 90 3d 90 3d 12 d3 ee bd
       -0.20199896 0.07687621 0.07042992 -0.11661352
0000a0 90 92 99 3d fd 04 1b be 94 ad 5b 3d 9b 65 40 3e
       0.07498658 -0.15138622 0.053632334 0.1878876
0000b0 03 da 9f 3a b8 1a 16 bd 91 a1 5b bb 87 dd 57 be
       0.001219571 -0.036646575 -0.003351305 -0.210806
0000c0 fd 80 cb bd ae 11 9f be be 81 8b 3d 9d ca fe bd
       -0.09936712 -0.31068176 0.06811856 -0.12440989
0000d0 ed 0d dd 3d 80 83 7b 3e ec 14 0a be 8a 53 30 be
       0.10793672 0.24561882 -0.13484544 -0.17219368
0000e0 05 6d 77 3e c4 ce d9 bc 1c 8d 4b 3e c1 3b ff b9
       0.24162681 -0.026587851 0.19878048 -0.0004868191
0000f0 38 de 8f bd 09 47 86 3e d5 4f 89 3e 2c d2 77 3e
       -0.07024807 0.2622607 0.2681872 0.24201268
000100 d4 07 05 be d9 c1 4d 3e 66 e0 59 be 2f ca 15 be
       -0.12991267 0.20093478 -0.21277007 -0.14627908
000110 3f 8a d7 3b b2 2b 9c be 77 ec b9 3c 56 aa 9d bd
       0.0065777595 -0.30502087 0.022695763 -0.076985046
000120 d3 06 c4 bd 1e 09 98 3e d9 3c 1e 3d a5 d5 ba 3d
       -0.09571614 0.29694456 0.038632248 0.09122781
000130 40 2f 82 be ad e5 9c be 57 7f 6a 3e ad d6 d0 bd
       -0.25426674 -0.3064398 0.22900139 -0.10197196
000140 5b 12 61 3e 73 2e 0e 3e 28 fe 7a be 48 29 a3 3c
       0.21979658 0.13884906 -0.24511015 0.019917145
000150 89 7b 3e 3e 64 53 15 3e b7 6a 4e 3e 62 0f 68 be
       0.18601812 0.14582592 0.20157896 -0.22662118
000160 0d 14 46 3e fc d3 eb 3d c2 f4 92 3e 5a 9e a1 bd
       0.19343586 0.11515042 0.2870236 -0.07891531
000170 a2 41 1d be e4 da a9 3c 0f 29 bf 3d b5 4e a8 3d
       -0.15357068 0.020734258 0.09334003 0.08218137
000180 2e 2a 44 3e 07 15 9f 3e b0 12 5b be c6 2d 3e bd
       0.19156715 0.3107073 -0.21393847 -0.04643037
000190 7b 33 1a 3e 46 4c d8 3c fc 30 f2 bd e9 c9 93 3d
       0.150587 0.026403558 -0.11825749 0.07216246
0001a0 df a8 9e be 1b 43 12 3d 56 77 70 be a0 e5 89 be
       -0.30988213 0.035708528 -0.23483023 -0.26933002
0001b0 03 7d 94 3e 1a 5b 5e 3e 7d 7e 52 3e cd b3 9a bc
       0.29001626 0.2171444 0.20556064 -0.018884564
0001c0 35 ba 81 3d 63 3a 65 3e 20 97 c9 bd 07 35 2b bd
       0.06334344 0.22385554 -0.09843278 -0.041798618
0001d0 0a 66 af bd 56 2f 53 be c5 0d 92 bc 22 f4 c3 bd
       -0.08564384 -0.20623526 -0.017828831 -0.09568049
0001e0 a7 fd 6c be 24 58 59 be dd a8 7c be b9 16 9d 3d
       -0.23143636 -0.21225029 -0.24673791 0.0767035
0001f0 9a 79 97 3e c8 0d 69 bc b4 b0 51 3e 94 43 53 3d
       0.29584962 -0.014224477 0.20477563 0.05157812
000200 70 fe 56 3e c3 25 4d 3d 1d 2e 8a 3d 54 f2 cb 3c
       0.20995498 0.05008484 0.06747077 0.024895824
000210 de 6f f7 bd 0a b9 24 be 5d 38 e9 3c c9 92 80 3e
       -0.12081884 -0.16086212 0.028469259 0.25111988
000220 3c d1 78 bd 1c 1f 83 3e 0d f9 09 be 08 2d 95 3e
       -0.060746416 0.25609672 -0.13473912 0.2913592
000230 31 e1 8e 3e 05 a1 61 bd ac e7 19 3e 50 af 7c be
       0.27906182 -0.0550852 0.15029782 -0.24676251
000240 92 e2 58 be 78 d5 88 bd 76 b2 84 be cf 9a 7e be
       -0.2118018 -0.06681341 -0.25917405 -0.24863742
000250 18 26 12 3e 2f 38 8e 3d 7b e5 83 3d e4 47 17 be
       0.14272344 0.0694431 0.06440254 -0.14773518
000260 72 35 8d 3d 90 ca 38 bd cb 95 56 3c d7 34 83 3e
       0.068949595 -0.045115054 0.013097237 0.2562625
000270 2f 5d 06 be f3 54 89 3e 14 ac cc bc bc d5 4c 3e
       -0.13121484 0.26822624 -0.024984397 0.20003408
000280 0c 14 7e be 9e 0e 52 3e 66 da 80 3e 56 92 d3 bd
       -0.24812335 0.20513389 0.25166625 -0.10330646
000290 b1 1d 92 3d 44 a3 28 3e 96 3b 3e 3d dc 12 81 be
       0.071345694 0.16468531 0.046443544 -0.252097
0002a0 a9 d5 08 be 2a 94 37 3e 13 44 6c 3e 3c bf 62 3e
       -0.13362755 0.17927614 0.23072843 0.22143263
0002b0 43 56 2f 3e a7 ac 88 be c0 99 1c be ac c6 17 be
       0.1712275 -0.26694223 -0.15293026 -0.14821881
0002c0 1c 0c e0 bd 8b 27 8f 3e f1 8b 2c 3e 40 45 ce 3c
       -0.1093981 0.27959856 0.16850258 0.025179505
0002d0 5e b5 5e 3d 8f e1 0a 3e 7e 5b 3c 3e ca c8 12 3e
       0.054372184 0.13562606 0.18394276 0.14334407
0002e0 84 81 d8 3c 1d 67 6c 3d ab c5 ab 3d e5 ab 57 be
       0.026428945 0.057715524 0.083873115 -0.21061666
0002f0 13 e5 92 3d 30 78 44 3d f1 81 a5 bd 4c 0a 25 bc
       0.07172599 0.047966182 -0.08081425 -0.010073256
000300 7b 01 96 3e b5 fa ae 3d 22 d7 fd bd 78 1e bf 3c
       0.29298005 0.08543912 -0.12394549 0.023329958
000310 ad 00 22 3e 5b d0 19 be ab 6e 65 3d b4 6d 00 bd
       0.1582057 -0.15020888 0.056013744 -0.03135462
000320 76 e0 7b 3e 21 e2 10 be 98 f4 16 3d e7 70 44 be
       0.24597344 -0.14148761 0.036854357 -0.19183694
000330 f4 4b 9c be 6b 4c 9c be 51 7e 9e 3d b0 e3 9c 3e
       -0.30526698 -0.30527052 0.07738937 0.30642462
000340 3d 78 56 3e 22 a4 a4 bd 99 7b 3f bd 11 fd 44 3e
       0.20944305 -0.08039118 -0.04674873 0.19237162
000350 e0 4a ec 3d 37 c2 7f 3e ce 74 a8 3d e2 c8 20 bc
       0.11537719 0.24976431 0.08225404 -0.009813519
000360 af 1a 0f be e6 6f cd 3d 20 b5 1b 3e 9e 01 0b 3e
       -0.13975023 0.100311086 0.15205812 0.13574836
000370 19 b8 87 be 8d ed 8e be 80 2a 3e 3e 4b 31 5b 3e
       -0.26507643 -0.27915612 0.185709 0.21405523
000380 34 d0 82 39 2a ae 4e be ba 5f 8c 3d 0c a1 eb 3d
       0.00024950656 -0.20183626 0.06854196 0.11505327
000390 d4 80 bf bd b2 b3 4f 3e ce c4 78 3e a4 8b 8f be
       -0.09350744 0.20283392 0.24293825 -0.28036225
0003a0 dc 00 7d be 53 d5 5a 3e 83 f7 1f 3e 8a 27 da bd
       -0.24707359 0.21370439 0.15621762 -0.10652073
0003b0 f5 b0 ba bd f8 88 2d 3d 27 27 63 be fb d3 8f 3d
       -0.09115783 0.04236695 -0.22182904 0.07022854
0003c0 35 b9 6b be 94 02 ed bb 10 a0 ab 3d cb 6f 08 be
       -0.2301987 -0.0072329734 0.08380139 -0.13323896
0003d0 12 65 2e 3e 9f 35 3a be 05 e1 53 3e 39 b2 6e bd
       0.17030743 -0.18184517 0.20691307 -0.058275435
0003e0 13 20 f5 3a bb ab 44 3e 79 cb b7 bd ae 50 07 3e
       0.0018701575 0.19206135 -0.08974356 0.1321437
0003f0 1f e3 16 3d d9 b3 98 3b 6e 98 40 3e d4 c5 13 3e
       0.036837693 0.0046601114 0.18808147 0.14430934

bias f4 [128]
000000 16 54 87 bc 11 2e 7c 3e b5 ac f7 3d f3 dd 06 be
       -0.016519587 0.24626948 0.12093488 -0.13170604
000010 6b 58 2c 3e 2f df 92 be c7 5f da bd 69 5e 35 3e
       0.16830604 -0.286859 -0.10662799 0.17711796
000020 0a 11 55 be e3 02 ee 3d 96 5d ff bd 61 bc 0b 3b
       -0.20807281 0.11621644 -0.12469022 0.0021322
000030 1a db f1 3d b2 95 9e bd c8 51 85 3e 43 b6 11 be
       0.118093684 -0.07743396 0.26038957 -0.14229684
000040 70 ef 68 3e 1f 41 64 3e df a5 66 bd 8a 9d 9b be
       0.22747588 0.22290467 -0.05631053 -0.3039363
000050 73 b9 80 3d bb bd 87 be 34 41 8e bd f7 15 98 3e
       0.06285372 -0.2651194 -0.0694603 0.29704258
000060 6e 8c aa 3d 9c 62 62 3d 9c 47 80 be 5c 9b 3c bd
       0.08327566 0.055269822 -0.25054634 -0.0460466
000070 74 9c 12 be 8d 98 41 3e c2 dc bb 3d 51 4d e5 3d
       -0.14317495 0.1890585 0.091729656 0.111963876
000080 b6 00 50 bd 66 40 18 3e 30 81 8c bc 8b 9b 84 be
       -0.050781928 0.14868316 -0.017151445 -0.2589992
000090 74 af 46 be 5c 83 65 bc 76 17 56 3e d8 4d 8b 3e
       -0.19402868 -0.014008369 0.20907387 0.27207828
0000a0 5f 5a 41 3d 77 bb 3e 3c ab b9 1b 3e 98 0b 89 3b
       0.047205325 0.011641375 0.15207545 0.0041822903
0000b0 8b 6b f0 bd 35 3c 67 be 37 79 8d 3e f9 6f 46 be
       -0.11739262 -0.22581561 0.27631542 -0.19378652
0000c0 f9 69 7b 3c dd b7 74 be 67 0f 1d be 62 c1 83 3c
       0.01534509 -0.23898263 -0.15337907 0.016083423
0000d0 bf 24 1b 3c a3 e2 b5 3d f2 f4 2a 3e c5 1a 86 3e
       0.00946921 0.08881118 0.16695002 0.261923
0000e0 be e6 44 be b8 92 85 be 4a ec 0f 3d 7d 44 51 3e
       -0.19228646 -0.260885 0.035137452 0.20436282
0000f0 6b 0c 86 3e ce 66 97 3e 36 04 89 3e f1 28 9e 3e
       0.2618135 0.2957062 0.26761025 0.3089061
000100 ae 91 1e 3e bd c6 40 3e bf 63 a1 3e 96 8b 7b be
       0.1548526 0.18825813 0.31521413 -0.24564967
000110 34 16 99 be df 65 51 be 7e 23 e8 bd 11 d1 83 3e
       -0.29899752 -0.20449017 -0.113348946 0.25745443
000120 9c 1c 86 be 9b 7c 82 be 31 c4 88 be d2 39 00 3d
       -0.26193702 -0.2548569 -0.26712182 0.03130514
000130 ef 53 42 3e 7b 5d c5 bd 43 ae 76 3e 2d b0 33 3e
       0.1897733 -0.096369706 0.24089913 0.17547674
000140 ec 8e 4e 3e 79 3f 7c be af 08 87 be a4 1b 34 3e
       0.20171708 -0.24633588 -0.26373813 0.17588669
000150 f9 40 10 3e fc d7 5a be d0 7b 4c 3d 97 53 25 be
       0.14087285 -0.21371454 0.049922764 -0.16145168
000160 b9 e1 08 bd b8 7b 52 3e d4 19 37 3e 87 1a 48 be
       -0.03341839 0.20555007 0.17880946 -0.1954137
000170 5c 90 8b 3e bd 92 05 bd 29 1a 43 3e b7 57 50 bd
       0.27258575 -0.032610644 0.19052948 -0.0508649
000180 c0 d2 c3 3d 4b c4 a6 bb e2 ea a9 3d cf 3b 8b be
       0.09561682 -0.005089318 0.082967535 -0.27194068
000190 3a c6 cc 3d fd f5 87 3d 4c b1 93 be bd 1f 5d be
       0.09998746 0.066387154 -0.28846204 -0.21594138
0001a0 5c 39 dc bd 94 6a 9f bd 91 7c 9d be 2b 35 6c be
       -0.10753128 -0.07784 -0.307591 -0.23067157
0001b0 4f ec 29 3e 15 ee 26 3e 9c 0e 3c be 0b b1 4f 3e
       0.16594051 0.16301759 -0.18364948 0.2028238
0001c0 7f cd c5 bc 9c 8e 9f 3e 91 92 92 3d 38 e0 2a be
       -0.02414584 0.3116349 0.071568616 -0.16687095
0001d0 6c e6 48 3e 85 e3 a5 bc 16 4d a5 3d d2 84 cd bd
       0.19619149 -0.020250091 0.080713436 -0.10035099
0001e0 51 6a 97 bd 48 5a 86 bd d9 93 43 3e 80 ca 97 be
       -0.07393325 -0.065601885 0.19099368 -0.29646683
0001f0 f9 01 eb bc 32 07 9f 3d 06 bd 83 be 9b 29 48 3e
       -0.028687464 0.07765044 -0.2573015 0.19547121
