models/recomendation_models/scripted_user_preference_model_v11_8_dim_really_good.pt (torch, 251424 bytes, 14 tensors)

hidden f4 [2, 1, 32]
0.11462195 -0.31372175 -0.20498553 0.14786077 -0.27851328 0.24580826 0.22364946 -0.35687163
0.19519937 0.32791817 -0.10994627 -0.1516723 0.17941526 0.0040875464 -0.25020993 -0.15007178
-0.21629417 -0.3289421 0.03168802 -0.2318494 0.06555604 0.10359823 0.20370695 0.04698029
0.098465726 -0.045144573 0.18178435 0.031971447 0.011657908 -0.026430693 -0.13082953 -0.075459525
0.2292068 -0.023671063 0.21622308 0.041761007 -0.22783579 0.36919275 0.22498389 0.15107541
0.18552692 0.18533403 -0.14422145 -0.20569347 -0.022467693 -0.086128175 -0.21577641 -0.25400102
-0.26851156 0.2819384 0.024212653 0.17288598 -0.26562145 0.040535573 0.21145502 0.17382692
-0.15506887 0.11921467 -0.052908897 0.01748786 0.09210946 -0.08928409 -0.19688694 0.19668296
00000000: eabe ea3d 23a0 a0be bae7 51be d068 173e
00000010: 4b99 8ebe 29b5 7b3e 5d04 653e e1b7 b6be
00000020: 58e2 473e e4e4 a73e 832b e1bd fc4f 1bbe
00000030: a2b8 373e d3f0 853b 841b 80be 6bac 19be
00000040: 387c 5dbe 196b a8be 4ccb 013d ee69 6dbe
00000050: 3f42 863d 4f2b d43d 8e98 503e 686e 403d
00000060: 66a8 c93d 84e9 38bd ad25 3a3e 7ef4 023d
00000070: cf00 3f3c 2e85 d8bc 2df8 05be 868a 9abd
00000080: 30b5 6a3e d1e9 c1bc 9569 5d3e 970d 2b3d
00000090: c94d 69be d506 bd3e 2d62 663e 83b3 1a3e
000000a0: c5fa 3d3e 34c8 3d3e caae 13be 4fa1 52be
000000b0: 2b0e b8bc f863 b0bd 7ef4 5cbe 6c0c 82be
000000c0: 597a 89be 3b5a 903e 9d59 c63c 0609 313e
000000d0: 89ff 87be a108 263d aa87 583e afff 313e
000000e0: 60ca 1ebe d226 f43d 00b7 58bd b342 8f3c
000000f0: e2a3 bc3d 94da b6bd bb9c 49be 4267 493e

hidden f4 [2, 1, 32]
0.2656574 -0.61197674 -0.32216367 0.28430787 -0.49424788 0.54896617 0.4528433 -0.61468023
0.33947313 0.58700144 -0.20478243 -0.36134344 0.28378612 0.010588644 -0.5144611 -0.32020822
-0.45752624 -0.8543163 0.05074259 -0.45506856 0.16991353 0.21231343 0.51027197 0.084113024
0.20304632 -0.12589534 0.3512529 0.07700714 0.02260279 -0.06257944 -0.22714718 -0.12058613
0.50032794 -0.04202732 0.4010344 0.082205914 -0.4348687 0.76287764 0.4297681 0.3777717
0.40038842 0.38804495 -0.25059584 -0.38492534 -0.044935547 -0.17820938 -0.4531192 -0.5465139
-0.4837884 0.5934995 0.051681895 0.30770418 -0.69721407 0.07678607 0.4893361 0.3487133
-0.27017936 0.25309134 -0.10106872 0.0363202 0.17428005 -0.19826758 -0.4161159 0.3741815
00000000: 3f04 883e 82aa 1cbf a3f2 a4be cd90 913e
00000010: 0f0e fdbe 0c89 0c3f 14db e73e af5b 1dbf
00000020: 6ccf ad3e ba45 163f 7cb2 51be 0202 b9be
00000030: 6a4c 913e fe7b 2d3c b9b3 03bf 55f2 a3be
00000040: e140 eabe 79b4 5abf 76d7 4f3d bffe e8be
00000050: d0fd 2d3e b168 593e 2fa1 023f 7343 ac3d
00000060: 60eb 4f3e b5ea 00be 6cd7 b33e ebb5 9d3d
00000070: 7c29 b93c a629 80bd 4599 68be dcf5 f6bd
00000080: 7e15 003f d724 2cbd 6254 cd3e 935b a83d
00000090: 1ca7 debe f34b 433f 900a dc3e 4b6b c13e
000000a0: b6ff cc3e d4ad c63e 194e 80be ef14 c5be
000000b0: 560e 38bd 857c 36be 3dff e7be 56e8 0bbf
000000c0: 1db3 f7be 95ef 173f 65b0 533d 678b 9d3e
000000d0: 9f7c 32bf 0442 9d3d 438a fa3e 8d8a b23e
000000e0: f354 8abe 3095 813e 1efd cebd 7dc4 143d
000000f0: 7876 323e a806 4bbe 250d d5be b894 bf3e

weight_ih_l0 f4 [128, 12]
0.10443622 -0.11057334 0.0036074189 -0.053985916 0.059031177 0.03337799 -0.012226265 -0.083083704
-0.1798393 0.012226509 -0.10867164 0.052457787 -0.013729475 -0.057055917 -0.12071073 0.028642338
-0.10011246 -0.08997363 0.02718081 0.16548137 -0.11634312 0.0880472 -0.07457989 0.012001468
0.12633006 -0.03877708 -0.14685886 0.09860543 0.118349664 0.12023121 0.14179349 -0.123150446
-0.07795684 0.13192974 0.14858466 -0.06793066 -0.07686645 -0.1099768 0.067325026 0.10461845
0.048367325 -0.16840988 -0.14299798 -0.047191534 -0.1607175 0.047068108 -0.0626826 -0.12429691
-0.009461503 0.059180476 -0.0039996915 -0.15489434 -0.14596528 -0.17062297 -0.0018739601 0.09910516
0.061773136 0.09856494 -0.07098879 -0.066074654 0.04989434 0.031566568 0.027444903 -0.019352293
-0.053294152 0.053134896 0.008571049 0.18057548 -0.09149074 0.1541732 -0.05167346 0.1527906
0.141789 0.15005825 -0.14828281 0.036905043 -0.15789263 0.011102782 0.0092368005 0.12993973
0.09754559 0.1157455 -0.157119 0.010315804 0.07284837 0.017835492 -0.13286594 0.11097867
-0.113194264 0.1564342 -0.16105756 -0.004413505 -0.15466444 -0.08453295 -0.012107548 0.08967923
-0.11928253 -0.12766238 0.06366966 0.043463316 -0.094755955 0.10696094 -0.04779225 0.051681545
-0.062818475 -0.047174577 0.04445733 -0.08721999 -0.030185157 -0.14141192 0.1498545 0.04590737
0.10290381 0.078860134 -0.18620788 -0.05712032 -0.10571838 -0.050224267 -0.040119443 0.12406935
0.030746605 -0.08425987 -0.1455663 0.10527566 0.062128212 -0.16204827 -0.049534947 0.05634065
0.13004857 0.039397415 -0.007201722 0.12412311 -0.1344185 0.15318918 -0.16482936 0.10541381
0.0042075324 -0.17370105 -0.12836292 -0.095406 0.16015998 0.026825085 -0.0025065134 0.0040581
-0.0076717753 0.15632321 -0.048455365 -0.02351715 -0.034827005 0.05529983 0.022619395 -0.07364949
-0.093685284 0.031165175 0.009088439 -0.075269796 0.10590334 0.038863894 -0.032359924 -0.12821051
-0.10069281 -0.0985765 0.02906133 0.15558484 -0.07184696 -0.07918192 0.13091625 -0.105091274
0.09339189 0.11983292 -0.14771134 -0.13422218 -0.021530963 -0.09270263 -0.045116372 0.014699395
-0.010636601 0.003609858 0.06925373 0.18038538 -0.13216662 -0.16368797 -0.1493478 0.03138657
-0.09398378 0.05197294 -0.16503514 0.15391435 0.18059056 -0.16253449 0.005501697 0.13034202
-0.142516 0.16214067 0.14713892 -0.14997742 0.01658745 0.0037537252 0.14827755 0.12846807
0.0058375914 0.0007516261 0.1428997 0.033136275 -0.094714224 -0.13761155 -0.017364858 0.083323956
-0.032536235 0.047295567 -0.11883999 -0.039922636 0.115816996 0.003818896 0.14763467 0.054794714
0.08721335 -0.09443667 -0.13796382 -0.07812201 -0.04345684 0.09746681 0.082796805 -0.11172487
-0.14899382 -0.091773696 -0.034703642 0.08136358 0.0114859715 -0.06950911 0.16488735 -0.11301572
0.08365398 0.11521099 0.14938922 -0.0006369786 -0.03637273 0.11214032 -0.17028132 -0.07589053
0.06854738 0.023512224 -0.06763854 0.07944694 0.18477078 0.04190979 0.18166924 0.0016153007
-0.08138378 -0.11990418 0.12611586 -0.023757478 -0.015445633 0.13342348 -0.12301328 -0.14269102
00000000: a8e2 d53d 4674 e2bd 726a 6c3b 5620 5dbd
00000010: adca 713d 5cb7 083d ac50 48bc ca27 aabd
00000020: cb27 38be b251 483c 3d8f debd fadd 563d
00000030: 98f1 60bc 77b3 69bd 3037 f7bd 56a3 ea3c
00000040: c307 cdbd 1844 b8bd 4aaa de3c f373 293e
00000050: 4d45 eebd 1752 b43d 57bd 98bd cea1 443c
00000060: ab5c 013e b7d4 1ebd 2b62 16be a5f1 c93d
00000070: 4f61 f23d c83b f63d 5032 113e 4d36 fcbd
00000080: d6a7 9fbd 9718 073e 9426 183e 3b1f 8bbd
00000090: 286c 9dbd 843b e1bd b4e1 893d 3342 d63d
000000a0: d11c 463d a473 2cbe 106e 12be e94b 41bd
000000b0: 2193 24be 7dca 403d bc5f 80bd 618f febd
000000c0: 6b04 1bbc 3a67 723d d80f 83bb 9f9c 1ebe
000000d0: ec77 15be cab7 2ebe ab9f f5ba a5f7 ca3d
000000e0: d405 7d3d 6adc c93d 9262 91bd 2652 87bd
000000f0: 025e 4c3d f24b 013d 22d4 e03c b388 9ebc
00000100: f84a 5abd faa3 593d 966d 0c3c c7e8 383e
00000110: 7f5f bbbd 94df 1d3e 8da7 53bd 2475 1c3e
00000120: 2331 113e dfa8 193e 73d7 17be be29 173d
00000130: 9bae 21be 71e8 353c f355 173c ec0e 053e
00000140: fbc5 c73d fa0b ed3d cee3 20be 9e03 293c
00000150: 8731 953d bd1b 923c 020e 08be c948 e33d
00000160: 65d2 e7bd 4930 203e 46ec 24be 2a9f 90bb
00000170: 5b60 1ebe 9c1f adbd bd5e 46bc bea9 b73d
00000180: 664a f4bd edb9 02be 3d65 823d 9706 323d
00000190: 690f c2bd 560e db3d cec1 43bd 07b0 533d
000001a0: f9a6 80bd 213a 41bd e418 363d 65a0 b2bd
000001b0: dd46 f7bc 49ce 10be 7573 193e 5e09 3c3d
000001c0: 3cbf d23d 6c81 a13d 47ad 3ebe fff6 69bd
000001d0: e182 d8bd f6b7 4dbd 4954 24bd 1218 fe3d
000001e0: 4ee0 fb3c 7090 acbd 550f 15be c49a d73d
000001f0: 277a 7e3d fbef 25be 28e5 4abd 74c5 663d
00000200: 742b 053e 2f5f 213d 6cfc ebbb 4234 fe3d
00000210: 01a5 09be a0dd 1c3e 07c9 28be 32e3 d73d
00000220: 57df 893b b0de 31be 9271 03be 3964 c3bd
00000230: fa00 243e 48c0 db3c 5144 24bb cff9 843b
00000240: 8463 fbbb 3113 203e 2279 46bd 0aa7 c0bc
00000250: c3a6 0ebd 1382 623d 4f4c b93c 8bd5 96bd
00000260: 12de bfbd 1c4e ff3c ade7 143c 0d27 9abd
00000270: dae3 d83d bf2f 1f3d d78b 04bd 9e49 03be
00000280: 0838 cebd 7ae2 c9bd 0712 ee3c a251 1f3e
00000290: 8024 93bd 212a a2bd e90e 063e 183a d7bd
000002a0: 3f44 bf3d f66a f53d a441 17be 8a71 09be
000002b0: b461 b0bc e0da bdbd f2cb 38bd bbd5 703c
000002c0: 2345 2ebc 5e93 6c3b e6d4 8d3d f2b6 383e
000002d0: b056 07be d29d 27be a1ee 18be 348f 003d
000002e0: 917a c0bd 94e1 543d f9fe 28be b99b 1d3e
000002f0: bbec 383e 716f 26be 9447 b43b 6178 053e
00000300: b7ef 11be 3408 263e 96ab 163e ae93 19be
00000310: 67e2 873c 0f01 763b 12d6 173e 228d 033e
00000320: 4449 bf3b c608 453a 4d54 123e e7b9 073d
00000330: 88f9 c1bd 0bea 0cbe bf40 8ebc c0a5 aa3d
00000340: b744 05bd ffb8 413d 6162 f3bd eb85 23bd
00000350: 7631 ed3d 7146 7a3b 8b2d 173e 6c70 603d
00000360: ea9c b23d 0368 c1bd 6346 0dbe 6ffe 9fbd
00000370: cdff 31bd ae9c c73d 5f91 a93d 02d0 e4bd
00000380: d691 18be d9f3 bbbd 6825 0ebd f3a1 a63d
00000390: a82f 3c3c cb5a 8ebd 3bd8 283e c974 e7bd
000003a0: c752 ab3d bdf3 eb3d 7df9 183e e9fa 26ba
000003b0: 92fb 14bd d3a9 e53d 3a5e 2ebe 7f6c 9bbd
000003c0: 9262 8c3d b59c c03c 1386 8abd 14b5 a23d
000003d0: 8d34 3d3e 9aa9 2b3d 8007 3a3e 7fb8 d33a
000003e0: 8aac a6bd 5390 f5bd 8424 013e 0b9f c2bc
000003f0: ae0f 7dbc 2aa0 083e 63ee fbbd 981d 12be

weight_hh_l0 f4 [128, 32]
-0.11072 0.14548858 -0.061514556 0.0051253736 0.008228234 -0.11154663 0.14383183 0.06296096
-0.14352095 -0.036199253 0.08111345 0.042442173 0.12990728 -0.06780473 -0.11622803 0.08981026
0.055200554 -0.062203076 0.116704434 -0.029851332 0.14377858 0.0054129134 -0.12933065 0.08851744
-0.12938231 -0.15694037 -0.047520075 -0.018570732 0.095046 0.05269886 0.11816292 -0.04772766
0.15465052 0.08137472 -0.076807305 -0.0146043785 0.16017516 0.088496946 -0.081622064 -0.15413631
0.1593221 0.04499399 0.054312915 0.112801276 -0.03212758 0.055356868 -0.097795084 0.0011108252
-0.021181457 -0.07121834 -0.092202045 0.15797672 -0.103224166 -0.16879815 0.08789439 0.09537703
-0.018631654 0.13146342 -0.11160177 -0.00045141738 0.0024607272 -0.15459605 -0.09942906 0.041943572
0.10827906 0.07003363 0.13073924 0.04909335 -0.118820384 0.05828005 -0.10639347 -0.045816902
-0.04270053 0.027788691 0.06760609 0.13673337 -0.014849037 -0.06542398 -0.073082745 0.04902403
-0.13787985 -0.13051553 -0.04586023 -0.10164139 -0.15061434 0.11076108 -0.1593048 -0.12925477
0.18732129 -0.16401929 0.11633328 0.0375212 0.14534692 -0.0003298543 0.066367954 -0.15098256
0.108000584 -0.15851192 0.06780292 0.026568638 0.1347824 0.109183915 -0.07062159 -0.09101684
-0.15073611 0.07967434 -0.035402287 0.0810095 0.16655308 0.13870375 -0.057891887 -0.0057862084
0.059944376 0.060612086 -0.17677376 -0.073278435 0.08602865 -0.047758985 0.046595443 0.0954702
0.021169158 0.06327272 0.08485752 -0.1437211 -0.046845384 0.04293268 -0.09168666 -0.055806484
-0.14166656 -0.13656227 0.0060798824 0.0927049 0.09835968 0.007913832 0.015582419 -0.11719004
-0.120620176 0.08877419 -0.12443734 0.13033685 0.114303574 0.17346716 -0.06036 0.024165982
-0.0758309 0.12039293 0.15940072 0.14154816 0.04879788 -0.17286827 0.17198008 0.013656135
-0.020580925 0.0479473 0.092615135 0.0112505425 -0.027462967 -0.17959695 -0.05582026 -0.15978453
-0.14590424 -0.139302 -0.061444316 -0.10963316 0.14057122 0.08456981 -0.11232319 0.03759127
-0.1380014 -0.06621613 -0.023387792 -0.07301232 0.11346467 0.11641078 -0.08944233 0.069512025
-0.08216484 -0.12889981 -0.102824695 -0.14455985 -0.07373265 0.08677574 0.13025427 -0.14641628
-0.13518336 -0.039765254 -0.12581773 -0.08963264 0.10802459 -0.12382387 -0.10799995 -0.18072544
-0.077870205 -0.10422706 0.06518178 0.13301285 -0.03484815 0.13304667 -0.099708386 0.0046358695
0.055231255 -0.15965891 -0.058550037 -0.10065474 -0.13141954 0.007063657 -0.1615689 -0.11346359
0.08035788 0.08816155 -0.16884369 0.09779936 0.088935494 -0.15987009 -0.14518045 0.03914359
0.103533335 0.04239664 0.014262553 0.011470869 0.16752271 0.06636583 -0.1085192 -0.14585961
0.064729616 -0.010038994 0.09842912 0.17227404 -0.10316252 -0.037845083 -0.16306241 -0.16527481
-0.14408764 0.12499963 0.038473252 -0.0012241601 -0.15241149 -0.1554142 -0.14704648 0.1227652
-0.13463928 0.013027541 0.051292285 0.08316237 0.04596208 -0.014239391 0.11889227 -0.040171664
-0.15979674 0.17205808 -0.11644098 0.06693481 -0.0017727248 -0.017605754 0.06691677 -0.09834311
00000000: 2bc1 e2bd f5fa 143e b0f6 7bbd c0f2 a73b
00000010: b7cf 063c 8f72 e4bd a748 133e adf1 803d
00000020: 28f7 12be ab45 14bd cf1e a63d d8d7 2d3d
00000030: 6a06 053e 35dd 8abd f608 eebd 71ee b73d
00000040: fa19 623d a7c8 7ebd bc02 ef3d c88a f4bc
00000050: b13a 133e cf5e b13b 416f 04be a248 b53d
00000060: cc7c 04be fab4 20be 69a4 42bd a621 98bc
00000070: 7aa7 c23d c3da 573d 67ff f13d 147e 43bd
00000080: b55c 1e3e caa7 a63d 264d 9dbd 3447 6fbc
00000090: f504 243e e33d b53d 7829 a7bd e9d5 1dbe
000000a0: 5525 233e 9e4b 383d 3877 5e3d 5b04 e73d
000000b0: 3698 03bd e2bd 623d ca48 c8bd 1c99 913a
000000c0: bc84 adbc ecda 91bd 6dd4 bcbd a6c4 213e
000000d0: 3167 d3bd 6cd9 2cbe f901 b43d 0855 c33d
000000e0: 69a1 98bc 599e 063e 788f e4bd 37ac ecb9
000000f0: 2744 213b 6d4e 1ebe 77a1 cbbd 06cd 2b3d
00000100: 69c1 dd3d cb6d 8f3d 82e0 053e 1c16 493d
00000110: 1a58 f3bd 10b7 6e3d d2e4 d9bd 81aa 3bbd
00000120: c0e6 2ebd 1ca5 e33c 1075 8a3d d503 0c3e
00000130: 6049 73bc 02fd 85bd 68ac 95bd 6ccd 483d
00000140: 6030 0dbe dda5 05be f0d7 3bbd 5c29 d0bd
00000150: a53a 1abe b5d6 e23d cc20 23be 5d5b 04be
00000160: 27d1 3f3e acf4 27be 2540 ee3d d4af 193d
00000170: d3d5 143e 4bf0 acb9 eceb 873d 2c9b 1abe
00000180: 692f dd3d f350 22be 42dc 8a3d 79a6 d93c
00000190: 6604 0a3e d19b df3d 0da2 90bd 0967 babd
000001a0: 915a 1abe 4d2c a33d fd01 11bd 4fe8 a53d
000001b0: e48c 2a3e 5b08 0e3e 0b20 6dbd 3c9a bdbb
000001c0: 3c88 753d 6144 783d 2e04 35be 0113 96bd
000001d0: ca2f b03d ed9e 43bd ddda 3e3d e185 c33d
000001e0: f16a ad3c 2195 813d c8c9 ad3d a02b 13be
000001f0: f2e0 3fbd 2eda 2f3d 37c6 bbbd 5795 64bd
00000200: 0a11 11be fbd6 0bbe c039 c73b 11dc bd3d
00000210: cd70 c93d 04a9 013c 674d 7f3c 5501 f0bd
00000220: b607 f7bd 3ecf b53d 01d9 febd 0677 053e
00000230: fe17 ea3d 60a1 313e 0c3c 77bd bdf7 c53c
00000240: 3b4d 9bbd 9290 f63d f139 233e 00f2 103e
00000250: 49e0 473d 6104 31be 8c1b 303e fbbd 5f3c
00000260: 5499 a8bc 6364 443d 01ad bd3d 3254 383c
00000270: 04fa e0bc 43e8 37be c9a3 64bd 8e9e 23be
00000280: ec67 15be 2fa5 0ebe 09ad 7bbd 5a87 e0bd
00000290: e7f1 0f3e f032 ad3d b309 e6bd 4ef9 193d
000002a0: 3d50 0dbe 539c 87bd c197 bfbc 7c87 95bd
000002b0: 2a60 e83d c668 ee3d 8a2d b7bd 525c 8e3d
000002c0: 0a46 a8bd 50fe 03be c195 d2bd 7f07 14be
000002d0: 2501 97bd 7bb7 b13d 6061 053e 26ee 15be
000002e0: 826d 0abe e4e0 22bd 5dd6 00be 5191 b7bd
000002f0: ff3b dd3d 5f97 fdbd 142f ddbd 1710 39be
00000300: 6a7a 9fbd ff74 d5bd 067e 853d 8534 083e
00000310: efbc 0ebd 633d 083e e933 ccbd 7ee8 973b
00000320: 2b3a 623d a07d 23be 2ad2 6fbd 1324 cebd
00000330: d892 06be 4076 e73b 5172 25be 995f e8bd
00000340: ac92 a43d 0b8e b43d 5ce5 2cbe 084b c83d
00000350: d023 b63d fcb4 23be 2faa 14be 0755 203d
00000360: 4909 d43d 19a8 2d3d 7cad 693c 50f0 3b3c
00000370: 138b 2b3e cfea 873d 503f debd 395c 15be
00000380: f690 843d 987a 24bc 3595 c93d 9b68 303e
00000390: df46 d3bd 7203 1bbd d5f9 26be cd3d 29be
000003a0: b68b 13be ceff ff3d 2196 1d3d ff73 a0ba
000003b0: c211 1cbe e624 1fbe 5a93 16be 526c fb3d
000003c0: e1de 09be 7871 553c dc17 523d 0851 aa3d
000003d0: bc42 3c3d 564c 69bc ca7d f33d 0b8b 24bd
000003e0: c2a1 23be fe2f 303e 9c78 eebd 1e15 893d
000003f0: c65a e8ba f139 90bc a90b 893d 1d68 c9bd

bias_ih_l0 f4 [128]
0.1233966 0.032316305 -0.06242145 -0.0136862025 -0.10291639 0.16034696 -0.10265337 -0.062349584
0.096179776 -0.1416991 0.14669593 0.159727 0.010341322 -0.12019614 0.0073634307 -0.0677742
0.09363443 -0.09127825 -0.056656282 0.15317097 -0.17816862 0.09310669 -0.099848725 -0.12118104
0.1844316 -0.021822948 -0.1725875 -0.029440682 0.024237849 -0.15133181 0.015569747 0.02058677
-0.08966515 0.15945673 -0.019799251 0.10811058 -0.08171507 0.053067517 0.049308337 -0.05323374
-0.1538944 0.085410774 0.052194238 -0.11550474 -0.08993747 0.09157079 0.0047077313 -0.03541858
-0.068529904 0.16061313 0.13750252 -0.0027384227 -0.034939457 0.1487407 0.022521924 0.16070616
0.024473442 -0.038917284 -0.012472331 0.117396265 0.098730795 0.12682939 -0.106144294 -0.058480687
0.093284674 0.024431426 0.11670277 -0.13005714 -0.03232705 0.14850281 -0.091020264 -0.08478934
0.108356915 0.008295417 0.07952305 -0.13777249 0.02681241 0.17071652 0.10657067 -0.1096901
0.049739532 -0.08167189 0.09892625 -0.012802867 0.10327893 -0.031098306 0.12031473 -0.06207483
-0.086645186 -0.10247669 -0.017858392 -0.04028009 -0.033804473 0.1829185 -0.16599354 -0.0836971
0.09803432 0.056874465 0.024158096 0.015614068 -0.1078331 -0.07265835 0.17940971 0.08603784
0.056343842 -0.02298042 -0.1502813 0.08697139 -0.0797039 -0.16185337 0.097752444 -0.122412436
-0.1450037 0.016872292 0.089050084 -0.11936113 0.044981766 0.1430624 -0.113746226 -0.04776663
-0.028867427 -0.1712764 -0.14328067 -0.09706746 -0.10714122 0.10738932 -0.007617723 -0.10307643
00000000: 5bb7 fc3d 1a5e 043d a2ad 7fbd 183c 60bc
00000010: d4c5 d2bd fe31 243e ee3b d2bd 4762 7fbd
00000020: e7f9 c43d 9219 11be 7537 163e 7a8f 233e
00000030: a66e 293c 6529 f6bd ef48 f13b 33cd 8abd
00000040: 68c3 bf3d 17f0 babd 6b10 68bd dad8 1c3e
00000050: d671 36be b8ae be3d 7d7d ccbd c42d f8bd
00000060: a3db 3c3e 0ac6 b2bc c7ba 30be 962d f1bc
00000070: 748e c63c baf6 1abe 4118 7f3c 96a5 a83c
00000080: 5da2 b7bd a048 233e 0a32 a2bc 1469 dd3d
00000090: 3b5a a7bd 535d 593d 8af7 493d 9f0b 5abd
000000a0: 7e96 1dbe d8eb ae3d a0c9 553d c08d ecbd
000000b0: 2331 b8bd 7789 bb3d 5043 9a3b 1313 11bd
000000c0: 6859 8cbd c577 243e 76cd 0c3e 1c77 33bb
000000d0: ad1c 0fbd 7b4f 183e e67f b83c 2890 243e
000000e0: 877c c83c bb67 1fbd bf58 4cbc 746d f03d
000000f0: 5f33 ca3d 90df 013e 2e62 d9bd 7289 6fbd
00000100: 090c bf3d 6a24 c83c dd01 ef3d b32d 05be
00000110: 5e69 04bd 1f11 183e d568 babd 09a6 adbd
00000120: 3bea dd3d 80e9 073c fbdc a23d 3b14 0dbe
00000130: b3a5 db3c 50d0 2e3e b941 da3d 34a5 e0bd
00000140: aebb 4b3d 9843 a7bd d999 ca3d 1ec3 51bc
00000150: e783 d33d e0c1 febc 9267 f63d 2d42 7ebd
00000160: 0873 b1bd 4ddf d1bd c34b 92bc bcfc 24bd
00000170: 8f76 0abd fd4e 3b3e 36fa 29be 6369 abbd
00000180: 38c6 c83d 33f5 683d 33e7 c53c 26d2 7f3c
00000190: 9ad7 dcbd e7cd 94bd 2eb7 373e 9b34 b03d
000001a0: cdc8 663d 6f41 bcbc 57e3 19be 0e1e b23d
000001b0: cc3b a3bd e4bc 25be 6f32 c83d 5fb3 fabd
000001c0: da7b 14be c337 8a3c e45f b63d 9c73 f4bd
000001d0: cd3e 383d f37e 123e c8f3 e8bd f1a6 43bd
000001e0: 627b ecbc 1563 2fbe 2bb8 12be 4ecb c6bd
000001f0: db6c dbbd efee db3d 189e f9bb bc19 d3bd

bias_hh_l0 f4 [128]
-0.07651553 0.060096517 -0.12927406 -0.034944553 0.11478738 -0.13899001 -0.0047629997 0.16299511
-0.09119944 -0.05844075 0.16117066 0.107648365 -0.099196486 0.17151411 -0.07045467 0.020975605
0.17597687 0.14717874 0.074866414 0.06955594 0.12720884 -0.01173912 -0.03169947 0.15274261
-0.014158225 0.07701023 -0.033970818 -0.1179646 -0.1356415 0.11691843 -0.07192977 -0.08443364
0.011727777 -0.05073362 -0.11885453 0.15119717 -0.0814851 -0.047073435 0.02194738 0.1007405
0.01571467 0.016911905 -0.16257124 -0.14243904 0.0573949 -0.124290936 -0.0830153 -0.025058674
-0.019071631 0.041151132 0.16806032 -0.10215928 0.08711911 0.10578055 -0.13804166 0.13899851
0.12175032 0.0806246 -0.1810117 0.07126334 0.053086206 0.033117164 0.14700446 0.030824585
0.018273275 -0.14977965 -0.1404894 0.17797118 -0.16359538 0.01404658 0.005931514 -0.0015308479
-0.02374042 0.109137036 0.04732008 -0.07367968 0.067799754 -0.14744188 -0.15051107 0.117210574
-0.056587946 -0.030659908 0.0067985053 -0.13900155 0.15279976 0.010246145 0.14142203 -0.12620875
-0.02139058 -0.023746025 0.05805731 -0.024141537 0.008302601 0.15641518 -0.1297622 0.08964117
-0.02816891 0.079606496 0.14524756 -0.15356737 0.008363212 0.10709536 0.07315109 -0.061150808
-0.12581705 0.16406178 -0.063925594 -0.12474493 0.035827328 0.14661092 0.13117118 -0.12600008
0.06710685 -0.07232771 0.13681668 -0.010888456 -0.12647966 -0.017770762 0.17155041 0.07690238
-0.024852354 -0.029468669 -0.15296172 0.11390341 0.0355623 -0.08226734 0.15615462 0.07714298
00000000: 2db4 9cbd c427 763d 6b60 04be 0522 0fbd
00000010: a515 eb3d 6653 0ebe f012 9cbb 31e8 263e
00000020: c6c6 babd 915f 6fbd ec09 253e bf76 dc3d
00000030: 8727 cbbd 65a1 2f3e 8a4a 90bd 08d5 ab3c
00000040: 4833 343e 06b6 163e 9053 993d 5873 8e3d
00000050: 0943 023e 7055 40bc 4ed7 01bd 8f68 1c3e
00000060: e6f7 67bc 8ab7 9d3d fc24 0bbd 6d97 f1bd
00000070: 9be5 0abe ee72 ef3d ea4f 93bd 8beb acbd
00000080: dd25 403c 0ece 4fbd 016a f3bd 6ed3 1a3e
00000090: a9e1 a6bd 13d0 40bd feca b33c 0951 ce3d
000000a0: 0dbc 803c d68a 8a3c 1379 26be 8adb 11be
000000b0: ea16 6b3d 3f8c febd ed03 aabd d947 cdbc
000000c0: 1c3c 9cbc 178e 283d 0118 2c3e e238 d1bd
000000d0: 816b b23d 79a3 d83d cb5a 0dbe a055 0e3e
000000e0: 3b58 f93d 831e a53d 225b 39be 84f2 913d
000000f0: ec70 593d dda5 073d 5688 163e d783 fc3c
00000100: d6b1 953c d65f 19be 74dc 0fbe 143e 363e
00000110: 8c85 27be a023 663c 255d c23b bba6 c8ba
00000120: 457b c2bc 3d83 df3d b3d2 413d 5fe5 96bd
00000130: 99da 8a3d 01fb 16be 931f 1abe 190c f03d
00000140: c3c8 67bd 7d2a fbbc ffc5 de3b 6c56 0ebe
00000150: 8a77 1c3e 72df 273c f0d0 103e de3c 01be
00000160: 4c3b afbc 0687 c2bc 80cd 6d3d 79c4 c5bc
00000170: a207 083c 4d2b 203e 62e0 04be ca95 b73d
00000180: 7cc2 e6bc bb08 a33d c7bb 143e c440 1dbe
00000190: db05 093c d054 db3d 3dd0 953d 4579 7abd
000001a0: 2fd6 00be d0ff 273e 6ceb 82bd 457a ffbd
000001b0: adbf 123d 2c21 163e bd51 063e 2a06 01be
000001c0: 516f 893d 8d20 94bd ac19 0c3e 7f65 32bc
000001d0: e283 01be fd93 91bc e9aa 2f3e ff7e 9d3d
000001e0: 2a97 cbbc 4768 f1bc ffa1 1cbe 3146 e93d
000001f0: c6a9 113d c77b a8bd ffe6 1f3e 24fd 9d3d

weight_ih_l1 f4 [128, 32]
0.0382716 -0.083581805 0.15204385 0.14650778 -0.112808354 0.111278474 -0.009769229 0.09449961
-0.021016054 0.16152889 -0.11290416 0.1352538 -0.15390217 0.0713685 -0.17458138 0.119655184
0.0519734 0.1082901 -0.16154455 -0.16369776 0.06819914 0.11422905 0.0035432512 0.16066949
-0.12160994 -0.017789004 0.014230313 0.00729838 -0.06896521 0.060849994 -0.17913763 -0.08150571
-0.025146034 -0.15890054 0.01182325 -0.17558344 -0.061237805 0.019689731 -0.120215476 0.03036698
-0.08690335 0.012243183 -0.1497275 0.14215901 -0.008394144 0.089561395 -0.046930682 -0.15178798
-0.13321903 -0.0062780846 0.021869738 -0.095172785 0.028052269 0.033181243 -0.13168895 0.13855955
-0.12767349 0.042079233 0.08012819 0.063580014 0.09059594 0.017900188 -0.14584205 -0.12999193
0.008170341 -0.17298372 0.14134775 -0.03768684 -0.026156584 0.17059202 0.14700037 -0.06716453
-0.005123517 0.106421694 -0.023464043 0.10956901 -0.12624651 0.087695874 -0.08684164 -0.18559447
-0.027428182 -0.17049402 0.10814922 0.055766817 0.010435765 -0.024791142 0.119912684 0.06942806
-0.120599136 0.018412298 -0.12678324 0.112164155 -0.091274396 -0.108853646 0.07721462 -0.04189428
0.0026740714 0.16314827 0.031313676 -0.0111447945 0.16612633 0.102260575 -0.1448197 0.060648054
0.12998182 0.137938 -0.036631208 0.13179706 0.15828674 0.039695077 0.06003456 -0.06594745
0.09327213 -0.120988086 -0.11812555 0.0014588897 -0.12535235 -0.012578016 -0.15563245 0.06483535
0.025764357 0.16916946 0.12762366 -0.16074014 -0.16986185 -0.060627576 0.12602791 0.048595656
0.08596355 0.10078376 -0.060496435 -0.14243436 -0.03838242 -0.03261906 0.025208555 0.09558565
-0.10435055 -0.10051912 -0.025129305 -0.018558087 0.087318584 0.052084792 -0.01959818 0.011991986
-0.00072454795 0.15359607 0.0876948 0.021632541 -0.15542158 -0.065017544 0.12828055 -0.14811243
-0.12028655 0.045255106 0.14317764 -0.044860836 0.18327232 0.0906171 -0.018127223 0.002801123
0.03074048 -0.12171666 -0.11952843 0.0661166 -0.03278089 0.009010957 0.036233906 -0.10556904
-0.058431443 0.03347098 0.09426511 0.011980968 -0.100014016 0.033747625 -0.019141277 0.08813008
-0.0496285 -0.08377116 0.03860279 -0.11855303 0.036195487 0.104668565 -0.11665935 0.034372143
-0.10719469 0.011716593 0.12038447 0.18127929 -0.029112602 0.12963584 -0.17601305 0.022358749
-0.1516596 0.11680046 0.03287674 0.13993104 0.093489386 0.1230779 0.11967481 -0.12068002
-0.15897687 -0.15802921 -0.11031705 0.06564003 0.057241153 -0.14364356 0.1318287 -0.060225956
-0.0106919035 0.0075802836 -0.10053737 0.09329989 -0.13113385 0.12836224 -0.004263334 0.11275433
-0.011219676 -0.039314985 0.05738211 -0.017819326 0.09588534 -0.007393075 0.11220835 -0.15002199
-0.15391967 -0.035996106 -0.1252596 -0.037022464 0.10877288 0.11206301 0.079864256 -0.16438064
-0.038056213 -0.04893509 0.078590766 0.13857906 0.03419535 0.0061515607 -0.093646675 0.08406237
-0.09471699 0.011364904 -0.16570313 -0.010235509 0.009061179 -0.06685928 0.09924721 -0.10223334
0.112743184 0.062172044 -0.08530918 0.16768311 0.14140736 0.16365615 -0.13841252 -0.08363869
00000000: aec2 1c3d f02c abbd 62b1 1b3e 2306 163e
00000010: 1108 e7bd f8e5 e33d 1e0f 20bc 0389 c13d
00000020: dc29 acbc d467 253e 4c3a e7bd f97f 0a3e
00000030: 8898 1dbe a629 923d 76c5 32be c70d f53d
00000040: 0fe2 543d 33c7 dd3d ef6b 25be 63a0 27be
00000050: feab 8b3d ecf0 e93d e435 683b 8b86 243e
00000060: a20e f9bd 3fba 91bc 4226 693c 4027 ef3b
00000070: a23d 8dbd d83d 793d db6f 37be 77ec a6bd
00000080: 0eff cdbc d3b6 22be 4eb6 413c 25cc 33be
00000090: 7ed4 7abd 5c4c a13c 8833 f6bd 2cc4 f83c
000000a0: 62fa b1bd a297 483c 2a52 19be 2292 113e
000000b0: 9787 09bc f76b b73d 633a 40bd 4f6e 1bbe
000000c0: 926a 08be 64b8 cdbb 2a28 b33c f3e9 c2bd
000000d0: dfcd e53c 0ee9 073d 78d9 06be 8ee2 0d3e
000000e0: d7bc 02be 465b 2c3d 401a a43d 3d36 823d
000000f0: 5d8a b93d 6aa3 923c 9e57 15be 9b1c 05be
00000100: e5dc 053c a522 31be 77bd 103e 845d 1abd
00000110: 5546 d6bc adaf 2e3e 4487 163e 8f8d 89bd
00000120: 2de3 a7bb 9ef3 d93d aa37 c0bc b865 e03d
00000130: c446 01be e599 b33d 08da b1bd 7a0c 3ebe
00000140: 11b1 e0bc fc95 2ebe 577d dd3d bf6b 643d
00000150: c5fa 2a3c cb16 cbbc c894 f53d 4c30 8e3d
00000160: aefc f6bd 63d5 963c 77d3 01be 52b6 e53d
00000170: 12ee babd a9ee debd b322 9e3d 5699 2bbd
00000180: 793f 2f3b 5710 273e c542 003d a898 36bc
00000190: 051d 2a3e fe6d d13d 9e4b 14be 186a 783d
000001a0: f419 053e 9e3f 0d3e 9b0a 16bd cff5 063e
000001b0: eb15 223e 4e97 223d cce6 753d 750f 87bd
000001c0: 7505 bf3d 9ac8 f7bd cfeb f1bd 3738 bf3a
000001d0: 5e5c 00be 0614 4ebc 1d5e 1fbe 65c8 843d
000001e0: c60f d33c c23a 2d3e c7af 023e 1099 24be
000001f0: 44f0 2dbe 9f54 78bd 760d 013e 3d0c 473d
00000200: a80d b03d b767 ce3d 1ccb 77bd 50da 11be
00000210: e236 1dbd 909b 05bd 2c82 ce3c 69c2 c33d
00000220: beb5 d5bd f8dc cdbd f9db cdbc 2107 98bc
00000230: 16d4 b23d dd56 553d 5d8c a0bc 097a 443c
00000240: 97ef 3dba 4a48 1d3e 5599 b33d ba36 b13c
00000250: d626 1fbe eb27 85bd fa5b 033e c9aa 17be
00000260: cb58 f6bd 6b5d 393d 299d 123e ffbf 37bd
00000270: bdab 3b3e 7595 b93d 8b7f 94bc 0c93 373b
00000280: 76d3 fb3c 9646 f9bd 52cb f4bd 2468 873d
00000290: 4145 06bd b1a2 133c 016a 143d 9534 d8bd
000002a0: cf55 6fbd de18 093d 110e c13d d24b 443c
000002b0: 26d4 ccbd f33a 0a3d 2bce 9cbc 8b7d b43d
000002c0: 4147 4bbd 3790 abbd f61d 1e3d eecb f2bd
000002d0: b841 143d 795c d63d 19eb eebd cec9 0c3d
000002e0: e488 dbbd f4f6 3f3c 228c f63d 47a1 393e
000002f0: 8d7d eebc 42bf 043e c43c 34be b229 b73c
00000300: a74c 1bbe 1435 ef3d c3a9 063d 154a 0f3e
00000310: 5d77 bf3d 4410 fc3d 1118 f53d 1627 f7bd
00000320: d5ca 22be 69d2 21be e8ed e1bd 486e 863d
00000330: b375 6a3d 4c17 13be 1afe 063e 7eaf 76bd
00000340: 182d 2fbc 0764 f83b 89e6 cdbd 0314 bf3d
00000350: f447 06be 6471 033e 70b3 8bbb beeb e63d
00000360: bbd2 37bc c008 21bd 8109 6b3d d6f9 91bc
00000370: 885f c43d 9c41 f2bb 7ecd e53d 5d9f 19be
00000380: 1e9d 1dbe a770 13bd 0d44 00be dea4 17bd
00000390: 51c4 de3d 4b81 e53d df8f a33d 6653 28be
000003a0: d5e0 1bbd 2970 48bd 32f4 a03d abe7 0d3e
000003b0: 6c10 0c3d 0893 c93b d4c9 bfbd e428 ac3d
000003c0: fbfa c1bd dd33 3a3c 15ae 29be d6b2 27bc
000003d0: 5775 143c 85ed 88bd 1f42 cb3d b75f d1bd
000003e0: e6e5 e63d 1da8 7e3d 94b6 aebd 1fb5 2b3e
000003f0: 17cd 103e 7a95 273e 03bc 0dbe c34a abbd

weight_hh_l1 f4 [128, 32]
-0.113079205 0.03418177 -0.03776983 0.14007825 -0.16705391 -0.1151592 0.09255017 0.122438
-0.14881152 0.042699892 0.099999025 -0.016811006 0.0036013073 0.04382467 0.11402887 -0.07013243
0.008207526 -0.14981875 0.124825686 -0.010726106 -0.061057393 -0.010609397 -0.106918864 -0.030785786
-0.11875953 -0.10223007 -0.18184195 -0.0074786544 0.060472883 -0.019679759 0.083141245 -0.11175601
0.015537617 0.13918142 0.08530042 0.113454156 -0.06818948 0.11531115 0.03993318 0.0064455452
0.013130784 -0.14183468 0.15911616 0.1314779 0.09250718 0.012490575 0.10233581 -0.013245378
-0.08016915 -0.04702572 -0.11229072 0.13601813 -0.08857428 -0.017616577 0.063282095 0.033300597
-0.03899461 -0.020138554 0.081558846 -0.09628571 0.115462616 -0.013901776 -0.11930164 -0.030650808
0.053587407 0.056833528 -0.051277347 0.062021222 0.03596224 0.067657284 0.064678 0.017037818
-0.10623456 -0.15196541 0.12952095 0.05682087 -0.1538324 0.07749888 -0.030081881 -0.09598939
0.15490507 0.051706553 0.09079013 0.0056976588 0.15229309 0.10012735 -0.058799565 -0.13386367
-0.08570672 0.16525684 -0.15817864 0.16077673 -0.012437637 -0.14118281 -0.15394576 -0.10369
-0.14864944 0.005941456 -0.08122856 0.061991867 0.10360393 -0.03833809 0.074430116 0.09715133
0.1569622 0.13897094 -0.003359303 0.031321436 -0.09873425 0.14575842 -0.03494666 -0.1385251
-0.10084106 0.16394836 -0.15112823 -0.14328863 0.0383076 -0.009858034 0.10891851 0.1632745
0.09133757 -0.12385344 -0.016416661 0.11807044 0.17680115 -0.0073773535 0.008723375 0.04829321
0.10849053 0.107030876 0.12144183 -0.09959555 -0.10562802 0.0910696 -0.036113717 0.061088238
0.08463703 -0.08875759 -0.1718818 0.06391967 0.124269 -0.03141236 0.057038683 0.039582986
-0.14036392 0.16495778 -0.16481304 -0.07123328 -0.11221829 0.1785123 -0.040339988 0.09661796
-0.13534391 0.04167842 -0.025775984 -0.05796325 0.11702405 0.15128231 -5.7241705e-05 -0.117840886
-0.14387669 0.025531258 0.13161078 -0.089847945 -0.043670792 0.098183505 -0.04533244 -0.16454524
-0.11347988 0.118535556 -0.09781558 -0.13889112 -0.1852624 -0.07339636 0.064362444 -0.0069199977
0.14343312 -0.07457583 0.1561108 -0.02037224 0.14515196 -0.11877527 0.010229499 -0.05455009
0.105248265 0.17258161 -0.14243889 -0.014029528 0.11851589 -0.07497854 -0.024863165 0.018728076
-0.018855825 0.15369338 -0.1584667 0.14497308 0.04762727 0.17644742 0.17860532 0.18544538
-0.09382598 -0.007028013 -0.05566855 0.03272271 -0.14667933 -0.028999645 -0.1826581 0.1498418
0.0442733 0.15500247 0.1469052 0.024141742 0.06460509 -0.022272283 0.09051294 0.1670946
-0.11430688 0.16639033 0.09817575 -0.082861975 -0.07746255 -0.10406278 0.120838076 0.070586495
-0.1568058 -0.013859798 0.057183303 -0.05508568 0.13071312 0.09753562 0.13795803 0.021750938
-0.13568316 -0.13247332 -0.0009128821 0.01966565 0.045986004 0.15060462 -0.1405623 -0.06357485
0.1323745 -0.09230006 -0.05684097 0.06413213 0.013756899 0.14210704 0.078683846 0.021300776
-0.009972673 -0.08459123 -0.10714002 0.1318058 0.106948584 0.15458232 0.15133913 -0.075797334
00000000: 1296 e7bd 2f02 0c3d 8ab4 1abd ac70 0f3e
00000010: 2e10 2bbe 96d8 ebbd f28a bd3d c6c0 fa3d
00000020: 0c62 18be 15e6 2e3d 4acc cc3d 3cb7 89bc
00000030: e903 6c3b 7f81 333d f887 e93d 97a1 8fbd
00000040: dc78 063c 166a 19be 9ca4 ff3d 8dbc 2fbc
00000050: 5117 7abd 09d3 2dbc 47f8 dabd 7932 fcbc
00000060: 3238 f3bd 005e d1bd c734 3abe 800f f5bb
00000070: 6ab2 773d 7237 a1bc f545 aa3d 56e0 e4bd
00000080: 7d91 7e3c 9385 0e3e fdb1 ae3d a75a e83d
00000090: eda6 8bbd 4128 ec3d f990 233d 2735 d33b
000000a0: 8022 573c 1c3d 11be 59ef 223e 25a2 063e
000000b0: 6874 bd3d 45a5 4c3c 7095 d13d 2403 59bc
000000c0: b92f a4bd 0b9e 40bd adf8 e5bd 5648 0b3e
000000d0: 6f66 b5bd a450 90bc 0b9a 813d 3566 083d
000000e0: d0b8 1fbd 9cf9 a4bc 5308 a73d 7131 c5bd
000000f0: aa77 ec3d 46c4 63bc 6b54 f4bd 6717 fbbc
00000100: 787e 5b3d 46ca 683d 3208 52bd f709 7e3d
00000110: 244d 133d e78f 8a3d e675 843d e592 8b3c
00000120: 8191 d9bd d29c 1bbe 24a1 043e 00bd 683d
00000130: 3e86 1dbe bcb7 9e3d 476e f6bc 1696 c4bd
00000140: 6f9f 1e3e 40ca 533d 2df0 b93d 6db3 ba3b
00000150: b8f2 1b3e 910f cd3d d0d7 70bd 8f13 09be
00000160: 0187 afbd 1739 293e 95f9 21be a8a2 243e
00000170: 3bc7 4bbc 3a92 10be f5a3 1dbe 6c5b d4bd
00000180: 8f37 18be 8cb0 c23b 295b a6bd 2feb 7d3d
00000190: 4c2e d43d 6708 1dbd d16e 983d 47f7 c63d
000001a0: b3ba 203e 664e 0e3e c127 5cbb e84a 003d
000001b0: 2f35 cabd b241 153e 3b24 0fbd 86d9 0dbe
000001c0: c285 cebd 14e2 273e 5cc1 1abe 41ba 12be
000001d0: 6ee8 1c3d 9783 21bc ab10 df3d 6e31 273e
000001e0: 310f bb3d dfa6 fdbd 3c7c 86bc eace f13d
000001f0: 5c0b 353e babd f1bb 7dec 0e3c 1acf 453d
00000200: 4830 de3d 0133 db3d 7fb6 f83d c0f8 cbbd
00000210: 8153 d8bd b382 ba3d faeb 13bd a937 7a3d
00000220: 2e56 ad3d 8ac6 b5bd c801 30be 51e8 823d
00000230: bf80 fe3d 3faa 00bd 65a1 693d c521 223d
00000240: 8fbb 0fbe b1ea 283e c0c4 28be c1e2 91bd
00000250: b4d2 e5bd eecb 363e 8b3b 25bd a3df c53d
00000260: 9897 0abe feb6 2a3d 2828 d3bc df6a 6dbd
00000270: 4eaa ef3d c0e9 1a3e d016 70b8 9056 f1bd
00000280: 6954 13be ee26 d13c fac4 063e 3302 b8bd
00000290: 25e0 32bd 6f14 c93d 82ae 39bd 8c7e 28be
000002a0: 2468 e8bd c5c2 f23d 8953 c8bd 7939 0ebe
000002b0: 6db5 3dbe d550 96bd 75d0 833d 26c1 e2bb
000002c0: 22e0 123e 36bb 98bd 82db 1f3e afe3 a6bc
000002d0: b7a2 143e 7340 f3bd a199 273c ea6f 5fbd
000002e0: 678c d73d 3cb9 303e 80db 11be 1bdc 65bc
000002f0: 75b8 f23d 598e 99bd d6ad cbbc 9f6b 993c
00000300: 8877 9abc cc61 1d3e 1845 22be d373 143e
00000310: d014 433d a2ae 343e 50e4 363e 65e5 3d3e
00000320: d627 c0bd 3f4b e6bb b504 64bd 4008 063d
00000330: 1b33 16be aa90 edbc ba0a 3bbe 2170 193e
00000340: eb57 353d f8b8 1e3e 516e 163e e7c4 c53c
00000350: ac4f 843d 5d74 b6bc d95e b93d d91a 2b3e
00000360: ba19 eabd 3a62 2a3e 5e10 c93d 8ab3 a9bd
00000370: afa4 9ebd de1e d5bd f479 f73d a78f 903d
00000380: b391 20be 3514 63bc 0a39 6a3d 86a1 61bd
00000390: a9d9 053e c1c0 c73d df44 0d3e 062f b23c
000003a0: 87f0 0abe 16a7 07be 7b4e 6fba db19 a13c
000003b0: d25b 3c3d 1938 1a3e 90ef 0fbe 8833 82bd
000003c0: 2e8d 073e d007 bdbd 14d2 68bd b557 833d
000003d0: 9e64 613c 8284 113e ff24 a13d f77e ae3c
000003e0: 6c64 23bc 2b3e adbd 3a6c dbbd 1af8 063e
000003f0: dc07 db3d d44a 1e3e a5f8 1a3e a23b 9bbd

bias_ih_l1 f4 [128]
0.0048040906 0.002863571 -0.05447354 0.015072401 -0.108722456 0.14908023 0.001379072 0.07618933
0.08029103 0.079013616 -0.14898929 0.02381192 -0.0053433836 0.18187043 0.045637354 0.095691696
-0.0954472 0.102566436 -0.009936788 0.007271387 -0.113014065 -0.07561054 0.10198657 0.00031025452
-0.044014923 0.13369301 -0.041812852 0.0014752307 0.13806422 0.15949035 0.07314655 -0.018112171
0.16958146 -0.044343602 0.18802936 0.07727913 0.14533846 -0.055834513 0.11994248 -0.05895384
0.18614534 0.12933312 0.0896131 0.013548413 -0.018743994 -0.06663815 0.16627368 -0.07386124
-0.008521177 -0.09417936 -0.13467617 0.058503203 0.14653169 0.15663004 0.029700499 0.18442504
-0.09421595 -0.14987552 -0.10578468 -0.14338034 -0.16399172 0.1537655 0.045281537 -0.09630831
0.092437446 -0.06927672 0.14293098 -0.052702706 0.012567158 0.16648434 0.18112528 -0.06090593
0.045020252 0.12981124 -0.12651001 -0.14079294 0.12624511 0.045805763 -0.06438771 -0.06273146
-0.09118611 0.044179205 -0.098588206 0.122938186 -0.1772858 -0.057217438 0.15460408 0.124503024
-0.12659225 0.05427123 -0.10616528 -0.037135575 0.10412226 -0.1690927 -0.18636006 -0.09763005
-0.04625492 0.08400024 -0.16239071 -0.08642789 0.1526611 0.026889501 0.04771427 -0.098928645
0.0036752585 0.061897304 0.004874599 0.105083495 -0.122102655 -0.038131442 0.10913062 -0.099824026
0.13108005 -0.10013858 0.121998556 0.016479164 -0.12328641 -0.035266045 -0.024603004 0.070659466
0.10831188 -0.067974776 -0.16792169 0.14881244 0.14164577 -0.12538157 0.12461641 0.16592717
00000000: a26b 9d3b c0aa 3b3b a61f 5fbd 3bf2 763c
00000010: e1a9 debd 7da8 183e fac1 b43a 2709 9c3d
00000020: a06f a43d e4d1 a13d a690 18be 3711 c33c
00000030: 8d17 afbb 3e3c 3a3e 3cee 3a3d 02fa c33d
00000040: d279 c3bd 5a0e d23d e9cd 22bc d144 ee3b
00000050: eb73 e7bd b3d9 9abd 56de d03d a8a9 a239
00000060: fe48 34bd d2e6 083e f443 2bbd 875c c13a
00000070: b560 0d3e 7051 233e dccd 953d fa5f 94bc
00000080: c3a6 2d3e a3a1 35bd c58a 403e 8544 9e3d
00000090: 9bd3 143e bbb2 64bd 67a4 f53d 9579 71bd
000000a0: e29c 3e3e e76f 043e 1387 b73d 2afa 5d3c
000000b0: 018d 99bc 9579 88bd a643 2a3e 9044 97bd
000000c0: 689c 0bbc 1ce1 c0bd 8de8 09be 0ea1 6f3d
000000d0: 670c 163e a063 203e 764e f33c ebd9 3c3e
000000e0: 4bf4 c0bd f878 19be a3a5 d8bd 4cd2 12be
000000f0: 72ed 27be b474 1d3e 2279 393d 4b3d c5bd
00000100: d84f bd3d f4e0 8dbd 805c 123e cbde 57bd
00000110: 7be6 4d3c df7a 2a3e e878 393e 7f78 79bd
00000120: 2867 383d 3ded 043e d78b 01be 062c 10be
00000130: 6646 013e d39e 3b3d b4dd 83bd 5a79 80bd
00000140: c9bf babd 41f5 343d 9de8 c9bd 04c7 fb3d
00000150: 698a 35be d55c 6abd 8850 1e3e 71fb fe3d
00000160: 66a1 01be 824b 5e3d 2f6d d9bd 791b 18bd
00000170: 0d3e d53d a326 2dbe 2cd5 3ebe 43f2 c7bd
00000180: cd75 3dbd 5108 ac3d c049 26be 1b01 b1bd
00000190: 3153 1c3e 5f47 dc3c 0a70 433d 1a9b cabd
000001a0: 9bdc 703b 0788 7d3d 1abb 9f3b 0436 d73d
000001b0: f510 fabd b72f 1cbd e07f df3d 8a70 ccbd
000001c0: d939 063e 7515 cdbd 61da f93d 50ff 863c
000001d0: 967d fcbd 2173 10bd 3d8c c9bc e9b5 903d
000001e0: 9ed2 dd3d 5c36 8bbd aaf3 2bbe 4a62 183e
000001f0: 970b 113e 0764 00be e336 ff3d d0e8 293e

bias_hh_l1 f4 [128]
0.036409475 -0.14059114 -0.07180361 -0.027522774 -0.04578681 0.055792812 0.109938085 0.18313432
0.07973204 9.109613e-05 0.037856866 0.13885802 0.07802912 0.18224418 -0.089324884 -0.024263738
-0.051669445 -0.104772955 0.08193948 -0.1175957 -0.1354625 -0.06838853 -0.14170271 0.08194255
-0.057589456 0.12350872 0.11968701 0.039882846 -0.08413879 0.12251681 0.027451696 -0.13247661
-0.051547956 -0.13954474 -0.08464222 -0.008816551 0.106850915 0.18640238 -0.008947423 0.16859794
0.05086035 -0.14367719 -0.11337971 -0.13852735 0.026095532 -0.14209417 0.089079805 0.0016532418
-0.10184206 0.0034989477 -0.08320297 -0.10689943 0.15161322 -0.02828236 -0.096110076 -0.13583714
-0.07290613 -0.09966573 0.02109943 -0.048251837 -0.026984317 -0.17054038 0.14682251 0.027308526
-0.044847123 0.08895199 0.09848266 0.05035546 -0.04130932 0.16487947 -0.14663604 0.14733459
0.09535822 -0.06922843 0.07490961 -0.16456005 -0.15697235 -0.042115677 0.096573256 0.033722553
-0.14958946 0.17707951 0.11710145 -0.06502392 -0.1816076 0.10865034 0.052375235 0.028150965
0.16324306 -0.13640617 0.16235468 -0.06153544 0.01839734 0.007809037 0.022422384 0.18240139
0.09171666 0.026274389 0.14884458 0.030683454 -0.1612511 0.12423463 -0.08909073 0.08545187
0.103978775 0.046376094 0.11446255 0.08903769 0.031983677 0.01575847 0.17006835 -0.00877199
0.14878532 -0.04367501 0.1317248 0.0943188 -0.1298716 0.020184238 -0.13331243 -0.02141637
0.13837554 -0.018157883 0.1305915 -0.07692361 0.049355783 -0.031855036 -0.14418708 0.03505431
00000000: 1a22 153d 20f7 0fbe c50d 93bd 7177 e1bc
00000010: f38a 3bbd 0187 643d 3827 e13d 9087 3b3e
00000020: 8d4a a33d dd0a bf38 cd0f 1b3d cc30 0e3e
00000030: bbcd 9f3d 389e 3a3e f7ef b6bd bfc4 c6bc
00000040: 57a3 53bd 3493 d6bd e3cf a73d 04d6 f0bd
00000050: aeb6 0abe 490f 8cbd 841a 11be 7fd1 a73d
00000060: ece2 6bbd 24f2 fc3d 771e f53d 325c 233d
00000070: f550 acbd 18ea fa3d 61e2 e03c f3a7 07be
00000080: f323 53bd d1e4 0ebe e658 adbd 4c73 10bc
00000090: a7d4 da3d 44e0 3e3e 3698 12bc f0a4 2c3e
000000a0: f152 503d 1d20 13be 9f33 e8bd 1dda 0dbe
000000b0: 4cc6 d53c 2281 11be 796f b63d 97b1 d83a
000000c0: 9292 d0bd 9a4e 653b 5266 aabd 17ee dabd
000000d0: 7f40 1b3e 68b0 e7bc 5cd5 c4bd e418 0bbe
000000e0: cf4f 95bd 8c1d ccbd b6d8 ac3c b8a3 45bd
000000f0: 370e ddbc 23a2 2ebe a458 163e 21b6 df3c
00000100: 9eb1 37bd 762c b63d 47b1 c93d 8741 4e3d
00000110: f633 29bd 2ad6 283e c227 16be e1de 163e
00000120: 2c4b c33d a3c7 8dbd 366a 993d 6e82 28be
00000130: 5cbd 20be 7d81 2cbd 33c8 c53d a920 0a3d
00000140: fb2d 19be 5554 353e e3d2 ef3d 432b 85bd
00000150: 58f7 39be 1284 de3d 6a87 563d da9c e63c
00000160: 3029 273e 0fae 0bbe 4e40 263e 960c 7cbd
00000170: 05b6 963c f3e2 ff3b 26af b73c 6ec7 3a3e
00000180: f2d5 bb3d 633d d73c b76a 183e de5b fb3c
00000190: 021f 25be ba6e fe3d 3375 b6bd 6401 af3d
000001a0: d3f2 d43d dcf4 3d3d 576b ea3d 6459 b63d
000001b0: 5101 033d e817 813c 6626 2e3e 65b8 0fbc
000001c0: 2e5b 183e 91e4 32bd dee2 063e 372a c13d
000001d0: 10fd 04be 6a59 a53c 0e83 08be 6271 afbc
000001e0: 51b2 0d3e d7bf 94bc c7b9 053e 208a 9dbd
000001f0: 4a29 4a3d 6d7a 02bd c7a5 13be 1c95 0f3d

weight f4 [1024, 32]
0.14437574 -0.096418135 -0.0051262984 -0.0793092 -0.053593688 0.03281191 0.14731517 0.09362265
0.12177105 -0.0022315322 0.05581156 0.08281317 -0.15874413 0.14184609 0.15320028 -0.13399693
0.12278758 0.0021915892 0.003413221 -0.0014507025 0.059159685 -0.012573277 -0.08265704 -0.020595275
0.123657376 0.14912541 -0.15310708 0.11715682 -0.11545401 0.08999765 -0.084078565 0.112925135
-0.1364672 0.10580767 -0.06896891 0.10959948 -0.03852563 -0.09583189 0.016194541 -0.05045952
-0.04810533 -0.120190375 -0.14945233 -0.000676195 0.13836566 -0.13079736 -0.025933541 0.122003146
-0.16289084 -0.12860657 0.13467532 -0.0013314344 0.0803532 0.007085052 -0.0380096 -0.13994999
0.0044931695 0.13834226 -0.110871844 0.10642635 0.05375453 -0.083123766 -0.023329346 -0.0666675
0.13867648 0.053142387 0.12415998 0.095401615 0.0422806 -0.15190583 0.18078512 -0.055249806
-0.09426066 0.048698198 -0.113871604 0.019294776 -0.0186455 -0.008629751 -0.096046016 -0.11838863
-0.08735303 0.006284462 -0.033467058 0.078047074 0.028147623 -0.15740448 -0.16041747 0.08080734
0.095013306 -0.101319686 -0.17161566 0.103553355 0.012568968 -0.15325393 -0.04421814 0.041851
0.060595933 -0.049311012 0.14140616 0.08311196 -0.170606 -0.115222834 0.08464734 0.04246981
0.13474394 0.08801829 -0.12257385 -0.082911484 -0.17758979 -0.027554167 -0.024924649 0.0009707221
-0.13993996 0.11255843 0.1625608 -0.16117021 -0.1466388 0.0018275811 0.17115466 0.07704555
-0.18372296 0.08657786 -0.051826276 0.10878815 -0.009572673 -0.10432189 0.071552016 0.18567304
-0.024917332 0.06462904 0.15451296 0.082382195 0.024629172 0.02115825 -0.084887594 -0.02560845
0.022768496 0.15099926 0.017117966 -0.103490904 -0.1012849 -0.039922845 0.003143467 0.106687985
-0.028010262 0.110772505 0.1391071 -0.063967876 -0.0043019275 0.15791403 -0.032948334 -0.06177873
-0.094866455 -0.015444295 0.17010099 -0.13309257 -0.080392264 -0.12265027 0.16907185 -0.15876943
0.081373006 -0.16748579 0.15242998 0.0064211837 0.0030699754 -0.08637104 0.1401156 0.108195595
0.059390776 0.105706304 -0.073123895 0.16998796 0.09127798 0.107742 0.11159291 0.11600066
0.17106351 -0.0667366 0.06323728 0.017104158 0.06837039 -0.0131183425 -0.17280862 0.038020957
-0.050188318 -0.15341137 -0.15473609 0.049396582 0.055496775 0.17251883 0.15456109 0.020141313
0.13283579 -0.05775102 0.08603833 0.016456489 -0.007133793 0.026396053 -0.097387664 -0.123238504
0.005083658 -0.0036971532 -0.13785377 0.03561837 -0.12540159 0.0978839 0.10865767 -0.02107665
0.06266243 -0.030755505 0.14433916 0.16746388 0.1692787 0.092535555 -0.034560874 0.14727162
-0.08439936 -0.16473894 0.14635667 -0.06466533 -0.09575058 -0.07390216 -0.17147017 0.03363098
-0.12145561 -0.010685201 0.062364034 -0.13455582 0.1595704 -0.06727549 0.040481076 0.14041062
-0.139682 0.06675563 -0.08058928 -0.073291756 0.026185088 0.11985125 -0.12434874 0.14302675
-0.03169672 -0.12098853 -0.13150047 -0.044888448 0.10542309 -0.14914232 0.08348288 -0.092372075
0.14898139 -0.067948446 -0.16700515 -0.11955879 -0.08988883 0.07495679 -0.14598335 0.023533085
00000000: 3cd7 133e df76 c5bd 82fa a7bb dd6c a2bd
00000010: 0e85 5bbd c865 063d cad9 163e 3bbd bf3d
00000020: 1a63 f93d e63e 12bb aa9a 643d f499 a93d
00000030: d28d 22be 1a40 113e 89e0 1c3e 7e36 09be
00000040: 0e78 fb3d c4a0 0f3b 59b0 5f3b 8025 beba
00000050: 6d51 723d 2500 4ebc 1848 a9bd 6cb7 a8bc
00000060: 1440 fd3d 55b4 183e 1ac8 1cbe eaef ef3d
00000070: 2773 ecbd b050 b83d 6231 acbd 4b45 e73d
00000080: 0fbe 0bbe b1b1 d83d 923f 8dbd b175 e03d
00000090: 0dcd 1dbd 8343 c4bd 6aaa 843c a4ae 4ebd
000000a0: 180a 45bd 5f26 f6bd 080a 19be ae42 31ba
000000b0: baaf 0d3e beef 05be 9472 d4bc c9dc f93d
000000c0: dbcc 26be 71b1 03be 54e8 093e 8683 aeba
000000d0: 3890 a43d b929 e83b f4af 1bbd 0d4f 0fbe
000000e0: 703b 933b 98a9 0d3e c710 e3bd 0ff6 d93d
000000f0: b62d 5c3d cb3c aabd 2f1d bfbc f888 88bd
00000100: 3501 0e3e d5ab 593d 9647 fe3d ec61 c33d
00000110: 6c2e 2d3d 348d 1bbe bc1f 393e 9f4d 62bd
00000120: bc0b c1bd c377 473d 8435 e9bd 1410 9e3c
00000130: 73be 98bc cd63 0dbc c6b3 c4bd bd75 f2bd
00000140: 25e6 b2bd e3ed cd3b c114 09bd 25d7 9f3d
00000150: d895 e63c a42e 21be 7a44 24be 527e a53d
00000160: 5696 c23d b280 cfbd 04bc 2fbe c813 d43d
00000170: 13ee 4d3c 99ee 1cbe 151e 35bd f46b 2b3d
00000180: 7133 783d 58fa 49bd c7cc 103e 9a36 aa3d
00000190: 57b3 2ebe f3f9 ebbd 965b ad3d d3f4 2d3d
000001a0: 51fa 093e ef42 b43d 0008 fbbd 7fcd a9bd
000001b0: 19da 35be 47b9 e1bc c72e ccbc 0f78 7e3a
000001c0: 6c4c 0fbe 0985 e63d 5776 263e ce09 25be
000001d0: 7b28 16be 728b ef3a 2b43 2f3e 0fca 9d3d
000001e0: df21 3cbe bc4f b13d ca47 54bd 52cc de3d
000001f0: b3d6 1cbc b7a6 d5bd dd89 923d 1321 3e3e
00000200: 6f1f ccbc 3b5c 843d a538 1e3e ffb7 a83d
00000210: 1ec3 c93c 1154 ad3c 8cd9 adbd d0c8 d1bc
00000220: ff84 ba3c 8d9f 1a3e fa3a 8c3c 0af3 d3bd
00000230: 756e cfbd 2386 23bd a002 4e3b 3b7f da3d
00000240: c775 e5bc b2dc e23d 1772 0e3e 9701 83bd
00000250: 2ff7 8cbb 37b4 213e d5f4 06bd b20b 7dbd
00000260: 5849 c2bd 110a 7dbc f42e 2e3e 6b49 08be
00000270: b3a4 a4bd 1130 fbbd 2c21 2d3e 7494 22be
00000280: e4a6 a63d 6581 2bbe 9b16 1c3e cb68 d23b
00000290: a431 493b 4de3 b0bd 777a 0f3e a795 dd3d
000002a0: be43 733d 8c7c d83d fbc1 95bd 5311 2e3e
000002b0: f3ef ba3d d6a7 dc3d d38a e43d c191 ed3d
000002c0: 462b 2f3e 33ad 88bd 8c82 813d 051e 8c3c
000002d0: c605 8c3d 51ee 56bc bef4 30be ddbb 1b3d
000002e0: 4492 4dbd df17 1dbe 2373 1ebe 1254 4a3d
000002f0: 9650 633d c7a8 303e 4345 1e3e 65ff a43c
00000300: 1b06 083e 558c 6cbd dd34 b03d c2cf 863c
00000310: 98c2 e9bb 893c d83c 2f73 c7bd 7864 fcbd
00000320: d094 a63b f04b 72bb 8a29 0dbe 91e4 113d
00000330: 4669 00be 5b77 c83d ea87 de3d f0a8 acbc
00000340: 2955 803d f8f2 fbbc a5cd 133e a77b 2b3e
00000350: 6557 2d3e 4883 bd3d b48f 0dbd 5fce 163e
00000360: 92d9 acbd 53b1 28be 86de 153e 426f 84bd
00000370: e118 c4bd 045a 97bd e095 2fbe a3c0 093d
00000380: b8bd f8bd fb10 2fbc 6e71 7f3d 00c9 09be
00000390: 6c66 233e bbc7 89bd 7ccf 253d cdc7 0f3e
000003a0: cc08 0fbe 2db7 883d fe0b a5bd fd19 96bd
000003b0: 1c82 d63c 9274 f53d 8daa febd 9b75 123e
000003c0: 6bd4 01bd d6c8 f7bd 0fa8 06be f3dc 37bd
000003d0: 10e8 d73d c4b8 18be 12f9 aa3d 922d bdbd
000003e0: 948e 183e 8e28 8bbd 6603 2bbe 3ddb f4bd
000003f0: a317 b8bd f282 993d a97c 15be 75c8 c03c
