models/recomendation_models/scripted_user_preference_model_v4_8_dim.pt (torch, 23435 bytes, 6 tensors)

weight_ih_l0 f4 [48, 12]
0	0xbea4c55f	-0.32181832
1	0xbdb55589	-0.08854205
2	0x3dcc7c20	0.099846125
3	0xbe77175a	-0.24130002
4	0x3d606321	0.054782037
5	0x3eaf9728	0.3429501
6	0xbda460c5	-0.0802627
7	0xbe699384	-0.22810179
8	0x3e004077	0.12524591
9	0x3e506cc0	0.20353985
10	0xbd49b590	-0.049245417
11	0xbdc1e21c	-0.09466955
12	0xbda83444	-0.08213094
13	0x3e6fe810	0.23428369
14	0x3e8a4127	0.27002832
15	0x3e9510ba	0.29114324
16	0x3baa6b4d	0.0052007795
17	0xbdefda23	-0.11711528
18	0x3e15d31e	0.14631316
19	0x3ea5e034	0.32397616
20	0x3e17347c	0.14766115
21	0x3d0df0bc	0.03465341
22	0x3ebefbe7	0.3730156
23	0x3d6b8c7b	0.05750702
24	0xbdb7d217	-0.08975618
25	0xbeae8f24	-0.34093583
26	0xbda16b50	-0.07881796
27	0xbeaa42f2	-0.332542
28	0x3cd5a3a0	0.026078999
29	0x3d96eb34	0.0736908
30	0xbd1ba23a	-0.03799651
31	0x3da45189	0.08023364
32	0xbeb4a198	-0.35279536
33	0xbe06637d	-0.1312389
34	0x3e1072d5	0.14106305
35	0xbdc4dafe	-0.09612082
36	0x3e759c3f	0.23985384
37	0x3ea0ee4e	0.31431812
38	0x3e1af5c5	0.15132816
39	0xbe7c43c3	-0.24635224
40	0x3e1bc954	0.1521352
41	0x3b714345	0.0036813777
42	0x3b778ed3	0.003777434
43	0x3e1b08f5	0.15140136
44	0x3e477e73	0.1948183
45	0xbe48e4fe	-0.19618604
46	0xbe3ea9f9	-0.18619527
47	0x3e858701	0.26079562
48	0xbe317943	-0.17331414
49	0x3bd99936	0.0066405786
50	0xbe1ca161	-0.15295936
51	0xbde9d9ff	-0.114185326
52	0xbea394ae	-0.3194937
53	0xbdde49f8	-0.10853952
54	0x3e2040ae	0.15649673
55	0x3e3e29da	0.18570653
56	0x3e9d9e04	0.3078462
57	0x3e28f08e	0.16498014
58	0x3eb34cce	0.35019535
59	0x3e384279	0.17994107
60	0x3e94de80	0.29076004
61	0xbe28fb65	-0.1650215
62	0x3dc23a01	0.094837196
63	0x3d4bd99e	0.049768083
64	0x3e163be2	0.14671281
65	0xbcdde77f	-0.027087925
66	0xbe8f8977	-0.28034565
67	0x3e831cf0	0.25608015
68	0xbe33f89e	-0.17575309
69	0xbd0c2676	-0.034216367
70	0x3e2a762d	0.16646643
71	0xbe68a030	-0.22717357
72	0x3e8b9096	0.27258748
73	0x3c91747c	0.01775574
74	0x3e5f31a8	0.21796286
75	0x3d052d62	0.032513984
76	0xbdca3965	-0.098742284
77	0x3bd10bf1	0.0063795974
78	0xbdd3a5de	-0.10334371
79	0xbdc64d11	-0.09682668
80	0x3e44551c	0.19173092
81	0xbde5c526	-0.11219244
82	0x3cf8a35a	0.03035133
83	0x3bb4c7d3	0.005516985
84	0x3cd92910	0.026508838
85	0xbe3eca65	-0.18631895
86	0xbe98a51e	-0.29813474
87	0xbe129a00	-0.14316559
88	0xbd97c257	-0.07410114
89	0xbe26852b	-0.16261737
90	0x3e5e06c2	0.21682265
91	0xbc145bda	-0.009055102
92	0x3db9ef72	0.09078874
93	0xbc5d05b7	-0.013490132
94	0xbd126d67	-0.035748865
95	0xbd8e96cf	-0.06962358
96	0x3cbfa373	0.023393368
97	0x3d7372d9	0.0594357
98	0xbe262800	-0.16226196
99	0x3e1286af	0.1430919
100	0x3d130a13	0.03589828
101	0x3e071973	0.13193302
102	0xbe43058f	-0.19045089
103	0xbe322213	-0.17395811
104	0x3e9d99e6	0.30781478
105	0xbe1e9622	-0.15486959
106	0xbdb376cd	-0.08762894
107	0x3e1d585c	0.15365738
108	0x3e21b2bb	0.15790837
109	0x3e4805eb	0.19533508
110	0xbe3dbc18	-0.18528783
111	0xbe6cf5ad	-0.23140593
112	0xbe62e629	-0.22158112
113	0xbe95c604	-0.29252636
114	0x3d4c4fcb	0.049880784
115	0xbea2b3db	-0.31777844
116	0xbe24b6af	-0.16085313
117	0xbe0c48ad	-0.13699599
118	0xbdb8fc20	-0.09032464
119	0x3db2d4d2	0.087319985
120	0x3ec4d435	0.3844315
121	0x3e94229f	0.28932664
122	0x3e7cca88	0.24686635
123	0x3dccce8e	0.10000335
124	0xbd8e7dfc	-0.06957623
125	0xbe04a087	-0.12951861
126	0x3dbc6b58	0.09200162
127	0x3e15ed24	0.14641243
128	0xbe349077	-0.17633234
129	0xbe0df3b8	-0.13862503
130	0xbe299b0b	-0.1656305
131	0x3e5a6256	0.21326575
132	0x3e2fab1c	0.17155117
133	0xbe7c4cff	-0.24638747
134	0xbdcb913b	-0.0993981
135	0xbea039c5	-0.31294075
136	0x3dc65a0b	0.09685143
137	0xbd6b2c28	-0.057415158
138	0xbd9553af	-0.07291352
139	0x3e1732a5	0.14765413
140	0xbe9ba279	-0.30397394
141	0xbbf1b060	-0.007375762
142	0xbe53b1bb	-0.20673268
143	0xbd61e11a	-0.055146314
144	0x3d03cfc0	0.032180548
145	0xbe675c3c	-0.22593778
146	0xbd4a2b6f	-0.049357828
147	0xbea8b42f	-0.3294997
148	0xbd0d4ff5	-0.03450008
149	0x3daeddc1	0.0853839
150	0xbdfcb508	-0.123392165
151	0xbcca6536	-0.024706464
152	0x3bcc200c	0.006229406
153	0xbea00614	-0.31254637
154	0xbe8db46d	-0.27676716
155	0x3d9daec1	0.07699347
156	0xbe185274	-0.14875203
157	0xbc046cfa	-0.008082623
158	0xbdf47c27	-0.11937743
159	0x3e7ace5d	0.24492784
160	0xbe0ba68a	-0.13637748
161	0x3e0283d3	0.127456
162	0xbe27c7a5	-0.16384752
163	0xbde45bfe	-0.111503586
164	0x3e497f6a	0.19677511
165	0x3e66955a	0.2251791
166	0xbd9e0925	-0.07716588
167	0x3e83ad40	0.25718117
168	0xbe9faf05	-0.31188217
169	0x3d77f7c8	0.060539037
170	0x3d8b0e40	0.06789827
171	0xbe63d104	-0.22247702
172	0x3e53ae93	0.20672064
173	0xbde4eb5a	-0.11177702
174	0x3e67d3d0	0.22639394
175	0xbd9ecaeb	-0.07753547
176	0xbde6f74a	-0.112776354
177	0x3e5491f2	0.20758799
178	0xbe136f9d	-0.14398046
179	0x3e1355bc	0.14388174
180	0xbd048277	-0.032350983
181	0x3eadc900	0.33942413
182	0xbda9a027	-0.082825
183	0xbe6ac315	-0.2292598
184	0x3e66d918	0.22543752
185	0x3e5672dc	0.20942253
186	0xbd939b28	-0.07207328
187	0xbe42cc6d	-0.19023295
188	0x3e229e30	0.15880656
189	0x3d35711d	0.044297326
190	0x3dcb675e	0.09931825
191	0x3e1b9b1a	0.15195885
192	0x3c16a1a1	0.009193809
193	0x3e0a716f	0.13519834
194	0x3e335f76	0.17516884
195	0x3e376421	0.1790929
196	0x3cfd3aa4	0.030911751
197	0x3d4269b5	0.04746409
198	0xbe621759	-0.22079219
199	0x3dc1f5ae	0.09470688
200	0x3e03a57d	0.12856098
201	0x3e0836fa	0.13302222
202	0xbdf37a74	-0.118885905
203	0xbc30280d	-0.010751736
204	0x3d96850e	0.07349597
205	0x3e594dac	0.21221036
206	0x3d0cb710	0.03435427
207	0xbdba4939	-0.09095997
208	0x3df7ddc4	0.12102845
209	0xbe7cd7c4	-0.24691683
210	0xbeae1d8e	-0.34006923
211	0x3e9c5481	0.3053322
212	0x3e093f09	0.13402952
213	0x3b69b8ae	0.0035663056
214	0xbdb1b315	-0.08676735
215	0x3e405464	0.18782192
216	0x3e32fe49	0.17479815
217	0x3e1a15df	0.15047406
218	0xbda891d3	-0.08230939
219	0x3e438bd8	0.19096315
220	0xbd18f0da	-0.03733907
221	0xbe0060d2	-0.12536934
222	0xbeb6fa95	-0.35738054
223	0x3df8e44d	0.1215292
224	0x3e0c842e	0.13722298
225	0x3ea1eca2	0.3162585
226	0x3e7056e4	0.23470646
227	0xbcfa7c8c	-0.030576967
228	0xbeafc214	-0.34327757
229	0xbe75d773	-0.24007969
230	0xbe64c14c	-0.22339362
231	0xbeae8472	-0.34085423
232	0xbcaa44a5	-0.020784685
233	0x3e8aaca9	0.27084854
234	0x3e8dfed6	0.27733487
235	0xbe16de79	-0.14733304
236	0xbdbca4d9	-0.0921113
237	0xbe3f9b81	-0.18711664
238	0xbd763903	-0.060112964
239	0x3d506326	0.050875805
240	0x3e219e59	0.15783061
241	0x3e792364	0.24329907
242	0xbe2e93e7	-0.17048608
243	0x3e9b7213	0.3036047
244	0x3e109dda	0.14122716
245	0xbe466a6c	-0.19376534
246	0x3e343ab8	0.17600524
247	0xbe068043	-0.13134865
248	0xbe08dcbe	-0.13365456
249	0x3e21abe1	0.15788223
250	0x3ce6600e	0.028121974
251	0xbe12ba7e	-0.14328954
252	0x3db56a86	0.08858208
253	0x3e06dca0	0.131701
254	0x3e8d8089	0.27637127
255	0xbc11be31	-0.008895443

weight_hh_l0 f4 [48, 12]
0	0x3ea5e4c7	0.32401106
1	0x3af6e23c	0.0018835734
2	0xbeae316b	-0.34022078
3	0x3d3eee81	0.046614174
4	0xbd4d201d	-0.050079454
5	0x3e059b4e	0.13047525
6	0xbe18e6d6	-0.14931807
7	0xbeaf6e56	-0.34263867
8	0x3eb6a2c8	0.35671067
9	0x3e5fe252	0.21863678
10	0x3e0317b7	0.12802015
11	0xbe5e16a3	-0.21688323
12	0xbe237aea	-0.15964857
13	0xbe1f84e3	-0.15578036
14	0x3e8d3cc1	0.27585414
15	0x3e9d65ea	0.30741817
16	0x3ec3dfb8	0.3825662
17	0x3dc74cd0	0.09731448
18	0xbe53d9b3	-0.20688514
19	0xbd94bca2	-0.07262541
20	0xbe6c9227	-0.23102628
21	0x3e700e7d	0.23443027
22	0xbe772fa6	-0.2413927
23	0x3e22cd6e	0.15898678
24	0x3d4647b0	0.04840821
25	0x3ccc2695	0.024920741
26	0x3e1a779f	0.15084694
27	0xbea466ba	-0.32109624
28	0xbdaa76ab	-0.08323415
29	0x3d4cdb30	0.05001372
30	0xbe02e067	-0.12780915
31	0xbe14b1d9	-0.14520968
32	0xbe2110bc	-0.1572904
33	0xbd8fb716	-0.07017343
34	0xbbfcf0a8	-0.007719118
35	0xbdfdc00c	-0.12390146
36	0x3e85d872	0.26141697
37	0xbd884535	-0.06653825
38	0xbe4b2948	-0.19839966
39	0xbdcaa7e3	-0.09895303
40	0x3d359405	0.044330616
41	0x3ea5e3d8	0.32400393
42	0xbd887cbc	-0.06664416
43	0xbddba2b7	-0.10724395
44	0x3cf12f3a	0.029441465
45	0x3c977a27	0.018490864
46	0x3d4b3b45	0.04961707
47	0xbde5c255	-0.112187065
48	0xbd6e42a5	-0.058169026
49	0x3ce4e461	0.02794093
50	0xbdd1f8d8	-0.10252541
51	0x3e1bfb99	0.15232696
52	0x3e8dd067	0.2769806
53	0x3e1bff9a	0.15234223
54	0x3df2e632	0.118603125
55	0x3eba09d0	0.3633561
56	0xbbc2a83a	-0.0059404643
57	0xbea0a092	-0.31372505
58	0xbe3f978e	-0.18710157
59	0x3e13ff85	0.14452942
60	0x3e735a2c	0.23764867
61	0x3ea7f4f4	0.32804072
62	0x3df1371a	0.11778088
63	0xbe6ca498	-0.23109663
64	0x3cf2f638	0.029658422
65	0xbe77d854	-0.24203616
66	0xbe5dae38	-0.2164849
67	0x3e877d33	0.26462707
68	0x3ce68f51	0.02814451
69	0x3e2c5ab9	0.16831483
70	0x3d419456	0.047260605
71	0xbe55fbb4	-0.20896798
72	0x3e1ccf24	0.15313393
73	0x3e5b61f2	0.21424082
74	0x3e0d8fa8	0.13824332
75	0xbe13fe48	-0.1445247
76	0x3e19a52f	0.15004419
77	0x3d9c0b08	0.076192915
78	0x3e08874b	0.1333286
79	0x39f3b601	0.00046484175
80	0xbd7417a7	-0.05959287
81	0x3db9b221	0.090671785
82	0x3d55c0b1	0.052185718
83	0xbbaf9887	-0.005358759
84	0x3dfb0701	0.12257195
85	0x3ccb0997	0.024784846
86	0xbeb14d3b	-0.34629235
87	0x3e5e73f4	0.2172392
88	0x3c9f6d03	0.01946116
89	0xbd721e8c	-0.059111163
90	0x3e99abe2	0.3001395
91	0xbe3cc25d	-0.18433519
92	0x3e7429a9	0.23844017
93	0x3e28f2c0	0.16498852
94	0x3dcef2db	0.10104915
95	0xbd9aeade	-0.075643286
96	0xbe91d3ed	-0.28482
97	0x3bdb2b56	0.0066885157
98	0x3df9a29a	0.12189217
99	0x3e7515fb	0.23934166
100	0xbe21333a	-0.15742198
101	0xbe800bc4	-0.25008976
102	0x3dda28b7	0.10652297
103	0x3e0a9862	0.13534692
104	0xbebd8fdf	-0.37023827
105	0xbe2d9fa8	-0.16955435
106	0x3e32559a	0.17415467
107	0xbe3bc676	-0.18337426
108	0x3e9b4091	0.30322698
109	0x3de4ee51	0.11178268
110	0xbeae969f	-0.3409929
111	0x3e7aad7f	0.24480246
112	0x3e36afd0	0.17840505
113	0x3dee723f	0.116428845
114	0xbea606c8	-0.3242705
115	0x3e437320	0.19086885
116	0x37f763a6	2.9491097e-05
117	0xbeae5557	-0.34049484
118	0x3dc6fb4a	0.09715898
119	0xbe0014df	-0.12507962
120	0x3e19110c	0.14947909
121	0x3e87b602	0.26506048
122	0xbdd50a2d	-0.104023315
123	0xbc40f5ef	-0.011777385
124	0x3e75371f	0.23946808
125	0x3d4886f5	0.04895683
126	0x3e10f620	0.14156389
127	0x3c620bd0	0.013796762
128	0x3d1322a6	0.035921715
129	0x3d81412d	0.063112594
130	0xbe0cfa7d	-0.13767429
131	0xbdd34ff3	-0.103179835
132	0x3db22bd5	0.086997665
133	0xbd89ec7f	-0.06734561
134	0xbe967a4a	-0.29390174
135	0xbdc72b70	-0.09725082
136	0xbd3560f8	-0.04428193
137	0x3d114154	0.035462692
138	0xbe49c8a4	-0.19705445
139	0xbdba855d	-0.09107468
140	0x3d604d35	0.05476113
141	0x3d85c4a7	0.06531649
142	0xbc1d2f5a	-0.009593809
143	0xbe1db255	-0.1540006
144	0x3e18749f	0.14888237
145	0xbd8b4af7	-0.06801408
146	0xbe98a378	-0.29812217
147	0xbdd33a00	-0.10313797
148	0x3da9497b	0.082659684
149	0x3e8d0fef	0.2755122
150	0xbe0191c3	-0.1265326
151	0x3d6f09de	0.05835902
152	0xbe00f704	-0.12594229
153	0x3dc9b961	0.09849811
154	0xbe09050b	-0.1338083
155	0xbe2692b5	-0.16266902
156	0xbdce58d5	-0.10075537
157	0x3e8a6022	0.2702647
158	0xbe4c4c8a	-0.19951072
159	0x3e3e850a	0.18605438
160	0x3ec3b071	0.38220552
161	0xbe9c96cd	-0.30583802
162	0x3df02b59	0.11727018
163	0x3ea2e13e	0.3181247
164	0x3e23832d	0.15968008
165	0x3e26d173	0.16290836
166	0xbeb5d725	-0.35515705
167	0xbd4aa5c5	-0.049474496
168	0xbd4b8533	-0.049687576
169	0xbe2ba3ce	-0.16761705
170	0xbeaec9c2	-0.34138304
171	0x3e14b0dd	0.14520593
172	0xbeb4f358	-0.35341907
173	0xbd92a6c3	-0.071607135
174	0xbd98cbfc	-0.07460782
175	0xbe0f1054	-0.13971072
176	0x3c9b23ac	0.018937908
177	0xbe05fad8	-0.1308397
178	0x3ec0ffc0	0.37695122
179	0x3db34145	0.087526836
180	0x3e24e8dc	0.16104454
181	0xbe95f3d0	-0.29287577
182	0x3e3fcce3	0.18730502
183	0xbe955206	-0.2916414
184	0xbcf0a1d5	-0.029374043
185	0xbe168578	-0.14699352
186	0x3e81c241	0.25343516
187	0xbcbed331	-0.023294063
188	0x3cea1273	0.02857325
189	0x3e801b32	0.25020748
190	0x3e55ffe7	0.208984
191	0xbe4afe76	-0.19823632
192	0xbe6c39c9	-0.23068918
193	0x3e7a0a1a	0.24417916
194	0x3ddd08a0	0.10792661
195	0x3e9789b3	0.29597244
196	0x3e153d6b	0.1457421
197	0xbe841e39	-0.25804308
198	0x3d2ef6db	0.04271589
199	0x3e6457af	0.22299074
200	0x3e1bafce	0.15203783
201	0xbe91acbc	-0.28452098
202	0xbd12393c	-0.035699114
203	0x3d79a7e4	0.06095113
204	0xbd5fcca4	-0.05463852
205	0x3eb3c188	0.3510859
206	0xbab0ca47	-0.0013488018
207	0x3e93a0b7	0.28833553
208	0x3ddfc149	0.10925538
209	0x3dd8e1e4	0.1058996
210	0x3e20e614	0.15712768
211	0x3e2f5c99	0.17125167
212	0x3c37c8d9	0.011217319
213	0x3d7bd4b0	0.06148213
214	0x3e27053f	0.16310595
215	0xbb682630	-0.0035423152
216	0x3d9dc84d	0.0770422
217	0x3e3a86c7	0.18215476
218	0x3e45bccb	0.193103
219	0x3e279594	0.16365653
220	0x3e1a1bd6	0.15049681
221	0xbdc70fb5	-0.09719793
222	0xbe04861b	-0.12941782
223	0x3e090f05	0.13384636
224	0x3d656568	0.05600491
225	0xbcb7d3a3	-0.022439783
226	0xbdbe0237	-0.09277766
227	0x3d162b04	0.036662117
228	0x3e2d07d9	0.16897525
229	0x3e4a1d2a	0.19737688
230	0x3e37fdc7	0.17967902
231	0x3daf6ae4	0.0856531
232	0x3d30366d	0.043020654
233	0x3e268110	0.16260171
234	0x3ea8d01f	0.32971284
235	0xbe055196	-0.13019404
236	0x3ea87f51	0.32909635
237	0xbda90610	-0.082531095
238	0x3dd3ed4d	0.10347996
239	0x3e0d2d01	0.13786699
240	0xbe7b46be	-0.24538705
241	0x3dc3fc20	0.095695734
242	0x3eb3d077	0.35119984
243	0x3e403774	0.18771154
244	0x3e9456e7	0.2897255
245	0xbd1c6bb9	-0.03818867
246	0xbd6ec786	-0.05829575
247	0xbe1b48dd	-0.15164514
248	0x3e296cfd	0.16545482
249	0x3d24623e	0.040132754
250	0xbec61073	-0.38684425
251	0x3d03105d	0.031998027
252	0xbe01b128	-0.12665236
253	0x3d7196f0	0.058981836
254	0xbd2b8199	-0.04187164
255	0x3e1a745a	0.15083447

bias_ih_l0 f4 [48]
0	0xbe91e17e	-0.2849235
1	0x3d7cf768	0.061759382
2	0xbe327137	-0.17426
3	0x3e7fa622	0.24965718
4	0x3dab09c6	0.083514735
5	0xbdb88207	-0.09009176
6	0xbc406ba0	-0.01174441
7	0x3d9add55	0.07561747
8	0x3df983ff	0.121833794
9	0xbe639bc2	-0.22227386
10	0x3ec5a9e6	0.38606185
11	0x3dd99577	0.10624211
12	0xbcd27fff	-0.025695799
13	0x3d9fd7cd	0.078048326
14	0x3e06d18a	0.1316587
15	0xbea77a6d	-0.3271059
16	0x3d90a52f	0.07062756
17	0xbe2fd045	-0.17169292
18	0xbdbac426	-0.091194436
19	0x3d927e75	0.07153026
20	0x3e8dda14	0.27705443
21	0xbe029e47	-0.1275569
22	0xbe413e84	-0.18871504
23	0x3df1fe92	0.118161336
24	0xbd1afde2	-0.037839778
25	0xbe19c98e	-0.15018293
26	0xbea42d84	-0.32065976
27	0x3e98ca76	0.29841965
28	0x3d2c1781	0.042014603
29	0xbe433a1b	-0.19065134
30	0xbe7b5b45	-0.24546535
31	0x3e543460	0.20723104
32	0x3e0c6406	0.13710031
33	0xbde949b3	-0.1139101
34	0xbda1f1c7	-0.079074435
35	0xbdb39cc0	-0.08770132
36	0xbeb2927c	-0.34877384
37	0x3eb53095	0.35388628
38	0x3d999d89	0.075007506
39	0x3d9219d6	0.07133834
40	0xbdec913c	-0.11551139
41	0x3eb01115	0.34388033
42	0x3e1fcc45	0.15605266
43	0xba1e2517	-0.00060327485
44	0xbe0f759a	-0.14009705
45	0x3e307a75	0.17234214
46	0x3ea2d507	0.31803152
47	0xbe8b7491	-0.2723737

bias_hh_l0 f4 [48]
0	0xbe4ca333	-0.1998413
1	0x3e89e062	0.26929003
2	0x3dd788e0	0.10524154
3	0x3c81b97f	0.015835522
4	0x3e4a48ef	0.19754384
5	0xbe192bd7	-0.1495813
6	0x3e5cf78e	0.2157881
7	0xbde8d94a	-0.113695696
8	0x3e9bffc1	0.30468562
9	0xbc4831e3	-0.012218925
10	0x3a4756ec	0.00076042
11	0xbe3fd027	-0.18731748
12	0x3e0d1219	0.13776435
13	0x3eafcd2d	0.34336224
14	0xbe50d597	-0.20393978
15	0xbd82713a	-0.063692525
16	0xbde01447	-0.109413676
17	0x3e8b7109	0.27234676
18	0x3e4996ca	0.19686428
19	0xbe09e360	-0.13465643
20	0x3e248134	0.16064912
21	0x3e0e5137	0.13898169
22	0x3e7cfd08	0.24705899
23	0x3e0c32f3	0.1369131
24	0x3e668d72	0.22514895
25	0x3d7b1d44	0.061307207
26	0x3e1e83fc	0.15480036
27	0x3e26aa40	0.16275883
28	0x3e2bc54d	0.16774483
29	0x3dbf51ad	0.0934175
30	0x3df489d7	0.11940353
31	0x3daa2e33	0.08309593
32	0xbebc8fdb	-0.36828503
33	0xbdea3cfa	-0.114374116
34	0xbe92520e	-0.28578228
35	0x3e1facd4	0.15593272
36	0xbeade4ac	-0.33963525
37	0x3d2917b6	0.041282378
38	0xbd8c308d	-0.06845198
39	0xbe04840a	-0.12940994
40	0x3e605e90	0.21911073
41	0x3e2b4ea0	0.16729212
42	0xbda65e28	-0.08123428
43	0x3e58db64	0.21177441
44	0xbd0ef0f7	-0.03489777
45	0x3e31c33d	0.17359634
46	0xbe38fcb0	-0.18065143
47	0xbd61ef64	-0.05515994

weight f4 [8, 12]
0	0xb9320c8d	-0.00016980078
1	0xbe255680	-0.16146278
2	0xbde52848	-0.11189324
3	0x3ea34391	0.31887487
4	0x3e1c388c	0.15255946
5	0xbe141f2c	-0.14465016
6	0xbe37b5f7	-0.17940508
7	0x3dc895e7	0.097942166
8	0xbe6c68c1	-0.23086835
9	0x3dba829d	0.09106944
10	0xbcd7c616	-0.026339572
11	0x3d8cae39	0.06869168
12	0x3e44c5b8	0.19216049
13	0x3e9a59cc	0.30146635
14	0x3db18415	0.08667771
15	0xbe10c24f	-0.14136623
16	0x3e96dcd5	0.29465356
17	0xbe6bf272	-0.23041704
18	0xbe0a13fa	-0.13484183
19	0xbd2e432e	-0.042544536
20	0xbebca1f3	-0.36842307
21	0xbe15ffe9	-0.14648403
22	0xbe6122e5	-0.21985967
23	0xbde4f428	-0.111793816
24	0x3e433d7f	0.19066428
25	0x3e56f838	0.20993125
26	0x3e199b79	0.15000714
27	0xbe3fb8e0	-0.18722868
28	0xbe105ba0	-0.14097452
29	0xbeb0d096	-0.34534138
30	0xbe877585	-0.26456848
31	0x3dadf5d2	0.08494152
32	0xbeacfcf3	-0.33786735
33	0xbc9b8eb1	-0.018988939
34	0xbec31297	-0.3810012
35	0xbe374a2d	-0.1789939
36	0x3e919767	0.28435823
37	0xbe891e1b	-0.2678078
38	0xbd155fce	-0.03646832
39	0xbdbcdee2	-0.09222199
40	0x3d5048e4	0.050850764
41	0xbda78049	-0.08178765
42	0x3e6ad3c4	0.22932345
43	0x3e2a2404	0.16615301
44	0xbd1b9455	-0.037983257
45	0x3e8f4749	0.27984074
46	0x3e09fa1d	0.13474317
47	0x3e4e69f7	0.2015761
48	0x3e4b82b8	0.19874084
49	0xbe0c62d9	-0.13709582
50	0x3e0692c0	0.13141918
51	0xbea6ac35	-0.3255326
52	0xbebb659b	-0.36600956
53	0x3e435568	0.19075549
54	0x3dc6a9c7	0.09700351
55	0xbe5b7805	-0.21432503
56	0x3e0bcc05	0.13652046
57	0x3d70f8ac	0.058830902
58	0xbe166b6f	-0.1468942
59	0xbea0afa2	-0.31383997
60	0x3e781c64	0.2422958
61	0xbeb83a5a	-0.3598202
62	0x3d36231d	0.04446708
63	0xbea61f45	-0.32445732
64	0x3da5d103	0.080965064
65	0xbdf18219	-0.11792392
66	0x3dc1a3fe	0.09455107
67	0x3d82ff3e	0.0639634
68	0x3e1a846e	0.1508958
69	0x3e217836	0.15768513
70	0xbca9da1d	-0.020733887
71	0x3ddb4787	0.10707002
72	0x3e7e7839	0.24850549
73	0x3e45c6f5	0.19314177
74	0x3df7fd26	0.12108831
75	0xbdfc4b06	-0.12318997
76	0xbe6ffc75	-0.23436148
77	0x3d1f1e2f	0.038847145
78	0xbe0bda18	-0.13657415
79	0x3b371f01	0.0027942064
80	0x3dd6d676	0.10490124
81	0x3d9cb15a	0.076510146
82	0xbe82c561	-0.25541213
83	0xbe3aa2ac	-0.18226117
84	0xbebb7682	-0.36613852
85	0x3e7b7ce9	0.24559368
86	0xbde8168e	-0.11332427
87	0x3e625089	0.22101034
88	0x3e29c269	0.16578068
89	0xbdb8a420	-0.09015679
90	0xbe4e2b43	-0.2013369
91	0x3e86c058	0.26318622
92	0xbea4d0ad	-0.32190457
93	0x3eb6afd5	0.35681024
94	0xbe84f21e	-0.2596597
95	0xbe06cd7d	-0.13164325

bias f4 [8]
0	0x3e831df0	0.25608778
1	0x3e98e30b	0.2986072
2	0xbe0948e2	-0.13406709
3	0x3dd427dc	0.10359165
4	0xbeadfcd3	-0.33981952
5	0xbe935e5b	-0.28782925
6	0x3cdf3e7a	0.02725147
7	0x3e09ada1	0.1344514
