models/recomendation_models/scripted_user_preference_model_v22_16_dim_wide.pt (torch, 746982 bytes, 12 tensors)

hidden f4 [1, 1, 128]
00000000: 4e2e 69bf d274 1535 21a8 643f d411 1e38
00000010: 1b4d 3f3f 8b27 92b2 c321 fcbd 3a81 54bf
00000020: fdb0 08bd 4850 d439 5eea 8bb3 47f7 403c
00000030: 50eb 943e a8ec dd34 67e4 80b8 9703 c93d
00000040: b398 aeb9 3674 6ebf 35e6 13b3 8131 323f
00000050: 7b4f a835 851e 9cb5 238a 6dbf f880 3a33
00000060: 604b a0bd cc67 ec32 5054 46b1 2334 49bd
00000070: e33e 183b d87f 66bf a98a 3f35 23aa 4fbe
00000080: 3015 4938 36fa 93b4 9f4c 7c3f 642b 48b3
00000090: 102a d7b2 35bf 2d3f 54da 293e 3f36 c8bc
000000a0: 5f94 5fbf 3a9d 553f b68d d832 6849 31bd
000000b0: 909f 9db3 0e8e 913e 3464 8abe db6f 08be
000000c0: 8571 91b5 41a8 b93d 75c8 313e c8c9 4db3
000000d0: 6811 70bf 7c6e 17b8 88d5 e037 420a 45ba
000000e0: 424c 243f ebf7 4cb2 329f f734 11e4 6b3f
000000f0: a39e 6a3e c5df 703e c2ad 32bf e484 d33d
00000100: 5db9 0f35 8d3c 2437 fde5 6dbf b62c fbb3
00000110: 390f 663f fcce 4eb7 ebfa 99b2 9f3f 60bf
00000120: d828 24b3 6c07 4f36 301a 56b7 08ac 17bd
00000130: f754 19b6 0cdf db3e 5ac7 89be c4ac 18be
00000140: 9edf 56bf d705 563f 5931 603f 8981 89b5
00000150: e232 7e33 0c9f a9b3 d1f3 663f fe7b 6bbd
00000160: 5dc0 2635 db9a e93d 2cc6 33b4 93cb 1e35
00000170: 06b9 893d d9d6 35b9 f594 a7b4 1235 5c35
00000180: 636e e2be 1b38 7b3c 846e 6bbf 56e6 9cbc
00000190: 5618 6b3f 0069 6c3f 3798 783d 9faa 1b3e
000001a0: 7701 95b3 2c38 3a35 d660 e53d 63f7 16bf
000001b0: ea1e 3034 0e22 533f c036 6f3f de6d 4ebf
000001c0: f5d7 b9b2 0335 f83e 10d0 f1b4 e1e6 073c
000001d0: 3498 733f 725d 1b32 3bdf 79bf ba71 5db2
000001e0: 6d88 8631 1f8d d832 4b06 35bf 18f2 0135
000001f0: 4768 0ebd 8d9a 64bf 9fd8 12be 91ec 1736
-0.9108628 5.567682e-07 0.89319044 3.768674e-05 0.7472703 -1.7014619e-08 -0.12311127 -0.83009684
-0.033371914 0.00040495605 -6.515323e-08 0.0117777055 0.2908578 4.1336648e-07 -6.146059e-05 0.09815138
-0.00033301636 -0.93146074 -3.4435477e-08 0.69606787 1.2540107e-06 -1.1631788e-06 -0.92788905 4.3423796e-08
-0.07826877 2.7521217e-08 -2.8860718e-09 -0.049121987 0.0023230843 -0.90038824 7.135482e-07 -0.20279746
4.7941867e-05 -2.7562936e-07 0.98554415 -4.6605592e-08 -2.5048422e-08 0.67869884 0.16587192 -0.024439929
-0.8733577 0.83443034 2.5210152e-08 -0.043282896 -7.3399065e-08 0.28428692 -0.27029574 -0.1332392
-1.083638e-06 0.09065295 0.17361625 -4.79138e-08 -0.9377656 -3.6104102e-05 2.6802314e-05 -0.0007516482
0.6417886 -1.1930733e-08 4.6123165e-07 0.92144877 0.22912078 0.23522861 -0.69796383 0.10328081
5.354139e-07 9.78926e-06 -0.9292906 -1.1696231e-07 0.8986698 -1.2326749e-05 -1.7925649e-08 -0.8759708
-3.8221373e-08 3.0849724e-06 -1.2761491e-05 -0.037029296 -2.2848233e-06 0.4294361 -0.26909906 -0.14909655
-0.8393496 0.8360266 0.875753 -1.0244995e-06 5.918526e-08 -7.898606e-08 0.90215784 -0.057491295
6.2119744e-07 0.114064895 -1.6742769e-07 5.9155826e-07 0.067247435 -0.00017341542 -3.1214554e-07 8.2033614e-07
-0.44224843 0.015333201 -0.9196551 -0.019152801 0.9183401 0.9234772 0.06069204 0.15201806
-6.9386196e-08 6.937214e-07 0.112001106 -0.5897123 1.6402524e-07 0.8247384 0.93442917 -0.80636394
-2.163504e-08 0.48477945 -4.5041133e-07 0.008294792 0.9515412 9.0434344e-09 -0.9760625 -1.28897515e-08
3.915423e-09 2.5209884e-08 -0.7071273 4.840854e-07 -0.034767415 -0.89298326 -0.14340447 2.2638453e-06

hidden f4 [1, 1, 128]
00000000: d967 b9c2 468d bd3a 2bfe b542 735c 753a
00000010: b826 c142 a934 c7b8 46a4 c2c2 062a afc2
00000020: 1ad2 1cbf ce0d f43d 6905 46b9 bbad c53d
00000030: d986 833f fdff d439 003b 1abc 290c 0541
00000040: 2007 2ebc 7193 bfc2 7c45 03b9 828a bf42
00000050: 3c61 163a d261 29bb 3bd3 bac2 cd38 303a
00000060: 7b1c c3c2 fc8b 7f38 2f91 0eb8 398a 88c2
00000070: 16b4 df3d ae27 c0c2 d121 f038 5a33 b4c2
00000080: 3626 8c3b 4922 61ba c331 c142 faef 56b9
00000090: 8a64 6ab9 2a26 bf42 575e c342 d939 62c1
000000a0: f295 a0c2 0040 ae42 db88 6039 e57a bdbf
000000b0: 4946 59b9 e84a be42 3598 a9c2 36a0 bac2
000000c0: 228b 77b9 1c56 b742 34df 5c42 f52c c3b9
000000d0: 19c6 70c1 0507 afbc 9ccb 573d f8b2 78be
000000e0: a493 bd42 3d8f c6b7 d220 9d3a 4c9b b542
000000f0: 479b 593f b9f9 9a42 9205 bdc2 a08e c042
00000100: 21bd e939 ae0e 2e3b 25f2 bbc2 2c14 a6b9
00000110: 34cf 4d42 b12b 4cbb 333e cbb7 5706 9cc2
00000120: 1e7e 78b9 7e25 c139 d4f6 a1ba 6728 27c1
00000130: 70e2 a8ba 5a9c c340 1325 afc2 728d b8c2
00000140: 8163 bec2 1e30 be42 9785 c242 f663 7aba
00000150: f002 d739 4569 5aba d709 bf42 66b7 b2c2
00000160: 605b 333a 4d16 b442 9d15 00ba bfa1 6139
00000170: 5720 c042 784a d0bd 1773 b7ba 8217 c23a
00000180: 7517 bcc2 ae17 b742 a622 c1c2 0d6c bac2
00000190: e27b bb42 51e5 b742 29eb c142 d85d af42
000001a0: 5968 93b9 9338 943b bb38 c442 1874 b0c2
000001b0: 772c 1d39 dfa0 b442 6d9f c042 f3d4 a6c2
000001c0: fddb 29b9 9c91 b942 dc3c 87b9 b288 3f41
000001d0: e139 c142 be77 a738 93ee bac2 5113 e4b8
000001e0: 1df0 9e38 bc73 0138 ce8d c2c2 b60d cb39
000001f0: 395d 85bf b115 9fc2 8959 90c2 324f 063a
-92.70283 0.0014461658 90.99642 0.00093597843 96.57562 -9.498868e-05 -97.32085 -87.58208
-0.6125809 0.119166955 -0.00018884767 0.09652277 1.0275527 0.00040626517 -0.009413481 8.315469
-0.010621816 -95.78797 -0.00012519018 95.77052 0.0005736535 -0.002584566 -93.41256 0.0006722331
-97.555626 6.092711e-05 -3.399065e-05 -68.269966 0.109230205 -96.0775 0.000114503906 -90.100296
0.004277016 -0.0008588178 96.59719 -0.00020498029 -0.00022353433 95.57454 97.68426 -14.139123
-80.29286 87.125 0.00021413287 -1.480313 -0.00020720916 95.1463 -84.79728 -93.31291
-0.00023607587 91.66818 55.21797 -0.00037226794 -15.048364 -0.021365652 0.05268441 -0.24287021
94.78836 -2.367014e-05 0.0011987931 90.803314 0.8500256 77.48774 -94.51088 96.278564
0.00044582135 0.0026559043 -93.97294 -0.00031677017 51.452347 -0.0031153972 -2.422845e-05 -78.01238
-0.00023698105 0.00036839762 -0.0012356886 -10.447364 -0.0012884866 6.112836 -87.57241 -92.27626
-95.19434 95.09398 97.26092 -0.00095516385 0.00041010184 -0.00083317264 95.51922 -89.3582
0.0006841924 90.04356 -0.0004886033 0.00021517927 96.06316 -0.10170454 -0.0013996091 0.0014808031
-94.045815 91.54625 -96.56767 -93.21104 93.74196 91.94788 96.9593 87.68329
-0.0002811577 0.0045233457 98.1108 -88.226746 0.00014989251 90.3142 96.31138 -83.41592
-0.00016199048 92.78439 -0.0002579455 11.970873 96.613045 7.985484e-05 -93.465965 -0.00010875485
7.578752e-05 3.0863783e-05 -97.27696 0.00038729393 -1.0419074 -79.542366 -72.17487 0.00051234954

weight_ih_l0 f4 [512, 20]
00000000: c00d a03d e540 193e 96f2 43bd 8cce 843d
00000010: fb98 2cbe 748a 1d3e 86e2 833c 5a0c 9e3d
00000020: c1ea 2bbe 6c78 ae3d ccb2 b33c 84be d93c
00000030: af03 ef3d 2811 d23d d481 033e 0adb c23d
00000040: 2ca1 18be 5195 183e 1972 4c3d 6bb9 323d
00000050: 52c9 6dbd 9d89 67bd 107c ba3d ee0e 3abc
00000060: 44a0 053e d144 92bd cb16 a83b 7870 b03c
00000070: 776c 2f3c 9952 abbc 0ec5 86bd 4d2c 7dbd
00000080: af55 01bd ed07 a1bd 8391 7eb9 cddf 89bd
00000090: fc06 38bc d279 01be 572e 96bd 03ae c6bd
000000a0: a9a0 e33d 32fe c33a 8546 8ebb 9113 b93c
000000b0: d612 09be b387 213d 052e 0f3e 8bc1 8a3c
000000c0: c26c 9bbd 5830 723d 556f 03bb a8eb a7bc
000000d0: 7ccd d93d 0167 f03d a114 95bc a7cc 143d
000000e0: cef0 0dbe b753 183e 3e37 643c 6ea6 723d
000000f0: e388 79bc 2cd5 5bbd 15f0 f23c 0e73 08be
00000100: 37b2 9b3d 448f ebbd 4fb4 07be 243a f8bd
00000110: 70fb a4bc 8623 8abd 06d6 97bd ae9a e3bc
00000120: beb0 d7bd f55e c3bd d288 033d 1d12 9f3c
00000130: 0a04 7bbc 367f 063c f736 4dbb d224 85bd
00000140: a969 fa3d 5da8 053e a4df fabd 7eda 023e
00000150: 6b09 d8bd 9344 013e 77ed 193e bb2b 4b3d
00000160: cb34 07be 3cf7 b93c e4a5 183d ac79 423b
00000170: cf75 663d 01ff 973d 0273 d13c 5f43 5a3d
00000180: 1c5c 80bd 9c15 3f3b 4719 613d 3029 023e
00000190: ee8c 9abd 47ef e6bd fa12 383d e2bc 2abe
000001a0: 9b78 023d 421b 22be 8455 14be 803b 27be
000001b0: 9295 933d fb9c ea3b e4bb 9bbc 3dce 22be
000001c0: d3dc 24be f4af 08be fce2 dcbd d5dc b9bd
000001d0: c8ef 993d 3045 a73b e80f 08be 08b3 10be
000001e0: 82e0 0839 7cb5 0d3e bcd4 2d3d 6321 de3d
000001f0: 5e1a 05be 50f4 bf3c cdfb f13d b74a dc3d
00000200: 137b 58bd 3d45 843d 7aa9 c03d a0be 3a3d
00000210: 0ff5 1a3e d114 25bc 8ca2 8a3d 0353 143d
00000220: 1f21 1cbc 6ed2 b43d 58b2 133d 8517 b43d
00000230: 9d74 ec3d edf0 dd3d b016 c9bb 1e03 e23d
00000240: 02a7 a2ba 8275 073e 1f07 f23d 6613 553d
00000250: 41c1 40bd baee b33c 8ce6 c23d 5a36 133e
00000260: f59d 1b3e e31a cebb acda 5d3c 7019 32bb
00000270: a7b8 21bd 05a8 183d 4882 b53d 5762 0c3e
00000280: 45e3 e9bc cee9 4f3d 25ab af3c 24ef b83d
00000290: f749 bdbc f7c4 26bd c83a af3d d24b 98bd
000002a0: 81be c0bc 0536 1b3d 8c4e dbba dfd9 29ba
000002b0: 5414 57bd 116a e7bc 84e3 343d cd95 48bd
000002c0: 8322 ab3d 7ba5 cabc 1df4 13bd c8e4 403d
000002d0: 8792 dbbd 049c a0bc 9704 5a3d 0641 b1bc
000002e0: 9b3c 51bc 0371 01bc 7a76 53bc 6db5 7dbd
000002f0: 8fba 87bc d38c c2bb 8a39 2cbd 67b1 ab3b
00000300: 5725 f23a 65c2 d9bd cc68 84bc 2400 423d
00000310: 6029 00bd b4a1 bfbd 1860 15bc d417 ddbd
00000320: a216 45bd 5671 24bd 3fad 4a3d 812f c6bd
00000330: d168 cf3d 4b88 1bbe 8a99 21be cde7 c9bd
00000340: a718 b03d 26b1 4bbd 39d0 a9bd 0707 9e3b
00000350: e05e aabd ada2 4fbc af1a 20be d23b 03be
00000360: 68c4 813d 442c 69bd fe87 55bd 99ec 82bd
00000370: 936f 85bc dcd3 eb3c f44b 003b 8e2c 553d
00000380: 332b cc3d 4a95 94bd ef60 4a3c 2c26 0c3d
00000390: 2e7f e2bc ff0e 00bd 0c81 1e3d 3450 cdbd
000003a0: 7c43 5fbd 8628 1f3d 9c21 d6bd 9ebb 2cbd
000003b0: 4d78 cd3d 03dc b6bd 43b0 2ebd f284 babd
000003c0: 574d 42bc e1b6 b43d 12b7 1fbd 82bb fa3c
000003d0: d061 9bbd 2146 de3b e61c 12bd 614e 923d
000003e0: 8077 1eb9 793a 513d 6cef ae3c f444 e6ba
000003f0: b1c6 03bc 20b4 4a3d ad2f fd3d 15c9 933d
0.078151226 0.14966162 -0.04783877 0.06484708 -0.16855232 0.15384847 0.016099226 0.077171996
-0.1678877 0.085190624 0.021935843 0.026580103 0.116706245 0.102571785 0.12842494 0.09514435
-0.14905232 0.1490071 0.0499135 0.04363386 -0.058053322 -0.056527723 0.09105694 -0.011356099
0.13049418 -0.07142032 0.0051296703 0.021538004 0.010707012 -0.02091341 -0.06580554 -0.061809827
-0.031575855 -0.0786284 -0.00024277535 -0.0673214 -0.011232134 -0.12644127 -0.073330574 -0.09701159
0.11114628 0.0014953075 -0.0043419027 0.022592338 -0.13386092 0.039436053 0.13982399 0.016937992
-0.07589103 0.059128135 -0.0020055373 -0.020498112 0.10634896 0.117383964 -0.018198313 0.036327984
-0.13861391 0.14875685 0.013929186 0.05924075 -0.01523039 -0.053670093 0.029655496 -0.1332514
0.07602351 -0.11501935 -0.13252376 -0.121204644 -0.020139426 -0.06745057 -0.074138686 -0.027783718
-0.10531758 -0.09539596 0.032112904 0.019417817 -0.015320787 0.00820904 -0.003131328 -0.065011635
0.12227184 0.13052507 -0.12249687 0.1277866 -0.10548671 0.12623815 0.15031992 0.04960225
-0.13203733 0.022700898 0.03726758 0.0029674573 0.056264695 0.07421685 0.025567535 0.053286906
-0.062675685 0.0029157167 0.054955747 0.12711024 -0.075464115 -0.11276107 0.044939972 -0.16673616
0.0318533 -0.1583071 -0.14485747 -0.16331291 0.07206263 0.007159827 -0.019010492 -0.15898986
-0.16099863 -0.13348371 -0.10785481 -0.090753235 0.07516438 0.0051046833 -0.13287318 -0.14130795
0.00013053606 0.13838762 0.042439207 0.10846212 -0.1299834 0.023431927 0.11815605 0.10756438
-0.052851748 0.06458519 0.09407325 0.04559195 0.15132545 -0.010075764 0.067692846 0.03621198
-0.009529381 0.08829199 0.036058754 0.087935485 0.1154568 0.108369686 -0.0061367378 0.11035751
-0.0012409391 0.1322842 0.118177645 0.052020453 -0.0470593 0.02196442 0.095166296 0.14376202
0.15196975 -0.0062898262 0.013540905 -0.0027175806 -0.03948274 0.03726961 0.0886274 0.13709389
-0.028550753 0.050760083 0.021443913 0.090299875 -0.023106558 -0.040715184 0.085561335 -0.074363366
-0.02352834 0.037893314 -0.0016731783 -0.00064793037 -0.05250962 -0.028248819 0.04416229 -0.048970986
0.08356192 -0.02473711 -0.036121476 0.047093183 -0.10721307 -0.019605644 0.053227033 -0.02163745
-0.012770797 -0.007900479 -0.012906665 -0.0619406 -0.01656845 -0.0059371977 -0.04204706 0.005239654
0.0018474263 -0.10632781 -0.016163252 0.047363415 -0.03128946 -0.09357014 -0.009117149 -0.107955605
-0.048117287 -0.040147148 0.049481627 -0.096770294 0.10127414 -0.1518871 -0.15781227 -0.098586656
0.08598452 -0.04972949 -0.082916684 0.004822615 -0.08318877 -0.012673062 -0.15635179 -0.12815788
0.0633629 -0.05692698 -0.052131645 -0.06392784 -0.016288554 0.028787546 0.0019576522 0.052044444
0.09969177 -0.07255037 0.012352212 0.03421609 -0.027648535 -0.0312643 0.038697287 -0.10025063
-0.054507717 0.038857006 -0.10455629 -0.042171113 0.10032711 -0.08928683 -0.042648565 -0.091073886
-0.01185926 0.08823944 -0.03899295 0.030606989 -0.07587016 0.0067832624 -0.03567209 0.07143856
-0.00015112571 0.051081154 0.0213544 -0.0017568157 -0.008042977 0.049488187 0.12362609 0.07216088

weight_hh_l0 f4 [512, 128]
00000000: 644b 42bd 70e7 6bbd 9c34 243e ce05 d3bd
00000010: e1e1 b03d d836 48bd 552b 0fbe 954b d8bd
00000020: 020b dabd 4657 813b 14ed 0f3e 20de 0f3e
00000030: 2c02 873c d759 563d 5564 a3bc dc56 183e
00000040: e29e f8bc 7673 80bd b0f7 f1bc cef6 f03c
00000050: a722 aa3d 3529 c3bd be17 26be 799e c93d
00000060: bc90 17be 7636 6f3d a316 5fbd 1633 c3bd
00000070: 402e 1c3e d621 88bd 135a 94bd 090b 493c
00000080: 5ce0 b33d b7d5 2c3b f26a c93c 3ffd cbbd
00000090: 9ae4 993d 95b6 083e cdfd b23c d874 2cbd
000000a0: 1ec2 16be 2ba7 18ba 6b34 493d 6581 15be
000000b0: 010e e4bd bdb9 be3d f5e2 58bd 9213 98bc
000000c0: 79a7 d2bb ba6a 9c3d a18e 3f3d 6f22 fe3d
000000d0: 2530 06be 42ce e039 3837 d1bc 6cfb c33c
000000e0: 487a e93d 3458 a13d 7ab7 3c3d 9f42 cf3d
000000f0: 7ad4 0f3e 2356 a53c 91e3 1abd ccf9 ab3d
00000100: b7b0 a6bd eea9 76bb 9e22 82bd 5a8b 053d
00000110: f70f 933d 580e d6bc 6de5 ab3d 2669 99bc
00000120: f70b 25bc e29b 303d 9a16 31bd 1e0b 70bd
00000130: d096 263c b056 3a3d 77f7 e1bd f931 19be
00000140: a0bc 3ebc c391 043e 5661 e83d 2059 713d
00000150: 89f0 00bd c902 e6bc ef5f ab3c 2960 ebbd
00000160: f413 8cbd 7dce b33d d351 df3d 9fc8 04bd
00000170: 2f9f 0d3d 91ba b9bd 92e9 03be d662 01be
00000180: 8ba9 08bd 6d94 0c3d 5c57 3ebd 9f97 0cbe
00000190: 85fb a7bb a307 8a3d a469 093e fba5 a0bb
000001a0: 4a61 a3bd 2caf f7bc 7373 eb3d bb37 edbc
000001b0: a006 af3c 44d7 ae3d 8e9c cc3d d5df c9bd
000001c0: 0396 2e3d 851e 883d 6467 40bd 2e11 fc3d
000001d0: 72db 383d 1fd1 fb3d ba4c 513b a602 bc3d
000001e0: 7036 283d 18f1 283d 1104 2c3b 8f70 083e
000001f0: d47a c0bd fbf5 99bd 3c14 a9bd 416e b3bc
00000200: 3870 dc3d 2280 cf3d 0456 e9bd 0ad3 ab3d
00000210: b3f6 0abe 62db 79bd 18d7 ba3d ae30 ed3d
00000220: 40b6 14bd e49b bebd 45b7 873d f9a7 cbbc
00000230: 8370 a2bd d87a 653d b57f c4bd e01f e4bd
00000240: d685 9c3d 77fd e33d 6d92 97bd 34a2 09be
00000250: 782a 3cbd af5b dbbb 88c7 8c3d 149e 943d
00000260: 4f72 263d f568 babc ad41 223c 5a5b 6a3d
00000270: ba19 d0bd 330f e03d 3f24 173d dbd0 993d
00000280: 0d8f f6bc 12c3 d7bd dbe7 36bd 2a18 debd
00000290: 3095 cb3c b446 b53c 941d 7bbd 6f8f d93d
000002a0: 100a 133e 2469 06bd c2ff 5bbb 34ca 4a3d
000002b0: 8935 e3bd 4ae4 c3bd 35e9 aa3d 6206 c1bc
000002c0: 8705 bdbd d518 ecbd 1a09 a3bc c387 9d3d
000002d0: 67a6 073e 473e dbbd 4490 2d3c 2b40 023e
000002e0: f12a ed3c 331b 8f3c 913c a33d d446 8c3c
000002f0: ac52 87bd cf5d 03bd 96c1 90bc f26e bdbd
00000300: 27ff 1dbc 2232 11bd 7503 9a3c 877b b93c
00000310: 1f04 443d a14f a3bd 4996 28bc ca03 833c
00000320: 33c2 ccbc 1f00 e53d 84d5 4cbd f69b 0e3d
00000330: 490a e13c 64d9 79bd 3942 023d 8b1f fa3d
00000340: f888 a23d bcf4 c3bd 6781 b2bd 3e45 963b
00000350: d4e4 c83b b9b7 a73d cb15 8fbd 1fe8 c1bc
00000360: 3feb d33d 89c5 abbd bffc 98bd d268 1bbd
00000370: b942 c83c 7cbb c53d 30b5 99bd d780 143e
00000380: 7a83 ad3c cb6f 8cbd 0365 1f3d 8781 123e
00000390: 2659 7ebc 4a68 0abe 15ed 103c 80a5 c13c
000003a0: b0e6 a23d c285 d63d 23a3 0fbe 93b9 c13d
000003b0: 1213 303d 5b83 42bd a77c 0cbc 0f1c 0e3e
000003c0: ac50 ac3c f057 02be f093 813c 5f33 8cbd
000003d0: 76a0 ecbd 4c05 91bd 25f9 153e 9300 ec3d
000003e0: 9134 853d 9e53 c2bd a10a 6b3b 8d6d 593d
000003f0: 41c8 febc ad93 453c f317 913d dabd b13b
-0.04743518 -0.057593763 0.16035694 -0.103038415 0.08636833 -0.048880428 -0.13981374 -0.10561291
-0.10646631 0.0039471714 0.14055282 0.14049578 0.016480528 0.05233177 -0.019945303 0.14876884
-0.030349199 -0.062720224 -0.029537052 0.02941456 0.08307391 -0.09529344 -0.16219994 0.098446794
-0.14801306 0.058401547 -0.054464947 -0.09531228 0.15252018 -0.06647079 -0.07243743 0.012270697
0.087830275 0.00263725 0.024587128 -0.09960412 0.075143054 0.133509 0.021849537 -0.04210362
-0.14722487 -0.000582325 0.049122255 -0.14600141 -0.111354835 0.093127705 -0.052950818 -0.01856402
-0.0064286557 0.07637544 0.04676688 0.124089114 -0.13104303 0.00042878283 -0.025539026 0.023923598
0.114002764 0.078781515 0.046073414 0.10120129 0.14045897 0.020182675 -0.03781468 0.08397254
-0.081391744 -0.0037637907 -0.06354259 0.0326036 0.071807794 -0.026129887 0.08393369 -0.018726896
-0.010073653 0.04311741 -0.043234445 -0.058604352 0.010167792 0.045492828 -0.11033528 -0.1496047
-0.011641651 0.12946229 0.1134669 0.058922887 -0.031479392 -0.0280775 0.020919768 -0.114929505
-0.06839743 0.08779619 0.109042786 -0.03241789 0.034575637 -0.09068788 -0.12882069 -0.12635359
-0.033364814 0.034321237 -0.04647003 -0.13729714 -0.005126419 0.06739738 0.13419205 -0.004902599
-0.07977541 -0.030234896 0.114966296 -0.028957238 0.021365464 0.085371524 0.09990798 -0.09857146
0.04262353 0.06646446 -0.0469736 0.12307964 0.045131154 0.12295746 0.0031936602 0.09180193
0.04106754 0.04124555 0.002624754 0.13324188 -0.093984276 -0.0751762 -0.082558125 -0.02190316
0.107635915 0.10131861 -0.11393359 0.08389862 -0.13570671 -0.061000235 0.09123057 0.115815505
-0.03630662 -0.093070775 0.06626753 -0.024860369 -0.07931616 0.056025356 -0.09594671 -0.11138892
0.07642715 0.11132329 -0.074009754 -0.13440782 -0.04593894 -0.006694279 0.06873995 0.072567135
0.040636357 -0.022755126 0.009903354 0.057216026 -0.10161157 0.10940399 0.0368998 0.07510539
-0.030097509 -0.105352536 -0.04465471 -0.10844453 0.024851412 0.02212844 -0.061307505 0.10623061
0.14359307 -0.032815114 -0.0033569192 0.049509242 -0.110941954 -0.09565027 0.08345262 -0.023562614
-0.0922957 -0.11528174 -0.0199018 0.0769191 0.13247071 -0.10705238 0.010593478 0.1271979
0.02895114 0.017469024 0.079705365 0.017123617 -0.06607565 -0.032071885 -0.017670434 -0.09249677
-0.009643353 -0.0354482 0.018800477 0.02264191 0.047855493 -0.079741724 -0.010289737 0.015993018
-0.024994945 0.11181664 -0.050008312 0.034816705 0.027470725 -0.060998335 0.031801436 0.122130476
0.07936281 -0.09568164 -0.08716088 0.004585891 0.006130794 0.08189339 -0.069865786 -0.023670254
0.10347604 -0.08387286 -0.074700825 -0.03794176 0.024445878 0.096549004 -0.07505262 0.14502273
0.021180857 -0.0685726 0.03891469 0.14307223 -0.015524184 -0.13516346 0.008845587 0.023638487
0.079541564 0.10474731 -0.14027075 0.094592236 0.042986937 -0.04748855 -0.008574641 0.13877891
0.021034561 -0.12728858 0.015817612 -0.06845736 -0.11554043 -0.070810884 0.14645822 0.11523547
0.06504167 -0.09488605 0.003586449 0.05308299 -0.031101348 0.012059134 0.07084646 0.0054242434

bias_ih_l0 f4 [512]
00000000: cab2 f03d d8ee 47bd 0e0e aa3d c1ed 92bd
00000010: dd21 e43d 9d81 d43b 80dd 2b3d 8ab0 063e
00000020: dc28 193c a720 8b3c ae32 8fbd 15f1 91bc
00000030: d670 133c ed19 1ebd a669 08be adb0 e83d
00000040: 8887 e5bd 4a6b 793d 2332 20be e462 193e
00000050: e2c1 08be 11cf a8bb 71bb 7a3d 6c70 6fbd
00000060: 7d74 733d b650 11be d7ce d2bd e829 553d
00000070: d2c1 da3c 8a39 bf3d f751 bbbd ea2d d03d
00000080: 63fe 84bd 6c33 8ebd 1a39 6e3d 40bd 0abe
00000090: 138c 8dbd fdda 073e ce47 9239 5dc2 a83d
000000a0: 84a1 c33d 5e7f 3cbc debe aabc d16e fb3d
000000b0: 20e5 25be 557a dd3d ee40 b23d 40fd eb3d
000000c0: 5ea1 62bd a8dd b73d db5d 7a3d 6cc4 16be
000000d0: 9818 203e 6a26 a93c a7f3 0bbd 9123 7abd
000000e0: f91c ed3d 5f0b 83bd 2e2f 02be 315c 823d
000000f0: 3b69 a1bc f7c0 243e b2c9 a8bb 102c 193e
00000100: 3dc0 d5bd 7721 dabc d429 cd3d c24e 55bd
00000110: 7983 e13d 2317 6dbd d3c6 bbba 291b 733d
00000120: 0e71 95bd a11a eebc 9c91 833c 3100 f23d
00000130: 4f56 99bd e3e6 883b 28ff 6a3d abf1 8b3d
00000140: e98e ac3c 7ca3 bb3c b17d 9d3d 05c3 05be
00000150: 293f 90bd c132 23bb 4fcd a13d 5996 083d
00000160: 732e a4bd e590 b03d c11c 01bc c717 27be
00000170: 8470 b23c 5baf 9bbd 0f72 093c 2a14 87bd
00000180: 86e4 183e 003c 86bc 88c5 5b3d 4f1f 0e3e
00000190: e918 083d c81a 1b3d 28db 0d3e 0ff9 3d3d
000001a0: 6fbc cdba 6f37 393c f54a f03d b8da 4b38
000001b0: dd22 1bbe 81df c93d 25b7 113e b644 223c
000001c0: 67fe 48bd 8e80 e03c 09a8 15be f0a4 cd3c
000001d0: 3784 dd3d 38ac 12be 89cc 633d 14a6 1fbe
000001e0: 128f 29be 387e 30be e487 3e3d 84d9 1fbd
000001f0: 9b9e 59bc fc83 0d3e 79db bd3d fe11 16bd
00000200: 4513 af3d 8d5d fabd cc91 b33d bf37 d4bd
00000210: 9109 d23d cc5d f0bd 4d3e 203e e4a1 7b3c
00000220: ef2e b8ba e594 f7bd 3747 b8bd 169a b5bd
00000230: 1064 933c 7ecb ebbd aeca eebd 6343 eabc
00000240: 6192 f5bd 255b b73c e472 a4bc 4e6c 193d
00000250: 61ef a9bd 5c2b 8fbd 7ad1 1f3e e6eb 97bb
00000260: e511 1d3e 4802 00be 2da2 51bc 6779 52bc
00000270: 4cc6 05be a7ba d73d 8c76 c7bd 5afc 263d
00000280: 0ec7 67bd 4fbc 94bc cb4d 9c3d 9fb0 12be
00000290: f250 acbd 492e 143e 2209 8d3d 169f e5bc
000002a0: 7dca 0c3e 538f 9e3d 4d92 08be 8738 89bd
000002b0: 59e4 83bd 2796 7ebc e803 2ebc 453a da3b
000002c0: 7525 1abe e6b3 6a3d 0fdf 8e3c 2d20 2abe
000002d0: efc7 b6bc 44bd d9bb b23c 3b3b a0da b3bd
000002e0: 83ea 57bc d5a1 63bc ee76 b0bd 1cd7 0d3e
000002f0: f414 5dbc cc47 b23b 0ae1 a93c ea67 d63d
00000300: cfca 4fbd e9b9 9bbc b6fb ac3d f34a 0dbe
00000310: a574 e73c b349 babc b11f c9bc 7c89 043e
00000320: 19ed 9ebd e261 fdbd d927 24bd 4ff9 5d3d
00000330: 3353 25be 8b39 a23d 2a82 8abc 596a c1bb
00000340: 9f46 1b3e 083a 9f3d 03be 023e 5cae 03be
00000350: 1f7d 22be e51a 2739 73ad 103e 7b9b af3d
00000360: 3c43 1d3c 0fa3 74bc df31 cabc 09db 42bd
00000370: 42e6 453d 55d1 b0bd 7385 7cbd 59b3 363c
00000380: 8063 ec3d 2dca b83d 62a9 033d f24e 403d
00000390: 2657 873d 029f fd3d dd1c 003e dc0f 80bc
000003a0: 4c26 87bd c93c 12be 0739 9dbb f491 873c
000003b0: 6360 15be dca0 773d d279 e63c 6a82 c93c
000003c0: fb30 e2bc d441 8e3d b309 fabd 07bf 3bbd
000003d0: e507 a43c e689 68bd f0bd 973d fb15 07be
000003e0: 2beb 14bd 6aa7 dabd a9a7 5e3d 4c72 29be
000003f0: ca68 373d 4149 bd3d a76e e33d 8953 bfbd
0.11752851 -0.048811764 0.08303462 -0.07174254 0.111392714 0.0064851777 0.041959286 0.13153282
0.009348121 0.016983343 -0.06992088 -0.017815152 0.00899907 -0.038598944 -0.13321552 0.11361823
-0.11207491 0.060893334 -0.15644126 0.1497913 -0.1335521 -0.0051516374 0.061213914 -0.058456823
0.059437264 -0.14190945 -0.10293358 0.052041918 0.026703749 0.093371466 -0.09146493 0.101650074
-0.06493833 -0.06943402 0.058159925 -0.13548756 -0.06911483 0.13267131 0.0002790079 0.08240197
0.09552291 -0.011504976 -0.020842966 0.12276996 -0.16200686 0.108143486 0.087037906 0.11522913
-0.055329673 0.089778244 0.061124664 -0.14723366 0.15634382 0.0206482 -0.03416791 -0.061069075
0.11577792 -0.06398653 -0.1271331 0.0636524 -0.019703498 0.16089235 -0.005150997 0.14958215
-0.10437057 -0.026627285 0.10017744 -0.052077062 0.110114045 -0.057883393 -0.0014326222 0.059352074
-0.07296954 -0.029065432 0.016060643 0.11816443 -0.07487165 0.0041779145 0.057372242 0.06833204
0.021064239 0.022905104 0.07689989 -0.13062675 -0.07043297 -0.0024902078 0.07900488 0.033346508
-0.08016672 0.086213864 -0.007880391 -0.16317664 0.021782167 -0.07601806 0.00838901 -0.06595643
0.14930925 -0.016386032 0.053655177 0.13879131 0.03322688 0.037867337 0.13853133 0.0463801
-0.0015696416 0.01130472 0.11733047 4.860267e-05 -0.15150018 0.09857083 0.1423002 0.009904077
-0.049070742 0.02740505 -0.14614882 0.025103062 0.108162336 -0.14323509 0.05561498 -0.15590698
-0.16558483 -0.17235649 0.046516314 -0.0390258 -0.013282443 0.1381988 0.09270377 -0.036638252
0.08548597 -0.12224875 0.08768043 -0.10362195 0.10255731 -0.1173664 0.15648766 0.015358422
-0.0014052073 -0.12088946 -0.08997958 -0.0886728 0.01799205 -0.115134224 -0.11659752 -0.028596586
-0.1199081 0.022382328 -0.020074315 0.037456803 -0.08297611 -0.06990692 0.15607253 -0.0046362756
0.15338857 -0.1250087 -0.012795013 -0.012846327 -0.13063926 0.10533648 -0.09739408 0.040768005
-0.056586318 -0.018156199 0.07632025 -0.14325188 -0.084138766 0.14470781 0.068865076 -0.02802996
0.13749118 0.07742181 -0.1333706 -0.06700235 -0.06440038 -0.015538729 -0.0106210485 0.0066597783
-0.15053351 0.05730047 0.017440347 -0.16613837 -0.022312133 -0.0066448767 0.0028570113 -0.08781934
-0.013178471 -0.013893564 -0.08616434 0.13851589 -0.013493765 0.0054406878 0.02073719 0.10469039
-0.050730523 -0.019009547 0.084464476 -0.13798122 0.028253863 -0.02274022 -0.024551244 0.12943071
-0.077600665 -0.12372185 -0.040077064 0.054192837 -0.16145019 0.07921132 -0.01690777 -0.00590257
0.15163659 0.077747405 0.12767796 -0.12859482 -0.15868042 0.0001593638 0.14128666 0.085745774
0.009598549 -0.014931454 -0.024681984 -0.04757217 0.048315294 -0.08633677 -0.061650705 0.011151158
0.115424156 0.09022937 0.032143958 0.046950288 0.06608419 0.12383844 0.1251101 -0.015632562
-0.065991014 -0.14281 -0.004798058 0.016549088 -0.1458755 0.06045614 0.02813426 0.02459832
-0.027611246 0.069461495 -0.12208881 -0.045836475 0.020023296 -0.056772135 0.074092746 -0.13191979
-0.036357086 -0.10676463 0.054359112 -0.16547507 0.04477767 0.09242488 0.1110509 -0.09342105

bias_hh_l0 f4 [512]
00000000: 6448 113e b600 723b 3efc b6bb 17da 223d
00000010: 64bc 823c a414 2abe e974 153e c860 fb3d
00000020: 4a67 1cbd a092 4f3d e19c a4bd 904c bfbc
00000030: ce20 013e 2d11 aebd 20be 72bd 35d1 9e3d
00000040: 54f3 453d 0b01 a43b 4db2 56bc 8d60 aa3d
00000050: b3a6 c4bd 0113 04be 1fb1 013e 5524 99bd
00000060: 03bf 65bc 7122 05be 116b 90bd a2a6 363d
00000070: a53c 023d e617 2f3c b0b4 aabd a89a 943d
00000080: 8f2b e7bd 62be d7bd 5672 79ba d397 02be
00000090: d9b5 87bc 9724 0b3e 0a84 be3d b39c 533d
000000a0: 634c 183e 69af f43c f718 c9bd 7937 343d
000000b0: 46af b6bd 33fc d43d eb10 1a3e 989e 5c3d
000000c0: 582c f4bb 9d9c ef3d e3db 57bc 52ba 8dbc
000000d0: 73a0 3f3d e2a8 d8bd 57ce 463c 44d1 d63c
000000e0: 4282 c73d bc8f edbd 2903 9ebd 640b 743d
000000f0: 7d5d 3cbd 8684 c93d 0f04 c03a 8aeb c93c
00000100: 85f9 ffbd aa5d 8ebd f722 303d 198c 0bbe
00000110: 6be2 f83d 73b5 0a3c aac2 1ebe 6127 a83d
00000120: 80b7 edbb 23ec cdbd 221a afbd c7ab 15bc
00000130: 2831 e2bc d05b 633c edfe 533d ae67 d73c
00000140: d421 fd3d 0c02 a4bb 5658 ad3b 3371 9ebd
00000150: 0f2a f3bd 8c73 d9bd 694c f03d 0f24 76bb
00000160: 02cf 06be 0435 873c cd6f d9bc 61d5 00bd
00000170: 9f96 e1bc 7380 d8bd 4635 ccbb 915d fbbd
00000180: b0b0 d43d 46e4 543c fc48 333d cd1e 0bbc
00000190: 91c2 253e 93d0 0f3d 4488 af3d f85f 2b3d
000001a0: 8c36 aabd de09 f5bd 6c36 2f3e 14a4 073d
000001b0: 6467 c9bd 71b2 133e de91 3c3d 476a 4c3c
000001c0: 801c abbd 4361 743d d4f0 e7bc 050d a43c
000001d0: e037 b53d 99e0 42bd b966 213e fa83 8fbd
000001e0: c0e9 d2bd b216 05be 77fa 133d ed05 d7bd
000001f0: dc59 9dbb 666e 0d3e f5fa e33d d731 a5bd
00000200: fc26 2dbc 7e48 0dbd ce2c 133e aae5 06be
00000210: 1ba8 f63d faba adbd 9a67 293e 257d 023e
00000220: 4232 8a3d 4022 0ebd e10d 17bb a85b 86bd
00000230: 8987 b33c 55a2 fbbd 1d7a 2bbd 7488 fa3c
00000240: cab9 ed3c e8e8 e33c 0558 16be 1a39 093e
00000250: 2770 bcbd 151d 1abe 832f 1a3e 723e a0bc
00000260: cb5c 7a3c 2336 ebbd dfed 45bd d362 1abc
00000270: 3ed0 b2bd 3956 bb3d c1b9 86bd 1a3c 093e
00000280: c2d0 f1bd 30df aabc 92b5 803d 2e22 63bd
00000290: 942f 8abd 570e 943b c7ad e13d 21bd 373c
000002a0: aa0e 053d b674 2cbc 7ed8 f63b e253 fc3a
000002b0: 56a8 25bc bd49 aa3d ca3a ab3c d55f ef3d
000002c0: a57b 6ebd d73b aa3d 813e 05ba c7fc 25be
000002d0: 394e 0bbb e059 90bd 79c8 7fbd f416 48bd
000002e0: df2d ddba 79f1 bebd 9291 793b bf44 7e3d
000002f0: 854a cebd 7b33 a13d f89c f13d 22ab 843b
00000300: dcd3 3ebc 3ffc 4abd 5b36 b73b c3c0 9dbc
00000310: d703 ad3d e7c7 13be ced4 e7bb 8545 a33d
00000320: dcb7 64bd 853b 923a f75c 92bc dcfd 19bd
00000330: 8a77 cfbd 8ecb dc3d 6f10 c13d a9df e93d
00000340: 37cc 493d 9499 be3b e5fb 6e3d ea84 08be
00000350: e82f 4dbd 728d 1fbc 0ca6 0e3e 4a24 243d
00000360: 3b39 1ebe 126b 2e3c c33d 0abe 6e91 04bd
00000370: 060f 053c e234 67bd 96e4 f3bd 880a d6bd
00000380: 78f9 c63c bac5 df3d 9d04 0f3e 4553 6f3d
00000390: 69eb a03c 5c6a 8dbb 3571 9b3d d5ac ed3d
000003a0: 3af1 ef3a 2e5b 9dbc 2eab d73d 1f37 0f3d
000003b0: a674 9dbd 6029 ea3c ae27 d03d 7aa2 eb3d
000003c0: 0611 c5bc dcbc 13bc fb12 19be 4c88 2dba
000003d0: c624 2a3e 1b5b 83bc db75 893d ecaf debc
000003e0: 388f 92bc a999 54bd 2b73 ca3d 4150 14bc
000003f0: a499 6bbd 5e44 ce3d ed48 a4bc 0b82 8abd
0.14187771 0.0036926693 -0.005584269 0.039758768 0.015958972 -0.16609436 0.14595379 0.12274319
-0.03818444 0.050676942 -0.08037735 -0.023351938 0.1261017 -0.0849937 -0.05926335 0.07754747
0.04832776 0.005005007 -0.013104034 0.08319197 -0.09602108 -0.12897874 0.12665223 -0.07477633
-0.0140225915 -0.1300142 -0.07051671 0.044592507 0.031796116 0.01068685 -0.08335245 0.07256061
-0.11287605 -0.105343595 -0.00095156336 -0.12753229 -0.016566204 0.13588177 0.09302528 0.051663112
0.14872889 0.029868798 -0.09819215 0.043998215 -0.089201495 0.10399666 0.15045516 0.053862184
-0.0074515752 0.116997935 -0.013174984 -0.017300759 0.046783876 -0.10579087 0.012134156 0.026222833
0.097416416 -0.11599681 -0.077154465 0.059581175 -0.045987595 0.0983973 0.0014649647 0.024648447
-0.12498764 -0.06951459 0.043002095 -0.13627662 0.12152561 0.008466112 -0.15503946 0.08210636
-0.007254541 -0.10054805 -0.08549906 -0.009135193 -0.02761133 0.01387687 0.051756788 0.026294556
0.12359968 -0.005005127 0.0052900715 -0.07736435 -0.118732564 -0.10617742 0.11733324 -0.0037558114
-0.13164905 0.016504772 -0.026542569 -0.031453494 -0.027537642 -0.10571375 -0.0062319366 -0.12273706
0.10385263 0.012993878 0.043770775 -0.00849123 0.16187502 0.03511102 0.085709125 0.04183957
-0.08311185 -0.11964773 0.17110604 0.03311546 -0.09834173 0.14423539 0.046037547 0.01247651
-0.08355045 0.05966307 -0.028313078 0.02002574 0.08848548 -0.047577474 0.15761842 -0.070075944
-0.102984905 -0.12996939 0.036127534 -0.10499177 -0.004801972 0.13811645 0.11131851 -0.08066147
-0.010568377 -0.034492962 0.1437256 -0.13173547 0.12043782 -0.084829286 0.16543427 0.12743051
0.06747867 -0.034700632 -0.0023049044 -0.06560451 0.021915214 -0.12286822 -0.041864503 0.030582644
0.029019255 0.02782102 -0.14682014 0.13400689 -0.09201079 -0.15050156 0.15057187 -0.019561026
0.015280913 -0.11484935 -0.048322555 -0.009422976 -0.08731125 0.09147305 -0.065783985 0.13401833
-0.118073955 -0.020858377 0.06284632 -0.05545252 -0.06747356 0.004518311 0.110194735 0.011214525
0.032484688 -0.010525873 0.007533132 0.0019251073 -0.010110935 0.08314846 0.020902056 0.116882004
-0.058223385 0.08312195 -0.0005082861 -0.16209708 -0.002125634 -0.07048392 -0.062447045 -0.048850015
-0.0016874633 -0.09323401 0.0038081151 0.06207728 -0.10072807 0.07871147 0.117975175 0.004048721
-0.011647191 -0.049556967 0.0055911965 -0.019256955 0.08447998 -0.14431725 -0.007074929 0.07972244
-0.055839404 0.0011156654 -0.017866595 -0.037595615 -0.10130222 0.107810125 0.094269626 0.11419613
0.04926702 0.005816648 0.058345694 -0.13331953 -0.050094515 -0.009738313 0.1393053 0.04007367
-0.15451519 0.010645645 -0.13500123 -0.032365255 0.008121258 -0.056446917 -0.11908834 -0.104512274
0.024288878 0.10926385 0.13966604 0.05842902 0.019643502 -0.0043156575 0.07589952 0.11605231
0.0018306144 -0.019208517 0.10530697 0.034964677 -0.076882645 0.028584182 0.10163818 0.11505599
-0.024055969 -0.009017196 -0.14948647 -0.0006619736 0.1661559 -0.016034653 0.06711932 -0.027183495
-0.017890558 -0.051904354 0.09885248 -0.009052337 -0.05751957 0.10071634 -0.020054305 -0.06763085

weight f4 [256, 128]
00000000: 8552 7abd 0827 19be ef9e 6d3d 0250 9bbb
00000010: 5949 493d 1fe1 513d 037c 643d 3388 543d
00000020: 5958 b03d 2304 f53b 97ac 983c 5c31 543a
00000030: 325d 113c 5b7a 19be 31d3 223d 9102 3bbd
00000040: 1082 873d ed8f 2bbb 04f8 3f3d b33c acbc
00000050: c953 6ebd ae25 ad3d 8379 fabc 2a9e fabd
00000060: d429 7ebb c2a5 0bbc 0612 eb3d 442e b33b
00000070: b75e b2bd e52d bf3d 0546 bf3d 13d0 01bd
00000080: 80fb a3bd 6899 073e 7024 64bb 1928 0a3e
00000090: a074 36ba 54f0 04bd b236 8dbd b636 8f3d
000000a0: e09a a2bd f751 78bd 9129 b8bc c50a 83bd
000000b0: 3019 4b3b a18f 813c b00b 77bd 91d2 d33b
000000c0: 6673 02be 33f6 863d 0e66 b2bd 6f9e b6bd
000000d0: 68df 35bc da2b 0bbd 9ffe 22be 3146 8e3d
000000e0: 4a97 9dbd c7d1 3fbd 876b b8bd a23d 813c
000000f0: 3fbe 653d 1465 9cbd 13d8 d2bc 3075 323c
00000100: 06f5 02be 8c13 5abd cad9 a33c f58e d93d
00000110: c21c 0cbd bea9 cdbd 5082 a43d cd8f 76bd
00000120: eb0b 013c dcdc c4bd 87a2 fe3d e687 8dbd
00000130: 46c7 cc3c ec1b b3bd be2d 48bd c4f7 943d
00000140: b812 253d 809f 703d df82 96bd 696a f03c
00000150: 96e5 de3d d139 583c 9224 843d acaa ad3c
00000160: d0dc 263d bacf f5bb c39d 03be dabf 033e
00000170: 146f 0abc 315f c03c e7e7 103e d7fd a2bc
00000180: 14d9 903d bc3b 363d a387 a63d a3e4 9b3d
00000190: fe58 a0bd 6c18 443d ce46 783d 1a3a 1bbd
000001a0: 5cd1 c0bc e518 20be 5930 51bd 2553 773d
000001b0: cfaf 5cbd 5fd5 0fbd 8fae 68bd f2cc 69bd
000001c0: 8a33 20bc 2ea5 3e3d 8648 bd3c 06f1 babc
000001d0: 3dda b7bc 7b99 b7bd 717b 03bd 9ecc 5abd
000001e0: 893b 0ebe 7538 e23d 9ae3 e03c 4666 efbd
000001f0: 6f47 93bd af68 3bbd 99bf 1b3d 8ced c2bc
00000200: 51a9 b53d 34d7 07be e42b 11bd facd 8bbc
00000210: 6f2a 51bd 33e7 083d 3b47 3f3b 5a78 1f3d
00000220: d7d8 493c 951f a2bd d766 57bc 2022 3e3d
00000230: 6db9 953d 9dd0 91bd 3dfc 1c3d ca0e ab3d
00000240: c1ac f1bb 4e50 95bb 2a34 a6bc d712 92bd
00000250: 93fb 1e3b 7164 86bc a8a5 813d 4fa0 cabd
00000260: 2311 10bd 250e 833c 820e 613d d925 9dbc
00000270: ef80 1fbc 0231 52bd af84 bc3d 81c8 0e3d
00000280: 32a2 613c bebd 94bc 337b 3bbd 44c8 d33c
00000290: eb1c cfbd d12f b0bd 0d26 93bd b73d efbc
000002a0: ac06 273d 1202 ae3d ce82 e3bd 9311 26bd
000002b0: ef99 1a3e 25f5 503c 1f9d 7abb 6c82 183d
000002c0: ea8d 0f3c 6ba3 0abc d4ca f23c 03ce d9bd
000002d0: e2d5 633d 3222 f7bd 3839 f6bd defc d83b
000002e0: d187 a43b e890 2ebe 19e5 e4bd fc23 99bd
000002f0: 11c8 a83d f49a 4d3c e57a 49bd edef 4f3c
00000300: d37c 49ba 7cba 02be 06ba f0bc 2381 ab3d
00000310: 8a97 043c 902f c9bd 040b 713d 4301 a9bd
00000320: faf5 02be a4a1 62bd aa31 2f3d 11fd b1bd
00000330: 2920 7cbc 1ebc 3d3d 6e7b 343d d25a b53c
00000340: 96e4 8bbc f549 8f3b 0458 ddbc 1450 ce3d
00000350: a291 df3d 21fd ad3d 035e 3d3d 0b5c ed3c
00000360: 21be 0a3e 5b4c 823d 5550 a5bd dc30 94bc
00000370: 8165 143c 02b0 063e 31bf 9c3d 1e3d f1bc
00000380: 7f08 2f3d ed5b d9bc aa59 5e3d 3a9c 0d3c
00000390: 4029 103d 91a3 5cbd 5f84 a13b e81a 7abd
000003a0: a439 42bd a222 1bbe efe7 9d3d f57b 423d
000003b0: 0251 92bd b59c 29bd 07f3 bd3c f1fa 57bd
000003c0: 1893 87bc 9b26 643d 0f2b a23d 84db 713d
000003d0: 8616 19bd 97a5 1ebd 8bd0 973d 11e0 223b
000003e0: 9bd4 9bbc 57d6 153e 9201 2ebd ccc8 7bbd
000003f0: b2da 213b 4c62 ab3c 9a36 dc3c cabb d7bd
-0.061113853 -0.14956295 0.0580129 -0.0047397623 0.049142215 0.051240083 0.05578233 0.051887702
0.08610601 0.0074773 0.018636985 0.00080945133 0.008872317 -0.14988081 0.03975219 -0.045656744
0.06616604 -0.0026178316 0.046867386 -0.021025037 -0.058185373 0.084544525 -0.03057552 -0.12237199
-0.0038782256 -0.008523406 0.11478047 0.005468162 -0.08709472 0.093349256 0.09339527 -0.031692576
-0.08006954 0.13242114 -0.0034811758 0.13491859 -0.00069601275 -0.032455757 -0.06895198 0.06992857
-0.07939696 -0.060625043 -0.022480758 -0.063985385 0.0030990355 0.015815558 -0.06031388 0.0064643105
-0.12739334 0.065899275 -0.08710872 -0.089169376 -0.0111006275 -0.033977367 -0.15917443 0.06946982
-0.07694872 -0.04683092 -0.09004884 0.01577646 0.056089636 -0.076364666 -0.025737798 0.0108921975
-0.12788782 -0.053241298 0.02000131 0.1062297 -0.034207113 -0.100421414 0.08032668 -0.060195733
0.007876377 -0.09612438 0.124333434 -0.06910686 0.024997365 -0.0874556 -0.04887175 0.0727382
0.040301055 0.05874586 -0.073491804 0.029347615 0.10883634 0.013197378 0.06452288 0.021199547
0.040737927 -0.0075015696 -0.1285315 0.12866154 -0.008449335 0.02348289 0.14150964 -0.01989643
0.07072654 0.04449056 0.081313394 0.07611968 -0.07829474 0.047874853 0.0606144 -0.037897207
-0.02353733 -0.15634497 -0.0510715 0.060382027 -0.0538786 -0.035115596 -0.056807097 -0.057080217
-0.009777913 0.046544246 0.023105871 -0.022820007 -0.022442931 -0.08964821 -0.032100145 -0.053417794
-0.13889898 0.110459246 0.027452279 -0.11689429 -0.07191359 -0.04575413 0.03802452 -0.023794912
0.08870185 -0.13265687 -0.035442248 -0.01706599 -0.05106586 0.033423614 0.0029186744 0.038933136
0.012319765 -0.0791618 -0.0131470775 0.046419263 0.07310758 -0.07119868 0.03832649 0.0835243
-0.00737533 -0.004556692 -0.020288546 -0.071325 0.0024258837 -0.016405316 0.063304245 -0.09893858
-0.035172593 0.015997956 0.054945476 -0.019183086 -0.00973533 -0.05131627 0.09204995 0.034859184
0.0137715805 -0.018156882 -0.04577179 0.02585233 -0.101129375 -0.0860287 -0.07184992 -0.029204233
0.040777847 0.08496489 -0.111089334 -0.040544104 0.15097784 0.0127537595 -0.0038240624 0.037233755
0.008761862 -0.008461813 0.029637732 -0.10634997 0.055623896 -0.12067069 -0.12022632 0.006621941
0.0050210734 -0.17047465 -0.111765094 -0.074775666 0.08241285 0.012549151 -0.049189467 0.01269148
-0.0007686142 -0.1276645 -0.029385578 0.0837424 0.00809277 -0.09823525 0.058848396 -0.08252194
-0.12789145 -0.055329934 0.042771973 -0.08690847 -0.015388527 0.04632198 0.044063024 0.022138033
-0.017076772 0.00437283 -0.027019508 0.100738674 0.10916449 0.08495546 0.046232235 0.028974554
0.13549091 0.0636222 -0.08071963 -0.018089704 0.009057404 0.13153079 0.07653654 -0.029448088
0.042732712 -0.026533091 0.05428473 0.008643204 0.03519559 -0.053866927 0.00492911 -0.061060816
-0.04741825 -0.1514993 0.077102534 0.047481496 -0.07144357 -0.041409213 0.023187174 -0.05272955
-0.016549632 0.05570088 0.07918369 0.059047237 -0.037374996 -0.038732138 0.07412823 0.0024852792
-0.019022277 0.14632545 -0.042481966 -0.06147079 0.0024697003 0.020920895 0.026881505 -0.10533865

bias f4 [256]
00000000: a7c6 e13b 7c42 32bd f7a3 00bd 517c 74bd
00000010: e120 5fbd 818e 783d b800 a0bd 158c 893d
00000020: 63c6 9b3d 6e1e 10bd 5ebe 81bc 5bb9 a8bc
00000030: 848a 88bc 84c8 9fbd 98b7 8b3d 5b85 dabd
00000040: e522 203d 7f7b a239 a250 d73b 42ee 233c
00000050: cc80 8cbd 5585 28bd de24 0fbd 3db4 923d
00000060: be4c a23d 19f8 80bc ae3f 3d3d eb8a 94bc
00000070: 6220 b93d 1c77 9fbd 8d23 03bd d62f 6fbd
00000080: 143e 5ebd 5c49 32bd 9809 e3bd ebaa 143b
00000090: 5480 d7bd a3a6 a8bd bc2e 783d 62cf 16bc
000000a0: fe62 703d 9cf1 c7bd 1af2 4ebd d3c6 2a3d
000000b0: 91a3 6b3d 66e7 673c 4011 143d 1d9d 96bb
000000c0: 23b5 383d 7e23 97bd 07a5 d43c 3102 323d
000000d0: be4d bfbd d73b bb3a b425 8d3d 9ee8 92bd
000000e0: d3b6 03bc 4c46 93bc 73cb 933c a79f 31bc
000000f0: 75ea b03d 3aa7 2ebd 829c 75bd 94f0 80bd
00000100: 7c6f 633c f6a0 8e3d 0685 d13b 1870 ccbd
00000110: 00ae 96bd ad22 323d f4a9 c8bb cd26 6f3d
00000120: 89de 77bd 04e4 583d c3d8 b33c 6a4e ad3d
00000130: 5b8e 3fbc 9b0a 91bd 227e d1bd 1082 033d
00000140: daa9 86bd 66bf 45bc 936c 98bd 3d4a 80bd
00000150: 81fd 95bd ba40 6abd d358 1d3d 8ab0 773d
00000160: 1bfe 6ebb f254 14bd c34f 2dbd 0f7c 163a
00000170: 84f6 30bd ae37 053d 9a03 193d 4022 0e3d
00000180: af5e 54bd c972 cbbd e77f 02bd 9cf4 d13d
00000190: 29c9 babd 83ad a43d 756e c0bb 893f 6dbc
000001a0: c6a5 80bd 3c89 89bc f03c afbc 5da7 4ebd
000001b0: 195c 443b 0da9 343d 8fe6 7a3d 31d8 8a3d
000001c0: 06ea 7ebc 8cbc 8a3c 53ba 8dbd a2d8 c1bb
000001d0: 3a44 cf3c e333 a93c 120e a33d f281 043d
000001e0: de57 933c d0d2 81bd a79d b83d fd25 5d3d
000001f0: aa49 b33d abb7 16bc 9389 fabb 1a31 4c3d
00000200: 0e87 823c 7463 6cbc fe1e c6bd 3c6a 043d
00000210: 8238 26bc 0d46 6a3d 0c0f 62bd d176 b5bc
00000220: 1d9a 84bd 11b6 1d3d 5c25 083d 655a 21bc
00000230: 68b9 80bd c7ef e83d 9b53 463c e653 b0bd
00000240: c4bf a43c 230d 573d a1f7 36bd 56eb cebb
00000250: b010 9bbd b274 81bb 7d0e 8c3d cfbe 9cbb
00000260: 23a1 96bd 65cb ae3c 1714 a8bd 2d6c 07bd
00000270: 84ad 8ebc 2a79 77bd 537c ab3d 3f31 3dbd
00000280: 5756 8abd 1a0f 20bd abfc c53d 85c2 c4bd
00000290: fad0 10bd c542 0ebd 9893 e2bd 076b 2a3c
000002a0: 13bc b3bd 9509 1bbc aee5 ccbc dd3d 9abc
000002b0: 4eee 903d 8d98 c53c 3bd2 8fbd ebaf e43b
000002c0: f0b2 823d 5d78 c23d 168c 87bd ff87 91bd
000002d0: 6fc9 3c3d 80d8 303c af4f 463d 3c91 b3bd
000002e0: 63b0 c13c f244 293b a702 d5bd 21fb b0bd
000002f0: 1654 8c3b ccf1 a3bd 398d 9dbc f5d7 9dbd
00000300: 98b7 453d 01b2 8dbd c446 07bd 913a a3bc
00000310: fa35 51bd 1bdd 6b3b 3591 23bd adf9 313d
00000320: 4864 c73d d3a7 cebd 5775 993c 68e3 453d
00000330: a18e 0b3d 90e9 0cbc 2a61 a63c 1058 663c
00000340: 39c1 89bd 6e1e c1bd e2ed 1ebd 8cdf 3dbd
00000350: b535 f63c 77d2 cabd 8e90 663d 0544 953d
00000360: 4834 053a dd1a af3b b506 91bd f2fd 32bc
00000370: 62b6 c13d b607 3ebd e768 33bc f1a9 bdbc
00000380: 1c52 97bd 5057 debc 859e 423c f6e8 a0bd
00000390: f57b 213d 4a10 753b 3655 173c 790b 69bd
000003a0: b4e6 b6bd c792 6f3d a546 6abd 74a0 b23c
000003b0: de4c febc 351e 20bd 2207 abbd 4e77 9c3d
000003c0: 2be3 ecbc 9ac7 f13c 4380 a53d f169 823d
000003d0: 5f1d 99bd bce1 8c3d 6088 563d 9200 85bd
000003e0: 2c58 7e3d 6317 4138 073a 703b eea3 a4bc
000003f0: a1c6 6ebd 34ba e83c 7f41 b4bb ac71 8fbb
0.0068901363 -0.043520436 -0.03140637 -0.05968887 -0.054474715 0.060682777 -0.07812637 0.06716172
0.07606199 -0.03518527 -0.015837844 -0.020596197 -0.016667612 -0.07801917 0.06822127 -0.10669967
0.039095778 0.0003099106 0.0065708915 0.010005536 -0.068605036 -0.04114278 -0.03494727 0.07163284
0.07924794 -0.015743302 0.046203308 -0.018132647 0.0903938 -0.0778639 -0.032016326 -0.05839523
-0.05425842 -0.043526992 -0.11085814 0.0022684883 -0.105225235 -0.082349084 0.060591444 -0.009204717
0.058688156 -0.0976288 -0.050523855 0.04169352 0.057529036 0.014154291 0.036149263 -0.004596366
0.04509462 -0.073798165 0.025957597 0.04345912 -0.09341 0.0014284801 0.06891957 -0.071732745
-0.008039194 -0.017977856 0.018041348 -0.010841287 0.08638469 -0.04263995 -0.05996371 -0.06295887
0.01388156 0.069642946 0.0063940315 -0.09982318 -0.073574066 0.0434901 -0.0061237756 0.058386613
-0.06051496 0.052951828 0.021953946 0.08462222 -0.011691655 -0.07082101 -0.10229136 0.03210646
-0.06575365 -0.012069559 -0.07442584 -0.0626416 -0.07323743 -0.057190634 0.038414788 0.060471095
-0.0036467377 -0.036213823 -0.042312395 0.0005740532 -0.043203846 0.032523803 0.03735695 0.034700632
-0.05184811 -0.09934003 -0.03186026 0.10251734 -0.091203995 0.08040907 -0.0058725425 -0.01448048
-0.06281619 -0.016789071 -0.021391362 -0.05045258 0.002996212 0.044106532 0.061255034 0.067795165
-0.015558725 0.01693561 -0.06920304 -0.005915717 0.025301088 0.020654624 0.07961668 0.032350488
0.017986234 -0.063390374 0.09014445 0.053991307 0.08754285 -0.009199063 -0.0076457947 0.049851514
0.01593354 -0.014428008 -0.0967388 0.032327875 -0.010145308 0.057195712 -0.05519013 -0.022151383
-0.06474707 0.03850371 0.033238754 -0.009848212 -0.062853634 0.11373859 0.012104894 -0.08609752
0.020110972 0.052502763 -0.04466975 -0.0063146753 -0.07571542 -0.0039506787 0.06838701 -0.0047834883
-0.07354953 0.02133722 -0.08206957 -0.03306215 -0.017416723 -0.060418285 0.08373322 -0.046189543
-0.06754749 -0.039076902 0.09667333 -0.09607414 -0.035355546 -0.034731645 -0.110633075 0.010401494
-0.08776107 -0.009462734 -0.025011864 -0.018828327 0.07076703 0.024120593 -0.0702252 0.006978979
0.06381786 0.09495614 -0.06618516 -0.07106017 0.04609054 0.010793805 0.048415836 -0.08767936
0.023643678 0.0025828448 -0.104008965 -0.08641649 0.0042824848 -0.080051035 -0.01923238 -0.07707206
0.04827079 -0.06918717 -0.03302647 -0.019925388 -0.051076867 0.0035989943 -0.039933402 0.043451
0.09735924 -0.10090604 0.01873271 0.048312575 0.03407157 -0.0086006075 0.020310003 0.014059082
-0.067263074 -0.09429632 -0.03880108 -0.04635577 0.030054906 -0.09903424 0.0562902 0.07288364
0.0005081338 0.0053437785 -0.070813574 -0.010924803 0.09458615 -0.046394072 -0.010950304 -0.023152323
-0.07388708 -0.027141243 0.011878614 -0.07856934 0.039424855 0.0037393742 0.009236624 -0.056895707
-0.08930722 0.058489587 -0.057196278 0.021805026 -0.031042513 -0.039091308 -0.0835097 0.07639943
-0.028916916 0.029514123 0.080811046 0.06367863 -0.07476305 0.06878993 0.05237615 -0.064942494
0.062095806 4.6036566e-05 0.003665568 -0.020097699 -0.058294896 0.028409101 -0.005500972 -0.0043775644
