models/recomendation_models/scripted_user_preference_model_v7_8_dim.pt (torch, 57307 bytes, 14 tensors)

hidden f4 [2, 1, 12]
0	0xbeec281c	-0.4612435
1	0xbe119acc	-0.14219207
2	0xbc7e94fd	-0.015538451
3	0x3ec0f7a9	0.3768895
4	0xbe8ae0eb	-0.27124724
5	0xbb14fcf2	-0.0022733775
6	0xbe8c1448	-0.27359223
7	0x3d8adfd1	0.06780971
8	0x3d9bcb37	0.076071195
9	0x3e2cea5f	0.1688628
10	0x3e156ee3	0.14593081
11	0xbd9d16c0	-0.07670355
12	0xbe50c6d0	-0.20388341
13	0x3ea7a833	0.32745513
14	0xbe8d85ce	-0.27641147
15	0x3d4d48c1	0.05011821
16	0x3e2a21b1	0.16614415
17	0xbe31f745	-0.17379482
18	0x3e70c357	0.23512016
19	0xbd99c880	-0.075089455
20	0xbea0a2bc	-0.31374156
21	0x3e619d72	0.22032717
22	0xbe77fb3b	-0.2421693
23	0x3e28b496	0.16475138

hidden f4 [2, 1, 12]
0	0xbf257553	-0.6463215
1	0xbf08f880	-0.5350418
2	0xbd2b5a30	-0.041834056
3	0x3f375061	0.71607023
4	0xbebe7464	-0.37198174
5	0xbb99a113	-0.004688391
6	0xbf099dc2	-0.53756344
7	0x3e0fd783	0.14047055
8	0x3e6f2843	0.23355202
9	0x3eb8a0ee	0.3606028
10	0x3ecc6545	0.39921013
11	0xbe36c01b	-0.1784672
12	0xbf025f13	-0.5092632
13	0x3f3e5286	0.7434467
14	0xbf4ca1d1	-0.7993441
15	0x3dc84387	0.09778505
16	0x3eb7098b	0.35749468
17	0xbec3b02e	-0.38220352
18	0x3ecfc14f	0.4057717
19	0xbe2417bc	-0.16024679
20	0xbf1547f1	-0.583129
21	0x3ed1be9e	0.40965742
22	0xbee33300	-0.44374847
23	0x3ea49465	0.32144466

weight_ih_l0 f4 [48, 12]
0	0xbd6ce0ca	-0.057831563
1	0x3e240ecd	0.16021271
2	0x3d18e3f4	0.037326768
3	0xbdf1f5be	-0.1181445
4	0x3d79ee97	0.061018553
5	0x3a32b131	0.0006816565
6	0xbe2a6bc7	-0.16642676
7	0x3e807596	0.2508971
8	0xbd9dcf0d	-0.077055074
9	0x3df31c34	0.11870614
10	0x3e169d4e	0.14708444
11	0xbe16eb80	-0.14738274
12	0x3e09eb97	0.13468777
13	0xbe398ebc	-0.18120855
14	0x3d9b8a8a	0.075947836
15	0x3e537c6c	0.20652932
16	0xbe35db89	-0.17759527
17	0xbe7d96b7	-0.24764524
18	0xbe803ce4	-0.25046456
19	0xbda30710	-0.079603314
20	0xbe0b692a	-0.13614336
21	0x3e892631	0.2678695
22	0x3e39dc81	0.18150522
23	0x3c3b0a0d	0.0114159705
24	0xbdc878d4	-0.09788671
25	0xbe556c42	-0.20842078
26	0xbe3504b6	-0.17677578
27	0xbe695a54	-0.22788364
28	0xbe7c4904	-0.24637228
29	0x3da6147f	0.08109378
30	0xbe50773d	-0.20357986
31	0xbe6fc662	-0.23415521
32	0x3e3c4816	0.18386874
33	0xbe562d00	-0.20915604
34	0xbe537a0d	-0.20652027
35	0xbda9e753	-0.08296075
36	0x3e390965	0.1806999
37	0xbce34310	-0.027741939
38	0xbe00ff31	-0.12597348
39	0xbb226175	-0.0024777327
40	0x3d6e7aa1	0.058222417
41	0x3d8e7ba1	0.06957174
42	0xbe391968	-0.18076098
43	0xbe198e76	-0.14995751
44	0x3d86e378	0.06586355
45	0x3e244f6e	0.16045925
46	0x3e66cf82	0.22540095
47	0x3e028307	0.12745295
48	0xbdad7c57	-0.084709816
49	0x3e602c90	0.21891999
50	0xbe4d01a1	-0.20020153
51	0xbe030c11	-0.12797572
52	0xbe801a17	-0.25019905
53	0x3e5b3400	0.21406555
54	0x3e4ede33	0.2020195
55	0xbe0cc52d	-0.13747092
56	0xbe7a2a5d	-0.24430223
57	0x3dd6882e	0.10475193
58	0x3dcf3158	0.101168334
59	0x3e0294af	0.12752031
60	0xbd8669ed	-0.065631725
61	0x3dbc8f74	0.09207049
62	0x3e672f76	0.22576699
63	0x3e3fc3d6	0.18727049
64	0x3e8147d7	0.25250122
65	0xbe6045bd	-0.21901603
66	0xbe0d360b	-0.13790147
67	0xbe38f4e3	-0.18062167
68	0xbdbb3fad	-0.091430046
69	0x3df28cf3	0.1184329
70	0xbe667c0c	-0.22508258
71	0x3a5e7128	0.00084854895
72	0x3dd6d24b	0.10489329
73	0xbe782151	-0.24231459
74	0x3d89a0d1	0.067201264
75	0x3e14b2f1	0.14521386
76	0xbe5524b5	-0.20814784
77	0xbd22ee8b	-0.039778274
78	0xbda06c2f	-0.078331344
79	0x3e3e2d91	0.1857207
80	0xbd9b05ef	-0.07569491
81	0x3e0e8ffd	0.13922115
82	0xbc23d9be	-0.010000644
83	0x3dbc51ee	0.09195314
84	0xbcc9e9e5	-0.024647662
85	0x3e08f54d	0.13374825
86	0xbddc2ccc	-0.10750732
87	0xbe3c28ca	-0.18374935
88	0x3dc5373e	0.09629677
89	0x3debc4a0	0.115121126
90	0x3d926f46	0.0715013
91	0x3d017822	0.03160871
92	0xbd9bb3c4	-0.07602647
93	0x3e6c7c5c	0.23094314
94	0xbe22ba9c	-0.15891498
95	0xbe651729	-0.22372116
96	0xbdcd2aa6	-0.100179
97	0x3d1b4635	0.03790875
98	0x3e4bc5bf	0.19899653
99	0x3c8ae123	0.016953057
100	0x3e48a4e3	0.1959415
101	0xbcc7fe03	-0.024413114
102	0x3e4eed89	0.202078
103	0xbe68a2b2	-0.22718313
104	0xbe5ef57b	-0.21773331
105	0x3e5fd2a8	0.21857703
106	0xbcd9189e	-0.026500996
107	0xbdffe711	-0.12495244
108	0xbda4562d	-0.08024249
109	0xbdb1169d	-0.08646891
110	0x3c309667	0.010778046
111	0x3e6f441b	0.23365824
112	0x3dc3239d	0.09528277
113	0x3d54901f	0.051895257
114	0x3e2af9bd	0.1669683
115	0xbdf71574	-0.12064639
116	0x3d7a63b1	0.06113023
117	0x3e277e06	0.16356668
118	0x3e867050	0.26257563
119	0xbdce107a	-0.100617364
120	0xbc8497b2	-0.016185615
121	0x3e5667d8	0.20938051
122	0xbda91468	-0.08255845
123	0x3d8e54c0	0.069497585
124	0xbe7600fe	-0.24023816
125	0xbdccdc5b	-0.10002967
126	0x3e89e05d	0.26928988
127	0xbe45c7d0	-0.19314504
128	0xbe3f1c7c	-0.1866321
129	0xbd0d2c17	-0.034465875
130	0x3e3c4749	0.18386568
131	0x3ddd087e	0.107926354
132	0x3e3699c8	0.178321
133	0x3e347377	0.17622171
134	0x3e883d3a	0.26609212
135	0x3d98fe1c	0.074703425
136	0xbdecbf6b	-0.115599476
137	0x3ce0c524	0.027437754
138	0x3e93fa2b	0.289018
139	0x3d831d63	0.064020894
140	0xbd15d76a	-0.036582388
141	0x3dbdc815	0.09266678
142	0xbe0749e4	-0.13211781
143	0xbe87b88c	-0.26507986
144	0x3e6abf2b	0.22924487
145	0xbe8001e7	-0.2500145
146	0x3e66f119	0.22552909
147	0x3e30e13f	0.17273425
148	0xbd74aa70	-0.059732854
149	0x3da9eb04	0.08296779
150	0xbdf87d6f	-0.121332996
151	0xbe4fffbe	-0.20312402
152	0x3df6c8a3	0.12049987
153	0xbe05fa77	-0.13083826
154	0xbd892971	-0.066973574
155	0x3e25cf0f	0.16192268
156	0xbdf62d91	-0.1202041
157	0xbde6e127	-0.11273413
158	0x3e4fcada	0.20292225
159	0xbe29296e	-0.1651971
160	0x3e738850	0.23782468
161	0x3db6b9fc	0.089221925
162	0x3e77b624	0.24190575
163	0x3e1e8903	0.15481953
164	0x3c3d66a2	0.011560114
165	0x3d8092b6	0.06277983
166	0xbe41d11c	-0.18927425
167	0x3e66c403	0.2253571
168	0x3dd21469	0.10257799
169	0xbe82f605	-0.25578323
170	0x3d3ed80e	0.046592765
171	0xbe29eef1	-0.16595055
172	0x3e12a51b	0.14320795
173	0x3db5d52f	0.08878552
174	0xbe47092c	-0.19437093
175	0xbe46110c	-0.1934244
176	0xbd3f3603	-0.04668237
177	0xbe71cf65	-0.23614271
178	0x3d9af834	0.07566872
179	0x3b3d117c	0.0028849533
180	0xbe2ebb8a	-0.17063728
181	0xbe847489	-0.2587016
182	0x3e1c919b	0.15289919
183	0xbe121255	-0.14264806
184	0xbe916407	-0.28396627
185	0x3db50d50	0.0884043
186	0xbe6f69c3	-0.23380189
187	0xbdab7288	-0.083714545
188	0xbe4296e5	-0.19002874
189	0x3e86e43d	0.26346007
190	0xbcba3bad	-0.022733534
191	0xbe138426	-0.1440588
192	0x3e7fc650	0.24977994
193	0x3e1f6884	0.15567213
194	0xbe728059	-0.23681773
195	0x3dab6993	0.08369746
196	0xbce57a24	-0.028012343
197	0xbe93b3e4	-0.28848183
198	0x3e7d80d4	0.24756175
199	0x3d941254	0.07230058
200	0xbd3839f8	-0.04497716
201	0xbdb8f222	-0.09030558
202	0x3e91e254	0.28492987
203	0xbe4b7c65	-0.19871671
204	0xbe92446a	-0.2856782
205	0xbcab98ae	-0.020946827
206	0xbe8e3846	-0.27777308
207	0x3e853619	0.26017836
208	0x3e66c613	0.22536497
209	0x3d9c6dcc	0.076381296
210	0x3e8dd39d	0.2770051
211	0xbe025b02	-0.12730029
212	0xbe862e43	-0.2620717
213	0xbe906925	-0.2820522
214	0xbd9fe896	-0.07808034
215	0xbd5f9a96	-0.054590784
216	0xbe5eaa4f	-0.21744655
217	0xbe3a704f	-0.18206905
218	0xbc1de9b2	-0.009638237
219	0x3cf8f906	0.030392181
220	0xbd9212f5	-0.07132522
221	0x3e6223a1	0.22083904
222	0xbe877dfb	-0.26463303
223	0x3e3f53a8	0.18684256
224	0xbdc3ad61	-0.09554554
225	0xbda66b9e	-0.08125995
226	0xbdf09b5e	-0.11748384
227	0xbc913f0e	-0.017730262
228	0xbe319429	-0.17341675
229	0xbdd5c48b	-0.10437878
230	0x3db2d73e	0.087324604
231	0xbdcfee70	-0.101529
232	0xbde41089	-0.11135966
233	0x3e0729b8	0.13199508
234	0xbda70a0c	-0.08156213
235	0x3e771718	0.24129903
236	0x3dbee923	0.09321811
237	0x3e072d91	0.13200976
238	0xbe331a27	-0.17490445
239	0xbdb3f0be	-0.08786152
240	0x3d86ef29	0.06588585
241	0xbc037e01	-0.008025647
242	0xbdc9ddfb	-0.098567925
243	0x3e143313	0.14472608
244	0xbe44beac	-0.1921336
245	0x3d04f0ab	0.03245608
246	0xbd3539ab	-0.04424445
247	0xbdcd3c86	-0.100213096
248	0xbd194f35	-0.037429053
249	0xbe0aa252	-0.13538483
250	0xbda04d7f	-0.07827281
251	0x3e248a46	0.16068372
252	0x3e6dbeb6	0.23217282
253	0xbc8928a7	-0.016743017
254	0xbd81b5cc	-0.06333503
255	0xbde75dba	-0.11297174

weight_hh_l0 f4 [48, 12]
0	0xbe2109a9	-0.15726341
1	0xbe0e0bc4	-0.13871676
2	0x3e526fda	0.2055048
3	0x3e3c0bec	0.18363923
4	0x3d6c472a	0.057685055
5	0xbd166137	-0.036713805
6	0x3d958470	0.07300651
7	0xbe3e5168	-0.18585742
8	0x3e9ba76c	0.3040117
9	0xbe3fc6fb	-0.18728249
10	0xbe1db45c	-0.15400833
11	0xbe25b708	-0.16183102
12	0x3e4f2e85	0.2023259
13	0x3de92c99	0.113854595
14	0xbe88708f	-0.26648375
15	0xbe2342d8	-0.15943468
16	0xbd4a4fe2	-0.04939259
17	0x3e33ed2c	0.17570943
18	0x3ce3cff5	0.027809123
19	0xbe322766	-0.17397842
20	0x3e8f1906	0.2794878
21	0x3ddf0a45	0.10890631
22	0x3e6a6c7e	0.22892949
23	0xbcacbcb4	-0.021086074
24	0xbdfb8005	-0.12280277
25	0xbdbcc97a	-0.09218116
26	0xbe40ceea	-0.18828931
27	0x3d28065d	0.041021693
28	0x3d276c53	0.04087479
29	0x3e370a89	0.17875113
30	0x3c882ebe	0.01662385
31	0xbd36fa88	-0.04467252
32	0xbe1d5d3c	-0.15367597
33	0x3e16ff11	0.14745738
34	0xbdcbe7cb	-0.099563204
35	0x3d8c8370	0.06861007
36	0xbd114b1f	-0.03547203
37	0x3e270809	0.16311659
38	0x3e1497b2	0.14510992
39	0x3e8fab91	0.28060582
40	0x3d3f4e8f	0.04670578
41	0xbd9bcf39	-0.07607884
42	0x3d3f57fa	0.04671476
43	0xbe67548a	-0.22590843
44	0x3c839b2d	0.016065205
45	0x3e795843	0.24350075
46	0x3e47fbae	0.19529602
47	0xbe715028	-0.23565733
48	0x3e523937	0.20529638
49	0x3d868c66	0.065697476
50	0xbddd6e1e	-0.10812019
51	0xbdaa35a4	-0.083110124
52	0x3dc8d818	0.098068416
53	0xbdb3aa3a	-0.087727025
54	0x3bc1436b	0.0058979294
55	0xbdf91f2f	-0.12164151
56	0x3cd13a66	0.025540542
57	0xbe00370c	-0.12520999
58	0xbdb0cf0a	-0.086332396
59	0xbdc66fbe	-0.09689282
60	0x3e814fc4	0.2525617
61	0x3e1000e3	0.14062838
62	0xbda597e1	-0.08085609
63	0x3e805fe1	0.2507315
64	0x3e829bf1	0.255096
65	0x3d585338	0.05281374
66	0xbd758866	-0.059944533
67	0x3bf87653	0.0075824647
68	0xbcdf3c6b	-0.02725049
69	0x3e090097	0.13379131
70	0xbe2b1c62	-0.16710046
71	0x3d6b1df9	0.05740163
72	0xbe039075	-0.12848075
73	0x3e13135b	0.14362852
74	0xbe0388d5	-0.12845166
75	0xbc9c5b23	-0.019086426
76	0x3cbc6739	0.02299844
77	0x3de065f8	0.10956949
78	0x3d9a7cd7	0.075433426
79	0x3d9ba36b	0.07599529
80	0xbd7b90ff	-0.061417576
81	0x3c932a43	0.017964488
82	0x3e89bdc1	0.26902583
83	0x3e6ed314	0.23322707
84	0x3df51c83	0.11968329
85	0x3dc76c9a	0.09737511
86	0x3e8b0093	0.27148876
87	0xbe48142e	-0.19538948
88	0x3e3b11ec	0.18268555
89	0x3e749a52	0.23886994
90	0xbc427d9a	-0.011870766
91	0x3e2c31ac	0.16815823
92	0x3e25665c	0.16152328
93	0xbe415164	-0.18878704
94	0xbd84592b	-0.0646232
95	0x3e928987	0.2862055
96	0x3e02b4b7	0.1276425
97	0xbe8b2b6e	-0.27181572
98	0xbe59ec4c	-0.21281546
99	0x3d8eb86e	0.06968771
100	0xbdbc6530	-0.091989875
101	0xbe94b45c	-0.29043853
102	0xbe94981c	-0.290223
103	0x3e203336	0.15644535
104	0x3e780dc1	0.24223997
105	0xbe21394c	-0.15744513
106	0x3e19408c	0.14966029
107	0xbd9c8fe5	-0.07644633
108	0x3acb6239	0.0015516944
109	0xbe6bf24d	-0.23041649
110	0x3e179258	0.1480192
111	0xbe414c3e	-0.1887674
112	0x3e79f37c	0.24409288
113	0x3d39b5c8	0.045339376
114	0x3e91dbce	0.2848801
115	0xbe275ba2	-0.16343549
116	0x3e23f4a5	0.16011293
117	0xbe2cc247	-0.16870986
118	0x3e122bb7	0.14274488
119	0xbe2bf323	-0.16791968
120	0x3c058bdf	0.008151024
121	0x3e3006f4	0.17190152
122	0xbe4e5a18	-0.20151556
123	0x3dc9dfaf	0.098571174
124	0xbe34bb8a	-0.17649665
125	0x3d0d6551	0.03452045
126	0x3df60585	0.120127715
127	0xbd7dae0f	-0.061933573
128	0xbdc012c0	-0.09378576
129	0x3e6c47b2	0.23074225
130	0x3e27be8a	0.16381279
131	0x3e9888ec	0.29791963
132	0xbe7296fc	-0.23690408
133	0x3e51be36	0.20482716
134	0xbe624afd	-0.22098918
135	0x3e3cc30f	0.18433784
136	0xbe425926	-0.1897932
137	0xbe071c0c	-0.13194293
138	0xbe766840	-0.24063206
139	0xbe633a57	-0.22190224
140	0x3da64930	0.08119428
141	0xbdc22298	-0.094792545
142	0xbd467067	-0.04844704
143	0xbdc9d929	-0.09855873
144	0x3d7efbc6	0.06225183
145	0x3e2c2cc6	0.16813955
146	0xbd9562c2	-0.07294227
147	0xbd9a3382	-0.075293556
148	0xbdff6879	-0.124710985
149	0x3e69db08	0.2283746
150	0xbe0d2e8d	-0.13787289
151	0x3da5fb66	0.08104591
152	0xbe6529c3	-0.22379212
153	0x3c894ab5	0.016759256
154	0xbdadaffb	-0.08480831
155	0x3e81ca99	0.25349882
156	0xbd699ffb	-0.057037335
157	0xbdc61754	-0.09672418
158	0x3cc3576d	0.023845399
159	0xbd47a1e2	-0.048738368
160	0xbd6f15b5	-0.05837031
161	0x3e8a778c	0.27044332
162	0x3c7c07c0	0.015382707
163	0xbdadc991	-0.08485711
164	0x3d68a287	0.056795623
165	0xbd9022e4	-0.07037905
166	0xbdd2498c	-0.10267934
167	0x3ddf24fb	0.10895725
168	0x3e4dff4d	0.20116921
169	0xbe43bda9	-0.19115318
170	0xbe5fba64	-0.21848446
171	0xbe46cbd6	-0.19413695
172	0xbdd90ed9	-0.10598535
173	0xbd82ebd5	-0.06392638
174	0x3e1207c9	0.14260782
175	0x3dccdae7	0.1000269
176	0x3d3ebb22	0.046565183
177	0x3e5b8809	0.21438612
178	0x3d14797d	0.036248673
179	0x3e39b27d	0.18134494
180	0xbe8b5247	-0.2721121
181	0xbe6eb7f9	-0.23312367
182	0x3d27f882	0.04100848
183	0xbe2c53a4	-0.16828781
184	0xbde8d816	-0.1136934
185	0x3e640d74	0.22270757
186	0x3d90f059	0.07077093
187	0x3dffcba8	0.12490016
188	0x3d1f776b	0.038932245
189	0x3e88f92f	0.26752612
190	0x3b9e0a12	0.004822978
191	0x3dec441e	0.1153643
192	0xbe4348c4	-0.19070727
193	0x3e798134	0.24365693
194	0xbe88d70b	-0.26726565
195	0xbdee8c87	-0.11647897
196	0x3d6a90ac	0.057266876
197	0x3e74ca96	0.23905405
198	0xbe317d52	-0.17332962
199	0xbda27053	-0.079315804
200	0x3e450275	0.19239219
201	0xbe6a1de5	-0.22862966
202	0x38d75fea	0.00010269864
203	0xbe7dd738	-0.2478913
204	0x3e7ba256	0.24573645
205	0xbe063f7b	-0.13110153
206	0xbe2befed	-0.16790743
207	0x3e8391be	0.2569713
208	0xbe11d577	-0.14241587
209	0x3d697bb2	0.05700273
210	0xbd8f6b62	-0.070029035
211	0x3d20303c	0.0391085
212	0x3e8b96af	0.272634
213	0x3e1a7ce8	0.1508671
214	0xbe747d49	-0.23875917
215	0xbe85ecbd	-0.2615718
216	0xbe44d047	-0.19220077
217	0x3dc6c488	0.09705454
218	0xbdfd416d	-0.123659946
219	0x3e3ce010	0.18444848
220	0x3d769f0c	0.060210273
221	0xbe842a60	-0.2581358
222	0xbc3c8df3	-0.011508453
223	0x3e0335b1	0.1281345
224	0xbdffe36b	-0.124945484
225	0x3e766bc3	0.24064545
226	0x3e65a29d	0.22425313
227	0x3b835e4e	0.0040090447
228	0xbe5dfa9f	-0.21677636
229	0x3e92a463	0.28641042
230	0xbd962535	-0.073313154
231	0xbd88de65	-0.066830434
232	0xbe1ec4ff	-0.15504836
233	0x3e506f06	0.20354852
234	0xbd24a033	-0.04019184
235	0x3d1f1396	0.038837038
236	0xbe804442	-0.25052077
237	0xbe5f7a28	-0.21823943
238	0xbb2e8c8a	-0.002663406
239	0x3d83fd04	0.06444743
240	0xbe8c6255	-0.2741877
241	0xbdb05e69	-0.08611757
242	0x3e4dfcf9	0.20116033
243	0xbe2690cf	-0.16266178
244	0xbe8fa7f0	-0.28057814
245	0x3e85dabb	0.2614344
246	0x3e10ab8f	0.14127944
247	0x3d00fea6	0.03149285
248	0x3e0b5729	0.13607468
249	0xbe77c24b	-0.2419521
250	0xbd98747b	-0.07444092
251	0x3e984230	0.29737997
252	0xbe4d441f	-0.20045517
253	0x3e5010d9	0.20318927
254	0xbe0e5fa0	-0.13903666
255	0x3da96fc2	0.08273269

bias_ih_l0 f4 [48]
0	0xbe42b227	-0.19013272
1	0x3e00119c	0.12506717
2	0xbe186510	-0.14882302
3	0xbd79a2d1	-0.06094629
4	0xbd112a96	-0.035441004
5	0xbe101d83	-0.14073758
6	0xbe83a108	-0.25708795
7	0xbe371768	-0.17880023
8	0xbe6fc049	-0.23413195
9	0xbcc90466	-0.02453823
10	0xbcd75ce7	-0.026289416
11	0xbe9110e4	-0.283332
12	0xbe41a564	-0.18910748
13	0xbe65e2c4	-0.22449785
14	0xbe5e9c36	-0.21739277
15	0xbdafb674	-0.08579722
16	0xbe1ab7bf	-0.15109156
17	0x3e83943f	0.2569904
18	0xbdfb260f	-0.122631185
19	0xbe1b2aa6	-0.15152988
20	0xbe715e79	-0.23571195
21	0xbe07880e	-0.13235494
22	0xbcbc6c04	-0.023000725
23	0x3e88b340	0.26699257
24	0x3e2c9603	0.168541
25	0x3d8ac71d	0.06776259
26	0x3dd6ddb5	0.10491506
27	0xbe04c25d	-0.12964769
28	0xbe215678	-0.15755641
29	0x3e82f2b0	0.2557578
30	0xbe0e8394	-0.1391738
31	0xbe5b1724	-0.21395546
32	0xbd73522e	-0.059404545
33	0x3e47cdd3	0.1951211
34	0x3e7a5a94	0.24448615
35	0x3cf2b47d	0.02962708
36	0x3e315f96	0.1732162
37	0x3b27a96a	0.0025583156
38	0xbd3ad06a	-0.045608915
39	0xbde7a5a0	-0.11310887
40	0x3e881950	0.26581812
41	0x3de08411	0.1096269
42	0xbe09169f	-0.13387536
43	0x3d20f878	0.03929946
44	0xbe5bb385	-0.214552
45	0xbd872a5e	-0.06599878
46	0x3e035912	0.12826946
47	0xbda3d708	-0.07999998

bias_hh_l0 f4 [48]
0	0x3e3d79f7	0.18503557
1	0xbdabd7c6	-0.08390765
2	0xbe076ec4	-0.13225847
3	0x3d1fd4d7	0.03902134
4	0x3e92d147	0.2867529
5	0xbd0ddc54	-0.03463395
6	0x3df0f2b1	0.1176504
7	0x3e6d229c	0.23157734
8	0x3e31d4c5	0.17366321
9	0x3defbcd4	0.11705938
10	0x3d181d87	0.037137534
11	0xbd326ff9	-0.043563817
12	0xbdaff5ac	-0.0859178
13	0xbd0cb85f	-0.034355517
14	0xbe84c945	-0.25934806
15	0x3df97fc2	0.12182571
16	0xbdabeffa	-0.08395381
17	0x3d666e39	0.05625746
18	0x3db2e05f	0.08734202
19	0x3de8f6cb	0.11375197
20	0xbe032920	-0.12808657
21	0xbe9d0bc3	-0.30673036
22	0xbe89a2bb	-0.26881966
23	0xbda9763c	-0.082745045
24	0x3cd2789f	0.025692282
25	0x3e84529c	0.25844276
26	0x3d354131	0.044251624
27	0x3d808160	0.06274676
28	0xbbc8b430	-0.0061249956
29	0xbde5d3e8	-0.112220585
30	0xbd2b7cc9	-0.04186705
31	0x3d1ab5f8	0.037771195
32	0xbb5ba137	-0.003351284
33	0xbe880289	-0.26564434
34	0x3bcb0a39	0.006196287
35	0x3d3e0ac0	0.04639697
36	0x3e805a1c	0.25068748
37	0xbe415a04	-0.18881994
38	0x3dbb9df1	0.09160984
39	0xbe78ba2c	-0.24289769
40	0x3d9bf03d	0.07614181
41	0xbe2cb1a7	-0.16864644
42	0x3e040292	0.12891605
43	0x3e179d3a	0.14806071
44	0x3ceb7e96	0.028746884
45	0xbe9b6416	-0.30349797
46	0x3e2adaff	0.16685103
47	0xbdb92010	-0.090393186

weight_ih_l1 f4 [48, 12]
0	0xbd7e49ba	-0.06208203
1	0x3e520f0a	0.2051355
2	0xbe7985cb	-0.24367444
3	0x3dafce3e	0.085842595
4	0x3d9222a5	0.07135514
5	0x3e7eb41a	0.24873391
6	0x3e38284d	0.17984124
7	0xbe38fda0	-0.180655
8	0x3d75ec20	0.06003964
9	0x3e19e221	0.15027668
10	0xbe32c897	-0.17459331
11	0xbc68f74b	-0.0142191155
12	0x3e160c26	0.14653072
13	0x3e72ae91	0.23699404
14	0xbd932395	-0.07184521
15	0x3d688c15	0.056774218
16	0xbe3d893a	-0.18509379
17	0xbd8a8a58	-0.06764668
18	0xbd9d23f6	-0.07672875
19	0xbe236bcc	-0.1595909
20	0x3e02c974	0.12772161
21	0x3e388a30	0.18021464
22	0xbe4013e0	-0.18757582
23	0xbe1305f1	-0.14357735
24	0xbe0579d0	-0.13034749
25	0x3d880f61	0.06643558
26	0x3e0d7be3	0.1381679
27	0x3e23120f	0.15924858
28	0xbe935f1d	-0.28783503
29	0x3e15b776	0.14620766
30	0x3a2db1e9	0.0006625937
31	0x3e5f8f6a	0.21832052
32	0x3e8ff739	0.28118303
33	0x3e42e5ea	0.19033018
34	0xbe715516	-0.23567614
35	0xbe148580	-0.14504051
36	0x3dbebae7	0.093129925
37	0x3de4441d	0.11145804
38	0x3b445c0c	0.002996209
39	0xbd455492	-0.048176356
40	0x3d8ffa55	0.07030169
41	0x3e94a7d4	0.29034293
42	0xbe37e96d	-0.17960139
43	0xbe0ddd23	-0.13853888
44	0xbddccb69	-0.10780985
45	0xbe8a9151	-0.27063993
46	0xbe7e7616	-0.24849734
47	0xbe2868c4	-0.16446215
48	0x3e6c9e50	0.23107266
49	0x3e7c7948	0.2465564
50	0x3e7032b2	0.23456839
51	0x3e877236	0.26454324
52	0x3d94db7f	0.07268428
53	0x3e38be7e	0.18041417
54	0x3ddf6cc7	0.109094195
55	0xbdf68cab	-0.12038549
56	0x3dc05919	0.09391994
57	0xbd50e32b	-0.050997894
58	0xbe418b60	-0.18900824
59	0x3d5aa0f8	0.053376168
60	0xbe8a5f85	-0.27026
61	0xbe48b4d1	-0.19600226
62	0xbe86104b	-0.26184306
63	0x3e1b004e	0.15136835
64	0x3d081dd9	0.03323159
65	0x3d9a6e7e	0.07540606
66	0x3e7b8889	0.24563803
67	0x3e6d2233	0.23157577
68	0x3e945dcb	0.28977808
69	0xbe8172d1	-0.2528291
70	0x3dd7f418	0.10544604
71	0xbe2ddd1f	-0.16978882
72	0xbe6c6086	-0.23083696
73	0xbe8a0256	-0.26954907
74	0xbd4ef38f	-0.050525244
75	0x3e3006f1	0.17190148
76	0xbe96c9c2	-0.29450804
77	0x3cd0a002	0.025466923
78	0x3e7c870f	0.24660896
79	0x3d45a57c	0.04825352
80	0xbd2a04c9	-0.04150847
81	0xbd199dc0	-0.037503958
82	0x3d08dcfb	0.03341387
83	0xbd9a3106	-0.07528882
84	0xbd541a8c	-0.05178313
85	0xbe49bb06	-0.1970025
86	0xbe5318c4	-0.20614916
87	0xbcd63a37	-0.026150806
88	0x3dec119d	0.11526797
89	0x3e8760f2	0.2644115
90	0xbe825f97	-0.25463554
91	0x3e320e5d	0.17388292
92	0xbc53fd5a	-0.012938822
93	0x3e31dc96	0.17369303
94	0xbd02da0c	-0.031946227
95	0x3d445d44	0.047940508
96	0xbdf3eecb	-0.119107805
97	0x3cb742c9	0.022370713
98	0x3e2cbbce	0.16868517
99	0x3cb0af16	0.021567862
100	0xbe3f467e	-0.18679234
101	0x3d98fc6c	0.07470021
102	0xbe8ab21a	-0.27089006
103	0xbe04fecc	-0.12987822
104	0x3e7820f5	0.24231322
105	0x3cbc3474	0.02297423
106	0x3e8b5ef9	0.27220896
107	0xbd7ff3f5	-0.062488515
108	0xbe0a01d0	-0.13477254
109	0xbe801028	-0.25012326
110	0x3e33d3b1	0.17561223
111	0x3e671174	0.22565252
112	0xbe6cf1dc	-0.23139137
113	0xbe5ed5ab	-0.21761195
114	0x3dc0640b	0.09394082
115	0x3e30c15a	0.17261258
116	0x3d12c22f	0.03582972
117	0x3e52c1a2	0.20581678
118	0xbe01429e	-0.12623069
119	0xbe85315b	-0.26014218
120	0x3c44ef35	0.012019922
121	0xbe2b32b0	-0.16718554
122	0xbe98dc91	-0.2985578
123	0x3e3b4862	0.1828933
124	0xbd15be45	-0.03655841
125	0xbe0b1b17	-0.13584553
126	0xbd6c0f32	-0.05763168
127	0xbe07dd01	-0.132679
128	0xbdc4596b	-0.095873676
129	0xbe3ce8ba	-0.18448153
130	0x3e6e9db8	0.23302352
131	0xbd43eded	-0.047834326
132	0x3d79c704	0.06098081
133	0x3dcfeccc	0.10152587
134	0xbdb0aa0d	-0.086261846
135	0x3d8ad760	0.06779361
136	0x3e52f956	0.20602927
137	0xbc5ac797	-0.01335325
138	0xbe2b1a7c	-0.16709322
139	0x3e7b305e	0.2453017
140	0x3dfd72f9	0.12375445
141	0x3e6464b8	0.22304046
142	0x3df2c0ed	0.11853204
143	0xbd3384f2	-0.04382796
144	0x3d03cefb	0.032179814
145	0x3d9b6ea8	0.075894654
146	0xbe93ab0c	-0.28841436
147	0x3e8d4421	0.2759104
148	0x3d193fdb	0.037414413
149	0x3d62b1fd	0.055345524
150	0xbe87a107	-0.26490042
151	0x3e1ab3a5	0.15107591
152	0xbda5dfee	-0.08099352
153	0x3c120d0f	0.008914246
154	0x3dbfb172	0.09360017
155	0xbe15fc9d	-0.14647146
156	0x3dc04ef7	0.09390061
157	0x3db404e8	0.08789998
158	0x3c117a9d	0.008879331
159	0xbd9c5002	-0.07632448
160	0xbd6b5506	-0.05745413
161	0x3d1042e5	0.035220046
162	0x3e380c7a	0.1797351
163	0xbe33439a	-0.17506257
164	0xbe6c1af6	-0.2305716
165	0x3e6147c2	0.2200003
166	0x3e8fdd96	0.28098744
167	0xbe433ae6	-0.19065437
168	0xbe85f5d2	-0.2616411
169	0xbdec921e	-0.11551307
170	0xbe90797f	-0.28217694
171	0x3de503a1	0.11182333
172	0xbda8e78f	-0.08247291
173	0xbd9a604a	-0.07537897
174	0x3da46f0e	0.080289945
175	0x3e4ea290	0.201792
176	0xbd9df6f7	-0.077131204
177	0x3e2984c8	0.16554558
178	0xbdeef988	-0.11668688
179	0xbe6eecbb	-0.23332493
180	0xbe27df01	-0.16393663
181	0x3e5ae7f7	0.2137755
182	0x3e4a3769	0.197477
183	0x3e519e61	0.20470573
184	0xbde34125	-0.1109641
185	0x3e46ab8f	0.19401382
186	0xbe5b0835	-0.2138985
187	0xbd68f15f	-0.056870814
188	0xbe12a2c2	-0.143199
189	0x3db88693	0.09010043
190	0x3e8cacde	0.27475637
191	0x3d3b5822	0.045738347
192	0xbdc4a377	-0.09601491
193	0x3e095684	0.1341191
194	0x3e727af1	0.23679711
195	0xbdb7a0a3	-0.08966186
196	0x3dca7d8a	0.09887226
197	0xbe448d0b	-0.19194429
198	0xbd25f626	-0.04051795
199	0x3d887b60	0.06664157
200	0xbe0a4256	-0.13501868
201	0xbe7bbee0	-0.24584532
202	0x3e965bf8	0.29367042
203	0xbe053644	-0.13008982
204	0x3ce3a4a5	0.02778847
205	0x3d7654d8	0.060139507
206	0x3db3d146	0.0878015
207	0x3c778fd9	0.01510998
208	0xbe6eba27	-0.23313199
209	0x3e7c4125	0.24634226
210	0xbe8f1f2c	-0.2795347
211	0xbe786b78	-0.24259746
212	0x3dd9e1f2	0.10638799
213	0xbd868050	-0.065674424
214	0xbdf45110	-0.11929524
215	0x3de18278	0.11011213
216	0x3de870a1	0.11349607
217	0xbd00f05e	-0.031479232
218	0xbe218bb3	-0.15775947
219	0xbe80f6d9	-0.2518833
220	0x3dd49631	0.10380209
221	0x3d942e1f	0.072353594
222	0xbe56e2b8	-0.20984924
223	0xbe2374d2	-0.15962532
224	0xbe0f705e	-0.14007708
225	0xbbecf5d2	-0.0072314525
226	0x3dbf669e	0.093457446
227	0xbe18cfc8	-0.14923012
228	0x3dd98947	0.10621887
229	0xbd70f737	-0.058829512
230	0x3db5fb24	0.08885792
231	0xbe0fbd65	-0.14037092
232	0x3e6a2f54	0.22869617
233	0x3e311ca3	0.1729608
234	0xbdeabcc8	-0.114617884
235	0xbd94042f	-0.072273605
236	0x3e43b1f8	0.19110858
237	0xbe804c5a	-0.25058252
238	0x3e4c1c41	0.19932653
239	0x3e33032a	0.17481676
240	0x3e199781	0.149992
241	0xbdb0331b	-0.086034976
242	0xbe3e35e0	-0.18575239
243	0x3cdaa174	0.026688315
244	0x3e2919a1	0.16513683
245	0x3e0ed701	0.13949205
246	0x3e4eb83f	0.20187472
247	0xbd91c683	-0.07117941
248	0x3d66d4b3	0.05635519
249	0x3e9a6973	0.30158576
250	0x3e7f8a66	0.24955139
251	0xbbc313b2	-0.0059532756
252	0x3e13afa1	0.14422466
253	0xbe0cb91d	-0.1374249
254	0x3e2a1a4b	0.16611592
255	0x3ddd45f2	0.10804357

weight_hh_l1 f4 [48, 12]
0	0xbd9d4580	-0.07679272
1	0xbe14433f	-0.14478777
2	0x3b90d22c	0.0044195857
3	0x3e1f0e68	0.1553284
4	0xbe469dcd	-0.19396134
5	0x3d297311	0.0413695
6	0x3e6bcd12	0.23027447
7	0xbc8c6f08	-0.017142788
8	0x3e7eca37	0.24881826
9	0xbe161c54	-0.14659244
10	0xbe6b9ecd	-0.23009796
11	0xbe86850f	-0.2627339
12	0x3d92c8e0	0.0716722
13	0x3cccc5bd	0.024996633
14	0xbe4e1a26	-0.20127162
15	0x3b92ecff	0.0044838185
16	0xbe10f447	-0.14155684
17	0x3e0995f6	0.13436112
18	0x3e9989e0	0.29988003
19	0x3e72a004	0.23693854
20	0x3d62d87a	0.05538223
21	0xbdcdb09a	-0.1004345
22	0x3bb062cd	0.0053828717
23	0xbe3676bd	-0.17818733
24	0xbdf2d642	-0.11857273
25	0x3d5ae76b	0.053443354
26	0xbe59d823	-0.21273856
27	0x3e4d6dcf	0.2006142
28	0x3d5d210c	0.053986594
29	0x3e3923d2	0.1808007
30	0x3e8b43f1	0.27200273
31	0x3d0ae098	0.033905596
32	0xbe88c72d	-0.2671446
33	0xbe70f7d2	-0.23532036
34	0x3e0b796a	0.13620535
35	0xbd997a79	-0.07494063
36	0x3dd9c8cd	0.10634003
37	0x3e15581d	0.14584394
38	0x3ad7ae6c	0.001645518
39	0xbe1192f7	-0.14216219
40	0x3dc6eca1	0.09713102
41	0xbdce3124	-0.100679666
42	0x3e10cfc6	0.1414176
43	0x3e839590	0.25700045
44	0xbddcced1	-0.107816346
45	0xbdb14e76	-0.08657543
46	0x3dfa99a2	0.122363344
47	0xbce35ca6	-0.02775414
48	0xbe8184f2	-0.25296742
49	0x3e68616f	0.22693418
50	0x3d8cdab7	0.06877654
51	0xbde50daf	-0.111842506
52	0x3e964c96	0.29355305
53	0x3e6ebea7	0.23314916
54	0xbdd88bce	-0.10573541
55	0xbe42f9d0	-0.19040608
56	0x3e57b0fd	0.2106361
57	0x3d7b8b1c	0.061411962
58	0xbe53a2ae	-0.20667526
59	0x3e1fac43	0.15593056
60	0xbdc0d825	-0.09416226
61	0x3d2353c6	0.039874814
62	0xbcafde49	-0.021468299
63	0x3e198345	0.14991482
64	0x3d9940ed	0.07483087
65	0xbd27bf21	-0.04095376
66	0xbc8e62a9	-0.01738103
67	0x3e5bf6bf	0.21480845
68	0x3e6dcb39	0.23222055
69	0xbe504bf9	-0.20341481
70	0xbd010675	-0.0315003
71	0xbb3f7c39	-0.002921833
72	0x3d97bc63	0.07408979
73	0x3e35c130	0.17749476
74	0xbde1fc60	-0.11034465
75	0xbcb18a67	-0.02167244
76	0x3e97cfd3	0.29650745
77	0x3e4a1792	0.19735554
78	0xbd015f7d	-0.031585205
79	0xbe853085	-0.2601358
80	0x3da87660	0.08225703
81	0x3e8c177c	0.27361667
82	0xbd85765a	-0.065167144
83	0x3e850d56	0.25986737
84	0x3d8b4a57	0.068012886
85	0x3e4f80e4	0.20264012
86	0x3e8a8f23	0.2706233
87	0xbcc94fea	-0.024574239
88	0x3e339fe6	0.17541465
89	0xbb85150c	-0.004061347
90	0x3e1d85bb	0.15383045
91	0x3e0a3184	0.13495451
92	0xbd540393	-0.05176122
93	0x3e818123	0.25293836
94	0x3e279748	0.16366303
95	0x3de896b4	0.11356869
96	0xbe3184fd	-0.17335887
97	0xbe85290b	-0.26007876
98	0x3df7b8c8	0.12095791
99	0xbe842d75	-0.2581593
100	0x3d03a756	0.032142006
101	0x3d5fdd26	0.054654263
102	0x3c744dec	0.014911156
103	0xbe9a3d58	-0.30124927
104	0xbe423e85	-0.18969162
105	0xbd817bfe	-0.06322478
106	0x3e22fa31	0.15915753
107	0x3e24f0f8	0.16107547
108	0xbd8c76ff	-0.06858634
109	0x3dcee838	0.10102886
110	0xbe8ff903	-0.28119668
111	0x3deefbff	0.11669158
112	0x3e7ad3ef	0.24494909
113	0xbe9418cf	-0.28925177
114	0x3df8396e	0.12120329
115	0x3ddb2a8a	0.10701473
116	0xbe6127a4	-0.21987778
117	0x3e2734b9	0.16328706
118	0x3e2eaede	0.17058894
119	0xbe0cecb0	-0.13762164
120	0xbc83ec0b	-0.016103765
121	0x3e19aba6	0.15006885
122	0xbe4ef140	-0.20209217
123	0xbc8de73d	-0.017322177
124	0x3e41716c	0.18890923
125	0x3da29f3a	0.07940526
126	0x3e0441a7	0.1291567
127	0xbe112575	-0.14174445
128	0x3e593eca	0.21215358
129	0x3e821e6b	0.25413832
130	0xbc04c282	-0.008103015
131	0xbde15a52	-0.11003555
132	0x3d37b387	0.044848945
133	0x3e1dc652	0.15407684
134	0xbbee849d	-0.0072789923
135	0xbb8f5bc9	-0.0043749553
136	0x3e111f41	0.14172079
137	0x3cdf9821	0.02729422
138	0x3d6e2cbe	0.05814814
139	0xbdcb7233	-0.09933891
140	0xbe70675d	-0.2347693
141	0xbd6e3963	-0.058160197
142	0x3e17ce10	0.148247
143	0x3d26124b	0.04054479
144	0xbe2d2dc2	-0.16911986
145	0x3e753333	0.23945312
146	0xbe89e8e5	-0.26935497
147	0x3e81ae48	0.2532828
148	0xbe624683	-0.2209721
149	0x3c62de08	0.013846882
150	0xbc23b7a0	-0.00999251
151	0x3cff299e	0.031147774
152	0xbd8263cd	-0.06366692
153	0x3e9ac9ba	0.3023203
154	0xbd9cb9bb	-0.07652613
155	0x3e236c24	0.15959221
156	0xbd7447b9	-0.059638713
157	0x3d83db7e	0.06438349
158	0x3a9aef35	0.0011820557
159	0xbe585f17	-0.21130024
160	0x3d76b8ad	0.060234714
161	0x3d78b32d	0.06071775
162	0x3e37b5c4	0.17940432
163	0x3e3e467c	0.18581575
164	0xbd3fd480	-0.046833515
165	0xbd9decf7	-0.07711213
166	0xbdf967b5	-0.12177984
167	0xbd46867c	-0.048468098
168	0x3e044742	0.12917808
169	0x3e0b2447	0.13588057
170	0xbcc51aba	-0.024060596
171	0xbe8fa905	-0.2805864
172	0x3e2227bf	0.15835474
173	0xbe0ecafd	-0.13944621
174	0xbe1a2877	-0.15054499
175	0xbe204aa6	-0.15653476
176	0x3e078031	0.13232495
177	0x3e8032aa	0.25038654
178	0xbcf8812b	-0.03033503
179	0xbe7afc86	-0.24510393
180	0x3e8c860b	0.27446017
181	0xbe75a6ce	-0.23989412
182	0x3e02fc66	0.12791595
183	0xbd6478c0	-0.05577922
184	0x3e8cb5ee	0.2748255
185	0xbcedd10c	-0.029030345
186	0x3dc0a791	0.09406961
187	0x3b742489	0.0037253222
188	0xbdb4763c	-0.08811614
189	0x3d985728	0.07438499
190	0x3dfea823	0.12434413
191	0x3e5dcd56	0.2166036
192	0x3e3280e5	0.17431982
193	0x3d5d543b	0.054035407
194	0xbdccdeb2	-0.10003413
195	0x3e4b2138	0.1983689
196	0xbe81ed13	-0.25376186
197	0x3e034925	0.12820871
198	0xbdd26ce4	-0.102746755
199	0x3e0fdb41	0.14048482
200	0xbe2472f3	-0.16059475
201	0xbe261b7f	-0.16221426
202	0xbcfe46d2	-0.03103963
203	0x3e3172bc	0.17328924
204	0xbb8ab341	-0.0042327945
205	0xbe796ed8	-0.2435869
206	0xbe138684	-0.14406782
207	0x3dfc9b02	0.12334253
208	0x3e1d2a0c	0.15348071
209	0xbe656c26	-0.22404537
210	0xbd53b732	-0.05168838
211	0x3e4e6db8	0.20159042
212	0xbe26f08d	-0.163027
213	0x3e369929	0.17831863
214	0x3e0b24a8	0.13588202
215	0x3d89e594	0.06733242
216	0xbe11d725	-0.14242227
217	0x3e6fd731	0.23421933
218	0x3bd2782f	0.0064230184
219	0x3c95d9e3	0.018292373
220	0x3e557c78	0.20848262
221	0x3e7cb419	0.24678077
222	0xbe393750	-0.18087506
223	0xbdc8d47c	-0.09806153
224	0x3dabeada	0.08394404
225	0xbdcd4510	-0.10022938
226	0x3d6b9fcf	0.057525452
227	0x3e338b5d	0.17533632
228	0x3e896eda	0.26842386
229	0x3d2b4161	0.041810397
230	0x3d9aae6e	0.07552801
231	0xbd2421e2	-0.040071376
232	0x3e7818f2	0.24228266
233	0x3e63dcf5	0.22252257
234	0xbd59e140	-0.05319333
235	0x3d48b1c1	0.048997644
236	0x3e59cbeb	0.21269195
237	0x3d1b8da1	0.037976865
238	0x3e3ed16c	0.18634576
239	0xbe06e4de	-0.13173243
240	0xbe871b0f	-0.26387832
241	0x3e5e9382	0.21735957
242	0xbd477275	-0.04869314
243	0x3cf67e64	0.030089565
244	0xbe1240c6	-0.14282522
245	0xbdc89aa0	-0.097951174
246	0x3e9e51de	0.30921835
247	0xbe820174	-0.25391734
248	0x3db5565d	0.08854363
249	0xbe0c6c07	-0.13713084
250	0xbe9eb487	-0.30997106
251	0x3e27eb90	0.16398454
252	0x3e78df4d	0.24303932
253	0xbe102d83	-0.14079861
254	0xbe3e64c5	-0.18593128
255	0xbd7e7e39	-0.062132094

bias_ih_l1 f4 [48]
0	0x3d8048d4	0.06263891
1	0xbe210fee	-0.15728733
2	0x3dbb2f15	0.091398396
3	0xbe96e316	-0.29470128
4	0x3d0af54e	0.033925347
5	0xbd21a93e	-0.039468043
6	0x3cfdc801	0.030979158
7	0x3d869a15	0.065723576
8	0x3e1ba75a	0.15200558
9	0xbe6d3579	-0.2316493
10	0x3daf2853	0.08552613
11	0x3d69134f	0.05690318
12	0x3cb6a83b	0.022297015
13	0x3e8cce85	0.27501312
14	0x3d10c9d7	0.03534874
15	0x3e77cdb5	0.24199565
16	0x3e55e81e	0.20889327
17	0x3e812af7	0.25228092
18	0x3e7de607	0.2479478
19	0x3e80f457	0.25186417
20	0x3bc87b4c	0.0061182138
21	0x3e29df72	0.16589144
22	0xbd241713	-0.040061068
23	0xbcc53157	-0.024071379
24	0xbe000232	-0.12500837
25	0x3e861866	0.2619049
26	0xbe80f7bf	-0.25189015
27	0x3e6f0039	0.23339929
28	0xbdf52321	-0.11969591
29	0xbe0fe6a8	-0.14052832
30	0x3e8702b5	0.26369253
31	0x3da81eff	0.08209037
32	0xbd76da10	-0.060266554
33	0x3e9cddb3	0.30637893
34	0xbe903e8a	-0.28172714
35	0x3e653eaf	0.22387193
36	0xbadc2145	-0.0016794583
37	0x3e76df70	0.24108672
38	0xbe011092	-0.12603977
39	0xbd87627c	-0.06610581
40	0x3e26ce33	0.16289596
41	0xbe249a53	-0.16074495
42	0x3ca26c8a	0.019827146
43	0xbe91b686	-0.28459567
44	0x3e3a4587	0.18190585
45	0x3e1c8d9d	0.15288396
46	0x3e06ad27	0.1315199
47	0x3deef073	0.11666956

bias_hh_l1 f4 [48]
0	0x3debc3aa	0.11511929
1	0x3e89cc5c	0.26913726
2	0xbe5ff1e0	-0.21869612
3	0x3df0951e	0.11747192
4	0x3dc3fab5	0.09569303
5	0xbe787f53	-0.2426732
6	0xbe556f1c	-0.20843166
7	0x3dae09a1	0.0849793
8	0x3dab2b86	0.08357911
9	0xbd898cc6	-0.067163035
10	0x3e992672	0.29912144
11	0xbdbe4500	-0.092905045
12	0x3e9d96d5	0.30779138
13	0x3e5d7a82	0.21628764
14	0x3e6b99be	0.23007867
15	0xbe4e494c	-0.20145148
16	0xbe7e913e	-0.24860093
17	0x3e0f27aa	0.13979974
18	0xbe47409e	-0.19458243
19	0x3dda4fd3	0.106597565
20	0x3dc8cd34	0.098047644
21	0xbe78e377	-0.24305521
22	0xbcf1d999	-0.029522704
23	0x3da0326f	0.078221194
24	0xbe576cdb	-0.21037619
25	0xbb16859a	-0.0022967816
26	0xbe6c980b	-0.23104875
27	0xbdf4b014	-0.11947647
28	0x3e476ac2	0.19474319
29	0xbddde85f	-0.10835337
30	0xbd907e85	-0.07055382
31	0xbe4a4cfb	-0.19755928
32	0xbe0d874b	-0.13821141
33	0x3cafa210	0.021439582
34	0x3d4b8edc	0.04969679
35	0x3db3dc38	0.08782238
36	0xbe0f0aa4	-0.13968903
37	0xbe0751d8	-0.13214815
38	0xbdf82dd3	-0.12118115
39	0xbdbb1629	-0.09135086
40	0xbd82c01b	-0.063842975
41	0x3e84ea77	0.25960132
42	0x3e104360	0.14088202
43	0x3e05e532	0.13075712
44	0x3e6aa63d	0.22914977
45	0xbe3e0f45	-0.18560512
46	0x3ac77f96	0.0015220519
47	0x3e5d3b20	0.21604586

weight f4 [256, 12]
0	0x3e867caf	0.26267
1	0xbe722586	-0.23647127
2	0xbd8baf1c	-0.06820509
3	0x3e2538c4	0.16134936
4	0x3e1d85c9	0.15383066
5	0x3e2ca7a1	0.1686082
6	0x3d78cc08	0.060741454
7	0x3d9bd453	0.07608857
8	0xbe25c9ed	-0.1619031
9	0xbd35418f	-0.044251975
10	0x3e33a76d	0.17544337
11	0x3e83c811	0.25738576
12	0xbc8fc155	-0.017548243
13	0x3d7792a7	0.060442593
14	0x3cff2fb7	0.031150682
15	0x3e44d1fa	0.19220725
16	0xbe8029fe	-0.25032037
17	0xbcb21fec	-0.021743737
18	0x3e249c2d	0.16075201
19	0xbe0d5d22	-0.13805059
20	0x3e96ec03	0.29476938
21	0x3e51d476	0.20491204
22	0x3d170532	0.03687019
23	0x3e8575a3	0.26066312
24	0x3e13d3a5	0.14436205
25	0xbe4dcc54	-0.20097476
26	0xbd4cca22	-0.049997456
27	0xbd30d03f	-0.04316735
28	0x3dc69676	0.09696667
29	0xbe4d1934	-0.20029145
30	0xbe13eff9	-0.14447011
31	0x3e5f6a01	0.21817781
32	0x3e3519b8	0.17685592
33	0x3d5a54d3	0.05330355
34	0xbe85efbd	-0.26159468
35	0x3e63f9aa	0.22263208
36	0x3dd2dc6e	0.1029595
37	0xbe6f1ef5	-0.23351653
38	0xbe03df40	-0.12878132
39	0x3e073c1f	0.13206528
40	0x3e80fb84	0.2519189
41	0x3c10d514	0.008839864
42	0xbc90bced	-0.017668212
43	0x3db61baf	0.08891999
44	0xbc71b970	-0.014753684
45	0x3c9f8a39	0.01947509
46	0x3e3c7f5b	0.18407957
47	0x3c962da0	0.018332303
48	0xbe338bb8	-0.17533767
49	0xbe4aa150	-0.19788098
50	0xbe2b283d	-0.16714568
51	0x3e833770	0.25628233
52	0xbda5b938	-0.08091968
53	0x3de0addb	0.1097066
54	0xbe0e7d6e	-0.13915035
55	0x3be9d0a8	0.0071354695
56	0x3a305e93	0.000672796
57	0xbe588782	-0.21145442
58	0xbc5f269a	-0.013620043
59	0x3e036577	0.12831675
60	0x3d68fbb2	0.05688066
61	0xbe5efdad	-0.21776457
62	0xbe966a6f	-0.29378077
63	0xbd6b7a33	-0.057489585
64	0x3e86bf7d	0.2631797
65	0xbd9f5e6d	-0.07781682
66	0x3e807bf3	0.25094566
67	0x3cee4e24	0.029089995
68	0xbd430671	-0.047613565
69	0xbe3d2280	-0.18470192
70	0xbe75020b	-0.2392656
71	0x3e80963a	0.25114614
72	0x3e19575e	0.14974734
73	0x3e2cdb14	0.16880447
74	0xbde48721	-0.11158586
75	0x3ddd903e	0.10818528
76	0xbd34b4a3	-0.04411758
77	0x3da45484	0.080239326
78	0x3e88e340	0.26735878
79	0xbd785c85	-0.06063511
80	0x3e4bc263	0.19898371
81	0x3da2d24d	0.07950268
82	0x3db47de9	0.08813078
83	0x3e40825f	0.18799733
84	0x3e3f5724	0.18685585
85	0xbcd54596	-0.026034158
86	0x3e74ab82	0.2389355
87	0xbcd610db	-0.026131084
88	0x3e52b15b	0.20575468
89	0xbd395ad4	-0.045252636
90	0xbe0f9faf	-0.14025758
91	0x3e176f6d	0.147886
92	0xbe600b7f	-0.21879385
93	0xbe44de89	-0.19225515
94	0xbe81dc6d	-0.25363484
95	0xbbba5467	-0.005686331
96	0x3d29a95c	0.04142128
97	0xbe407399	-0.18794097
98	0xbcd106f4	-0.02551601
99	0x3d6ea140	0.05825925
100	0x3e7a9830	0.24472117
101	0xbe94cfe6	-0.29064864
102	0xbe00ea04	-0.1258927
103	0xbd8008b1	-0.06251658
104	0x3e3dce29	0.18535675
105	0x3e70cd66	0.23515853
106	0x3d010aa4	0.03150429
107	0xbb232edd	-0.002489976
108	0xbe16a6fd	-0.14712138
109	0xbca2776a	-0.019832332
110	0xbde62fb9	-0.11239571
111	0x3de14ab5	0.11000577
112	0xbcd5123d	-0.026009673
113	0xbc9d5621	-0.019206109
114	0xbde556fe	-0.11198233
115	0xbe7b3174	-0.24530584
116	0x3e8eac1b	0.2786568
117	0xbd2a38e2	-0.041558154
118	0xbe036d60	-0.12834692
119	0x3cb69cce	0.022291567
120	0x3d53b5c5	0.05168702
121	0x3dd26b62	0.10274388
122	0x3e90e656	0.28300732
123	0x3d170ebb	0.036879282
124	0xbe0fca9e	-0.14042136
125	0x3e7b8ba1	0.24564983
126	0x3de07244	0.109592944
127	0x3d652e01	0.055952076
128	0xbe8c08f7	-0.2735059
129	0x3dcb61d6	0.0993077
130	0x3dcfc080	0.10144138
131	0x3e20f797	0.15719448
132	0x3e195b88	0.14976323
133	0x3e5a975e	0.21346804
134	0x3de99984	0.11406234
135	0xbe1fcf0e	-0.15606329
136	0x3dfb42c9	0.12268598
137	0x3e23c9cc	0.15994948
138	0x3e28d825	0.16488703
139	0x3d018f73	0.031630944
140	0x3e9cb250	0.30604792
141	0xbe69efd7	-0.22845398
142	0x3e39efbb	0.18157856
143	0x3d899b57	0.06719082
144	0x3bdc90dd	0.0067311362
145	0x3e498645	0.19680126
146	0xbe2324c3	-0.15931992
147	0x3e7f4b6a	0.24931112
148	0x3d82024d	0.06348095
149	0xbd7fda14	-0.062463835
150	0xbe8de567	-0.27714083
151	0xbe879c98	-0.2648666
152	0x3e8be07f	0.27319714
153	0x3d828500	0.06373024
154	0xbe18adb0	-0.14910007
155	0xbe43d932	-0.19125822
156	0xbe7ffe48	-0.24999344
157	0x3e213781	0.1574383
158	0xbe7e2275	-0.24817832
159	0xbe7e77db	-0.24850409
160	0x3d98ec0e	0.07466899
161	0xbe2e1843	-0.17001443
162	0x3d4417da	0.04787431
163	0xbd400178	-0.0468764
164	0x3d752cd8	0.05985722
165	0x3e119b37	0.14219366
166	0xbda256fd	-0.07926748
167	0x3d5064f6	0.050877534
168	0x3d14e599	0.036351774
169	0xbe138acd	-0.14408417
170	0x3e8d5f17	0.2761161
171	0x3e54aa9a	0.20768204
172	0x3dbd0d05	0.09230999
173	0xbd9a7454	-0.07541719
174	0x3dd4443c	0.10364577
175	0xba8db3e8	-0.0010811063
176	0x3d788903	0.06067754
177	0x3e12b1e1	0.14325668
178	0x3e045f99	0.12927093
179	0xbdde9300	-0.10867882
180	0xbccf0918	-0.02527289
181	0x3e82ff02	0.2558518
182	0x3ce42be3	0.027852958
183	0x3d2115da	0.03932748
184	0xbd5aa63f	-0.0533812
185	0x3b272b2d	0.0025507913
186	0xbdbf32d6	-0.09335868
187	0xbe7fa344	-0.24964625
188	0x3e4afc7b	0.19822876
189	0xbe5f759a	-0.21822205
190	0x3c9ee947	0.019398345
191	0x3e945147	0.2896826
192	0xbde89fbd	-0.11358593
193	0xbe80e05d	-0.25171176
194	0x3d2ae3f3	0.041721296
195	0xbe8af7cc	-0.2714218
196	0x3dfb30c5	0.122651614
197	0xbe544378	-0.20728862
198	0xbe94d58c	-0.29069173
199	0xbe0d5628	-0.13802397
200	0xbe01ad21	-0.126637
201	0x3dce8cb7	0.10085433
202	0xbe2b9e15	-0.16759522
203	0xbbdb9c81	-0.0067020063
204	0xbb0733ec	-0.0020630313
205	0x3e4b4475	0.19850333
206	0x3ddd3779	0.10801596
207	0x3c8964f9	0.01677178
208	0x3e82190b	0.2540973
209	0xbc9cc206	-0.019135486
210	0x3e829403	0.2550355
211	0x3de30c04	0.11086276
212	0xbe8b4085	-0.27197662
213	0x3d7ad2ef	0.06123632
214	0x3dae25fb	0.08503338
215	0xbd195d33	-0.037442397
216	0x3d47cdb5	0.048780162
217	0x3e520764	0.20510632
218	0xbe5eccf4	-0.21757871
219	0xbdd15c11	-0.102226384
220	0x3da7cbc6	0.081931636
221	0xbb2d1bfd	-0.0026414387
222	0xbe9cc9d4	-0.30622733
223	0xbd737799	-0.05944023
224	0x3e24df05	0.161007
225	0x3ccff76d	0.025386536
226	0x3d224baf	0.03962296
227	0x3da8d8b0	0.08244455
228	0x3e9f0992	0.3106199
229	0xbdb5a374	-0.08869067
230	0x3e356042	0.177125
231	0x3e3b6743	0.1830111
232	0xbe732743	-0.23745446
233	0x3e64b21b	0.22333567
234	0xbcf99ba9	-0.030469732
235	0x3df546aa	0.11976369
236	0x3e919a88	0.2843821
237	0xbe146d59	-0.14494838
238	0xbe41af07	-0.18914424
239	0x3e849d0e	0.25901073
240	0xbcbf03a0	-0.023317158
241	0x3e492fdc	0.19647163
242	0x3df6156d	0.120158054
243	0xbe811e66	-0.25218505
244	0xbe9a3653	-0.3011957
245	0xbe2718d4	-0.16318065
246	0x3dc77b12	0.09740271
247	0x3e0ab9f9	0.13547505
248	0x3c1e2dd3	0.00965448
249	0x3de44dcd	0.11147652
250	0xbe8a1cf0	-0.26975203
251	0x3e81f8d2	0.25385147
252	0x3e481897	0.1954063
253	0x3c8fd37e	0.017556902
254	0xbd9e4e2f	-0.07729756
255	0xbde5143f	-0.11185502

bias f4 [256]
0	0x3e912a16	0.28352422
1	0xbcce1554	-0.025156654
2	0xbd5587a7	-0.05213132
3	0x3d785160	0.06062448
4	0x3e65a50b	0.2242624
5	0x3e2004b0	0.15626788
6	0xbe6e5a59	-0.23276652
7	0xbd0214a6	-0.031757973
8	0x3de4a78b	0.11164769
9	0xbd1583d8	-0.03650269
10	0xbe23325a	-0.15937176
11	0xbe436090	-0.19079804
12	0x3d2dc4e1	0.042424086
13	0xbce2b5fc	-0.027674668
14	0xbda24c61	-0.07924724
15	0x3d6b19af	0.05739754
16	0xbd818130	-0.06323469
17	0xbc957a34	-0.018246748
18	0x3dd03129	0.101656266
19	0x3cfc6bd1	0.03081313
20	0xbe14cd9c	-0.14531559
21	0x3ba01082	0.0048847804
22	0x3db9121a	0.09036656
23	0x3e04ee4c	0.12981528
24	0xbe978311	-0.29592183
25	0xbdf5d36b	-0.120032154
26	0x3dff1fcc	0.12457237
27	0xbe8a67a8	-0.27032208
28	0x3e348805	0.17630012
29	0xbe95b6ac	-0.2924093
30	0x3c9102a2	0.01770145
31	0xbe812b2d	-0.25228253
32	0x3d3e9e0f	0.046537455
33	0xbc173e25	-0.009231125
34	0xbe514a89	-0.20438589
35	0x3d865ed1	0.065610535
36	0xbd4017db	-0.04689775
37	0xbe42270c	-0.18960208
38	0x3e8ccedb	0.27501568
39	0xbe821f1c	-0.2541436
40	0xbe89d158	-0.2691753
41	0x3d96dd1d	0.07366393
42	0xbdb83f27	-0.0899642
43	0xbe901a09	-0.28144863
44	0x3d9ea10b	0.0774556
45	0x3e1623b2	0.14662054
46	0x3e375565	0.17903669
47	0x3e2d11bb	0.16901295
48	0x3e086d26	0.13322887
49	0xbd006aca	-0.031351842
50	0xbdfde085	-0.12396339
51	0x3e0a6458	0.1351484
52	0x3c331fd2	0.0109328795
53	0xbe4508ad	-0.19241591
54	0xbe27b3bf	-0.16377161
55	0x3e851a92	0.25996834
56	0x3c45325b	0.012035931
57	0xbdfd7eeb	-0.12377723
58	0x3e819596	0.25309438
59	0xbd88693a	-0.066606954
60	0xbd802ef4	-0.062589556
61	0x3de6eb37	0.112753324
62	0x3c8432ba	0.01613747
63	0xbc17d7c8	-0.009267755
64	0x3e6eefa2	0.233336
65	0x3ccf9789	0.025340812
66	0xbe4c6ef1	-0.19964196
67	0x3e3bdfb5	0.18347056
68	0xbc0c99f6	-0.008581629
69	0xbcc96a44	-0.024586804
70	0x3d84515b	0.0646083
71	0xbe2d08b4	-0.16897851
72	0x3e16ecd2	0.14738777
73	0xbe65dada	-0.22446766
74	0x3e6b7258	0.22992837
75	0x3e72a192	0.23694447
76	0xbc505098	-0.012714528
77	0x3e4c0610	0.19924188
78	0x3e6bac5d	0.2301497
79	0xbe58c04d	-0.21167107
80	0xbe2287db	-0.15872137
81	0xbe857795	-0.26067796
82	0x3e112ca1	0.14177181
83	0x3d682a2e	0.05668085
84	0xbe13f0f1	-0.1444738
85	0x3dd5fe5e	0.10448907
86	0xbdbbbbd1	-0.091666825
87	0xbe9a2dfb	-0.30113205
88	0x3e9e68a1	0.309392
89	0x3e3fda66	0.18735656
90	0xbdaa42a6	-0.083134934
91	0xbd30b0fc	-0.043137535
92	0xbdcc5cd6	-0.099786445
93	0x3e323357	0.17402397
94	0x3de15672	0.11002816
95	0xbd5d19f3	-0.053979825
96	0xbd78adaf	-0.060712513
97	0xbe528bba	-0.20561114
98	0x3e90b43a	0.28262502
99	0xbe5f9d5a	-0.21837369
100	0x3e4b7357	0.19868217
101	0x3e67a210	0.22620416
102	0x3dae1a73	0.085011385
103	0xbcb21534	-0.021738626
104	0xbd30cd27	-0.0431644
105	0x3e2559b0	0.16147494
106	0xbe88ccc7	-0.26718733
107	0x3e32b1b1	0.17450596
108	0xbe3b343c	-0.18281645
109	0xbe9c15f1	-0.3048549
110	0x3d40ace4	0.04703988
111	0xbe8f967e	-0.28044504
112	0x3e56e0e7	0.20984231
113	0x3e438837	0.1909493
114	0x3e01a8d8	0.12662065
115	0xbdfc7b29	-0.123281784
116	0x3e7f6288	0.2493993
117	0x3cf69a51	0.03010288
118	0xbd9916e0	-0.07475066
119	0xbb1b61f3	-0.0023709505
120	0xbe859b8a	-0.2609523
121	0xbd4148a5	-0.04718842
122	0xbe2fc92d	-0.17166586
123	0xbe844905	-0.2583696
124	0x3e3c1a87	0.18369494
125	0xbe18d933	-0.14926605
126	0xbd82e245	-0.06390814
127	0xbe1a42d2	-0.15064552
128	0x3d6d007c	0.05786179
129	0x3e3c0475	0.18361075
130	0x3df295ae	0.118449554
131	0xbc2edf09	-0.010673293
132	0xbe3867b9	-0.18008317
133	0xbcca3d6b	-0.02468749
134	0x3e37b641	0.17940618
135	0xbd61b0e4	-0.055100337
136	0x3e028821	0.12747242
137	0xbe7c21a6	-0.24622211
138	0x3e072e53	0.13201265
139	0xbe2bcd5d	-0.16777559
140	0x3e739ec3	0.23791032
141	0x3d05fa25	0.03270926
142	0x3de98942	0.11403133
143	0xbd4e3755	-0.050345737
144	0xbb907ff5	-0.004409785
145	0x3e6c089b	0.23050158
146	0x3e7d47be	0.24734399
147	0xbe4c7923	-0.19968085
148	0x3e66cf9f	0.22540139
149	0x3d877976	0.06614964
150	0x3ca50176	0.020142298
151	0xbe3af548	-0.1825763
152	0x3e31769a	0.17330399
153	0xbe7a7d1f	-0.24461792
154	0x3e00c399	0.12574615
155	0x3e0deecd	0.13860627
156	0x3e320647	0.17385207
157	0x3e44d3ad	0.19221373
158	0x3e794dd2	0.24346092
159	0xbdf2e106	-0.11859326
160	0x3e7a6160	0.24451208
161	0xbe2d3f7e	-0.16918752
162	0xbe846358	-0.25857043
163	0xbd3efdb2	-0.04662866
164	0xbe908612	-0.28227288
165	0x3de3f7ab	0.11131223
166	0xbe35e17f	-0.17761801
167	0xbb7e28bb	-0.0038781601
168	0x3df20cce	0.118188486
169	0x3cb91112	0.022591148
170	0x3e128df9	0.14311971
171	0x3d83a689	0.064282484
172	0xbe25d74c	-0.1619541
173	0x3df7e6c9	0.12104566
174	0xbe65a41d	-0.22425885
175	0x3c14cdbe	0.009082256
176	0x3e509102	0.20367816
177	0x3dc3dd42	0.09563686
178	0x3e84d540	0.25943947
179	0x3e6bd234	0.23029405
180	0xbe490f2b	-0.19634692
181	0xbde80ec9	-0.11330945
182	0xbd22cb2d	-0.039744545
183	0x3e281f77	0.16418253
184	0xbe81f92a	-0.2538541
185	0xbe001da6	-0.1251131
186	0xbdb7bd4d	-0.08971653
187	0x3e932607	0.2873995
188	0xbd911abc	-0.07085177
189	0xbdd0341a	-0.101661876
190	0xbe870736	-0.2637269
191	0x3d19b809	0.037529025
192	0x3e4380a2	0.19092038
193	0xbe1dc2cb	-0.15406339
194	0x3e2425b8	0.16030014
195	0x3d1be029	0.038055573
196	0x3e31d844	0.17367655
197	0x3e607267	0.21918641
198	0xbde0678e	-0.109572515
199	0xbe5d83a6	-0.21632251
200	0x3d4ae1e6	0.04953184
201	0xbe245d14	-0.16051131
202	0x3da033e4	0.07822397
203	0xbe522603	-0.20522313
204	0xbe77191d	-0.24130674
205	0x3e4acfe5	0.19805868
206	0x3d18c167	0.037293818
207	0xbe5c9738	-0.2154206
208	0x3e63a419	0.22230567
209	0x3cd24e0e	0.025671985
210	0x3c2d41ab	0.0105747385
211	0xbcbe0101	-0.023193838
212	0xbd7e5715	-0.062094767
213	0xba3ee7fc	-0.0007282493
214	0x3e87c032	0.2651382
215	0x3ddea42f	0.10871159
216	0xbdbdc20b	-0.092655264
217	0xbe202c0f	-0.15641807
218	0x3a8a05a6	0.0010530248
219	0xbe845cac	-0.25851953
220	0xbd808f11	-0.06277288
221	0x3cde7f55	0.027160326
222	0xbd3e170c	-0.046408698
223	0x3d2682a5	0.040651936
224	0x3e8ea148	0.27857423
225	0x3e61ba04	0.22043616
226	0xbe876452	-0.26443726
227	0xbd9f1ffe	-0.07769774
228	0xbe664bea	-0.22489896
229	0xbd905766	-0.0704792
230	0x3df15f07	0.11785703
231	0x3d882089	0.066468306
232	0x3c6041cf	0.013687565
233	0xbe271fe8	-0.16320765
234	0xbe5eb4e6	-0.21748695
235	0xbdebc1fb	-0.11511608
236	0xbcd55667	-0.026042176
237	0x3e77cdee	0.2419965
238	0x3da72d73	0.081629656
239	0x3df28356	0.118414566
240	0xbe428cb6	-0.1899899
241	0x3e5f8eb3	0.21831779
242	0xbb88b3d7	-0.004171829
243	0x3e78c735	0.24294741
244	0x3e12a15e	0.14319369
245	0xbe4d95a1	-0.2007661
246	0xbd57e907	-0.052712467
247	0x3de59e2c	0.112118095
248	0x3d6f8dd3	0.058484863
249	0xbdf62a43	-0.120197795
250	0x3e10f927	0.14157544
251	0x3e077608	0.13228619
252	0xbe558691	-0.20852114
253	0x3e6e33a5	0.23261888
254	0x3e505570	0.20345092
255	0xbd359545	-0.044331808
