models/recomendation_models/scripted_user_preference_model_v1_8_dim.pt (torch, 38941 bytes, 14 tensors)

weight_ih_l0 f4 [48, 12]
000000 48 7e c5 3d ae 33 05 3e 90 39 6a be 6a 05 7a 3d
       0.09643227 0.13007995 -0.22873521 0.06104032
000010 07 27 98 bb ea 95 aa be cb 3d 4a 3e 57 98 01 3e
       -0.0046433243 -0.333175 0.19750135 0.1265577
000020 e2 67 53 3d e3 13 6f 3e 55 16 59 be e5 b4 b2 3d
       0.051612742 0.2334743 -0.21199925 0.08725909
000030 cb 43 34 3e 7f 94 ff bc 8e 64 9c 3e cc 36 1a 3e
       0.17603986 -0.031198738 0.30545467 0.15059966
000040 77 0f 05 3d c3 65 a2 be 0a be b4 3d d2 8e 01 3e
       0.03248545 -0.31718263 0.088253096 0.12652138
000050 e4 30 7d bd 86 6e 5c be 5a 56 ab bd e9 47 86 3e
       -0.061814204 -0.21526536 -0.0836608 0.26226738
000060 a9 f1 e3 3c ec 05 f9 3d 4a 37 4e be 6f 0d e1 bb
       0.027825193 0.12159333 -0.20138279 -0.0068680565
000070 0e 22 84 3e b1 c8 5d be 13 0c fe 3d 0e 71 82 3d
       0.25807232 -0.21658589 0.12404647 0.0636922
000080 19 ce 26 be 13 a3 60 3e 33 7b de bd 8b 7a 30 3e
       -0.16289558 0.21937208 -0.10863342 0.17234246
000090 75 8d 28 3e 1b 63 b7 bc 0c 6b 63 be 58 fb 0f be
       0.16460212 -0.022386124 -0.22208804 -0.14060724
0000a0 c6 86 6e 3e 20 8b f8 3d 73 e8 82 be 28 d3 0e 3e
       0.232936 0.12135911 -0.2556797 0.13947737
0000b0 d5 be 2d 3e a2 e1 a1 3d d7 72 8e be 7e 3d ff 3d
       0.16967328 0.07904364 -0.2782199 0.124629006
0000c0 4c 46 3c bd 14 83 7a be 16 d9 25 3e c3 1c df bd
       -0.045965478 -0.24464065 0.16196093 -0.10894158
0000d0 9b 1b 8a be bd b5 7f bd 0b 53 49 be f5 47 e3 bd
       -0.26974186 -0.06242918 -0.19660585 -0.11097709
0000e0 cc 03 93 3e 21 15 9c 3e 5a ca cd 3d a6 35 46 be
       0.28713834 0.3048487 0.10048361 -0.19356403
0000f0 29 8c 26 be bc 08 60 3e 5d d9 7f 3d a3 16 aa bc
       -0.16264404 0.21878332 0.062463153 -0.020762747
000100 a4 b2 fc bc 79 c9 56 be 77 eb 83 be e5 c9 5e bd
       -0.030846901 -0.20975293 -0.25765583 -0.05439176
000110 07 d4 35 be c0 48 15 3d 39 54 94 3d e1 9e 61 be
       -0.17756663 0.036446333 0.07242627 -0.22033264
000120 4e df ca 3a dd 7e ba bd 2b fe 4b 3c 74 9f ba 3d
       0.0015477927 -0.091062285 0.012450735 0.091124445
000130 f1 25 09 be 7d dd 7a 3e f5 6c 34 be 8a 2f be 3d
       -0.1339338 0.24498554 -0.17619689 0.09286411
000140 49 c0 90 3e 3e 28 95 3e 2c 54 00 be b0 d3 42 3e
       0.28271702 0.29132265 -0.12532109 0.19026065
000150 a3 55 9f 3e 19 38 89 3e 7e f8 3c 3e ef 50 8e bd
       0.31120023 0.26800612 0.18454167 -0.069490306
000160 e5 b4 e8 bc 16 4c 80 be 95 a4 0c 3e 03 71 53 bc
       -0.02840657 -0.2505805 0.13734658 -0.012905362
000170 cc 49 2d 3e d4 39 2e bd 6b 95 dd bb f8 67 08 3e
       0.16922683 -0.042535618 -0.006762197 0.13320911
000180 90 12 16 be d7 39 6c be 93 9b 0b bc 2e 8c aa 3d
       -0.14655519 -0.23068939 -0.0085209785 0.083275184
000190 c6 7e 88 bc 3a c6 e0 3c d1 6c 23 bd 13 0f 83 3d
       -0.016662013 0.027438272 -0.039898697 0.063993596
0001a0 7a c2 96 bd 91 6e 38 3e ab 96 60 be b9 05 2e be
       -0.07361312 0.18010928 -0.21932475 -0.1699437
0001b0 2c 0c d0 3d eb ad be 3d 65 81 90 bd b6 27 8f bd
       0.101585716 0.09310516 -0.0705593 -0.06989996
0001c0 68 ef 74 be 08 f4 50 bd aa 6b 94 be 3d ad 7b 3e
       -0.23919451 -0.051013976 -0.2898839 0.24577804
0001d0 e4 20 60 3e af e4 d4 3d 46 e6 d0 bd 2f 08 88 3e
       0.21887547 0.103951804 -0.10200171 0.26568744
0001e0 4e de 3a be 7b 5f a2 bd 8c 0a de 3d f7 74 43 be
       -0.18248865 -0.07928368 0.108418554 -0.19087587
0001f0 d2 ca e1 3d ce 9c 3d 3e 73 b9 a2 be 87 8b 16 be
       0.11025013 0.18516847 -0.31782112 -0.14701663
000200 55 f1 41 3c 94 79 9b 3e 54 a3 59 3e 8d 4b 0b 3e
       0.011837323 0.30366194 0.21253711 0.13603039
000210 68 2b 50 3d d7 b5 2e 3e 0b 4b 15 be 7a 4f 16 3e
       0.050822645 0.17061554 -0.14579408 0.14678755
000220 96 15 07 be 7c 0b 26 3e a5 50 de 3b 20 60 4c 3d
       -0.13191828 0.16215318 0.006784516 0.04989636
000230 df f5 69 3e 36 cb e9 3d ca 46 48 3e a9 b7 4b bd
       0.22847699 0.114157125 0.19558254 -0.0497357
000240 c7 7b 82 3e 0a 64 20 3d db 03 13 be 66 38 d7 3d
       0.2548506 0.039157905 -0.1435694 0.10508804
000250 16 c6 0d be 2d f2 9b be 8a 6a a2 3d 0d 66 5a 3e
       -0.13845095 -0.30458203 0.07930477 0.21327992
000260 fe f5 2f 3e ec ef 5c be 6b 9d 43 3e 3d 03 19 3e
       0.17183682 -0.21575898 0.19103019 0.14942642
000270 30 df 0b be 7d 57 d6 bd 07 c9 95 3e 07 8b 54 be
       -0.13659358 -0.10465906 0.29254934 -0.2075616
000280 1b 27 9a be 4d f4 06 be 6d 46 a6 3b 5c a0 5d 3e
       -0.3010796 -0.13179131 0.0050743134 0.21643203
000290 35 0a f7 3d 7f 6d b7 bd 2f ea 1a be 44 33 69 3e
       0.12062494 -0.089564316 -0.15128396 0.22773463
0002a0 25 4d a8 bd 0b c3 de bd e9 4e 77 3e 64 3a 4a be
       -0.08217839 -0.10877045 0.24151196 -0.19748837
0002b0 61 3b 31 3e 27 59 78 3e a2 77 3d bd 1c 99 38 3b
       0.17307808 0.24252759 -0.04625667 0.0028167432
0002c0 15 23 2e be 5b 84 ef bc 98 a2 22 3d 12 94 1d 3e
       -0.1700557 -0.029237917 0.039705843 0.15388516
0002d0 fd 01 8b 3e ad b3 8e be d5 ad 5c be c1 e9 83 be
       0.27149954 -0.27871457 -0.21550687 -0.25764278
0002e0 33 49 1f 3e c0 0e fa bd 9e 46 8c 3e 70 df 91 3e
       0.15555267 -0.122098446 0.27397627 0.28490782
0002f0 33 2e 6d 3e 25 ec b0 bd dd cc 45 be 31 3a 36 3e
       0.23162155 -0.08638791 -0.1931643 0.17795636
000300 f7 18 4c bc 3c 3c cf bd fa 43 99 3c bd 3c 1f bb
       -0.012457124 -0.10118911 0.018709172 -0.0024297677
000310 ac 0d 28 bd e7 00 35 3d 8a ff 92 be d0 4a 57 bc
       -0.041028664 0.044190314 -0.28710586 -0.013140395
000320 b0 21 09 3e 80 aa 57 bd 52 85 88 3e 08 a0 83 3e
       0.13391757 -0.052652836 0.26664215 0.25708032
000330 29 a7 12 be c6 d1 52 3e 8b f8 f4 bc ad 64 e4 bd
       -0.14321579 0.20587835 -0.02990367 -0.11152015
000340 ac ef cb 3d 6f 33 30 3e 3d 97 f3 3d 0b 11 3b 3e
       0.09957823 0.1720712 0.11894081 0.1826822
000350 43 9c 1b 3e a9 25 2c 3e f7 83 a9 3c 81 3e 8d 3e
       0.15196328 0.16811241 0.020692809 0.2758675
000360 9f b1 e8 bd ec 25 70 bd 77 4c 23 be 38 3e ef bd
       -0.113620035 -0.058629915 -0.15947138 -0.11681789
000370 5d bd c8 bd 6e 1d 0c 3d 28 84 88 be f5 c5 38 be
       -0.09801743 0.034207754 -0.26663327 -0.18044265
000380 6a 5e 84 3e a9 02 f4 3d 0f 85 12 3d 12 58 90 3e
       0.25853282 0.1191457 0.035771426 0.28192192
000390 b6 8a 62 be d5 27 2e 3e 3d ba 3f bd 9e 71 fd 3d
       -0.22123227 0.17007382 -0.04680847 0.123751864
0003a0 a5 c5 02 3d 71 d5 a4 be b6 4d 43 3e 7f e9 6a bd
       0.03192677 -0.32194093 0.19072613 -0.057351585
0003b0 1c 72 de 3d 6d 65 2b bc 43 b5 0e be f1 16 51 3d
       0.108616084 -0.0104611935 -0.13936333 0.05104727
0003c0 60 09 22 3e 9c b4 1c 3e 27 ed 2e 3e 10 e9 b0 3e
       0.15823889 0.15303272 0.17082654 0.34552813
0003d0 3e de 51 3e 6c f1 41 be bb b3 e8 3d 62 07 57 be
       0.20494935 -0.18939751 0.11362406 -0.2099891
0003e0 57 32 e7 bd 80 57 ef bd 5d d2 ec 3d 54 ca 35 be
       -0.112888984 -0.11686611 0.11563561 -0.17752963
0003f0 be 03 0c be 7d ad 4c be 4f f4 2f be ce be 59 be
       -0.13673303 -0.19988056 -0.1718304 -0.21264192

weight_hh_l0 f4 [48, 12]
000000 06 04 96 3d 02 d6 d3 bd 47 35 6f be 51 b1 b7 3d
       0.07324986 -0.10343553 -0.23360167 0.08969367
000010 e8 34 6a bd ca fe c7 bd 4b c5 96 3e 60 00 a0 be
       -0.05717936 -0.09765394 0.29447398 -0.31250286
000020 50 ad a0 be 36 9f 7a be 2c cf 13 be 6e 12 1f 3c
       -0.31382227 -0.24474797 -0.14434499 0.009708984
000030 c0 74 1e 3d 77 d0 dc bd f7 a9 5e 3d c5 ab 4b 3e
       0.03868556 -0.10781949 0.05436131 0.19889744
000040 82 2b 6d bd ed be 36 3e a9 c6 af bc 23 56 5e be
       -0.05790282 0.1784627 -0.021457033 -0.21712546
000050 29 5d 9d bd ea 00 1b 3e e7 1c 21 bd 0f 1e 5f be
       -0.076837845 0.15137067 -0.039334204 -0.2178881
000060 c6 c0 18 be d1 11 4d be ea e3 96 3d ad 0e 26 3d
       -0.14917287 -0.20026328 0.0736769 0.04054134
000070 37 d4 69 3e e8 49 9d bd 4c a5 12 3c f3 ab 49 3e
       0.2283486 -0.07680112 0.008950543 0.196945
000080 23 20 e1 bc 78 bd 2b bd 17 e9 29 3e e2 5e 81 bd
       -0.027481144 -0.04192874 0.16592823 -0.063169256
000090 cb b9 24 be 09 5a 1c be 71 c1 3c 3d 89 4d d0 3d
       -0.160865 -0.1526872 0.046082918 0.10171039
0000a0 b1 76 3f be d4 32 29 be f1 fe 08 3e 0b f6 a3 3d
       -0.18697621 -0.16523296 0.13378502 0.08005913
0000b0 c8 52 71 3e 65 6f 80 3e 39 d2 44 bd b2 1a 89 3d
       0.23566735 0.25084987 -0.048052046 0.06694545
0000c0 ae 49 78 bd bf de 61 be 93 cb 21 bd 2c 19 ea bd
       -0.06061714 -0.22057627 -0.039500784 -0.114305824
0000d0 56 86 42 bd 8f 23 1a 3e 92 a6 53 be 31 b3 0d 3d
       -0.047491394 0.15052627 -0.2066901 0.03459472
0000e0 18 2b a7 be 34 07 04 3d 96 10 52 bd 24 98 2b be
       -0.32650065 0.032233432 -0.05128535 -0.16757256
0000f0 94 a9 72 3e b8 57 3b be 12 c9 0e 3e 9e 3b 43 be
       0.23697501 -0.18295181 0.1394389 -0.19065711
000100 b2 20 67 be 12 b3 77 3e 7d 08 23 3e 4f c9 e4 bd
       -0.22571066 0.24189404 0.15921207 -0.11171209
000110 84 34 ff bd 62 30 73 3c 1a a0 b7 3d 25 19 0c 3e
       -0.124611884 0.014843078 0.08966084 0.13681467
000120 10 d9 97 3d 78 f8 8c 3e 51 dd 8e 3e 15 d7 06 be
       0.07414448 0.27533317 0.27903226 -0.13167985
000130 44 70 72 3e f7 44 51 be 51 de 23 3e ee 06 ee bc
       0.23675638 -0.20436464 0.16002776 -0.029056039
000140 79 71 57 3e 77 27 16 be 3b b4 2c bd 3c de 34 3e
       0.2103938 -0.14663492 -0.04216407 0.176629
000150 a3 10 6f 3e 56 32 b3 3d 71 d4 81 be 05 04 8c 3e
       0.2334619 0.08749835 -0.25357392 0.27346817
000160 8d 1e 02 3e 48 b5 a1 bd 38 b9 85 be 53 b2 93 bc
       0.12706967 -0.07895905 -0.26117873 -0.018029368
000170 88 35 b8 bd 1f 71 9d 3d 4d 9f d8 bd 3f bf 45 3e
       -0.08994585 0.07687592 -0.10577259 0.19311236
000180 dd ae 29 bb 44 38 50 be 13 f8 31 be b7 2d 31 3e
       -0.002589158 -0.20333964 -0.17379789 0.17302595
000190 76 cb 6b bd b4 9e a6 3e 71 8b b4 3d b4 4a c0 3c
       -0.057567082 0.32542956 0.08815659 0.023473121
0001a0 c0 e7 86 be 15 0e 72 be d4 1d ab 3e 35 d5 71 be
       -0.26348686 -0.23638184 0.33421195 -0.23616488
0001b0 f0 54 c7 3d 53 50 7d be 69 38 c0 3d 3b be 12 3d
       0.097329974 -0.24737673 0.093857594 0.03582595
0001c0 7b 37 ff 3d 1d 65 29 bd 6c 20 5d 3e a8 75 76 3e
       0.12461754 -0.041356195 0.21594399 0.2406832
0001d0 c8 87 f9 3d 60 1c ef bd 1d a7 18 3e ae 1a 7a 3e
       0.12184101 -0.11675334 0.14907499 0.2442424
0001e0 9b 38 60 be 0f 77 94 3e 0d 90 54 be dd f0 79 3d
       -0.21896593 0.28997084 -0.20758076 0.06102072
0001f0 98 d7 83 bd 20 2a 03 3c 61 59 64 bc d0 78 cc bd
       -0.064376056 0.008005649 -0.013937325 -0.09983981
000200 95 e8 21 be dc a5 97 3a a2 52 f7 3d c3 fb bc bd
       -0.15811379 0.0011569816 0.12076308 -0.09227707
000210 f8 31 4c 3d a0 9d 97 be e5 17 db bc 08 0c ca 3d
       0.04985234 -0.29612446 -0.026744792 0.09865576
000220 57 0a a9 bd aa e1 86 be dc 83 24 3e 8d 05 e3 3b
       -0.08253925 -0.26344043 0.16065925 0.006928152
000230 3f 52 39 bd 24 4f 24 3e 1f bb b9 bd 06 c2 84 3e
       -0.04524445 0.16045815 -0.09068894 0.25929278
000240 6d 2e 97 3d f7 36 69 3e 35 4d f7 bd 6f a4 9b be
       0.07381902 0.22774874 -0.12075273 -0.3039889
000250 1a fd 82 3e 05 f4 f2 bb b2 61 a0 3e f4 09 45 be
       0.25583726 -0.0074143433 0.31324536 -0.19242078
000260 63 6e d5 3d b1 7e 2f 3e 9b 74 3a 3e 59 81 d5 bd
       0.10421445 0.17138173 0.18208544 -0.10425062
000270 75 14 1c be ea 35 b3 bd ef f9 93 3e 75 0e c6 3d
       -0.15242179 -0.08750518 0.28901622 0.09670726
000280 f4 64 40 bd 85 49 91 3e d7 23 0e 3d 15 d3 85 be
       -0.046971276 0.28376403 0.03470215 -0.26137605
000290 b2 e7 50 be 31 b4 32 bd d2 b3 e1 3d 91 c0 f1 bd
       -0.20400885 -0.043628875 0.11020626 -0.11804307
0002a0 79 12 65 3e 4d dc a8 3d f2 bc 61 bd af b1 e2 bd
       0.22370328 0.08245144 -0.055111833 -0.11069047
0002b0 96 4e 86 3d 25 5e 22 bb d9 cb 35 3e fa 60 73 be
       0.06557958 -0.0024775353 0.17753543 -0.23767462
0002c0 41 64 eb 3c e0 79 51 bd 13 93 16 be 18 d0 cb bd
       0.028734328 -0.05114162 -0.14704542 -0.099518
0002d0 7a c4 80 be 90 00 8d bd 42 39 bf 3d 92 a6 0d be
       -0.251499 -0.06884873 0.09337093 -0.13833073
0002e0 ae 25 8b 3e da 5f 14 3e 69 00 7c bd 63 0f cb bd
       0.27177185 0.1448969 -0.06152383 -0.09915044
0002f0 1d 2b 6d 3e 0c 59 1d 3e 0e 10 2b be 28 78 89 be
       0.23160978 0.15366 -0.16705343 -0.26849484
000300 80 b9 c9 bc 95 05 35 be f7 9b 95 3e 02 7a d9 bd
       -0.024624586 -0.1767791 0.29220554 -0.10618974
000310 8a 44 f9 bd 98 0f e7 bd 96 25 40 3e b8 0c 6e be
       -0.12171276 -0.11282271 0.18764338 -0.2324704
000320 18 d1 34 3e 00 5c 6c bd b8 67 5f 3d 70 58 de bd
       0.17657888 -0.057704926 0.054542273 -0.10856712
000330 25 d0 0e 3e 80 44 bc bd 70 fc 20 be ae 03 9a 3d
       0.13946588 -0.09192753 -0.15721297 0.07520233
000340 39 70 03 bd b1 d4 9e 3e b3 da 20 3e 65 7d a4 be
       -0.032089446 0.31021646 0.15708427 -0.32126918
000350 f2 a3 19 3e de 58 95 3e e8 32 7d 3d cd 5f 3c 3e
       0.15003946 0.29169363 0.061816126 0.1839592
000360 b9 ee 53 3e 2a d6 ea 3d a2 aa 54 3d 60 b2 87 be
       0.20696534 0.1146663 0.05192054 -0.26503277
000370 5e 24 c2 3d 12 45 5c 3e 6f 8d 40 3e 75 61 1c be
       0.09479593 0.21510723 0.18803953 -0.15271552
000380 fa 9e 77 be 08 7b ee bd 0a ac 9c 3d bb 90 96 be
       -0.24181738 -0.1164456 0.07650001 -0.29407296
000390 27 af 82 bd 89 20 81 3e d9 85 7a bd 83 6a c3 3c
       -0.06381064 0.25220135 -0.061162803 0.0238545
0003a0 78 11 a2 3e f4 6b 4d 3e b4 18 74 3d bf 69 40 bd
       0.31653953 0.20060712 0.05959387 -0.046975847
0003b0 9f f8 23 be 0f a8 52 3e 1d d7 ba bd 40 28 02 3e
       -0.1601281 0.20571922 -0.09123061 0.12710667
0003c0 e9 c8 56 3e 08 50 e8 bd 69 1b 5b 3e 86 21 4a 3e
       0.20975079 -0.1134339 0.21397175 0.1973935
0003d0 fe 8a 1c 3e 18 96 12 3d 20 92 09 be c2 78 19 be
       0.15287396 0.03578767 -0.13434649 -0.14987472
0003e0 40 eb 02 3c c1 b6 7a 3d 37 7b 30 3e 65 85 c0 bd
       0.007990658 0.061209444 0.17234503 -0.09400443
0003f0 78 ab 13 be 21 02 2e be 6b 6f ee bb 60 d2 84 3d
       -0.14420879 -0.16993 -0.0072764657 0.06485438

bias_ih_l0 f4 [48]
000000 52 68 b4 bd 1a c4 fe bd 51 a6 c8 bd c3 58 01 3e
       -0.0880896 -0.12439747 -0.09797347 0.12631516
000010 4b 56 61 3e 76 7a a3 3e 42 48 f9 bd 01 6a 8c bd
       0.22005574 0.31929368 -0.12171985 -0.06856156
000020 ee ab 87 bd a5 4b 83 3e 08 d8 84 3e 08 95 87 be
       -0.0662459 0.2564365 0.2594607 -0.2648089
000030 d6 e4 95 3d a7 7a 62 bd e6 43 a6 3d 2b f4 1b 3e
       0.073190376 -0.05529275 0.08118419 0.15229861
000040 19 a2 a7 3e 61 b2 92 3e 9e e5 64 3e 60 98 10 3e
       0.32740858 0.28651717 0.22353217 0.14120626
000050 64 e0 06 3e 42 60 e9 3c 35 41 aa 3e 58 be 9d 3d
       0.13171536 0.028488282 0.33252874 0.07702321
000060 cf ad a8 3e c6 a0 a5 3e 07 5a 5a 3e ea 8d 80 be
       0.32945105 0.32349223 0.21323405 -0.25108272
000070 78 15 57 3e ea 67 4f 3e b8 dc 36 bc ad 44 82 be
       0.21004283 0.20254484 -0.011161022 -0.2544302
000080 b1 bc f8 3c 92 b1 47 be ad 16 e0 3d 86 10 6e 3e
       0.030363413 -0.19501331 0.10941825 0.2324849
000090 c7 9c ab 3d 00 61 46 3e f4 df 6c be 7e 3f 26 bd
       0.08379512 0.1937294 -0.23132306 -0.040587895
0000a0 c0 ee 2f be 43 cc 46 be 66 66 d1 bd 37 6a 2e 3e
       -0.1718092 -0.19413857 -0.10224609 0.17032705
0000b0 cb a1 ee bd ab 1f 08 3d ee 02 46 3e 6d d1 16 3e
       -0.11651953 0.033233326 0.19337055 0.14728327

bias_hh_l0 f4 [48]
000000 97 00 5b bd 6b 20 c6 bd 18 05 26 be f0 16 82 be
       -0.05346736 -0.09674152 -0.1621288 -0.25408125
000010 c3 52 96 3e 3c 50 63 3e 3d c4 52 3e 92 96 51 3e
       0.29360017 0.22198576 0.20582671 0.20467594
000020 51 4e 2d 3d bb 7c 8a 3e e9 0e 35 be c3 27 4c be
       0.042311016 0.27048287 -0.17681469 -0.19937043
000030 c3 a6 3a be 90 4d 91 bd 16 8d 90 3e db 7a 3a 3d
       -0.18227677 -0.07094872 0.2823264 0.04552732
000040 40 5f 10 be 57 00 8c bd d5 4e 8d bd 33 fc 10 be
       -0.14098835 -0.06836002 -0.06899802 -0.14158706
000050 2b 0e 04 bc 3e 38 25 bd 19 20 1a be ea 39 53 3e
       -0.0080600185 -0.04033684 -0.15051307 0.20627561
000060 5b 85 27 be 86 5f 37 3b 2b 76 9b 3d db 92 5d be
       -0.16359465 0.002798052 0.07590898 -0.21638052
000070 a2 c7 2b be 07 bf ba bd c9 ba 8e bd 73 5c 4c be
       -0.16775373 -0.09118467 -0.0696922 -0.19957142
000080 ab 7c 2c be db 11 00 3e 72 ad 5d be bc cd 71 be
       -0.16844432 0.12506811 -0.21648195 -0.23613638
000090 be d1 e0 bd 1b eb 1a 3d e4 64 db bd 60 0b 19 3d
       -0.10977505 0.03782187 -0.10712603 0.037364364
0000a0 3b 97 27 be 02 c1 ae 3e 0c 79 d5 bc ff ea db bd
       -0.16366284 0.34131628 -0.026058696 -0.10738181
0000b0 d7 49 93 3e 8c f8 da 3b 2c 42 92 3e c0 b4 78 be
       0.28767273 0.006682461 0.2856611 -0.242877

weight_ih_l1 f4 [48, 12]
000000 3d b4 00 3d 2b 53 a1 3e 6b 81 9d bd ce 18 a4 be
       0.03142189 0.31508765 -0.076907 -0.32050174
000010 fe 41 30 3e b5 21 52 be 06 62 05 3e e3 15 17 be
       0.17212674 -0.2052067 0.13025674 -0.14754443
000020 1c 4a 8d be da 4b 09 bd 41 2f a9 3e d8 2e 0a 3e
       -0.27595603 -0.033519603 0.33043864 0.13494432
000030 5c 1a 8b 3e 17 ed 0f 3c 02 d7 6b 3e e0 bc 93 bd
       0.27168548 0.008784554 0.23031238 -0.072137594
000040 38 19 d7 3d 18 6d 55 3e b5 d7 04 be de 2c 44 be
       0.10502857 0.20842397 -0.1297291 -0.1915774
000050 bc a4 dc 3b f4 56 07 3d 67 47 a4 3e b2 7f 49 be
       0.006733505 0.03304191 0.32085726 -0.19677618
000060 e7 54 01 3e 42 25 16 bb 15 36 8c bd f4 ee 12 3e
       0.12630044 -0.002291039 -0.06846253 0.14348966
000070 32 1d f1 bd fd 02 8a 3e 9e 22 45 3d 09 6c 9f bd
       -0.11773147 0.26955405 0.048128717 -0.07784278
000080 5a 35 84 be b9 8a 20 be 34 94 95 3d 10 6d cd 3d
       -0.25821954 -0.15677918 0.07303658 0.10030568
000090 6a b6 92 3e 6f ab 04 3e e7 07 c6 3d 3c c1 12 3d
       0.28654796 0.12956022 0.09669476 0.035828814
0000a0 84 4a f8 bd 91 73 c8 3d aa e4 05 3e 13 80 01 be
       -0.12123588 0.097876675 0.1307551 -0.12646513
0000b0 a5 e7 dd bc 4d b1 1e be 01 75 74 3d dc 69 6d bc
       -0.027087996 -0.15497322 0.059681896 -0.014490571
0000c0 1f 00 90 bd 0e 4d 25 bd 10 e3 53 be 1b 8e d2 ba
       -0.07031273 -0.04035669 -0.20692086 -0.0016064079
0000d0 3a 4f 01 3d 40 25 94 bd d6 e8 bc bc f6 b5 8b be
       0.031569697 -0.072336674 -0.023060244 -0.27287263
0000e0 dd 53 10 be 1c 81 3e 3e 0a 59 4a be ac af 66 3e
       -0.14094491 0.18603939 -0.19760528 0.22527951
0000f0 8a 01 e1 bd c2 6f 4e be 3b 5f 1a 3e ff a2 c0 bd
       -0.10986622 -0.2015982 0.1507539 -0.09406089
000100 fb bb 4d 3e 78 55 57 3e 49 c5 c0 bd 79 1d e1 bb
       0.2009124 0.21028697 -0.09412629 -0.0068699685
000110 0e 89 7f be a8 fa 6c be cc af 69 3e 62 5e 10 be
       -0.24954626 -0.23142493 0.22820967 -0.14098504
000120 42 f9 46 be f0 e4 26 be a4 a2 26 3e e2 a7 0a 3e
       -0.19431022 -0.1629827 0.1627298 0.13540605
000130 3b 29 8e bd 07 62 7b 3e 12 37 02 be 6d e1 34 3e
       -0.06941458 0.24549113 -0.1271632 0.17664118
000140 ae 0f 17 be 7d 88 13 3e 39 4b 2a be b9 be 40 3e
       -0.14752075 0.14407535 -0.16630258 0.18822755
000150 6b 56 09 be 09 b0 7e 3e 8f 1d 88 3e cd 16 4e be
       -0.13411872 0.2487184 0.2658505 -0.20125885
000160 17 cb e9 3b 5b f7 a8 3e 78 7c f1 3d 94 3a 9b be
       0.007134806 0.33001217 0.11791319 -0.3031813
000170 93 8b 7a be 15 f8 98 bd 55 79 6d 3d 6b 51 50 be
       -0.24467306 -0.07469193 0.05797704 -0.20343558
000180 b2 d1 21 be 2d cc 46 3e ff 72 2a 3d 14 35 93 3d
       -0.15802649 0.19413824 0.041613575 0.07187858
000190 4a b3 4f 3e 02 c2 69 3d 24 63 bf 3c 70 50 22 be
       0.20283237 0.057069786 0.023362704 -0.15850997
0001a0 a6 f0 72 3e 2f 6e 99 bd 64 1d 4b be ff 52 50 3e
       0.23724613 -0.07491719 -0.1983543 0.2034416
0001b0 39 e7 5e 3b fa f7 f1 bd 12 15 47 3e 37 0a 98 3d
       0.003401233 -0.11814876 0.19441631 0.07423823
0001c0 97 19 2c bd 67 93 7a 3e 23 96 07 3e ed 61 30 3d
       -0.042016592 0.24470292 0.13240866 0.04306214
0001d0 f1 10 1c 3e b2 e5 29 3d d9 51 b7 bc 31 e2 5f be
       0.15240838 0.04147882 -0.022377895 -0.21863629
0001e0 92 90 dd bd d3 97 94 3c 75 67 c6 bc 84 29 a5 be
       -0.1081859 0.018138802 -0.024219254 -0.32258236
0001f0 f5 6e a1 3e e5 77 99 3b 49 a0 35 3e 65 0e a0 3d
       0.31529966 0.004683482 0.17736925 0.078152455
000200 bf ed a1 be 52 45 38 be 86 75 93 3e 54 bd be 3d
       -0.31626698 -0.17995194 0.288006 0.09313455
000210 af 08 42 be 35 02 48 3e 8b 7f 35 3e ea 05 84 3b
       -0.18948625 0.19532092 0.17724435 0.0040290253
000220 ba 4c ca 3c 33 48 4d be d5 00 53 3e 02 ef 7e 3e
       0.02469479 -0.20047073 0.20605786 0.24895862
000230 22 bc 89 3e 53 02 55 be ea 93 1e be e2 73 27 3e
       0.26901346 -0.20801668 -0.15486112 0.163528
000240 11 83 2b 3e 1b 8e 38 be 70 c8 85 3e 0e b6 16 3b
       0.16749217 -0.18022959 0.26129484 0.0022996697
000250 60 70 9e 3e c5 16 2a be 97 aa 50 3e 8f 6c a3 3d
       0.3094511 -0.16610248 0.20377575 0.0797969
000260 8b 4e a7 bd f4 3c c2 3d 98 e2 9d 3e 2a 14 18 be
       -0.08169278 0.09484282 0.3083694 -0.14851442
000270 17 f0 73 3d 52 68 d1 3d ca ce 0f be 73 fd 4d be
       0.05955514 0.10224976 -0.14043728 -0.20116214
000280 b9 e1 9b 3e 05 e1 0d 3e 68 24 1b bd 31 0c 73 3d
       0.3044565 0.1385537 -0.037876517 0.0593378
000290 43 84 05 be a9 0e 16 3e a2 b0 80 3e 90 7f d5 bd
       -0.13038735 0.1465403 0.2513476 -0.10424721
0002a0 7d 97 02 3d 6b fb bc bd db 99 8c be d5 3f 85 be
       0.03188275 -0.09227642 -0.27461132 -0.26025262
0002b0 7a 68 9f bd 37 7f f7 3d 5e db 44 be 26 e8 88 3e
       -0.07783599 0.12084811 -0.19224307 0.26739615
0002c0 6d 1e 62 be 68 35 0b be c3 df 61 bc 62 12 f1 3d
       -0.22081919 -0.13594592 -0.013786259 0.11771084
0002d0 d3 05 a1 3e 6f b3 c4 3d 46 5a 81 be 06 14 33 bc
       0.31449756 0.09604537 -0.25264186 -0.010930067
0002e0 21 94 9b 3e 0c a6 4d 3d 26 e9 95 bd 3b 5f 09 3d
       0.3038645 0.050207183 -0.0731986 0.033538084
0002f0 1f b4 5c be 57 8e 33 bd 8d 31 8e 3e c9 ca 66 be
       -0.21553086 -0.043836918 0.2777218 -0.22538294
000300 b2 9e f4 3d ef c3 49 be 92 59 85 be b0 9a 15 3e
       0.11944331 -0.19703649 -0.260449 0.1460979
000310 f8 92 08 3e 49 25 8f 3e bb 1c 32 be 34 53 49 3e
       0.13337314 0.27958134 -0.17393772 0.19660646
000320 d2 95 d3 3d bb 12 03 3c 3c 67 88 3e d4 6d 47 be
       0.1033131 0.008000071 0.26641262 -0.1947549
000330 55 03 9c 3e dd 56 46 3c ab f9 8f bd e1 af 6a bc
       0.30471292 0.012105671 -0.07030042 -0.014324159
000340 3a 63 8c bc ae aa 80 3e 66 04 b8 3c 04 8e 56 3d
       -0.017137159 0.25130218 0.022463035 0.05238153
000350 e8 1e 59 3e 8f 64 a2 3e 72 1b b0 3e 86 0b 7e bd
       0.21203196 0.31717345 0.3439594 -0.06202271
000360 b9 50 5f 3e 4e 37 a7 3d f5 c9 87 3e 98 a0 9a be
       0.21808137 0.081648454 0.26521268 -0.30200648
000370 2d 13 19 3e 58 5d f9 3d fd cf 0f be 89 d6 ab bc
       0.14948721 0.12176007 -0.14044185 -0.020976322
000380 14 c9 d4 3b 15 c1 2f 3e 86 f2 3d be 86 cf 39 3e
       0.006493697 0.17163499 -0.18549547 0.1814557
000390 3d f6 95 3d ad f6 4b 3e 78 2b 42 3d 47 35 13 be
       0.07322357 0.19918318 0.047404736 -0.14375792
0003a0 e2 f2 21 be 18 c2 31 3d 74 d7 7e 3c b8 03 18 3e
       -0.15815309 0.043397993 0.015554298 0.14845169
0003b0 3f 37 55 be 72 97 44 be ab 1e 1d bd b2 8f f2 3d
       -0.20821856 -0.19198397 -0.038359325 0.11843814
0003c0 7b b3 a2 3e a5 70 88 3e 34 70 4f be 80 d8 93 be
       0.31777558 0.2664844 -0.20257646 -0.28876114
0003d0 8d 93 7d be 61 ec 7b bd b1 99 cb bc 35 81 44 3d
       -0.24763317 -0.061504725 -0.02485356 0.047974784
0003e0 4d 4c 1e be 14 2c 7f 3d fa d2 42 3d 0f 82 48 3e
       -0.15458794 0.062297896 0.047564484 0.19580863
0003f0 75 5c 6e 3e 53 57 51 3e fa ad 0b bd 21 3f ac 3c
       0.23277457 0.20443468 -0.034101464 0.021026196

weight_hh_l1 f4 [48, 12]
000000 5e db 2d 3e 78 4c 8a be c8 fb f0 bd 31 66 1f be
       0.16978213 -0.27011466 -0.117667735 -0.15566327
000010 91 80 13 be 77 a4 7e 3d af c9 28 3c 58 61 1f be
       -0.14404513 0.062168565 0.010301991 -0.15564477
000020 9d be 92 3e 60 77 f7 bd f4 5c 5d bd f3 56 39 3e
       0.2866105 -0.12083316 -0.054043725 0.18099575
000030 38 82 47 be 14 58 9a bd a7 49 96 be 92 c3 e5 bd
       -0.19483268 -0.07536331 -0.29353067 -0.11218943
000040 06 86 0a 3e ed 4b 75 bc f4 90 71 3e e6 e1 6b bd
       0.13527688 -0.014971715 0.23590451 -0.05758848
000050 1a 2c 6f be 1e dc a6 be cd 67 9f be f5 a4 c2 3d
       -0.23356667 -0.3258981 -0.3113388 0.09504119
000060 8b d2 55 3e f3 95 0d be c3 13 3d 3e a8 c8 81 3e
       0.20881097 -0.13826732 0.1846457 0.253484
000070 c8 22 89 be f5 56 47 3e 1f ba 0f be 4e 9a 0b bd
       -0.26784348 0.19466765 -0.14035843 -0.034082703
000080 8f cf 95 bd d6 4f 1e be 6a 12 8a 3e fc 1b 6e be
       -0.07314979 -0.15460142 0.26967174 -0.23252863
000090 97 08 63 bd b9 3d c4 3d 4e c0 62 bc 9d 82 8e 3e
       -0.055428114 0.09582085 -0.013839794 0.27834025
0000a0 46 f6 07 be 40 87 48 3e f0 ad 00 3e 0c 6b 61 3e
       -0.1327754 0.19582844 0.12566352 0.22013491
0000b0 21 73 8f 3e bc 4c 72 3e 58 eb 69 be 06 30 64 3e
       0.28017524 0.23662084 -0.22843683 0.22283944
0000c0 a1 77 88 be 6a f5 2a be 03 9e 26 be 30 04 a3 3e
       -0.2665377 -0.1669518 -0.16271214 0.31839132
0000d0 47 4d 2d 3e d5 7a 83 ba 3c d2 57 be f7 09 22 be
       0.1692401 -0.0010031114 -0.21076292 -0.15824114
0000e0 c7 cc 52 3e d9 36 09 bd 9a 56 6e be bf f2 2e be
       0.20585929 -0.033499572 -0.23275223 -0.17084788
0000f0 14 ce ea bd 5e a1 a3 3d a0 ee fd 3d 67 95 86 bd
       -0.114650875 0.07989763 0.1239903 -0.06571465
000100 87 ba 31 3e 8a ac 35 be 97 25 12 be 5d 4e 9d 3e
       0.17356311 -0.177416 -0.14272152 0.3072385
000110 d1 2f 6a be 61 b4 d5 3d de 1c 1e 3e 32 cb a7 bd
       -0.22869803 0.10434795 0.154407 -0.08193053
000120 ac 4b 08 3e 3b 6a af bb 0f 3f 9e be c7 0b 3d 3d
       0.13310117 -0.00535324 -0.30907485 0.04615381
000130 c2 1a 91 be 7c ef 8a be c9 c4 92 3d 35 7b 4f 3e
       -0.28340727 -0.27135837 0.0716644 0.20261844
000140 9b 44 95 3e 49 96 a6 be 72 92 e9 3b 66 b2 20 3e
       0.29153904 -0.32536533 0.0071280533 0.15693054
000150 51 cd a7 be d1 f7 9d be e6 11 7e 3e aa 0d 55 3e
       -0.3277383 -0.3085313 0.24811515 0.20805994
000160 d1 eb 2a 3e fd 54 08 be de 1e 5b 3e b0 9d 05 3d
       0.1669152 -0.1331367 0.21398494 0.032621086
000170 98 be af 3c f5 14 7b be ec 5e 60 3e 4b d7 7b 3e
       0.021453187 -0.24519713 0.2191121 0.24593846
000180 f3 81 09 3e ac 3f a4 be 90 e5 39 3e b0 2e 74 3e
       0.13428478 -0.32079828 0.18153977 0.23845935
000190 72 f2 9b be 96 ae f4 bd 07 a8 5f b9 77 02 9b 3e
       -0.3045841 -0.11947362 -0.00021329532 0.30275318
0001a0 5a c0 5a be 64 d9 2a 3e 7a 1c 94 be e4 2d db bd
       -0.21362439 0.1668449 -0.28927976 -0.10702112
0001b0 d6 a2 03 3c 70 71 c2 3d d7 58 88 bd ba 9a aa 3d
       0.008034429 0.09494293 -0.0665757 0.08330293
0001c0 92 87 3d be d6 e8 bb bd ba d3 a5 bb 5d 07 d3 3c
       -0.18508747 -0.09175269 -0.00506064 0.025760347
0001d0 96 aa f7 3c fb f1 4d 3e db 68 be 3c 31 c4 d1 3d
       0.030232709 0.2011184 0.023243358 0.10242499
0001e0 66 df 43 be 91 41 60 be 96 66 e4 3d da ed 5e 3e
       -0.19128188 -0.21900012 0.11152379 0.2177042
0001f0 0d bc 7f be 7f ae a3 bd a8 37 6d be 3a dd b1 3e
       -0.2497408 -0.07992267 -0.23165762 0.34739095
000200 3f bb 48 be 68 65 1a be c3 2f 85 bc cc 16 c3 3d
       -0.19602679 -0.15077746 -0.016258126 0.095258325
000210 7a 24 3f be b4 82 1c bd 46 13 2d 3c 85 0b 4c 3e
       -0.18666258 -0.038210586 0.010563677 0.1992627
000220 26 79 28 3e ce f0 cc bd 0f 45 85 bd e2 77 cc 3d
       0.16452464 -0.10006867 -0.065073125 0.09983803
000230 af 39 06 bc f5 68 a9 bc a3 73 27 bd 76 10 51 be
       -0.008192464 -0.02067993 -0.040881764 -0.20416436
000240 b5 4a 0f be 5f fa 45 bd de 7c 01 3e 12 d8 49 3e
       -0.13993342 -0.048334476 0.1264529 0.1971133
000250 0a d4 b5 bd 86 06 91 bd 86 24 09 be ce 1d 3b 3e
       -0.08878334 -0.07081322 -0.13392839 0.18273088
000260 48 e1 1b 3e d6 c1 43 3e 78 82 21 be 9f 9f 59 3e
       0.15222657 0.19116911 -0.15772426 0.21252297
000270 70 33 97 bd 27 e7 e8 3d 68 47 46 be 78 9b d7 3c
       -0.07382858 0.11372214 -0.19363177 0.02631925
000280 29 65 e2 bc 1c 10 0d 3e 73 a9 78 be ff 00 4c 3e
       -0.027636128 0.13775676 -0.2428339 0.19922255
000290 18 e7 a5 3e 8a ee 6f 3d 1c 46 35 3d 02 e4 ba 3d
       0.32402873 0.058577098 0.044256315 0.0912552
0002a0 3e f6 88 3e 6d ff 80 be 41 23 7c be a8 5a 93 bd
       0.26750368 -0.25194874 -0.24622823 -0.07195026
0002b0 0a f5 45 bd fa a9 a9 bd f5 d0 6a 3e f1 fa e0 bc
       -0.04832939 -0.082843736 0.22931273 -0.027463408
0002c0 55 f2 41 be ce 9c 8d 3e 9a 94 b1 3c 54 aa 8c bd
       -0.18940099 0.27658695 0.021677304 -0.06868425
0002d0 ee fe 63 be 28 4f a9 bd 46 0d 79 3d ea e2 ac 3d
       -0.22265217 -0.08267051 0.060803674 0.08441718
0002e0 e4 39 82 3d b8 bf e1 bd 4a 71 18 be ad 8a 5f 3e
       0.06358698 -0.110228956 -0.14886966 0.21830244
0002f0 7a b1 4d 3e ed 52 b8 bd c8 e9 cd bd 31 c7 5a 3e
       0.20087233 -0.09000192 -0.10054356 0.21365048
000300 a5 44 87 be a5 08 dd bd e3 a4 13 be a5 fa 42 be
       -0.2641956 -0.107926644 -0.14418368 -0.19040926
000310 43 24 9a be 3f 13 a6 bc 06 66 6e 3e a3 45 0b 3d
       -0.3010579 -0.02027285 0.23281106 0.034001958
000320 84 c5 df 3c 14 1d 70 bd 10 34 82 be 5b a8 6f bd
       0.027315862 -0.05862148 -0.25430346 -0.058510166
000330 4b 4a a1 be 00 87 33 bd f6 2b 55 3d c2 9f 8f 3e
       -0.31501994 -0.043829918 0.052043878 0.28051573
000340 e3 13 2a 3d 4e 7b 50 bd e1 7a a4 bd ed 8a 7d 3e
       0.04152287 -0.050898843 -0.0803125 0.24760027
000350 f7 2e 24 3e 8b 47 80 bc 21 d9 54 3d 2e 1c 43 3e
       0.1603354 -0.015659114 0.051964883 0.19053718
000360 26 5a 48 3e dc 43 a5 bb 0a c5 16 bd ff 0b d6 3d
       0.19565639 -0.00504349 -0.036809005 0.10451507
000370 ea 04 63 be 55 87 7a bd 20 8f 8d bd 88 27 39 3e
       -0.22169843 -0.06116422 -0.069120646 0.18081486
000380 62 0c 98 bd bc 45 90 bd 82 b7 81 be 3c 36 97 bd
       -0.07424237 -0.07044551 -0.25335318 -0.07383391
000390 07 53 73 be 7b e0 e7 3a 51 8c 7f be e2 24 e7 3c
       -0.23762141 0.0017690802 -0.2495587 0.02821583
0003a0 30 78 28 bd 74 cb f0 3d 5e 9d 18 be 1e 16 15 3e
       -0.041130245 0.117575556 -0.14903781 0.14559218
0003b0 e3 44 9e 3e 2f 01 e3 3d 24 7a f3 bd 0a 83 4a be
       0.3091193 0.1108421 -0.11888531 -0.1977655
0003c0 88 fd 15 3e 99 bc 9e be 0b 58 0b 3d 98 bd d2 3d
       0.14647496 -0.31003264 0.03401951 0.102900684
0003d0 57 ea 77 3e 55 99 03 bd 2c e5 d6 bd f8 81 be bc
       0.24210487 -0.03212865 -0.1049293 -0.023255333
0003e0 8b ef 65 be 35 f4 87 be f4 17 82 3d b7 07 79 bd
       -0.2245466 -0.26553503 0.06352225 -0.060798373
0003f0 c8 6f 6c be 12 fc ca 3c 92 fe f0 3d 54 60 19 be
       -0.23089516 0.0247784 0.117673054 -0.14978153

bias_ih_l1 f4 [48]
000000 15 42 9b 3d 8a 9f 62 3d 36 6f 0d be 4e 56 fb bd
       0.075809635 0.05532793 -0.13811955 -0.12272321
000010 32 bd f7 bd 6a d1 38 3e 89 55 4d be f1 2a 4a 3e
       -0.12096633 0.18048635 -0.2005216 0.19742943
000020 26 68 99 3e 6e b1 ae 3e f5 20 44 be 96 39 21 3e
       0.2996227 0.34119743 -0.19153197 0.15744624
000030 97 2a 99 3e e3 d5 a8 3e e7 ab 46 3e d3 c8 7a be
       0.29915306 0.32975683 0.19401513 -0.24490671
000040 6e 5a 1a 3a 43 e6 a3 3e 6a 8b 8c 3e 14 2d 8f bd
       0.0005888109 0.32011613 0.27450114 -0.0699102
000050 a5 4c f5 bd fe 0f cc bd 51 41 84 3e a7 b9 c1 bd
       -0.119775094 -0.09963988 0.25831082 -0.094592385
000060 22 c4 0c bd 0e d3 62 be 2d d0 75 be 71 9a d6 3d
       -0.034366734 -0.22150823 -0.24005194 0.10478676
000070 92 ca f8 bb 44 93 94 be 63 0f e2 3c 92 86 72 3e
       -0.0075925076 -0.29018605 0.027595228 0.23684147
000080 85 a1 4d 3d 56 a3 6e be a8 8c de bd 4e 9b 61 3e
       0.050202865 -0.23304495 -0.10866672 0.220319
000090 b8 1f 37 bd fe 3c 85 3e 02 26 3a be b2 8c 11 3e
       -0.044707984 0.26023096 -0.18178561 0.14213827
0000a0 20 d3 a5 3e a6 c1 78 3e 31 f1 8e 3e 38 0c ee bd
       0.32387638 0.24292621 0.2791839 -0.11623424
0000b0 d0 9d 35 be 26 16 fc bd 93 0e 8f bd 51 bb 8c be
       -0.17735982 -0.12308912 -0.06985202 -0.2748666

bias_hh_l1 f4 [48]
000000 89 3d 8e 3d d0 28 5d 3e 68 bf 8c 3e 0e 24 ff bd
       0.06945331 0.215976 0.2748978 -0.12458049
000010 3b f7 60 bd 23 cf cf bd 97 ad 74 3e b2 31 73 3c
       -0.054923277 -0.1014693 0.23894344 0.014843391
000020 1c 79 11 be b5 18 a7 3e 37 8d 5b bd e3 53 3f 3e
       -0.14206356 0.32636037 -0.05360147 0.18684344
000030 fa 6c 3f 3e f8 21 a9 3e 79 c5 16 3e 06 18 ec bb
       0.18693915 0.3303373 0.14723767 -0.0072050123
000040 af 05 1a be cd 9e 3c bd f4 f7 cb bd 0f e2 0a 3e
       -0.1504123 -0.04604988 -0.09959403 0.13562797
000050 ec f9 8f 3e 7b cd 34 3d 83 16 29 3e 21 83 7b be
       0.28120363 0.044141274 0.16512494 -0.2456174
000060 6c 76 09 be 84 79 82 be 4b f4 f4 bd 16 37 9b 3e
       -0.1342408 -0.25483334 -0.11960658 0.30315465
000070 45 f0 11 be 8e 32 e9 bd 49 3d 51 be 4b 9b 3b be
       -0.14251812 -0.11386596 -0.20433535 -0.18320958
000080 ad 4f 3a 3e d2 de 1a 3e 0e 16 73 be 25 2d 73 3e
       0.18194456 0.15124062 -0.23738882 0.2374769
000090 2b 5f b7 3d a0 7e ce bc e2 f7 98 3e ee ea 42 3e
       0.08953699 -0.025206864 0.2987662 0.19034931
0000a0 ac 70 4a 3e e3 dd 71 3e 06 72 11 3e e9 73 3c 3e
       0.19769543 0.236198 0.14203653 0.18403591
0000b0 69 2a 4c be 63 90 39 be 9a 70 8c bd a3 41 92 be
       -0.19938053 -0.18121485 -0.068574145 -0.28565702

weight_ih_l2 f4 [48, 12]
000000 63 92 fb bd a0 17 b8 bd 6e 54 82 bc f1 bf 6e be
       -0.122837804 -0.08988881 -0.0159094 -0.23315407
000010 d6 ba 41 be c4 aa 8c be 66 17 c4 3b 2c 9d 6e 3e
       -0.18918929 -0.27474034 0.0059842346 0.23302144
000020 61 90 73 3e cc ff 6e bd 7a 3e 54 3e cd 14 31 3e
       0.23785545 -0.058349416 0.20726958 0.17293091
000030 06 f7 27 bd a9 48 35 be b3 9c ef 3d 1c 19 22 be
       -0.041007064 -0.17703499 0.1169981 -0.15829891
000040 d7 0e 55 be cd 12 52 be cc e9 ed bd cc f6 7d 3e
       -0.20806442 -0.20514984 -0.11616859 0.24801177
000050 13 a8 49 be 8d c8 2f 3e f6 4c f0 bd bd 1a 69 3e
       -0.19693021 0.17166348 -0.11733429 0.22764106
000060 c5 e9 1a 3e 97 bc b3 be 1a 04 67 3d 9d ea 9c 3e
       0.15128238 -0.3510482 0.056400396 0.30647746
000070 1c 9e 54 be c6 f8 4a 3d 1b 92 ab be 7b b0 90 3d
       -0.20763439 0.049553655 -0.33509907 0.07064911
000080 9e 3b 43 be 02 13 b2 3d 69 32 1f bd 7e be ab be
       -0.19065711 0.08695032 -0.038866434 -0.33543772
000090 97 03 7f bc 8d 87 7c be 7a a6 8c 3e d3 e9 0b 3e
       -0.015564821 -0.24661084 0.27470762 0.13663416
0000a0 99 c3 91 3d 91 00 79 3e fe fb f9 bd e9 28 ef 3d
       0.071173854 0.24316622 -0.12206267 0.11677725
0000b0 64 82 6c be c9 23 64 3e 2a 38 42 3e 65 b1 95 be
       -0.23096615 0.22279276 0.18966737 -0.29236904
0000c0 dc 60 00 be c8 aa 0a be 0e 85 c6 bd 71 e6 70 bc
       -0.12536949 -0.1354171 -0.09693347 -0.014703379
0000d0 60 e9 bb be e9 fb 28 3e d9 cb b1 be 5b e9 27 bd
       -0.36701488 0.16502346 -0.34725836 -0.04099403
0000e0 df 72 91 3e 85 3b 9e be 0a f2 3a be 71 2e ee 3d
       0.28407952 -0.30904785 -0.18256393 0.11629952
0000f0 a1 da d1 bd b6 2c 13 be 61 3d 84 bd 1e 35 1f 3e
       -0.10246778 -0.14372525 -0.064570196 0.15547606
000100 dc 75 3c 3d 9a 6f 2b 3d 42 49 1e be 08 d1 11 3e
       0.046010837 0.04185448 -0.15457633 0.14239895
000110 a5 91 88 3e 93 6d b8 bd 7d 55 8a be dc fe 57 3d
       0.26673618 -0.090052746 -0.27018347 0.052733287
000120 af fd ea 3d 2c 89 4f bd e1 cb 8b be 49 c3 2a be
       0.114741676 -0.050667927 -0.27303985 -0.16676058
000130 70 28 39 be 67 44 85 be 5d 98 94 be 87 75 0a 3e
       -0.18081832 -0.2602875 -0.29022494 0.13521396
000140 0b 6b 12 be 0a 5a 97 3d 84 01 81 be 9f e8 8a be
       -0.14298646 0.073902205 -0.2519647 -0.271306
000150 0e 7e c4 bd bc d0 94 bd e7 26 3d bd 3b ad 32 be
       -0.095943555 -0.072663754 -0.04617968 -0.17448895
000160 6e fb 13 3e ec 7b 4a 3e 36 77 11 3e 1c 06 de 3d
       0.14451382 0.19773835 0.14205632 0.10841009
000170 34 2b 3c be 05 c5 01 be d9 e0 19 be eb 42 4c 3e
       -0.18375856 -0.12672813 -0.15027179 0.19947402
000180 58 bd 54 3e 6f c5 53 3e 43 f5 8c 3e 0e a3 bc bd
       0.20775354 0.20680784 0.2753087 -0.09210788
000190 4e 12 b6 3d 40 bf 81 be e1 4b 23 bd 9a 95 81 bd
       0.0889021 -0.25341225 -0.039867286 -0.06327362
0001a0 ee d1 8f be a3 b0 a0 3d e3 84 5e 3c 74 21 58 3d
       -0.2808985 0.07846191 0.013581487 0.05276628
0001b0 29 56 31 be e8 20 a8 bd 98 f8 a1 3d 3a 68 57 be
       -0.17318024 -0.08209401 0.079087436 -0.21035853
0001c0 e0 b0 11 be 6e 26 92 3e 23 87 f0 3d 24 ed 26 be
       -0.14227629 0.28544945 0.11744525 -0.163014
0001d0 61 b0 36 bd a8 33 85 3e e2 64 71 3e 34 ce 60 bc
       -0.0446018 0.26015973 0.2357364 -0.013721038
0001e0 19 4e 38 bc ca 70 91 3d 7a 42 63 3e ec d7 c8 3c
       -0.011249089 0.07101591 0.22193328 0.024517022
0001f0 1b 29 c2 3d 79 cd b5 3c bb d5 28 be ff f0 86 3e
       0.094804965 0.022192704 -0.16487782 0.2635574
000200 ea 70 14 be 0a f7 53 bc 66 41 bb bc 76 05 84 3d
       -0.14496198 -0.012937317 -0.022858333 0.06446354
000210 46 5b 9d be d2 88 87 be cd 7d 18 bd f4 99 f9 3c
       -0.307337 -0.26471573 -0.037229348 0.030468918
000220 96 f4 53 be a6 7f 36 3e c7 76 b8 be 7a 04 02 3e
       -0.20698771 0.17822132 -0.3602812 0.1269702
000230 8e c3 09 be 09 ec 5a 3d 7e 0a 9d be fe 9c 0c 3e
       -0.13453504 0.053447757 -0.30672067 0.13731763
000240 6e 91 a4 be ac c3 5d 3c f1 a6 3b bd b6 09 32 3d
       -0.32142204 0.013535421 -0.045813505 0.043466292
000250 41 5d 27 be cb 45 35 3c 24 82 a9 be 8c 95 af 3e
       -0.16344167 0.011064003 -0.33107102 0.34293783
000260 87 8e 10 3e 63 28 8e be cf 61 10 3e 73 23 6c be
       0.1411687 -0.27765188 0.14099811 -0.23060398
000270 04 97 29 3e b0 e3 3e be 9a 07 b4 bd 41 51 ea bd
       0.16561514 -0.18641543 -0.087905124 -0.11441279
000280 9b b3 3a 3d f8 dd 90 be 90 15 64 bd ef 40 44 be
       0.04558144 -0.2829435 -0.055684626 -0.19165395
000290 b9 18 87 3e 5e 65 96 be 34 79 53 39 c8 ae 40 be
       0.2638605 -0.29374212 0.0002016768 -0.18816674
0002a0 5f 88 8b bc be ca ad 3d a9 f0 0f 3e 45 35 62 3d
       -0.0170328 0.08485936 0.14056648 0.055226583
0002b0 20 2f aa be aa d4 e3 bd 96 01 c8 3d 8e 04 aa 3d
       -0.3323908 -0.11124547 0.097659275 0.0830165
0002c0 38 f1 30 be 6a c0 18 bd c2 6b 35 3e db 3d 3c 3e
       -0.17279518 -0.037292875 0.17716888 0.18382971
0002d0 e6 6a e9 3d 92 c0 5e bd 55 cd 50 bd dc 70 fc 3d
       0.113973424 -0.054382868 -0.05097707 0.12326214
0002e0 70 74 8d be 1c 5f 8d bd f7 61 35 3e e3 c4 c8 bd
       -0.27627897 -0.06902906 0.17713152 -0.09803178
0002f0 54 f4 e5 3d 97 22 e6 bd d1 75 ca bd ec 3b 32 be
       0.112282425 -0.11237066 -0.09885753 -0.17405671
000300 db 4c 56 be 06 6f f8 bd 67 3e 8f be 3d 1b 25 be
       -0.20927756 -0.12130551 -0.27977297 -0.16123672
000310 8f 03 5e 3d eb 3c 68 be 69 8c ea bd be f9 91 3d
       0.054202612 -0.22679488 -0.11452562 0.07127713
000320 10 7e a2 3e a9 16 9b be 5e 02 3e 3e 92 c7 35 3e
       0.31736803 -0.30290726 0.1855559 0.17751911
000330 50 73 af be d8 2d 25 be 47 08 13 3e 9b 9d bc 3d
       -0.34267664 -0.16130769 0.14358626 0.09209748
000340 f1 22 01 bd bd 27 a7 be b9 17 80 be 12 d9 82 3e
       -0.031527463 -0.32647505 -0.250181 0.25556237
000350 fd d8 cc 3d 15 4d 65 bd ba ee 1b 3e 6e 09 26 bd
       0.10002325 -0.055981714 0.15227786 -0.040536337
000360 91 f7 3c 3e 8b b7 e5 bd 91 3b 64 3d cb 7c a1 bd
       0.18453814 -0.11216649 0.05572087 -0.078851305
000370 94 24 44 3d 85 a3 44 be 15 a0 ab be a4 19 3f be
       0.047886446 -0.19203003 -0.3352057 -0.18662125
000380 86 fe bc bd 74 33 49 3e 09 97 81 be f6 e0 9e be
       -0.09228234 0.19648534 -0.25310543 -0.31031007
000390 84 c6 a0 be e9 5c a7 bd f1 55 9d bd 0c 1b 66 3e
       -0.31401455 -0.08172018 -0.07682408 0.22471255
0003a0 f0 05 09 3e 40 58 52 3e ca 41 4d 3e 7c 00 06 3e
       0.13381171 0.20541477 0.20044628 0.13086122
0003b0 c3 6c 2a 3e a7 7f 68 be 06 b8 2e 3e 9e dd 3a 3e
       0.16643052 -0.22704946 0.17062387 0.18248603
0003c0 24 bc 04 3d 03 09 4b 3e 0a fa 03 be 8e 83 70 be
       0.032405987 0.19827656 -0.12888351 -0.23487684
0003d0 f0 65 d5 3d 89 c6 dc 3d d4 8a 45 3e c5 45 1d 3c
       0.10419834 0.10780055 0.1929124 0.009599154
0003e0 f5 25 72 3e 3e 01 23 be 74 35 0e 3e 6b e0 88 3e
       0.23647292 -0.15918443 0.13887578 0.26733717
0003f0 a8 89 b3 bd 52 ee d6 bd 4f db 84 be 0f 1d a9 3d
       -0.0876649 -0.10494675 -0.2594857 0.082574956

weight_hh_l2 f4 [48, 12]
000000 e2 41 2c 3e 9d 29 b0 3d 30 00 0d 3b 34 68 a6 3d
       0.16822007 0.08601687 0.0021515004 0.08125344
000010 9c 5e 35 be c2 51 07 3e 87 a6 32 3d 19 7c cc bd
       -0.17711872 0.13214782 0.043615844 -0.09984607
000020 d6 34 65 3e 23 4f a7 3d 72 8b 28 3d 52 be 88 be
       0.22383437 0.08169391 0.04114861 -0.26707703
000030 73 2d a3 3d 10 f1 3f be 6a 77 53 be a7 d8 87 be
       0.07967653 -0.18744302 -0.20651022 -0.2653248
000040 8b 7e 3c be 22 41 a1 3d 5e 75 9e be 41 02 a0 bd
       -0.18407647 0.07873751 -0.3094892 -0.0781293
000050 65 2a 33 be 7e 8b 2d be 5e f1 4f bd ff a3 24 be
       -0.17496641 -0.16947743 -0.050767295 -0.16078185
000060 c1 a5 8e be 19 cb c1 3d 5e ed c0 bd a5 25 d3 bb
       -0.27860835 0.09462566 -0.09420274 -0.0064436966
000070 30 5f 92 3e d3 84 2a 3e 40 fa 3c be 59 d7 a2 3e
       0.28588247 0.16652231 -0.18454838 0.31804922
000080 39 cf 86 3e c2 9e bb bc 98 ba 28 3e 78 2b 32 be
       0.26329973 -0.02290285 0.1647743 -0.17399395
000090 50 ae 81 bd 22 e5 56 be 69 55 82 3e fd 62 9a 3d
       -0.063320756 -0.20985845 0.25455788 0.07538412
0000a0 4a dc 9b bd 42 00 88 3d 4b 63 38 3e 01 8a 8c 3e
       -0.07610376 0.06640674 0.18006627 0.2744904
0000b0 33 28 0f 3e a1 79 0a 3e c4 ee c5 bd 8b bb b4 bd
       0.13980179 0.1352296 -0.096646816 -0.088248335
0000c0 75 97 99 bd 79 12 32 3b dc 77 c2 bd 2a 1c 4d be
       -0.07499591 0.0027171655 -0.094955176 -0.20030275
0000d0 74 2f 34 3e bf c5 25 be 2b cb 17 3e cc 00 44 be
       0.17596227 -0.16188715 0.14823596 -0.19140929
0000e0 22 a4 a6 bd e7 48 f3 bd 21 52 5f be 65 96 43 be
       -0.081367746 -0.118791394 -0.21808673 -0.1910034
0000f0 ab 25 3e bd bd 02 0f be 6c 80 84 3e 79 02 30 be
       -0.04642264 -0.13965888 0.25879228 -0.17188443
000100 48 ca 93 3e ce 1e 55 3e 35 ed 90 bd 0b 45 4d be
       0.28865266 0.20812532 -0.07076494 -0.20045869
000110 e7 3b 8b be a9 32 fa 3d e2 5f 15 3e 1a ca b5 3d
       -0.2719414 0.12216694 0.14587358 0.088764384
000120 ee 14 76 be e1 64 4b 3e 25 6f b2 bc 8b 61 aa 3e
       -0.24031422 0.19862701 -0.021781513 0.33277544
000130 2a 53 6f 3e d3 8e 36 3e dd ba 99 be e9 7d 00 3c
       0.23371568 0.1782792 -0.30025378 0.007842519
000140 77 f0 a4 ba 1c 6b 0e be 15 70 22 be 80 78 59 be
       -0.0012583871 -0.13908046 -0.15863068 -0.21237373
000150 bd 82 72 3e 7e d9 02 be f6 88 46 be 37 ba 6e 3e
       0.23682685 -0.12778279 -0.19388184 0.23313223
000160 d2 fb 20 be 8a 80 55 be c3 dc 36 3e 5e b6 67 be
       -0.15721062 -0.20849815 0.17857651 -0.22628161
000170 c8 cd 06 3e 5b 44 1b 3e f7 fb b8 3d 30 2a 56 be
       0.13164437 0.15162794 0.090324335 -0.20914531
000180 c9 b8 2f bd 90 c7 51 bd 28 f7 90 3e 4a 9c 5c be
       -0.042900834 -0.05121571 0.28313565 -0.21543995
000190 2a 01 82 3e 05 b9 20 be 5b 1d c5 3d 1d ab c7 3c
       0.25391513 -0.1569558 0.0962474 0.024373585
0001a0 24 aa 27 3d f5 ad 9d bc a6 a2 27 3e 9f 93 84 3e
       0.040933743 -0.019247988 0.16370639 0.25893876
0001b0 d7 21 de 3c 68 bd 96 bc 75 8e 38 3e 42 3c f2 bd
       0.027115745 -0.018400863 0.18023093 -0.118278995
0001c0 e5 3e 4d bd 98 4f 95 3d 02 12 06 3e b1 fb 62 3d
       -0.05010881 0.07290572 0.13092807 0.055415813
0001d0 f4 a5 5d 3e e1 58 27 3d 76 88 91 3e 96 43 8e 3e
       0.21645337 0.040856246 0.28424424 0.2778594
0001e0 75 c1 c9 3d e2 ba 72 bd bf 52 5e bd 74 28 d1 3d
       0.09851352 -0.059260257 -0.05427813 0.10212794
0001f0 65 21 a3 bc 29 36 19 3e 05 49 36 bd e7 d4 04 3e
       -0.019913385 0.14962067 -0.04450323 0.12971841
000200 32 0a 86 3d 05 9f 1f be 17 d3 a4 be da 59 85 be
       0.06544913 -0.15588005 -0.321923 -0.26045114
000210 16 52 5c be 28 d1 85 3d 33 5c 8b 3e 89 33 a8 3e
       -0.21515688 0.06534034 0.2721878 0.32851818
000220 b4 ec 4a be 00 51 b2 3e 0e 2a 3f 3e 96 1c bb 3e
       -0.19816858 0.34827423 0.18668386 0.36545247
000230 a6 21 42 bd f4 1d 43 be dc 1b 58 bd 9f 23 8c bd
       -0.04739537 -0.19054395 -0.052760944 -0.06842732
000240 f4 81 f2 bd 30 df ff bd a7 c1 cd 3d 53 bc e7 bd
       -0.11841193 -0.124937415 0.10046702 -0.11315217
000250 18 7c 98 3e 10 f7 54 3e b8 60 a2 be 90 a9 7f 3e
       0.29782176 0.20797372 -0.31714416 0.24967027
000260 cf af 4b 3d 4a 2b 28 3d 8c 11 83 be b2 e5 87 bb
       0.04972821 0.04105691 -0.25599325 -0.004147255
000270 27 9f 3c 3e 64 a3 96 bb da 30 30 bd 06 d9 f5 3d
       0.18420087 -0.0045971144 -0.04301534 0.120042846
000280 0e 41 86 3e e0 f2 92 3d 64 c9 61 3e a6 92 24 3e
       0.26221508 0.07175231 0.2204948 0.16071567
000290 24 d5 2c be 36 ff 54 be 79 a5 4f 3e 04 06 69 be
       -0.16878182 -0.2080048 0.20277967 -0.22756201
0002a0 04 06 aa 3d 0b 50 90 3e d0 3a 31 3e 77 3e 84 3e
       0.08301929 0.28186068 0.17307591 0.25828907
0002b0 48 cf 5d 3d 08 ec ef bd 09 1d 88 bc c5 f4 da 3d
       0.054152757 -0.11714941 -0.016615408 0.10691217
0002c0 d0 40 e1 3d 9d 32 9a 3d fb 01 06 be f6 6e 0e be
       0.1099869 0.07529185 -0.13086693 -0.13909516
0002d0 85 76 22 bd a4 3e f5 bd be 93 63 3e 66 d6 87 3e
       -0.03966381 -0.119748384 0.22224328 0.2653076
0002e0 e1 7d f5 bd db 8d 00 3e e4 2c ae bc 59 e4 64 3d
       -0.119869 0.12554114 -0.02126164 0.05588183
0002f0 61 0b c6 bd 44 00 01 be c5 a0 06 3e 36 c5 d1 3d
       -0.09670139 -0.12597758 0.13147266 0.10242693
000300 3b 0e 07 3e 90 95 fc 3b 6a 4b 06 be aa df 5b ba
       0.13189022 0.007708259 -0.13114706 -0.00083875156
000310 6b bc 37 3e 80 b2 86 3d f9 7b c5 3d ac 6c 29 bc
       0.1794297 0.06577015 0.096427865 -0.010340851
000320 fa 6a 4f be 68 a7 bd bd 0e bf 37 3e 27 a1 23 3d
       -0.20255652 -0.09260446 0.17943975 0.03994861
000330 17 71 b9 38 b1 77 57 be ca a0 9e 3e 52 0a 49 be
       8.842552e-05 -0.21041752 0.30982047 -0.19632843
000340 99 06 dc 3d 1b 60 86 3e 12 74 80 be 4d 24 87 3e
       0.10743446 0.26245198 -0.25088555 0.26394883
000350 77 47 10 bd 2a 19 d8 3d 9f 0e fe bd d1 b5 78 be
       -0.035224404 0.10551675 -0.124051325 -0.24288107
000360 6a 72 09 3e 39 77 4b 3e 60 89 46 be bd e3 f0 bd
       0.13422552 0.19869699 -0.19388342 -0.11762188
000370 27 f0 0c be af 46 82 3e 41 d8 9b 3d c7 b4 fe bd
       -0.13763486 0.25444552 0.076096065 -0.12436824
000380 0c 31 c0 bb de 8e b9 3d 9d 14 20 3e 06 14 3a be
       -0.005865222 0.09060453 0.15632863 -0.18171701
000390 83 78 29 be 78 fa 20 3d 98 4b d0 3d 15 d5 93 bd
       -0.16549878 0.039301366 0.10170668 -0.072183765
0003a0 a9 55 77 3e 26 2a a4 3e 97 52 f9 bd ea ab 4c be
       0.2415377 0.32063407 -0.12173956 -0.19987455
0003b0 6e 1e 18 3e 0a ba 6d be 50 af 62 3e 09 28 63 be
       0.14855358 -0.232155 0.22137189 -0.22183241
0003c0 52 55 7e bd 35 70 25 be 2f ef 18 be 19 8b ae bd
       -0.062093087 -0.16156085 -0.14934991 -0.085226245
0003d0 eb 81 3b be f3 99 b4 bd 30 b8 49 3e e7 a6 b9 bc
       -0.18311279 -0.08818426 0.19699168 -0.022662593
0003e0 81 49 ab 3d 4a aa 57 3d 26 7a 1b bc dc 3b a6 bc
       0.08363629 0.052652635 -0.009489572 -0.020292215
0003f0 14 03 a4 bd ea b6 29 be cf f5 90 3c 6f c0 16 be
       -0.080083996 -0.16573682 0.017695336 -0.14721845

bias_ih_l2 f4 [48]
000000 12 b7 a1 3e d6 b3 7b 3e 61 4f 60 3e 7b 80 b5 3d
       0.31584984 0.2458032 0.2190528 0.08862396
000010 24 7b 0b 3d fd 63 60 3d 4e 3e 69 be 14 4c a1 3d
       0.034052983 0.054782856 -0.22777674 0.07875839
000020 86 8b 2b be fc 85 cd bd 7f 7e 6c be 10 fb 89 3e
       -0.16752443 -0.10035321 -0.2309513 0.26949358
000030 21 e9 93 3e 0e 3e 28 be 5b 43 db bc 82 53 86 be
       0.288888 -0.16429922 -0.026765516 -0.26235586
000040 6f b4 c0 3e 64 7a 12 be 53 db 61 3e 65 bc 1a be
       0.3763766 -0.14304501 0.22056322 -0.1511093
000050 40 e5 8c 3e 83 6c 5b be ce e7 43 3c 3d 9c 95 3d
       0.27518654 -0.21428113 0.011957122 0.07305191
000060 34 3e 41 be 18 20 88 3e 00 ba b4 b9 38 f5 bf 3d
       -0.18871385 0.26586986 -0.00034470856 0.09372944
000070 f4 63 71 3e f8 17 33 3d 2e 97 a7 be 69 4a 98 3d
       0.23573285 0.04372403 -0.32732528 0.074360676
000080 b1 77 b3 bd b3 ae 73 3e fa ba 48 3e 32 44 56 be
       -0.08763064 0.23797111 0.19602576 -0.20924452
000090 fa 99 97 3e fc 6a 6e be 9d 06 c8 bd 19 cb 4d 3e
       0.29609662 -0.23282999 -0.097668864 0.20097007
0000a0 fc 7b 43 3e 1e eb 0b be 42 4f 20 3e 5a f1 82 3d
       0.19090265 -0.13663909 0.15655234 0.063936904
0000b0 8b de 5d 3e 21 e8 a5 bd 21 7f 81 3e 16 a6 1b 3e
       0.21666925 -0.08100916 0.25292304 0.15200076

bias_hh_l2 f4 [48]
000000 0f 50 76 be 4f 23 84 3e 60 04 d6 3d 4e 1f 1d 3c
       -0.24053977 0.25808188 0.10450053 0.009589983
000010 1e f6 10 be 5c ad b5 3d 6a 8f b7 bd e6 08 78 3e
       -0.14156386 0.08870956 -0.08962901 0.24222144
000020 17 29 c8 bd b7 8f 7b be 9d 7f 8d 3d 2d 1e 25 be
       -0.09773462 -0.24566542 0.06909106 -0.16124792
000030 22 40 4c be d8 07 60 3e 9e b6 e2 3d 2c 3e a9 3d
       -0.1994634 0.21877992 0.11069988 0.082638115
000040 78 40 d5 3c a9 dd 2c be a4 42 f9 bc 2b 32 11 3e
       0.026031718 -0.16881432 -0.030427285 0.14179294
000050 c7 08 38 be 90 5b 0a be bb 92 dc 3d 2b 8c b4 3e
       -0.17972098 -0.13511491 0.10770174 0.3526319
000060 f5 f2 85 be b1 8e 8a 3e f0 cb 85 3e d5 96 43 3e
       -0.26161924 0.2706199 0.26132154 0.19100507
000070 5f 0a f5 3c c8 65 11 3e 0a 26 6b be 76 66 79 3e
       0.029912172 0.14198983 -0.2296373 0.24355492
000080 96 e1 58 3e 17 e0 77 3e 13 fa 1f be 9a bd aa 3d
       0.21179804 0.24206577 -0.1562274 0.08336945
000090 c6 59 ca bd 03 d7 90 3e ed 02 60 bd c7 78 9c 3d
       -0.09880404 0.2828904 -0.05469029 0.07640224
0000a0 fa ec 06 be c1 7e 18 be 79 37 20 be 0a 2b 61 3e
       -0.13176337 -0.14892103 -0.15646161 0.21989074
0000b0 8d 03 8a 3d 52 34 66 bd 55 a7 12 3e b1 b8 3c 3d
       0.067389585 -0.05620224 0.14321645 0.046074573
