models/recomendation_models/scripted_user_preference_model_v15_16_dim_really_really_good.pt (torch, 912724 bytes, 14 tensors)

hidden f4 [2, 1, 64]
000000 6a d5 38 3b 4f a9 9b 3e 16 cf d8 3e 7a a3 ca 3e
       0.0028203377 0.3040261 0.42345494 0.39577848
000010 b5 09 ea be 70 2a a8 bd 16 3c c9 3c 9d e4 74 bf
       -0.4571053 -0.08211219 0.024564784 -0.95661336
000020 a0 bf 25 be 02 0d b5 3e 97 43 21 3f 3b fa fb be
       -0.1618638 0.35361487 0.6299376 -0.49214348
000030 b4 21 10 3d 32 48 e4 be f0 2f 3c 3f 41 e5 66 bf
       0.03518839 -0.4458633 0.73510647 -0.90193564
000040 88 30 c7 bd 24 db 31 bd ca 51 17 bf ef ce a2 3d
       -0.097260535 -0.04342188 -0.59109175 0.07949626
000050 4f d7 74 bf ea 87 46 3f 61 d1 c8 3e 87 d3 0e bb
       -0.95641035 0.7755114 0.39222243 -0.002179356
000060 06 1e 5e bf 93 7d 34 3f 02 6f 00 3f 9a c1 2a 3f
       -0.8676456 0.7050411 0.50169384 0.6670166
000070 39 ef 3c bf 56 7a 1c bf 23 05 e6 3e 4a 01 5b 3f
       -0.73802525 -0.6112417 0.44925794 0.8554884
000080 17 af 91 3e 34 38 7b be 58 69 11 be 0a ab a5 be
       0.28453895 -0.24533159 -0.14200342 -0.32357055
000090 b7 3c 06 bf 25 a9 0a 3f 5e e3 e9 be 5c 3a 8e 3d
       -0.52436393 0.54164344 -0.4568128 0.06944725
0000a0 45 5d 4c 3f fc 0a 65 bf ba f1 4b 3e b3 b0 9c 3d
       0.7982982 -0.89469886 0.1991643 0.0765089
0000b0 5c 07 e8 3e 71 45 79 3f e8 f4 c2 bc 80 e5 15 3f
       0.45318115 0.97371584 -0.023798421 0.58553314
0000c0 df 91 19 bf e4 94 59 be 84 3e 84 3e d3 bb 09 3b
       -0.59988207 -0.21248204 0.25828946 0.0021016493
0000d0 a0 ea a3 be f4 7a 9e 3e 4d de 0e 3e 10 19 ee be
       -0.32014942 0.3095318 0.13951989 -0.46503496
0000e0 90 45 7c be 53 33 28 3f e4 2c 7c 3e 95 e4 45 3f
       -0.24635911 0.65703315 0.246265 0.77301913
0000f0 0e fa 6f 3f 95 cf f3 3b 8b a7 39 bf 15 9e 7e 3e
       0.9374093 0.007440517 -0.72521275 0.24864991
000100 7c c1 8f 3e 9d f7 31 bf 9c fb 20 bf cf 00 d1 3e
       0.28077304 -0.6951845 -0.62883925 0.4082093
000110 2c e5 f5 3e ae 70 be 3e 53 90 09 bf 06 c2 bc 3e
       0.48026407 0.37195343 -0.53735846 0.36866778
000120 7e 74 c1 be c1 e5 33 bf 74 fd da 3e 10 bb 24 3f
       -0.3778419 -0.7027245 0.42771494 0.64347935
000130 f5 15 b7 be 85 43 d1 3e 4e 02 f1 3e db ab 09 3f
       -0.3575894 0.40871826 0.4707207 0.53777856
000140 f7 a5 c4 be 00 9e 01 bf 02 ab 0e bf 42 8a f2 be
       -0.3840787 -0.50631714 -0.5572969 -0.47371107
000150 04 68 17 bf 66 7d 03 bf 6f 5c 21 3f 25 e2 86 3e
       -0.5914309 -0.5136322 0.6303167 0.2634441
000160 9d 96 2b bf 73 7d 2e bf a6 56 12 3f 84 c9 c4 3e
       -0.6702669 -0.6816017 0.57163465 0.38434994
000170 60 b3 bb be 78 8a 11 be 93 f7 af be f6 e0 b5 be
       -0.3666029 -0.14212978 -0.34368572 -0.35523194
000180 ef 5d 10 3f 30 d9 cc 3e 38 8f 3f 3f c3 4a 08 bf
       0.5639333 0.4000945 0.7482791 -0.5323908
000190 78 1c 31 3f 90 02 0f bf 4d d5 21 3f 2a 39 28 bf
       0.69184065 -0.55863285 0.63216096 -0.65712225
0001a0 f0 49 e5 be d6 b1 04 bf 1e cb 31 bf ed ff 40 3f
       -0.44782972 -0.51833856 -0.6945056 0.7539051
0001b0 00 27 f8 bd 1b d2 34 bf 2c fb 0a 3f b9 8d 12 bf
       -0.12116814 -0.70633096 0.5428951 -0.572475
0001c0 47 ae dc 3e 2d 43 06 bf b0 bc e6 be dd 7c f7 3e
       0.43101713 -0.5244625 -0.45065832 0.4833745
0001d0 1a f0 fb 3e 52 0f 2b 3f 6a a0 ed 3e 84 c7 23 3f
       0.4920662 0.6682025 0.4641145 0.6397631
0001e0 3a 43 a8 3e 24 93 85 3e 9a fe 4d 3f 19 a6 50 3c
       0.3286379 0.26088822 0.80466616 0.012734913
0001f0 cf 11 a7 3e 7a 70 11 bf e4 13 01 3f 8f 01 93 bb
       0.32630774 -0.5681225 0.50420976 -0.00448627

hidden f4 [2, 1, 64]
000000 66 c7 51 3d 13 a0 9c 40 b2 a1 29 40 24 14 52 3f
       0.05121555 4.8945403 2.650494 0.8206198
000010 3c c8 2a bf 53 41 85 bf a8 50 03 3e 6f cd 08 c0
       -0.66711783 -1.041056 0.12823737 -2.1375387
000020 16 b3 a4 be b9 fa e0 3f ac 51 37 40 58 36 99 c0
       -0.32167882 1.7576514 2.8643599 -4.7878838
000030 16 3a 51 3e 65 04 8d bf 3d 91 c6 3f e1 f1 77 c0
       0.20432314 -1.1016966 1.5513073 -3.874138
000040 b2 97 08 be 6d 95 41 be 05 e4 c8 bf 0a 8a 30 3e
       -0.13339117 -0.18904658 -1.5694586 0.17240158
000050 c1 4a be c0 f0 c0 e2 3f 6e eb e3 3e 7e a4 86 bc
       -5.946625 1.771513 0.44515556 -0.016435858
000060 5d 38 93 c0 22 13 de 3f 87 59 93 3f a7 43 22 40
       -4.6006303 1.7349589 1.1511697 2.5353792
000070 7c 60 5a c0 91 6c ab c0 20 ae bc 3f 9c 54 c3 3f
       -3.412139 -5.3570027 1.4740639 1.5260196
000080 b7 5d 15 40 f8 03 b6 bf 29 92 44 bf 34 4b 08 c0
       2.333845 -1.4219961 -0.7678552 -2.12959
000090 63 2c 27 c0 bb 3b cd 3f d7 78 29 bf 40 d5 50 3e
       -2.6120842 1.6033853 -0.6620001 0.20393848
0000a0 01 0c a3 3f a1 17 d0 bf 8c d9 26 3f 80 82 ca 3e
       1.2738038 -1.6257211 0.651757 0.3955269
0000b0 ea 2c 0b 40 bb 05 3f 40 59 d7 a0 bd 7f ec b9 3f
       2.1746163 2.9847248 -0.07853574 1.4525298
0000c0 53 6f 79 c0 ce ab 8a c0 d2 0a bc 3e 40 31 c2 3c
       -3.8974197 -4.3334723 0.36727005 0.023705125
0000d0 11 d0 0e bf 71 e6 a1 3f 07 ae 7c 3e d9 ec 67 bf
       -0.55786234 1.264845 0.24675761 -0.90595776
0000e0 b6 e1 d3 be 4b 27 af 40 3f c9 b7 40 f2 fa 1e 40
       -0.4138314 5.4735465 5.743316 2.4840665
0000f0 db c7 9d 40 68 84 74 3c d1 19 81 c0 1a c0 c1 3f
       4.9306464 0.014924146 -4.0344014 1.513675
000100 b7 28 0d 3f 59 56 1c c0 83 5a 93 bf 62 e7 6d 3f
       0.5514025 -2.4427702 -1.1511997 0.9293119
000110 ce 6c 52 3f 15 15 53 3f cd 1f 72 bf 2d b1 5b 3f
       0.8219727 0.82454044 -0.94579774 0.85817224
000120 c6 f2 8c bf 2c 01 d2 bf 3c 66 d6 3f 60 49 ec 3f
       -1.1011589 -1.6406608 1.674995 1.8459892
000130 72 9e 5f bf f3 9a 5b 3f 57 dd c0 3f 9d da f5 3f
       -0.87351143 0.8578331 1.5067548 1.920734
000140 ab 3a 4d bf 0a f6 62 bf f7 f7 a5 bf 0b d2 eb bf
       -0.80167645 -0.88656676 -1.2966298 -1.8423475
000150 7a 25 98 bf a5 10 76 bf 2c 98 a4 3f 61 a9 0c 3f
       -1.1886437 -0.9611915 1.2858939 0.5494595
000160 00 9c dd bf c2 c2 cd bf 36 df d5 3f 09 3d 56 3f
       -1.7313232 -1.607506 1.6708744 0.8368688
000170 0a 61 3f bf ef ef 3f be ad b4 9b bf 05 95 97 bf
       -0.74757445 -0.18743871 -1.2164513 -1.1842352
000180 bf 96 8b 3f b2 e3 39 3f d8 12 17 40 5a 88 8e bf
       1.0905379 0.7261306 2.3605251 -1.1135361
000190 a3 be 23 40 98 e6 bc bf f6 4f b8 3f d7 65 e6 bf
       2.5585105 -1.4757872 1.4399402 -1.7999829
0001a0 91 8d a8 bf 39 72 81 bf da a9 b2 bf 0c 4f 0d 40
       -1.3168203 -1.0112983 -1.3958085 2.2079496
0001b0 5b 9c 67 be 73 72 a2 bf 2e 3b af 3f 56 8d a8 bf
       -0.22618239 -1.2691177 1.3689935 -1.3168132
0001c0 0b db a4 3f b5 ca a6 bf 61 18 59 bf f3 2a 7d 3f
       1.2879347 -1.3030611 -0.84802824 0.9889366
0001d0 be 39 3c 3f b9 d2 1c 40 61 49 24 3f 2a 8d f1 3f
       0.7352561 2.4503615 0.6417447 1.8871205
0001e0 78 b3 19 3f 13 18 18 3f 53 4d 03 40 2a de f0 3c
       0.6003947 0.59411734 2.0515945 0.029402811
0001f0 85 22 29 3f da ad bf bf 40 04 47 3f e7 e7 84 bc
       0.660683 -1.497493 0.7774086 -0.01622386

weight_ih_l0 f4 [256, 20]
000000 c5 1b 12 3d bb e0 14 bc 66 3e fe bd 7d c3 f5 bd
       0.035671014 -0.009086783 -0.12414245 -0.12000177
000010 e6 db c0 3d f9 d6 9b 3d 3c 2c 6e 3d 30 4b c1 bb
       0.09416942 0.07609362 0.058147654 -0.0058988556
000020 fe 08 00 3e d0 c8 4a 3c e5 eb e0 3c 1a 4c 05 bd
       0.1250343 0.012376979 0.027456233 -0.03254328
000030 9c 7d 7a bd 87 d7 96 bc 25 6e 14 3d 19 c4 91 bd
       -0.061154947 -0.018413318 0.036237855 -0.07117481
000040 71 c2 5f 3d 3e 88 2e 3b c1 c3 8b 3c 91 02 ac bd
       0.054628793 0.00266315 0.017061116 -0.08398927
000050 82 21 69 bc dd c1 92 3d ad f6 c8 3c 5e 15 b4 3d
       -0.01422918 0.07165883 0.024531687 0.08793138
000060 53 75 89 bd 53 2a 9e 3d d7 da 38 bc 6d ce a6 bd
       -0.06711831 0.077229165 -0.011282644 -0.08144841
000070 91 a2 98 bd e4 26 b5 3d 6c 4f 8d 3c 7f 40 b1 bc
       -0.07452882 0.088453084 0.017249785 -0.0216372
000080 b4 ff d9 3d c1 fd 99 3d a0 6b 1c bd 02 d9 9e 3d
       0.106444746 0.07519103 -0.038188577 0.07756235
000090 16 7e ae bd ad 97 b6 bc 80 54 57 3b 7b 99 59 bc
       -0.08520143 -0.022289122 0.0032856762 -0.0132812215
0000a0 0d 40 6c bc a2 7d 03 3d 6d 7a c1 bd 10 d0 20 bd
       -0.014419568 0.032102235 -0.09447179 -0.039260924
0000b0 96 0d d7 bd 91 2d e9 3d d1 e4 de 3d 27 74 96 3d
       -0.10500638 0.11385644 0.10883487 0.07346373
0000c0 9d b6 f6 bd d9 71 f3 3d a0 78 f3 bb 7a 3b e3 3d
       -0.120465495 0.11886949 -0.007430151 0.11095329
0000d0 9c e3 71 3d 4c c3 b6 bc b3 4f 3d bd 74 4d d6 bd
       0.059054956 -0.022309922 -0.046218585 -0.10463992
0000e0 94 4d 30 3d 94 25 ce 3d 7a 34 f5 3d 63 9b 99 bc
       0.043042734 0.10065761 0.119729 -0.018750852
0000f0 49 30 17 bd 40 79 0a 3d 88 8a da bd 63 b0 ce bc
       -0.036911283 0.03380704 -0.10670954 -0.025230592
000100 9a a3 ff bd 24 be 7d 3d 96 b9 a8 bd 93 6a 85 bc
       -0.124823764 0.06194891 -0.08238523 -0.01628617
000110 20 f4 85 bb 7f 98 81 3c 45 b7 9d bd a8 cd 84 bc
       -0.00408794 0.015819786 -0.077009715 -0.016211346
000120 60 21 1d 3d 0f 17 2b 3d db 56 26 3d bc 46 cc 3c
       0.038361907 0.041770037 0.040610176 0.024936073
000130 02 2f c1 bd 83 de 3b bd 50 af 27 3d ba 0c b0 bd
       -0.09432794 -0.0458665 0.040938675 -0.085961774
000140 58 dc 3e bd 93 19 94 3d 29 bb 35 bb 32 72 d1 3d
       -0.046596855 0.072314404 -0.0027729964 0.10226859
000150 48 74 29 3d 01 24 14 bd 04 9e b0 bd 7d 99 78 3d
       0.04137066 -0.03616715 -0.08623889 0.060693253
000160 43 df bf 3d cc ba 20 3d 40 aa c1 3d e5 df a2 bd
       0.09368756 0.039240643 0.09456301 -0.07952861
000170 93 d0 fc 3d d5 8c 48 bd ae a7 89 bd b8 93 ae bd
       0.1234447 -0.048962433 -0.067214355 -0.08524269
000180 12 01 6e 3d 53 cc 8a 3d 13 ad fd 3d 89 96 ee 3d
       0.05810649 0.06777253 0.12386527 0.11649806
000190 03 6f 9a bd 9d a7 84 bd 56 69 8f bc 9d 3b d4 3c
       -0.07540705 -0.06477282 -0.017506283 0.025907332
0001a0 dd fc 30 bd 3e 84 ac 3d 05 4a ab 3d 8f 55 de 3d
       -0.0432099 0.08423661 0.083637275 0.10856163
0001b0 ab 66 20 bd 75 6e 7d bd fa 06 93 bd 6b 14 dd bd
       -0.03916041 -0.06187292 -0.07179065 -0.1079491
0001c0 48 a7 fa 3d 1f f5 22 3d 7a 63 16 bd ad 56 c5 3d
       0.122389376 0.039784547 -0.036715962 0.09635673
0001d0 59 14 e1 bd 76 eb 29 bd fa 64 5d bd bc d5 ed bb
       -0.10990209 -0.04148432 -0.054051377 -0.007258145
0001e0 1e 39 93 bd 11 03 b9 bd 71 51 9f 3d 13 f3 76 3c
       -0.071886286 -0.09033788 0.077792056 0.015072602
0001f0 fe 5b 43 3d ad 29 86 bb f8 0a 92 bd bd f3 08 bc
       0.047695152 -0.0040943236 -0.071309984 -0.008358893
000200 53 4e 2b 3d 99 b4 2b bd 21 7c b3 3c 7b 93 7b bd
       0.041822743 -0.04192028 0.021909775 -0.061419945
000210 76 aa 80 bd 39 b9 a8 bd f3 fd 00 bd 77 e8 d4 3c
       -0.06282513 -0.082384534 -0.031492185 0.025989754
000220 fc ad d6 bd fa 90 16 3d 14 fc 12 3d 82 77 d6 3c
       -0.10482404 0.036759354 0.03588493 0.026180033
000230 1f e2 b3 3d 0f 4c 0d bd 29 81 9a bd 67 64 09 3e
       0.087833636 -0.034496363 -0.075441666 0.13417207
000240 20 48 97 bd 2d 11 90 bd 3d b3 ad 3b ff 33 bd bd
       -0.073868036 -0.07034526 0.005300908 -0.09238433
000250 76 f9 ed 3c 71 62 8b bd 93 d2 36 bd b9 26 7c 3d
       0.029049616 -0.068058856 -0.044634413 0.061560366
000260 17 1f 98 3d 8e dd 82 bd 20 a6 b8 3d 90 65 04 3e
       0.07427805 -0.063899145 0.09016061 0.12929368
000270 c1 11 90 bb c4 ed b5 bd 97 d5 15 bd 75 12 28 3c
       -0.0043966477 -0.08883241 -0.03658065 0.010258307
000280 b8 7e 87 ba 67 71 fa bc 6f 40 8d bd ed 13 de bd
       -0.0010337448 -0.030571653 -0.06897055 -0.10843644
000290 d7 7b 54 3d 38 4f fd bd e8 58 30 3d d0 bc 18 3d
       0.051875915 -0.123686254 0.043053538 0.03728944
0002a0 69 6b d0 bc fa 34 94 bb dd dc 85 bd c1 0d e3 3d
       -0.025441842 -0.004522917 -0.06536267 0.11086608
0002b0 25 c5 1f 3d e1 a5 fd bd 77 d6 b8 bc e5 10 be bd
       0.03900637 -0.123851545 -0.022563202 -0.09280566
0002c0 47 0f 92 bd 44 9e c9 bd d3 b7 cb 3c 8a d1 a9 3d
       -0.0713182 -0.0984464 0.024867928 0.082919195
0002d0 92 0b 7d bd ec 3a 76 bd ee 64 e4 bd d2 06 f5 3d
       -0.061778612 -0.060114786 -0.11152063 0.119641915
0002e0 cb fd 5c 3d 2c 1e de 3d 6c 10 e4 3c 04 44 a3 3c
       0.053952973 0.108455986 0.027839862 0.019929893
0002f0 79 94 da bd 1a 82 c3 bc 36 03 c8 3d e5 34 0a 3d
       -0.1067285 -0.023865748 0.097662374 0.03374185
000300 c5 d4 db 3d 08 21 8b bd 68 ba ad 3d 71 59 bd 3d
       0.10733942 -0.067934096 0.0848282 0.09245575
000310 d0 c8 e1 3d 5f ed 85 3d c5 6b ec 3c bc d4 04 3e
       0.1102463 0.065394156 0.028859982 0.12971777
000320 74 cf 62 3d ee 41 e0 3d 98 66 a4 3d f7 95 d8 bd
       0.055373624 0.10950075 0.08027381 -0.105754785
000330 f5 3d 4b 3d 28 ec f1 3d e1 34 ab 3c cd f4 1f 3d
       0.049619634 0.11812621 0.020899238 0.03905182
000340 e6 71 69 bd af 19 59 3d 49 9c 92 3d 69 a1 a6 bd
       -0.056993388 0.05300301 0.07158715 -0.08136255
000350 95 74 d4 bd 3a f3 fa 3d 5a 5f 23 3c f8 46 05 3e
       -0.10373799 0.12253423 0.009971464 0.13015354
000360 aa 50 80 3d 39 78 78 bd d9 e0 36 3d b6 76 02 3e
       0.062653854 -0.06066153 0.044648025 0.12740597
000370 f6 e6 96 3b 4d eb c8 bc 17 35 b9 3d 99 6f f4 3d
       0.0046051694 -0.024526263 0.09043329 0.11935348
000380 1e 2a a9 3d 98 7d 95 3d d4 87 dd 3d b6 cc f4 3c
       0.08259986 0.07299346 0.10816923 0.02988277
000390 55 a9 7f 3d 43 50 6c 3d da 63 11 bd 76 81 c9 3d
       0.062417347 0.05769373 -0.035495616 0.09839146
0003a0 13 33 eb 3d 1f a8 34 3c 6e 53 b9 3d 77 ef 06 3e
       0.11484351 0.011026411 0.09049116 0.13177286
0003b0 ba e2 ab bd 3c 0d 05 3e 62 c8 c1 3d 3f 13 bb bd
       -0.08392854 0.1299333 0.09462048 -0.0913453
0003c0 ca 55 97 bd 53 96 3c 3d 21 c1 35 3d 50 91 87 3d
       -0.0738941 0.046041798 0.044373635 0.06619513
0003d0 26 e2 e6 bd f4 16 46 3d cf 3d 82 bd 85 5c f4 bd
       -0.11273603 0.048361734 -0.06359445 -0.11931709
0003e0 17 0f c5 bd 61 33 f0 bd 12 b2 a3 bc 17 5f 03 3d
       -0.09622019 -0.1172855 -0.019982371 0.032073107
0003f0 5f d1 92 3d cf 96 5a 3d 54 74 48 bb 4f 77 e9 3d
       0.071688406 0.05336648 -0.0030586915 0.113997094

weight_hh_l0 f4 [256, 64]
000000 5a 78 2f bd 6a 13 95 3b f6 03 aa 3d 82 ba 37 bd
       -0.042839386 0.0045494335 0.08301537 -0.044855602
000010 b2 8f 13 3d 92 1d f2 3d 71 ae d6 bd 4c 75 eb bd
       0.03602571 0.11822046 -0.10482491 -0.11496982
000020 98 7c af 3d 66 8a 11 3c 70 b5 5b 3b ed 71 b8 bc
       0.08568686 0.008883094 0.0033524893 -0.022515262
000030 91 c2 e3 bd 43 bc 74 3d db 65 86 bd 45 92 38 bd
       -0.11121095 0.059749853 -0.06562396 -0.04506137
000040 b7 ba d5 3d c6 16 97 3c 3b c1 6d 3d 9b 6b 75 3d
       0.10436004 0.018443476 0.058045607 0.059917074
000050 c9 be 34 bd 74 b6 e6 3d 67 03 b2 bd 9c a5 1c 3c
       -0.04412726 0.11265269 -0.08692055 0.009560969
000060 41 01 be bd be 59 b4 bd d0 0b 49 3d c9 0f b9 bc
       -0.09277583 -0.088061795 0.04908353 -0.022590535
000070 f9 5e 9a 3c 93 48 9f 3d 4d e3 07 be 19 6f f6 bc
       0.018844115 0.07777514 -0.13270302 -0.030082272
000080 d0 41 ca 3d f8 c8 ff 3d 6e c8 f5 3d fe fd 9d bd
       0.09875834 0.124895036 0.120011196 -0.07714461
000090 f6 2b a9 3d e6 57 a3 3c 46 67 f6 3d fa 7b 07 3d
       0.08260338 0.019939374 0.120314166 0.033077218
0000a0 65 e6 9f 3d c2 b8 dc bd f6 59 d0 bd 92 a8 3c bd
       0.07807616 -0.10777427 -0.10173409 -0.0460592
0000b0 5b 02 90 3c da 1c 07 3d af 6d b5 bd 3b fd 79 3d
       0.017579248 0.0329865 -0.08858811 0.061032515
0000c0 cf 2b 1b 3d 26 a0 7f bd 70 6d ec bd e9 32 9e bd
       0.037883576 -0.06240859 -0.11544311 -0.07724554
0000d0 b5 43 25 3d 2d 46 d2 3d e6 68 65 3d 6e 52 ed 3d
       0.040347774 0.10267291 0.056008242 0.11587988
0000e0 6b 99 ff bc d3 ee d2 3d f4 c8 85 bc 44 08 8c bd
       -0.031201085 0.10299458 -0.016331173 -0.06837514
0000f0 b4 d1 ad bd 10 31 5e bd 7f 99 82 bd 09 e1 91 3d
       -0.08487263 -0.05424601 -0.06376933 0.07123
000100 c8 64 60 bc ad 70 a5 3d 3d c6 4e bc fc ba 1c 3d
       -0.013695903 0.08078132 -0.012620506 0.03826426
000110 18 fb 89 3d 15 97 ef 3d 88 f6 bb 3c b1 e0 32 bd
       0.067373455 0.116987385 0.022944704 -0.043671314
000120 ba b5 9b 3d ec 31 1f bd da 58 d8 3c f8 55 c4 3d
       0.07603021 -0.03886597 0.026409555 0.0958671
000130 2a 6e f3 3d 8e 3c 19 3d 39 1d 45 bd 4a 21 83 3c
       0.118862465 0.037411265 -0.048123572 0.016007084
000140 12 60 d9 3d d0 e0 9b bd 58 3a be bd a6 00 8e 3d
       0.10614027 -0.07611239 -0.09288472 0.069337174
000150 26 5c e6 bc 91 5b 2a 3d 97 5e 77 bd f8 58 c9 3b
       -0.028120112 0.04159123 -0.060392942 0.006144639
000160 90 c9 c1 bd 78 a9 80 bb d5 05 60 3c 9c 31 2f 3d
       -0.09462273 -0.0039264522 0.013673265 0.04277192
000170 bb fe bf bd 95 91 53 bd 86 f2 a3 3d 80 81 16 3d
       -0.09374758 -0.05165251 0.08005242 0.036744595
000180 9a ef 54 3d f3 ef fa 3d 38 13 96 3c 9b cc e3 bd
       0.051986314 0.12252798 0.018319711 -0.1112301
000190 9d 25 74 3d 0b d2 d4 bd 7f 4a ee 3d 28 38 68 3c
       0.059606183 -0.10391625 0.11635303 0.014173545
0001a0 c6 cd 9c 3d 73 9d 8d 3d 41 00 c9 bd ca 9a a3 3d
       0.07656436 0.06914797 -0.098145016 0.07988508
0001b0 91 dc 0c 3c dd 6b c7 bd cf 36 99 bc da c8 d6 bd
       0.008597509 -0.0973737 -0.018702893 -0.10487528
0001c0 e8 1f 80 bd 7f c7 67 3d 20 88 d4 3d 04 45 99 bd
       -0.06256086 0.05658674 0.10377526 -0.07483867
0001d0 b5 41 3d 3d 33 1a 38 3d bf 21 58 bd f1 b4 a6 3c
       0.04620524 0.04494686 -0.052766558 0.020349951
0001e0 e2 39 01 3d 00 7a ca 3c 3a d6 c2 3d cb 6b e8 3d
       0.031549342 0.024716377 0.09513517 0.11348685
0001f0 ba b8 94 3d cc 9b 3c bd 9e 8a 62 bd a8 90 e4 3c
       0.07261796 -0.046047017 -0.055307977 0.027901009
000200 df f0 22 3c b7 62 d1 bb 24 dc 01 3e 65 78 cc bd
       0.009945123 -0.0063899416 0.12681633 -0.09983901
000210 5e c9 84 3d 4c 10 a7 bc 45 a3 3a 3a 49 59 40 3d
       0.0648372 -0.020393513 0.0007119666 0.04696015
000220 83 36 eb 3d 53 4a 67 bd 94 6f b4 bd a3 de de bb
       0.11485007 -0.056467365 -0.08810344 -0.0068014427
000230 44 28 03 bd 3e 9b f7 bc 8b 37 86 bd 38 d8 f9 3c
       -0.032020822 -0.030225392 -0.06553563 0.030498609
000240 ed e0 27 3d 69 63 22 bd 7d 3d 94 bd 72 7b 6e 3d
       0.04098599 -0.039645586 -0.072382905 0.058223195
000250 bf 7c 4e 3c 73 f4 09 3e 1b e7 ae bd 4d 3c 8f 3d
       0.012602984 0.13472156 -0.085401736 0.06993923
000260 7b 86 4f 3d 77 54 8d 3d a3 85 e6 bd d1 1c a8 bc
       0.05066536 0.06900876 -0.11255958 -0.020521553
000270 17 f1 09 be c8 6a 2f bd 76 a6 7f 3d 89 81 00 3e
       -0.13470875 -0.042826444 0.06241461 0.12549414
000280 21 f7 88 bd 16 58 0c bd fd ec 81 bd 01 52 27 bd
       -0.06687761 -0.034263693 -0.0634403 -0.04084969
000290 e1 5a 35 bd fa a8 9b bc 53 16 a1 bd f3 b3 5a 3d
       -0.044276122 -0.019001473 -0.07865586 0.05339427
0002a0 e1 c5 ec 3d ad 9b a1 3d ae ca 03 3e 81 7d c7 bd
       0.1156118 0.07891021 0.12870285 -0.09740735
0002b0 45 f7 8c 3d c6 5d 90 bd 48 7f d6 3d 68 97 24 3d
       0.068831004 -0.07049136 0.10473496 0.040183455
0002c0 61 e5 8a bd 67 a4 46 bc 2a 30 d5 3d a4 e2 df 3d
       -0.06782032 -0.0121241575 0.10409577 0.109319
0002d0 2f fd 9e bd 5b f0 7b 3c e9 85 b8 bd 25 3f 50 bd
       -0.07763135 0.015377129 -0.09009916 -0.05084147
0002e0 fb 57 56 3d 1f 24 57 bd b3 00 2c bd f3 6f 31 bd
       0.05233 -0.052524682 -0.041992854 -0.043319654
0002f0 1d 3b 07 3e 1e 9f e1 bc ae 15 89 3d 5b 9d 8b 3d
       0.13206144 -0.027541693 0.06693588 0.068171225
000300 9d 97 8e 3d af b0 96 bd a3 87 34 bc e5 5c 82 bd
       0.06962512 -0.073579185 -0.011018666 -0.063653745
000310 b5 5c 15 3d a6 63 8f b9 42 07 10 bd fd ef 07 bd
       0.036465365 -0.0002734933 -0.03516317 -0.033187855
000320 21 c5 eb 3d 56 b8 6d 3d 22 2b 04 3e bb f3 3b bd
       0.11512209 0.058037125 0.12907079 -0.045886736
000330 48 cc c4 bd 72 28 f0 bd 0e 5b f4 bb 2d e6 81 3d
       -0.09609276 -0.11726464 -0.0074571436 0.06342731
000340 a5 3e 4f ba 7e dc bd 3c 77 aa c0 bd 32 81 85 3d
       -0.0007905758 0.023176428 -0.094075136 0.06518783
000350 71 27 fe bd 57 c0 6b bd d1 c4 69 bd 75 8a 1c bd
       -0.124098666 -0.057556476 -0.057072464 -0.03821798
000360 f1 e1 4b bd 55 25 17 3d 19 6b dd bd 04 bd 97 bc
       -0.04977602 0.036900837 -0.10811443 -0.018522747
000370 9f a4 4e bc 2a 3b 79 bd 73 72 ac 3d a3 2d c0 3c
       -0.012612491 -0.06084744 0.08420267 0.023459261
000380 c4 b5 10 3c f1 7b e2 bd 55 2a 65 bd ac 74 72 bd
       0.008832399 -0.11058796 -0.055948574 -0.0591933
000390 8d 15 62 bc a2 01 e7 bd 75 2b fd 3c d6 c0 9c bd
       -0.013799083 -0.11279608 0.030904511 -0.07653968
0003a0 12 a6 b2 3d 1a ae d6 bd e9 6e 2e bd 94 58 1f bc
       0.08723082 -0.10482426 -0.04258624 -0.0097257085
0003b0 f6 af 55 bd 29 b0 fc 3c 21 cc bb 3d 57 64 9c bd
       -0.052169763 0.030845718 0.09169794 -0.07636326
0003c0 dd 72 fc bd 0d 24 02 3d 0d f6 fa 3d 2e b3 b9 bd
       -0.12326596 0.031772662 0.12253962 -0.09067379
0003d0 31 11 ed bc ce 2b 19 3d 04 f0 ad 3d c0 f4 6e 3c
       -0.028938862 0.03739529 0.08493045 0.01458472
0003e0 20 ba a6 3c 21 4c 53 bd 51 0c 80 bd b7 e5 69 bd
       0.020352423 -0.051586274 -0.06252349 -0.05710384
0003f0 a5 79 b3 bd 2d 75 9e 3d ac ef 5c bc bc 83 f4 3d
       -0.08763436 0.07737193 -0.013484877 0.11939189

bias_ih_l0 f4 [256]
000000 1f 3d d9 bc a7 13 19 3d cf fe ec 3c b2 6b ef bc
       -0.026518403 0.037372258 0.028930096 -0.029226158
000010 5b 01 71 bd 41 77 6b bd a4 43 99 3d 33 72 02 3e
       -0.058839183 -0.057486776 0.074836046 0.12738876
000020 44 07 1b 3d ed dc 07 3e 1f 3f 6f 3d a8 db 23 3d
       0.037848726 0.1326787 0.058409806 0.040004402
000030 42 ce ab 3d 21 db 08 bc 4a d0 e4 39 ec a9 92 3d
       0.0838895 -0.008353026 0.00043642736 0.07161316
000040 45 90 c8 bd a4 cb b8 bd 74 b8 f5 3c 9a 7b 04 3d
       -0.09793142 -0.09023216 0.02999518 0.032344438
000050 ca f0 c1 3d 56 95 4b 3d 26 99 1c bd 82 9a ad 3d
       0.09469755 0.049702965 -0.03823199 0.08476736
000060 aa f2 84 3d 59 94 a4 3d f2 b4 3f bd 42 2f 46 3c
       0.06491597 0.080361076 -0.046803422 0.012096228
000070 7f 01 92 3a af 2d 34 3d 8b 89 91 3d 0c a6 1a bd
       0.0011139362 0.04398888 0.07106312 -0.03775601
000080 cc f0 a0 3d bc 1e a7 bd e6 58 ee 3d 57 e5 d2 3c
       0.07858428 -0.08160159 0.1163805 0.025744123
000090 51 b2 85 bc 58 71 11 3d c2 ff bf bc 73 03 99 bd
       -0.01632038 0.035508484 -0.023437385 -0.07471361
0000a0 30 60 e8 bd 37 d1 eb 3d 37 04 b4 3d 7b 7f e9 3d
       -0.11346471 0.11514514 0.087898664 0.11401268
0000b0 9a d7 d0 3c f9 f3 7b 3d 33 bd f4 ba c7 7d f9 3d
       0.025493432 0.061511967 -0.0018672108 0.12182193
0000c0 69 18 86 bd 41 ac dc 3c 5e ad 49 bd 9b 65 b5 3d
       -0.065476246 0.026937606 -0.0492376 0.0885727
0000d0 d0 04 c4 bd 61 5c 02 3e fc a6 f0 3d 2d 72 a0 bd
       -0.095712304 0.12730552 0.117506 -0.07834277
0000e0 73 08 06 3c 4a ba 8a bd bc b3 ff 3d 06 38 32 3d
       0.008180725 -0.06773813 0.124854535 0.04351046
0000f0 f6 9d bc 3d fb f5 d5 bc e6 a4 a6 bd 23 d1 3c bd
       0.09209816 -0.02611827 -0.08136921 -0.046097886
000100 2d c2 68 bd 7f 1d e4 3d 7a 4f 2a bd ef 97 ce bd
       -0.056825805 0.111384384 -0.0415797 -0.10087573
000110 16 eb 85 bd eb d1 c4 bd 24 34 6a bd 7a 8d 8b 3d
       -0.0653898 -0.09610351 -0.05717863 0.06814094
000120 49 65 cf bd 7d ae d7 3c 26 14 7f bd 4d 39 d5 bc
       -0.101267405 0.02632832 -0.062275074 -0.0260283
000130 43 af 7e 3d 9c 60 16 bd 02 23 1f bd b3 a6 80 bd
       0.06217886 -0.036713228 -0.038851745 -0.06281795
000140 27 12 2c 3c 16 fa a8 3c 2c cb e3 bd c0 47 81 3c
       0.010502375 0.020627063 -0.11122736 0.015781283
000150 0b 9f 1b 3d e3 6b 92 bd f2 03 9e bd d1 6b df bc
       0.037993472 -0.07149484 -0.07715596 -0.02727309
000160 ac c8 b8 bc 17 68 c4 bd e0 a4 2c 3d b9 6d 9d bd
       -0.022556625 -0.09590166 0.042149425 -0.076869436
000170 ca 41 11 3d fc 79 2b 3d 2a 1f 23 3a 3a 6e a0 3d
       0.035463132 0.04186438 0.00062226004 0.07833524
000180 a5 db ed 3d c6 fd be 3d 75 ec be bd 37 2e 84 3d
       0.116141595 0.09325747 -0.09322444 0.06454127
000190 6b 70 75 bd cd ff 5d 3d 70 2e b2 bc a0 0a ec bc
       -0.059921663 0.05419903 -0.021750659 -0.02881366
0001a0 9e cc 60 bd 67 e9 4d 3d c3 a6 74 bd 17 d6 ac bd
       -0.05488264 0.050271418 -0.05972935 -0.08439272
0001b0 cc 4a d8 3d 1b e2 90 bd b9 1e a8 3c 94 38 bd 39
       0.10561141 -0.07074376 0.020522462 0.00036091043
0001c0 ed bc ea 3d 90 1a b6 bd 5a a9 97 3d bd e2 b2 bd
       0.11461816 -0.08891785 0.07405348 -0.08734653
0001d0 d1 88 45 bd 94 27 eb 3d 45 fa 4b bd d7 29 94 bd
       -0.04822618 0.11482158 -0.049799222 -0.07234543
0001e0 2a 84 df ba 4c 65 77 3c bd 26 2e bc dc b0 d0 3d
       -0.0017052938 0.015099835 -0.010629353 0.10189983
0001f0 1e d5 f0 bc f7 ef c3 bd e7 f8 fe 3c 45 e6 d5 bd
       -0.029398497 -0.09567254 0.031124545 -0.10444311
000200 ff 66 a7 bd 55 fe a7 3c 8c cb 43 3c 63 0e ba bd
       -0.08173942 0.020507017 0.011950385 -0.09084775
000210 6b 62 55 3d 8c a7 98 bd 40 0f 55 3d e1 16 dd bd
       0.05209581 -0.07453832 0.052016497 -0.107953794
000220 ed 29 d5 bd ac 5e 94 3d 03 2a c3 bd d2 e9 b0 bb
       -0.10408387 0.0724462 -0.095294975 -0.0053989673
000230 38 60 ce 3d cc 5d e2 bd c1 a0 f9 3d c9 86 6d 3d
       0.10076946 -0.110530466 0.121888645 0.05798987
000240 a4 f0 b5 bd ce e5 4c bd 44 a4 eb bc e0 44 25 bd
       -0.08883789 -0.050023846 -0.028764851 -0.040348887
000250 f8 d0 07 be df 56 6b 3d b5 36 dd 3a c5 e1 ed bd
       -0.13263309 0.057455894 0.0016877266 -0.11615328
000260 eb 29 79 bd d7 e3 c4 bd 4f 2e 8d bd 2a d5 98 3d
       -0.06083099 -0.096137695 -0.06893598 0.07462533
000270 55 66 68 3d 69 85 9d bd b1 f1 fc bb 8c 4a 10 bc
       0.056738216 -0.076914616 -0.0077192415 -0.008806836
000280 21 35 b5 3d 96 b3 0c 3d d0 0e b5 bd 27 6c c9 bd
       0.08848024 0.034350954 -0.08840716 -0.098350815
000290 a7 e9 30 3d 53 c8 89 bd 75 be 3b 3d 07 5a a8 3d
       0.04319158 -0.06727662 0.04583593 0.08220296
0002a0 07 af 67 bd 70 ae 8f 3d d3 5c c1 3d d0 eb 8b 3d
       -0.056563403 0.07015693 0.09441533 0.06832087
0002b0 bb 29 b4 bd bd 85 53 bc 6f ce 37 3c 04 85 c1 bd
       -0.08797022 -0.012910304 0.011218651 -0.09449199
0002c0 5c 14 0c 3b 9e f6 68 bd b2 7a e7 bd 77 65 82 3d
       0.002137444 -0.056875817 -0.11302699 0.06367009
0002d0 15 09 46 3d 75 09 13 3d 87 36 c5 bd 8f c7 fa 3c
       0.048348505 0.03589769 -0.09629541 0.030612735
0002e0 2f 7f df 3d 16 07 74 3d d9 ad f9 3c fc 65 a8 39
       0.1091293 0.05957707 0.030478405 0.0003211944
0002f0 77 be 1f bd 8b 08 0e bd 9c ff 49 3d e9 e8 d9 bc
       -0.039 -0.034676116 0.049316034 -0.026600318
000300 f3 fa 43 bd ab 52 4d bd b3 99 80 bd bd 93 a5 bd
       -0.047846746 -0.050127666 -0.06279316 -0.080848195
000310 90 2f d9 bd e1 8e e4 3d ef de 05 be fb ac 34 b9
       -0.10604775 0.111600645 -0.13073324 -0.00017230578
000320 83 b4 7c bc a9 9e e9 bc 4a 65 c8 3c f8 cd 9b bd
       -0.015423897 -0.028518038 0.02446236 -0.07607645
000330 3c 05 f1 3c 0a 0c c6 3d 62 13 4f 3d ec 36 9d 3c
       0.029421441 0.09670265 0.050555594 0.019191228
000340 f3 82 08 bd 30 be a7 3d 51 68 22 bd 57 c6 73 bd
       -0.033328008 0.08190572 -0.039650265 -0.059515323
000350 d2 ba c5 3d 17 a2 3b bd a1 21 84 3d 40 98 a3 3d
       0.09654774 -0.045808878 0.06451727 0.07988024
000360 c7 fc 6e 3d d8 75 9e 3d 63 04 20 bd 06 2f 5f bd
       0.058346536 0.07737321 -0.039066684 -0.054488204
000370 ba a7 70 3c d9 70 e8 3d 06 ff 27 bd a3 38 0a 3e
       0.014688427 0.11349649 -0.041014694 0.13498168
000380 a3 f6 38 bd 4b 25 a2 bd 30 f7 e5 bd d1 7e 82 3d
       -0.045157086 -0.07917269 -0.11228788 0.063718446
000390 31 a6 83 bd a5 ed 8a bd 35 30 e3 bd a1 cd b8 3c
       -0.06428183 -0.06783608 -0.11093179 0.022558989
0003a0 d5 61 29 bd b0 fa ac bd 5d 96 41 bd 49 5f a0 bd
       -0.041353066 -0.08446252 -0.04726254 -0.07830674
0003b0 9f 25 dd bb b2 05 3f bd 98 6e ec 3d a2 ea 1f bc
       -0.0067488695 -0.04663629 0.115445316 -0.009760531
0003c0 d7 da cf 3d 25 dc d3 3c 99 28 b1 3d 41 c4 c6 3d
       0.10149162 0.025861809 0.086503215 0.09705401
0003d0 cf 2f c7 3d a1 f4 34 3d 24 c0 db 3d 1b 35 99 3d
       0.09725916 0.04417861 0.10730007 0.07480832
0003e0 63 2d 8c bd 35 61 91 bd 93 c1 8c 3d 3c c4 b1 3d
       -0.06844594 -0.07098619 0.06872859 0.08680007
0003f0 fb 68 ba bc 85 27 15 3b ee 14 9e 3d c6 97 9e bd
       -0.022755137 0.0022759151 0.07718836 -0.07743792

bias_hh_l0 f4 [256]
000000 01 88 d9 3c ed 20 56 bd 33 1e 64 3d 6b 47 cc 3d
       0.02655411 -0.052277494 0.055692863 0.099745594
000010 43 61 98 bc c7 4b fe 3d d0 39 bd bd e7 b4 57 bd
       -0.018601066 0.12416797 -0.092395425 -0.052662756
000020 4a 86 bf 3d 39 90 04 3e d3 21 6b 3d 02 78 e1 3d
       0.093517855 0.12945642 0.057405304 0.11009218
000030 2a fc f2 3d 1b bd 87 3d fb 8c 83 3d 14 bf 26 bd
       0.11864503 0.06627866 0.06423374 -0.04070957
000040 7d 78 9a bd 62 d4 eb 3d 2a 7e 07 bd 8a 78 44 3d
       -0.075425126 0.11515118 -0.033079304 0.047966518
000050 3f 50 61 3c 6e b2 c5 ba a3 12 ba 3c 71 9e 92 bd
       0.013752042 -0.0015083083 0.022713965 -0.071591265
000060 22 c4 fa 3d cb 86 62 bc 0b 7c 27 3d 6c 5b cc 3d
       0.122444406 -0.013826082 0.04088978 0.09978375
000070 7b 0d d6 bd e5 28 f6 3d 5b bc a7 bd eb 92 5a 3c
       -0.1045179 0.12019519 -0.08190223 0.013340692
000080 1d 71 03 bc 2e a2 fd 3d 95 3f b2 3c 11 fa 22 bd
       -0.008022574 0.12384449 0.021758834 -0.039789263
000090 ab 6a f0 bc e2 22 04 bd 45 af 2c bd dd 77 92 3d
       -0.029347738 -0.03225983 -0.042159338 0.07151768
0000a0 84 0c ce bd d9 5b 2d 3d 19 83 85 bd e1 43 9b bd
       -0.10060981 0.04232392 -0.065191455 -0.07581306
0000b0 8c 9e 20 bd 13 2d 4d bc 06 86 a5 bd b4 11 d3 bc
       -0.039213702 -0.012522954 -0.080822036 -0.025765277
0000c0 c1 0b 58 3d 57 29 9e bc 7d fd e6 3d 7a f8 2a bc
       0.052745584 -0.019306822 0.11278818 -0.010435218
0000d0 ee d2 50 bd bf 33 53 3c 48 28 f7 bc 74 48 8d 3d
       -0.05098241 0.012890755 -0.030170575 0.06898585
0000e0 87 a7 53 bd 73 4a 07 3e fc 14 29 3a c8 36 b5 bd
       -0.05167344 0.13211994 0.00064499653 -0.08848339
0000f0 fc 44 b0 3d 96 dd c3 bd 44 ac cf bd c1 f3 2e 3d
       0.08606908 -0.095637485 -0.10140279 0.04271293
000100 ad 0c 0b 3b 82 dc ab bc e1 cc 02 3e a6 81 e4 bc
       0.0021217272 -0.02097917 0.12773468 -0.027893852
000110 ff 6d ef 39 16 0a 84 3d 8b be 8d bc a6 b1 37 3d
       0.00045667586 0.06447236 -0.017302772 0.044847153
000120 2e 0e 86 bb 6d 88 ac 3b ac 59 ef 3d fb a4 4a bb
       -0.004091046 0.0052652867 0.116870254 -0.003092109
000130 69 5a 5a 3c 62 34 fc 3d ae c0 4b bd a7 c7 e1 3d
       0.0133272195 0.12314679 -0.0497443 0.11024409
000140 3e c4 f7 3d 05 2d bd bd a6 7e bf bc 2b 4e 24 3d
       0.12097977 -0.092371024 -0.02337582 0.04011361
000150 0a 80 a8 3c b7 25 08 3d 0e a2 a7 bd 39 78 e0 3d
       0.020568866 0.033239093 -0.08185206 0.10960431
000160 95 4c 9e bc 34 cf 69 3d 3b 7b cd 3d 7b cd cb 3d
       -0.019323627 0.05708237 0.1003327 0.09951302
000170 99 4c 5c bd af ee cc 3d 84 df da 3d 7a 72 54 3d
       -0.053783987 0.10006463 0.106871635 0.051866986
000180 26 5a 0b 3b 52 a5 ab bd 29 b1 c9 bd 31 a4 c1 bd
       0.002126345 -0.08381142 -0.09848244 -0.09455145
000190 bc 5c ff 3d ce b3 d7 3d 45 14 cb bd 20 e6 ba bd
       0.124688596 0.10532342 -0.099159755 -0.09125924
0001a0 7d 34 c0 3d 1f fc be 3d 4c 14 76 bd 33 93 cb 3d
       0.09385011 0.09325432 -0.06007795 0.099401854
0001b0 2d e4 01 3e e7 15 71 bd 53 a6 61 3d 6f 3b 2a 3d
       0.12684698 -0.05885878 0.05509026 0.041560587
0001c0 50 92 03 3e 13 29 cc 3c 2a 83 cd bd 7b 0f 58 3d
       0.12848783 0.02492193 -0.10034783 0.05274914
0001d0 ca 47 a0 3c 56 f9 9e bd 89 8d a7 bd 81 5f 0f bc
       0.019565482 -0.07762401 -0.081812926 -0.008750797
0001e0 30 25 08 3e 8a 44 87 bd f6 56 02 3e 31 ef d0 3c
       0.13295436 -0.0660487 0.12728485 0.02550468
0001f0 a8 82 b7 bd 6d 7b af bd 1b d2 e5 3d 51 8f b9 3d
       -0.089604676 -0.085684635 0.11221715 0.090605386
000200 15 d9 af bd 68 05 3e bc 63 0f d7 bc 75 9e 42 3d
       -0.08586327 -0.011597969 -0.026252454 0.047514398
000210 d2 ac db bd 96 16 b7 3d 0c 22 ed bd 07 81 96 bd
       -0.10726322 0.08939855 -0.115787596 -0.07348829
000220 0d 65 0c bd ea c2 a8 bd 02 2c 1e bd ef 26 6d bc
       -0.034276057 -0.08240302 -0.038616188 -0.0144746145
000230 e4 5a cf bd 6b 9e 31 bc 26 ee 72 3d c3 28 59 bd
       -0.10124758 -0.010840992 0.059309147 -0.05301739
000240 74 86 a3 bd 7d 3d 18 bb 19 4e 9d 3d ec 04 9d bd
       -0.07984629 -0.002323001 0.076809116 -0.076669544
000250 31 99 0a bc 8a 85 85 bd c4 ca 9d 3d 98 ea 49 3d
       -0.008459375 -0.06519611 0.0770469 0.04929599
000260 0f cb 6a bd 66 e0 0e 3d da 2f 79 3d 00 ed 43 bb
       -0.057322558 0.03488197 0.06083665 -0.0029895902
000270 61 5d 30 bd 35 f6 fb bd ac db 6e bd 2d 64 26 3d
       -0.043057803 -0.1230282 -0.058314964 0.04062288
000280 11 b7 dd bd 3d 56 ba bd 8b ce 05 bd f9 0a f7 bd
       -0.10825933 -0.0909848 -0.032667678 -0.1206264
000290 df 08 25 3d fb b1 c4 3c c0 78 de bc cb 4a 92 3d
       0.040291663 0.024010649 -0.027157187 0.07143172
0002a0 35 7e 95 bc fe 69 0c bd 4f ee b8 3d dc 10 e3 bd
       -0.018248657 -0.03428077 0.09029829 -0.110872
0002b0 02 77 b8 3c 0e f8 bb bd 7f 91 91 bd 6c d0 ac 3d
       0.022517685 -0.09178172 -0.07107829 0.08438191
0002c0 a3 ca 07 3d c7 6b e1 3d 67 bd d3 3c 88 0c 0a be
       0.033152234 0.11006885 0.02584715 -0.13481343
0002d0 31 c6 34 3d 60 f2 6a 3c f5 62 7c 3d fb ab df bd
       0.044134323 0.014340013 0.06161781 -0.109214745
0002e0 6d 7f b5 3d 44 2d c0 3d ca 08 91 bd 64 7d b0 3d
       0.08862195 0.09383634 -0.070817545 0.08617666
0002f0 51 9f b6 bd 45 5e f9 3d 9b 51 9f 3d 16 74 02 3e
       -0.08917106 0.121761836 0.07779237 0.12739596
000300 6e f6 92 3d 48 fc 8b bd 43 22 c9 bd ff 9b e6 bc
       0.07175909 -0.06835228 -0.09820988 -0.028150557
000310 96 ea b3 bd f5 14 d0 bd 32 00 c4 bd 6b de 6e 3d
       -0.08784978 -0.10160247 -0.0957035 0.058317583
000320 37 1d ef bd 2e 6b 4c bd b2 c2 c3 3c bb 7a 32 3c
       -0.11675494 -0.049906902 0.023896549 0.010893519
000330 8c 9c b8 3d f2 aa bb bd a9 39 38 ba 6d a5 00 3d
       0.09014234 -0.091634646 -0.0007027635 0.031407762
000340 00 de d1 3d e6 72 a3 3c 79 74 00 3d b1 27 88 3d
       0.10247421 0.019952249 0.031361077 0.066481955
000350 b7 69 8e 3d 87 7e 38 bd d4 44 bf 3d 89 4c ea 3c
       0.06953757 -0.04504254 0.093393 0.028600948
000360 2c 60 ae bd cd 89 5d bd 9a 30 d1 3d 59 fa 27 bc
       -0.08514437 -0.054086495 0.10214348 -0.010252559
000370 b5 04 80 bd 53 7b f0 3d 13 f4 98 3d 86 3e c8 bd
       -0.06250898 0.11742272 0.074684285 -0.097775504
000380 cc a4 68 bc a7 5b de 3d 8e 4d 61 bd b9 86 aa 3d
       -0.014199447 0.10857325 -0.055005603 0.083264776
000390 65 62 b4 bd 96 03 5f bd 00 26 7d 3d 25 c1 bc 3d
       -0.0880783 -0.05444678 0.061803818 0.09216527
0003a0 28 2c ce bc 70 44 e9 bd e0 a2 b2 3d c2 df 4e bd
       -0.02516754 -0.113900065 0.08722472 -0.05050636
0003b0 36 80 f7 3d 7f c3 c4 3b bb 72 49 3b 51 c9 ff 3d
       0.12085001 0.0060047503 0.003073855 0.1248957
0003c0 33 a3 c9 bd a0 b4 b8 3d 49 d4 b5 3d 54 03 df bb
       -0.09845581 0.090188265 0.08878381 -0.0068058167
0003d0 bf ee c8 bc 18 ee c2 bd 92 a9 de 3d e9 f6 d6 3c
       -0.024527906 -0.09518069 0.10872187 0.026240783
0003e0 4c 51 58 3d e5 ba e3 bb e3 4e d0 3d ac cb bf bd
       0.052811906 -0.00694977 0.101712964 -0.09365019
0003f0 91 26 b0 3d 52 49 5d 3d 12 a3 93 3b ca 6e 53 3d
       0.08601106 0.054025 0.0045055235 0.05161933

weight_ih_l1 f4 [256, 64]
000000 a9 3e a1 3b 90 8c aa bb 49 0d a0 3d f8 84 c9 bd
       0.0049207998 -0.0052047446 0.07815034 -0.09839815
000010 9a 93 3a bd 00 f8 f8 bd 3c 97 45 bd 50 71 33 3d
       -0.04555092 -0.12156677 -0.04823993 0.043809235
000020 83 ee b7 3d b7 eb f9 3d 14 84 fd bd 5a 1a 1e bc
       0.089810394 0.12203162 -0.123787075 -0.009649837
000030 88 da 00 3e 88 87 6a 3c 73 87 5b 3c c2 e8 b4 3c
       0.12583363 0.01431454 0.013398993 0.022083644
000040 e1 59 49 3c a1 87 0b bd da ad 03 3c ea 27 ad 3c
       0.012289495 -0.034064893 0.008037055 0.021137197
000050 27 f3 12 bd b5 8a b3 3a f8 e7 a3 bd 93 e6 9f 3d
       -0.03587642 0.0013697954 -0.08003229 0.078076504
000060 f7 c3 47 bc 6b 71 89 bd 68 eb ef 3d 4a 80 0f bd
       -0.012192718 -0.06711086 0.11714822 -0.035034455
000070 2b a8 22 bb 5d 6b e4 bc 4d ab e6 bd dd 42 f5 3c
       -0.0024819474 -0.027883226 -0.11263142 0.02993911
000080 09 f1 d2 bb db 80 bb 3d 37 ac 6f bd 1d e8 09 3d
       -0.006437425 0.091554366 -0.058513846 0.033668626
000090 57 58 d9 3d be 05 8c 3d 54 a1 b6 3b 99 b6 00 bc
       0.106125526 0.06837033 0.005573431 -0.007856035
0000a0 0f 33 8d 3d dc 57 dd 3d 0b 9c e8 bd 88 22 86 bc
       0.06894504 0.108077735 -0.11357888 -0.016373888
0000b0 dd 36 40 3b d4 44 66 3d 6f b7 f1 bc 07 5b 04 3e
       0.0029329576 0.056217983 -0.029506413 0.12925349
0000c0 b3 b5 8a 3d c0 32 aa 3d 38 30 03 3d 85 aa 9e 3d
       0.067729376 0.08310461 0.032028407 0.07747368
0000d0 f0 3d 21 bd 36 4b f9 3d c2 68 cc bd c4 a9 c0 bd
       -0.03936571 0.121725485 -0.099809185 -0.0940738
0000e0 98 d8 99 bd 29 8b ed bd 53 94 e5 3d ea 99 bf 3d
       -0.07512015 -0.11598808 0.11209931 0.09355529
0000f0 20 48 f7 3c 2a 6e 5b bd 18 06 c2 bd 34 30 7b 3d
       0.030185759 -0.053571858 -0.094738185 0.061325267
000100 2a 6a 33 3d 0d 4f 16 3d 6f 1b 80 bd 91 1e 3f bd
       0.043802418 0.036696482 -0.062552325 -0.04666001
000110 5f d7 d4 3d 2a c1 29 bd 49 88 fd bc 94 dd 74 3a
       0.10392641 -0.04144398 -0.030948775 0.0009340879
000120 46 f7 f2 bd 44 32 fd 3d ea 94 a3 3b 06 8e 90 bc
       -0.1186357 0.12363103 0.004992117 -0.017645847
000130 52 19 2b 3d a9 9f 31 bc 39 00 14 3c 4e b7 b7 bd
       0.041772194 -0.010841289 0.009033256 -0.089705095
000140 5d e0 13 bc 2d df dc 3d cb 15 b1 bd 35 c3 77 3d
       -0.00902566 0.10784755 -0.08646735 0.0604889
000150 d6 20 ee bd 2d 72 ad 3d 47 78 aa bd e6 dd c6 3b
       -0.11627357 0.08469043 -0.08323722 0.006068933
000160 d2 c5 0a be 45 5f cb bd c0 4e 0f bc cf 95 9c bd
       -0.13552025 -0.099302806 -0.008746803 -0.07645761
000170 0f 7b a9 bd 47 51 ad bd c8 f1 54 bd 7c 32 72 bc
       -0.08275425 -0.08462768 -0.051988393 -0.014782544
000180 a5 ef 92 3d b6 ac bd bd 58 e5 ec 3b 5b 2c be bd
       0.07174615 -0.092614576 0.0072294883 -0.09285804
000190 ac 5a d2 bd 01 c3 ea 3d 0f 3e cc bc 42 a9 5f 3d
       -0.102712005 0.11462975 -0.024931936 0.054604776
0001a0 76 14 87 bc ad d9 08 3d 7f 6c 94 bd 21 94 cc 39
       -0.016489249 0.033410717 -0.072472565 0.00039020277
0001b0 e4 2a 8d 3d 0d f5 68 3d 67 95 50 bd e6 8a 90 3d
       0.06892946 0.056874324 -0.05092373 0.07057743
0001c0 8c f3 84 bd f4 48 8b bd 74 09 2a bd 61 a8 d0 bd
       -0.064917654 -0.06801024 -0.04151292 -0.10188366
0001d0 fc d1 d8 bd c1 c2 da bd d6 58 d1 bc b3 a7 83 3c
       -0.10586926 -0.106816776 -0.025555056 0.016071176
0001e0 e2 e4 28 3d 63 01 c5 bd 1b ec 6d 3d fa 60 59 3d
       0.041233905 -0.09619405 0.058086496 0.053071
0001f0 1f 22 82 3d 15 09 6b bd 87 17 91 bc ce 9e 4b bd
       0.06354164 -0.05738171 -0.017711414 -0.049711995
000200 17 08 86 bd 55 91 5f 3d 36 15 a2 3d 29 58 03 3e
       -0.06544512 0.05458196 0.07914202 0.12826599
000210 ec 97 41 3c 49 7c ce bd 40 18 79 bd 36 68 95 3c
       0.011816006 -0.10082299 -0.060814142 0.018238168
000220 d7 b4 ac 3c ae 95 c9 3d cf 82 6f 3d 1b 93 b5 3d
       0.021082325 0.09843002 0.05847436 0.08865949
000230 19 3e b2 bc c1 1a 9b 3d 37 3e ad bd 3c 3b 1b 3d
       -0.021758126 0.07573462 -0.08459132 0.037898287
000240 13 cb e2 3c c5 d0 c1 3c 5d 5e b1 3c 40 c3 d8 3d
       0.027684724 0.02365912 0.021651441 0.10584116
000250 07 aa f7 bd 03 d3 a6 3d 5b b4 e1 3d f1 3b 9c bd
       -0.12092977 0.08145716 0.11020728 -0.076286204
000260 48 93 65 3c 71 d1 4b 3d 77 5b d1 3d f1 97 d4 3c
       0.014012165 0.049760286 0.10222524 0.025951358
000270 8d d0 e4 bd e4 9c 36 bd 5b 96 96 bb 49 f1 81 3d
       -0.111725904 -0.044583216 -0.0045955605 0.063448496
000280 07 66 85 3d 02 ee b4 bc ba 0a b9 bc b4 5d 09 be
       0.06513601 -0.022086147 -0.022588123 -0.13414651
000290 c1 fc 00 be cb 18 87 3d aa 09 88 bc 76 cc 06 3b
       -0.12596418 0.06596526 -0.01660617 0.0020568646
0002a0 bd 43 49 3c 9b 79 8d bb cd 54 f2 3d 43 45 93 bc
       0.0122842165 -0.004317475 0.11832581 -0.017977362
0002b0 68 be c2 3d 1b 31 b6 bd ab 94 1a bd 3b 40 b6 bc
       0.09508973 -0.08896085 -0.037739437 -0.022247424
0002c0 1b e2 ad 3d 07 c9 c2 bd 15 64 64 bd ed f4 af bd
       0.08490392 -0.09510999 -0.05575951 -0.08591638
0002d0 48 63 09 3d 7c 27 2d 3d 11 01 6e 3d 1f 18 b3 bd
       0.033541948 0.042273983 0.058106486 -0.08744835
0002e0 c1 66 e2 bc 0f fc 6b bd 1d 7d d4 3d c6 d6 9f 3b
       -0.027636888 -0.05761343 0.10375426 0.004877898
0002f0 59 9a 60 3d 15 ad fe 3c 3f c7 9f bc da f4 e1 3d
       0.054834697 0.031088391 -0.019504188 0.1103303
000300 41 e8 de 3c a5 50 fc bc 6e 38 51 bc 52 1d be bd
       0.027210357 -0.030800173 -0.012769802 -0.09282936
000310 62 16 53 bd 8d 9d e1 bb 98 56 a6 3d b2 81 f8 bd
       -0.051535018 -0.0068852366 0.08121985 -0.121341124
000320 bb 16 bc 3d b9 f7 dd 3d 05 ec 98 3d cd af a7 bd
       0.09184023 0.10838265 0.07466892 -0.08187828
000330 9c bd 9d 3d e7 19 d1 3d b1 dd 01 bc ce 52 23 bc
       0.07702181 0.102100186 -0.0079263905 -0.009968473
000340 2b f3 77 3d 11 43 f1 3b 39 66 aa bd 2e 50 bd 3d
       0.060534637 0.0073627313 -0.08320279 0.09243809
000350 b1 f3 de 3d b8 b1 8a bc 39 4f 96 bd dc 29 01 3e
       0.10886324 -0.016930446 -0.07339329 0.12613624
000360 0e 06 d0 bd 8a e6 05 3e 89 c8 a2 3b 92 34 a6 3d
       -0.10157405 0.13076225 0.0049677533 0.08115496
000370 34 3c 9c 3c 1c e0 dc bd 3b 05 52 bd 89 c0 71 3c
       0.019071676 -0.10784933 -0.05127452 0.014755377
000380 3d 0c f9 3d 16 be 67 3c 05 50 f5 bc 37 6e a9 3d
       0.121605374 0.014144441 -0.029945383 0.08272975
000390 49 4e a6 bd b6 03 4e 3c 8a 0a c5 bd c6 8b cc bd
       -0.081204005 0.012574127 -0.09621151 -0.09987597
0003a0 58 06 db bd bb 90 80 3d 78 b0 9d 3b 73 16 dd bd
       -0.10694569 0.06277605 0.0048122965 -0.107952975
0003b0 71 8b 94 bc 7a 4e f2 3d 6e 2a 83 3d 8a 20 80 3d
       -0.018132897 0.118313745 0.06404577 0.06256206
0003c0 63 b2 46 bd 87 10 c0 bd 02 91 e8 3d d3 61 c1 3c
       -0.048509967 -0.09378152 0.11355783 0.023606217
0003d0 8f ce a2 3d 71 f6 38 3d 51 70 9b bc 8c 72 ac bd
       0.07949554 0.0451569 -0.018974455 -0.084202856
0003e0 0e fe cb bd 4b 6d dc bd 2f 2f f8 3d 74 0a cb bd
       -0.099605665 -0.107630335 0.121183746 -0.09914103
0003f0 ac b9 50 bd 2d 14 d9 3c 6f 2f 7d bb f3 29 c8 bd
       -0.05095832 0.026498878 -0.003863301 -0.09773626

weight_hh_l1 f4 [256, 64]
000000 6d bd 5c 3c 8c 99 17 3d 43 db e4 bd 6a d9 45 3a
       0.013472897 0.037011668 -0.11174633 0.0007547351
000010 bd 84 2b 3d 74 61 25 bd ec 41 9f 3d 80 1b 66 bd
       0.041874636 -0.04037614 0.077762455 -0.05617857
000020 4f c1 91 3d bc 84 d4 bb ab c3 7e bd 60 60 af 3d
       0.07116949 -0.0064855497 -0.062198322 0.08563304
000030 f7 17 d9 bd 47 ee 7d bd 91 7b 94 3d 48 4d 51 bd
       -0.10600274 -0.061994817 0.07250131 -0.05109909
000040 07 5c 10 bc 0b 29 93 bd e2 dd de bd 1c 57 01 be
       -0.0088110035 -0.07185563 -0.108821645 -0.12630886
000050 3f c9 54 bd 86 b4 8d 3d eb df 6c bd d5 cf e9 bd
       -0.051949736 0.06919198 -0.057830732 -0.11416594
000060 ae 42 d0 bd a4 82 ba 3d c6 5e f8 3d e3 09 34 3d
       -0.10168968 0.09106949 0.121274516 0.04395474
000070 8d 75 ee 3d b9 40 40 3d 5c 10 b9 bd 36 7a bc bd
       0.11643515 0.046936724 -0.090363234 -0.092029974
000080 16 54 17 3c 1f 0d 80 bd 97 fd 44 3d e0 2b c9 bd
       0.009236356 -0.06252503 0.048093405 -0.098228216
000090 e3 d0 9e bd 87 99 0f 3d cf bd a7 bc 0c e1 99 bd
       -0.07754686 0.035058524 -0.02047625 -0.075136274
0000a0 58 79 82 bd 5d 36 86 3d 5e dc cc 3c ca 42 16 bd
       -0.06370801 0.06553338 0.025007423 -0.03668479
0000b0 3f 16 93 3d 74 a8 36 3d 6a e0 ad 3d 45 8a 4a 3d
       0.071819775 0.044594243 0.08490069 0.04944827
0000c0 b8 36 de bc 24 e4 27 bd fa 08 c1 3d ad 89 50 bc
       -0.027125701 -0.040989056 0.0942554 -0.012728137
0000d0 91 3e b5 3d c6 8d b9 3d 1c 93 db bd 5d ec 0f bc
       0.08849824 0.09060244 -0.10721418 -0.008784381
0000e0 04 fa 1d 3d 9f 61 64 bd 2a b7 f0 3d 8f 9f 89 bd
       0.03856851 -0.05575716 0.11753686 -0.067198865
0000f0 75 94 70 bd 13 d9 6e bd 6f 10 d7 bd d7 f5 64 bd
       -0.05873533 -0.058312487 -0.10501181 -0.055898514
000100 b1 e4 db 3d 4c 34 bd bc 46 23 cf 3d a3 c9 a6 3d
       0.10736979 -0.023096226 0.1011415 0.08143928
000110 35 59 fd 3d 08 40 a5 bc 6d 2d d2 3c 9c 48 0e bc
       0.123705305 -0.020172134 0.025656426 -0.008684304
000120 85 be fd 3c 94 21 d4 bd 34 d2 d4 bc 17 8f e6 bd
       0.030974636 -0.10357967 -0.025979139 -0.11257761
000130 fd 8b 35 3d d3 c3 dc ba 88 88 e4 bd 35 a6 bf 3d
       0.044322956 -0.0016843028 -0.11158854 0.09357873
000140 69 a2 e9 3c c3 fb 06 be 98 4d f0 bd fa da 9a 3c
       0.028519826 -0.13181977 -0.1173355 0.018903244
000150 d0 6d a9 3c 50 6f b9 bd a5 b8 48 bd d1 20 b5 3d
       0.020682245 -0.09054434 -0.049004216 0.0884415
000160 78 62 62 bd ca a4 ab bd 22 4c c8 3c 7b 64 9e bc
       -0.05526969 -0.083810404 0.024450365 -0.019335022
000170 9a 9a ff bd 98 a3 9b 3c e4 da 98 3c e0 9b 08 bc
       -0.1248066 0.018998906 0.018659063 -0.008337945
000180 7c c0 8a bd 1f a8 af bd c4 a4 52 bc 2c f5 e3 3c
       -0.06774995 -0.085769884 -0.012856666 0.027826868
000190 ca 6a 89 bc be e4 b9 bd a5 3c 4e 3d 7f d3 82 3d
       -0.016774554 -0.09076832 0.050350804 0.06387996
0001a0 d5 27 e3 3c c3 aa 03 3d dc cc be 3c 9e c6 60 bd
       0.027728954 0.032145273 0.023291044 -0.054876916
0001b0 3a 3e bf bd c8 ba c8 3d aa 81 b7 bc 61 d6 ae bc
       -0.09338041 0.09801251 -0.022400696 -0.021342458
0001c0 cf 8d 4c bd 80 f3 4c 3d 9c 83 ab 3d 33 b5 24 3d
       -0.049939927 0.050036907 0.08374712 0.040211868
0001d0 d6 cc 01 3e 8f 11 11 3c fe ff 72 bc 2c fb dd 3d
       0.12675795 0.008854284 -0.014831541 0.10838923
0001e0 f2 23 ec bc fa 48 a3 3b 46 46 e5 3d b7 b7 84 bc
       -0.028825734 0.0049830647 0.11195044 -0.016200883
0001f0 07 d2 7f bd e6 58 c3 3d 34 8c ce 3c 33 31 7e bd
       -0.062456157 0.095384404 0.025213338 -0.06205864
000200 bc 64 bc 3d f3 91 63 3d 98 7e 53 3c dd a0 c3 bd
       0.09198901 0.05555911 0.0129086 -0.095521666
000210 fc 25 a1 3d 4f 78 f9 3d b0 ef d7 bd a7 55 91 3d
       0.07868573 0.1218115 -0.10543764 0.07096415
000220 1e 09 c5 bd 95 f9 b5 3d f8 37 f8 3d 69 35 52 3d
       -0.096208796 0.088854946 0.1212005 0.051320467
000230 d5 f1 b6 bd b5 df 7d 3d 3f 16 fd 3d 28 9d e7 bc
       -0.089328445 0.06198092 0.12357759 -0.02827318
000240 ee 8e 73 bd c1 5c de bc 57 dd 7b 3d d5 9c cc bd
       -0.05946248 -0.027143838 0.061490383 -0.09990851
000250 00 9f 3c bd cf 5e c2 3c fa dd af bd de 3d a8 bd
       -0.04605007 0.023726849 -0.085872605 -0.08214925
000260 38 db 0d 3c 0c b7 98 bc b4 76 1b bd 74 7b 54 3d
       0.008658223 -0.018641971 -0.037955 0.051875547
000270 ae 41 6b 3d 4a 58 fb bd 8f bc d5 3d f1 58 e1 3d
       0.057435684 -0.12272699 0.10436355 0.11003292
000280 ad 9a 00 3e 71 ca 90 3d b6 90 4d 3d 16 59 25 3d
       0.12559004 0.07069863 0.050186835 0.040368162
000290 07 81 72 bd d0 9a 70 bd 88 66 8d bd ae 03 da 3c
       -0.05920508 -0.05874139 -0.06904322 0.026613083
0002a0 c2 59 05 be cf 05 0c 3d 6e 46 29 3c 95 35 9d 3d
       -0.13022521 0.034185227 0.010331733 0.076762356
0002b0 7e 65 d7 bd 02 f4 4b bd d5 ef d2 3c df 10 06 be
       -0.10517405 -0.04979325 0.025749126 -0.13092373
0002c0 09 f7 0a bd c1 b7 b4 3d 64 12 da bd e3 6e cc bd
       -0.033926997 0.08824111 -0.10648039 -0.099820875
0002d0 a9 3d 90 bc ea 01 c0 bd 6c 40 82 3c ee d2 a9 bd
       -0.017607527 -0.09375365 0.01589986 -0.08292185
0002e0 57 8d e6 3b 5e df 9c 3d c5 1b a3 bc f0 5e f0 bc
       0.007035892 0.076597914 -0.019910702 -0.029342145
0002f0 dc 4e e1 bd 3e e9 2d 3d e9 ce e4 bd 0a 19 dc ba
       -0.11001369 0.042458765 -0.111722775 -0.001679213
000300 61 5d ce 3c 3f 75 1a 3d 62 13 af 3d a5 96 f4 3d
       0.02519101 0.03770947 0.08548619 0.11942796
000310 54 f1 25 bd 9c 24 a6 3b 2c 57 77 3d 5b 05 d7 3d
       -0.04051335 0.005070282 0.060385868 0.10499068
000320 ab ca 07 3c d6 b5 68 3d 7b 41 31 3d d7 79 bd 3b
       0.008288066 0.056814037 0.043275338 0.0057823467
000330 fb d6 f4 3b c2 1d 57 3c 2e 9a a6 bd bf 59 64 3d
       0.0074719167 0.013129653 -0.08134876 0.05574965
000340 c2 65 d7 3c 17 82 bf 3b 6e b3 bb bd 0f ca dc 3c
       0.02629364 0.0058443653 -0.09165083 0.026951818
000350 11 20 c5 bd 1d 4a da 3d 4b 11 9f 3d 14 38 b6 bc
       -0.09625257 0.10658667 0.0776697 -0.022243537
000360 06 0c ad 3d 9a d7 0a 3d 79 5f 85 bd 36 53 9c bd
       0.08449559 0.03389702 -0.065123506 -0.07633059
000370 a9 48 27 bc 9b 86 ee bb 59 e7 ad 3d 5e 34 60 3d
       -0.010210195 -0.00727923 0.08491392 0.05473744
000380 3b a6 d5 bd 49 f3 fc 3d 3b 1e 45 bc 11 c7 e3 bd
       -0.104320966 0.123510905 -0.012031133 -0.11121953
000390 a5 94 9d 3d 64 78 a3 bd 89 c4 35 3b 32 68 83 3d
       0.07694367 -0.07981947 0.0027735552 0.06416358
0003a0 da d1 67 3d 26 26 dc 3d a6 e7 01 bc 75 84 b7 3d
       0.056596614 0.10749464 -0.007928764 0.08960811
0003b0 e4 f9 88 3b 99 75 b9 3d 98 07 80 bd cf 56 54 bd
       0.00418018 0.09055633 -0.062514484 -0.0518406
0003c0 65 e5 0d 3d 3d e8 da 3c 62 8a ae 3d bf ba ef 3d
       0.034642596 0.026722068 0.08522488 0.11705541
0003d0 3f d7 41 bc 73 e4 c6 39 00 07 d4 3d b3 8c 83 bd
       -0.011831104 0.0003793571 0.10352898 -0.064233206
0003e0 58 9c f6 3c 14 fa ff 3c 15 c6 e8 3d 6a 56 85 3d
       0.030103847 0.031247176 0.11365906 0.06510623
0003f0 c8 57 02 3e e9 39 72 3c ea 43 2f 3d dc 2e df bd
       0.12728798 0.014784315 0.042789377 -0.108976096
